modeldata/a11_Opt12k_cos_Aug_BitMnist_PerTensor_2bitsym_RMS_width96_96_96_lr0.001_decay0.1_stepsize10_bs128_epochs60.pth (torch, 178673 bytes, 4 tensors)

fc1.weight f4 [96, 256]
000000 61 9c 8f bd 74 6f b8 bd e3 e1 5e bd 21 fd ce bd
       -0.07012249 -0.09005633 -0.05441464 -0.10106874
000010 40 82 0c be 5d 2f 14 bd 84 5b a6 bd 82 30 08 be
       -0.13721561 -0.03617798 -0.08122924 -0.13299754
000020 48 25 d2 bd 28 53 72 bd d7 ec 18 be 9c 32 9a bd
       -0.10261017 -0.059161335 -0.14934097 -0.07529184
000030 b0 8f b1 bc 46 ba cd bd c1 a2 91 bd 40 f6 ac bd
       -0.02167496 -0.100452945 -0.07111121 -0.08445406
000040 4c b6 f1 bd bd 2c 05 bd 87 86 80 bc af 21 df bd
       -0.118023485 -0.03251337 -0.015689148 -0.108950965
000050 f0 99 cd bd 8e c5 e4 bc 82 f7 24 3d 0c d2 5e bb
       -0.10039127 -0.027926233 0.040275104 -0.003399971
000060 e5 73 f5 bd 06 7f a3 bd 38 7a ea bd b1 f4 82 bd
       -0.11984996 -0.07983212 -0.114490926 -0.063943274
000070 d3 32 59 bd a0 bb 1c bd b0 9f 3a 3c fc 1b c5 bc
       -0.053026985 -0.03826487 0.0113906115 -0.024061196
000080 94 b1 7c bd 6d e2 e3 bd 05 8b 9d bc 88 7b a6 3a
       -0.06169279 -0.11127172 -0.019231329 0.001270161
000090 5f 30 89 3a d7 c5 49 3c d5 32 87 3d 0f fa 73 3d
       0.0010466686 0.012315235 0.06601492 0.059564646
0000a0 e4 dd be 3d 41 ee ff bb 61 86 c5 bd 7d f1 00 bd
       0.09319666 -0.0078103845 -0.09644771 -0.0314803
0000b0 e1 a6 c8 bd da c4 ea 3d e0 6d ab 3c b0 5b 60 bc
       -0.097974546 0.11463328 0.020926416 -0.013693735
0000c0 26 af a4 bd 7b 40 72 3b 20 b8 0a bd 9e ee 48 bd
       -0.080412194 0.0036964703 -0.033867 -0.049055688
0000d0 1a e0 81 3c d4 34 ec 3b 93 ae c9 3d 3f 75 d9 bc
       0.01585393 0.007208446 0.098477505 -0.026545165
0000e0 11 80 15 bd a8 cb 29 be bc 2f 0b be 30 38 98 3c
       -0.036499087 -0.16581595 -0.13592428 0.01858148
0000f0 bf d9 9f bc 1a 38 0b 3e 97 cf fb 3d a3 56 65 bd
       -0.01951301 0.1359562 0.12295454 -0.055990826
000100 48 97 8d bd 27 8a a8 bd 23 6e a8 3d df 92 bd 3c
       -0.0691362 -0.082294755 0.08224132 0.023141323
000110 a1 21 f9 bc 5b 76 a1 bd 2a e3 7a 3c 16 ab 07 3e
       -0.030411543 -0.07883903 0.015312949 0.13248858
000120 89 0b af bc 30 eb 97 be e2 d7 b8 bc c2 80 cf 3d
       -0.021367805 -0.2967162 -0.022563878 0.101319805
000130 a6 3d 12 3e f1 8e 0b 3e 00 9a 5b 3d 5e 86 8e bd
       0.1428133 0.13628747 0.053613663 -0.06959222
000140 d0 d2 05 be 3d 47 af 3c ce 7e 9b 3d 6c 94 c6 bd
       -0.130687 0.021396274 0.075925454 -0.09696278
000150 73 f6 66 bb 81 c3 da bd 98 04 99 bb 67 4b 03 be
       -0.003524211 -0.10681821 -0.004669737 -0.12821732
000160 40 b4 db be c1 72 0c be 70 71 8e bb 24 47 8d 3d
       -0.42910957 -0.1371565 -0.004347019 0.068983346
000170 80 e2 6d bb 6d ca 5c bc 39 3d 90 bb e6 a4 07 bd
       -0.0036298335 -0.013475996 -0.0044018296 -0.033116244
000180 a3 7e 07 be 66 eb 23 bb af 15 bc bd 03 8d 1a be
       -0.13231902 -0.0025012135 -0.09183823 -0.15092854
000190 ee 75 f1 bb f9 2e 41 be 5b 5f c3 be df c0 09 bf
       -0.0073687946 -0.18865575 -0.38158688 -0.5380992
0001a0 21 e1 41 be f4 5c 0d 3e ee a5 35 3e 2d 36 66 3e
       -0.18933536 0.1380499 0.17739078 0.22481604
0001b0 51 c8 58 3d 29 f9 64 3d 4c e6 f6 3c 1b 8d 4f bd
       0.05292541 0.05590168 0.030139111 -0.050671678
0001c0 32 2c 0d be 51 e2 9a bd ec 8e 7e bc a1 98 d7 bd
       -0.1378639 -0.07562698 -0.015537005 -0.105271585
0001d0 1c c6 e5 ba e1 9b 52 be 92 07 91 be 66 55 09 bf
       -0.0017530355 -0.20567276 -0.28326088 -0.5364593
0001e0 81 86 b3 be b8 af db bb ae 22 45 ba e6 78 ce bc
       -0.35063556 -0.006704297 -0.0007520121 -0.025204133
0001f0 c8 2f 42 3d 79 89 67 3d da b3 f7 3b f9 f8 80 3b
       0.04740885 0.05652759 0.007559282 0.00393593
000200 04 6b a1 bd cd b5 8e bc d3 8f cf bb b8 a6 3c 3d
       -0.0788174 -0.017420674 -0.006334284 0.046057433
000210 df 0f 41 3d d3 35 25 3d be 2a 0b 3e c7 df 13 be
       0.047134276 0.040334534 0.13590524 -0.14440833
000220 8b 59 dc be d3 8b f0 be cf b0 1f bf 51 29 eb be
       -0.43037066 -0.46981677 -0.62379164 -0.4592996
000230 31 de 8d be d7 1e 29 be f4 7b 90 be 83 a8 2c be
       -0.2770858 -0.1651567 -0.2821957 -0.16861157
000240 08 81 73 bc a7 97 6b 3d 48 8d f6 3d a3 cf a6 3d
       -0.014862306 0.057517674 0.12038666 0.08145072
000250 a8 9e a3 3d 8d 52 fe 3d 79 4f b0 3e b7 99 b0 3e
       0.07989246 0.12418089 0.34435633 0.34492275
000260 e2 ae 82 be 19 26 39 bf 8a 43 71 bf 8e d6 2f bf
       -0.2552405 -0.7232376 -0.9424368 -0.6868676
000270 07 90 ef be 0f 2d de be c1 48 c5 be 09 f9 1c be
       -0.46789572 -0.43393752 -0.3853207 -0.15329374
000280 6c 72 37 3a b4 5e 1c 3e d7 73 ab 3d 8c 4c c0 3d
       0.0006997946 0.15270501 0.08371704 0.093896
000290 b4 d6 60 3d 05 c1 49 3d 58 78 33 3f ec 22 4c 3f
       0.054892257 0.049256343 0.70105505 0.79740787
0002a0 d9 4e 54 3e ce 2c 1e be c8 c4 ce be 43 ef c1 be
       0.20733203 -0.15446779 -0.40384507 -0.37877855
0002b0 88 35 97 be fd 28 bc be 8f 5a ac be d1 cf 6a be
       -0.2953303 -0.36750022 -0.3366284 -0.22930838
0002c0 93 1a 0e 3d f3 02 12 3e 8d 79 62 3d 21 d7 9e 3c
       0.034693312 0.14258938 0.0552917 0.01938969
0002d0 aa 4d c3 bc cb 9c 90 bc 15 bf 12 3e 7c 87 a2 3e
       -0.023840744 -0.01765289 0.14330705 0.3174399
0002e0 f0 cb c0 3e ff 24 2e 3e 53 40 45 3e ca 41 6b bc
       0.37655592 0.170063 0.19262819 -0.014358947
0002f0 65 21 43 be bc 16 a8 be 69 fd 80 be 63 13 0f be
       -0.19055708 -0.32829845 -0.25193337 -0.13972239
000300 1f 1f c5 3c a8 e5 19 3e bc ed c5 3d 14 29 98 3d
       0.024062691 0.15029013 0.09664485 0.0742971
000310 ae b7 b4 3d d0 74 0b 3e 0f 64 98 bb 9b 13 a2 3d
       0.088240966 0.13618779 -0.0046506 0.07913896
000320 8e d3 59 3e d3 7c 0f 3e 70 67 01 3f ac fe 91 3e
       0.21272108 0.1401246 0.5054846 0.28514612
000330 24 d4 02 3e 41 99 82 3c aa 93 d6 bd 12 95 fa bd
       0.12776238 0.015942218 -0.104773834 -0.12235464
000340 7b 4d 65 3d f5 7d 02 3e c2 db 86 3e f0 52 07 3e
       0.055982094 0.12743361 0.26339537 0.13215232
000350 8e db ff 3d a8 51 12 3e bc 47 f8 3d 31 8b 5d 3d
       0.124930486 0.14288962 0.12123057 0.05408782
000360 ec 17 fa 3d 06 9f 8c 3e bc b6 0f 3f bf 5d eb 3e
       0.12211594 0.27465075 0.56138206 0.4596996
000370 dc d2 c7 3e 57 51 85 3e 73 3f b0 3d 0a bd e3 bd
       0.3902806 0.2603862 0.08605852 -0.11120041
000380 19 bd 32 3d 29 38 63 3c 9e 8c 04 3e fe 4e b9 3d
       0.04363737 0.01386837 0.12944266 0.0904827
000390 c6 92 2e 3e 76 80 06 3e 8d 3f 11 3e 7a fd 0b 3e
       0.17048177 0.13134941 0.14184399 0.13670912
0003a0 7e fd 8c 3e 95 c5 99 3e 47 96 dd 3e 12 37 8d 3e
       0.2753715 0.30033556 0.43278715 0.27581078
0003b0 42 08 82 3e e3 81 5a 3e b3 ce 7e 3c 67 02 28 bd
       0.25396925 0.2133861 0.015552211 -0.041017916
0003c0 df ff 75 bd 4e 38 c2 3c 1f fe 8a bd 03 57 4d bc
       -0.06005847 0.023708489 -0.06786751 -0.012532952
0003d0 e7 85 ad bd f0 c0 97 3b 24 f7 d1 3d b7 1e 44 3e
       -0.084728055 0.0046311542 0.102522165 0.19152342
0003e0 90 f9 0f 3e 66 f5 05 3e ec b9 0e 3e 34 d2 38 3e
       0.14060044 0.13081893 0.13938111 0.18048936
0003f0 88 de 1c 3e 7a ea 1a 3c 6e 78 98 3c b7 1e ac bc
       0.15319264 0.009455318 0.018612113 -0.02101074

fc2.weight f4 [96, 96]
000000 11 6b 13 3e fe 5c c2 be b2 ef c6 bc 14 d1 51 be
       0.14396311 -0.37961572 -0.024284218 -0.20489913
000010 ee f4 52 3e c8 d1 3c 3e e3 7c 53 be 28 7e 5c 3e
       0.20601246 0.184394 -0.20653109 0.215325
000020 29 42 8c be d3 d8 bc bd 1e 0c 0d 3f b6 e8 1f be
       -0.27394226 -0.092210434 0.55096614 -0.15616116
000030 07 50 91 3e 3f 11 53 3e 31 18 81 3e 33 44 1f 3e
       0.2838137 0.20612048 0.2521377 0.1555336
000040 a8 ab 48 be bd 19 bb 3d 41 3a a7 3e 3a b5 03 3f
       -0.19596732 0.091357686 0.32661632 0.51448405
000050 ff 94 ac 3c c0 42 a1 bc f2 d0 96 be a0 06 89 3d
       0.02106714 -0.01968515 -0.29456288 0.06690717
000060 ec 7f 4e 3e 14 c9 26 3c 97 ff 61 3e 8c 6f f1 3d
       0.20165986 0.010179777 0.22070156 0.11788854
000070 44 6c de 3e 41 6c 26 3e fa ca b7 3e 71 c9 82 3e
       0.43441975 0.16252233 0.35897046 0.25544313
000080 dc 53 74 bd b4 c2 53 be 3a 8f 4c 3e 07 04 95 37
       -0.059650287 -0.20679742 0.19976512 1.776406e-05
000090 04 6d 99 3a 7a b4 52 be c0 20 81 bd 8f 56 1d 3e
       0.0011705463 -0.20576659 -0.06305075 0.1536505
0000a0 15 4d 8c be ec c2 9e be e8 3a b5 be 67 28 78 3e
       -0.2740256 -0.3100809 -0.35396504 0.24234162
0000b0 5b e7 bd 3e b2 e7 fa bc 46 b0 5c bd 3d 5d 48 bf
       0.37090573 -0.030628059 -0.053879045 -0.7826727
0000c0 b2 67 0f be 5e e8 52 3e d0 f8 8c 38 22 34 87 3e
       -0.140044 0.20596454 6.722065e-05 0.26406962
0000d0 14 02 50 3e 1f 10 c7 3d c7 35 20 be 6d 7b 6c 3e
       0.20313293 0.09719872 -0.15645514 0.23093958
0000e0 7f 7b b2 3b cd 63 61 be 42 82 89 be a8 6a 95 3e
       0.005446851 -0.22010727 -0.2685719 0.29182935
0000f0 85 9f 0b bf d3 bf 53 3e 5b 6c 93 be 03 b7 32 3e
       -0.5454028 0.20678644 -0.28793606 0.17452626
000100 c1 c2 52 3e 01 29 16 be e6 42 cd 3d e8 d0 36 be
       0.20582105 -0.14664079 0.100225255 -0.17853129
000110 5e 3c bb 3d ae 46 05 bf 38 cb 53 be e8 9c 42 be
       0.091423735 -0.52060974 -0.2068299 -0.19005167
000120 12 a4 47 bc de 0b 41 be a6 85 7e 3e f1 4f ca be
       -0.0121851135 -0.18852183 0.2485567 -0.39514115
000130 6e ec 55 be c9 21 6a bd 22 c5 02 3f 7b cc a5 be
       -0.20890972 -0.057161126 0.5108205 -0.3238257
000140 cc 57 14 bd 7f d4 86 be e7 b1 aa bc ed 06 5a 3e
       -0.036216542 -0.26333997 -0.020836784 0.21291704
000150 bb fe 49 3e eb 0b 46 bf c4 a0 18 3e 5d 60 3b 3e
       0.19726078 -0.77361935 0.14905077 0.18298478
000160 37 93 84 bd 1f 2e 96 3e f2 20 1c 3d 3e 0f 31 3f
       -0.064733915 0.29332063 0.038117357 0.6916388
000170 f5 72 3b be b5 7a 40 3e 2f 79 8f bb e4 f4 f8 3b
       -0.18305571 0.18796809 -0.00437846 0.0075975526
000180 90 4e 70 38 ca c3 fa be 5c a6 f4 39 d2 09 3d 3e
       5.7293626e-05 -0.489775 0.00046663254 0.18460777
000190 e2 7c e0 3d 82 2d c0 3d a0 48 0e be 7b 8f 25 3e
       0.109613195 0.0938368 -0.13894892 0.16168015
0001a0 ae 5a 07 ba 75 f6 5b be 73 27 03 3e 56 5c 11 bd
       -0.00051633536 -0.21480735 0.12808017 -0.03548845
0001b0 21 c0 cf 3e 16 fa 2f 3e 49 09 2b 3e 03 f5 6c 3e
       0.4057627 0.17185244 0.16702761 0.2314034
0001c0 e2 dc 5b 3e 6b 33 cf 3d a2 38 bb 3e 65 97 83 bc
       0.21470979 0.10117229 0.36566645 -0.016063401
0001d0 ff b9 1f 3e 8d fc 44 be 24 5a 12 bf 44 8d b1 bd
       0.15598296 -0.19236965 -0.57168794 -0.086695224
0001e0 3c 78 97 bd c2 8e 8d 3d a6 dd 0c be 92 c2 68 bc
       -0.0739598 0.069119945 -0.13756427 -0.014206545
0001f0 2d 87 ab bd b9 26 cb ba 21 9d 30 3e 4a 6a 6a 39
       -0.08375392 -0.0015499211 0.1724744 0.00022355575
000200 eb 9d 31 3e 58 08 6f be c6 7a d3 3d d5 1a 88 be
       0.17345397 -0.23343027 0.103261515 -0.2658297
000210 6b 30 51 be c1 d8 47 be 84 45 53 bf f3 bc 44 3e
       -0.20428626 -0.19516279 -0.8252795 0.19212703
000220 df a2 8c be 8b 03 32 3d 67 27 af 3e 19 12 53 3e
       -0.2746801 0.04346041 0.3420975 0.20612372
000230 b7 72 5c be e1 1c 58 be 2a d1 0c bd 3a f7 14 bf
       -0.21528135 -0.21104766 -0.034379162 -0.5818974
000240 85 15 01 3e b2 58 13 3e 57 fe 76 3e 4d 3b 08 3e
       0.12605865 0.14389303 0.2412046 0.13303871
000250 c4 63 d6 be 0a ea 51 3c 00 19 2d be 0e 04 7e bd
       -0.4187299 0.012812147 -0.16904068 -0.062015586
000260 7d d4 cd bd 67 9c 10 3e d5 d0 12 be 43 1f c5 3e
       -0.100502945 0.14122163 -0.14337476 0.38500413
000270 98 e3 a2 be eb ec 42 bb be 3d e2 be d2 02 6a bd
       -0.31814265 -0.0029743265 -0.4418773 -0.057131596
000280 09 b4 df bd 4b 73 4f bc 66 0f 53 3e f0 af af be
       -0.10923011 -0.012661765 0.20611343 -0.34313917
000290 ac 45 db bc a9 70 a6 be ff a5 35 3e 81 16 32 be
       -0.02676662 -0.32507828 0.17739104 -0.17391397
0002a0 e5 8e e8 bc 52 e5 42 3e 0e 9a 47 ba 49 3f 0a 3e
       -0.02838845 0.19032791 -0.00076142035 0.13500704
0002b0 d3 a3 0d 3e bf 0f 78 bd 46 a6 e8 3d 11 59 25 3e
       0.13832025 -0.06056189 0.11359839 0.16147257
0002c0 c7 05 e3 3d 36 58 49 3d 92 2a 3f 3d 0c c0 98 be
       0.11085086 0.04915639 0.046671458 -0.2983402
0002d0 16 65 37 be 10 f0 a4 be fc 84 00 be af ea bd 3b
       -0.17909655 -0.32214403 -0.1255073 0.0057957987
0002e0 a0 dc 1e bf 95 dc a1 be ef de 5a be 89 04 93 3e
       -0.620554 -0.31613603 -0.21374105 0.28714398
0002f0 d9 3c ed 3d 10 72 88 3d 71 28 6e 3e 89 1a 28 3e
       0.115838714 0.06662381 0.23257615 0.16416372
000300 99 bf c4 3e 7a 32 7f 3d e7 cf c4 3d 9f 3e eb bd
       0.38427427 0.062303998 0.09609967 -0.114865534
000310 10 e2 56 be f0 49 10 be 6a 83 c2 bd 86 ba 2a bc
       -0.20984674 -0.14090705 -0.094977215 -0.010420447
000320 a5 9e 97 3c 2a 70 6c be df 4c 06 be 57 f4 ab be
       0.018508265 -0.23089662 -0.13115261 -0.33584854
000330 1b bb e0 bc 6f 81 13 3b 35 f3 1f 3e 32 36 be 3c
       -0.027432969 0.0022507568 0.1562012 0.023219202
000340 fc d9 52 3e 92 bc 6a 3e ff 18 68 3c a9 5a 07 bf
       0.20590967 0.22923496 0.014166116 -0.5287271
000350 2f 1e 61 be 3b 13 b7 be 61 f1 c2 be 24 28 4f 3b
       -0.2198417 -0.3575686 -0.38074782 0.003160962
000360 59 4a 89 be 18 92 94 3c 6a 2f 01 be 7d 4c 07 be
       -0.26814535 0.01813607 -0.12615743 -0.13212772
000370 d3 b2 a4 3d 9e 2d a2 3d 10 cd 8a 3e 4a d7 38 bf
       0.080419205 0.07918857 0.27109575 -0.72203505
000380 0b 0e d8 be 89 94 38 3b 53 03 a2 3e 9c a0 8c 3e
       -0.42198214 0.0028164706 0.3164316 0.27466285
000390 d8 a6 f2 3e 7a 3b cb bb 7e 7a 06 be aa 75 33 be
       0.47392917 -0.0062021585 -0.13132665 -0.17525354
0003a0 e9 49 70 3e 0b b3 05 bf f3 df c3 3d 7c 2d e1 bd
       0.23465694 -0.5222632 0.09564199 -0.109950036
0003b0 70 81 fd 3d 16 04 3b bb 34 8a 45 3e b1 97 97 3c
       0.12378204 -0.002853637 0.19291002 0.01850495
0003c0 41 e3 0e bf 76 ce 5f 3a e7 21 47 be 08 2e 17 be
       -0.5581551 0.000853754 -0.19446526 -0.14763653
0003d0 75 11 82 3e ab 91 14 bf bb 91 16 3e fc 38 bd be
       0.25403944 -0.5803477 0.1470403 -0.36957538
0003e0 99 07 72 be 18 20 8b 3c ce db 4e 3e 36 89 7c 3c
       -0.23635711 0.016983077 0.20201036 0.015413573
0003f0 56 5f a6 3d 22 5d b9 3e 52 2d 40 3d 45 6d bc 3e
       0.08123653 0.36203867 0.04691822 0.36802116

fc3.weight f4 [96, 96]
000000 8e ab 1b 3e c6 4f 2f 3e f2 3e 1d be c9 ea 9c be
       0.15202162 0.17120275 -0.15356043 -0.30647877
000010 2b cb 05 be 32 b0 e3 3d 6e b3 62 3e 9c fb d3 3d
       -0.13065784 0.11117591 0.2213876 0.10350725
000020 d6 d0 27 3e f5 eb 5d 3e b9 d3 2d 3e ae a1 87 3c
       0.16388258 0.21672042 0.16975297 0.016556587
000030 c7 9b 2f be 3b 61 13 ba 01 03 ca bd 0a 5c 46 be
       -0.17149268 -0.00056220934 -0.09863854 -0.19371048
000040 68 f6 b9 bd f0 04 39 bc 0c a6 3b be 96 f1 dd be
       -0.090802014 -0.011292681 -0.1832506 -0.43348378
000050 21 36 24 bd 0d 78 b0 be d5 1b 47 3e d8 19 80 3a
       -0.040090684 -0.3446659 0.19444211 0.0009773327
000060 8f 3e 21 bf dd 92 b6 be 21 e5 93 3d 07 22 f1 bc
       -0.6298608 -0.35658923 0.07221437 -0.02943517
000070 c8 44 8a ba a0 bc 58 3d e4 c4 83 3e 07 cc e7 bd
       -0.0010549063 0.05291426 0.25736153 -0.11318212
000080 2a 3a 72 be 2d 5d 7c bc 2d b8 1c 3e ea 99 67 3e
       -0.23655 -0.015403074 0.15304632 0.22617307
000090 ea 4c 2a be a8 b0 cb 3c ac 0c 3b bd c4 3a c5 3e
       -0.16630903 0.02486451 -0.04566638 0.38521397
0000a0 49 fa 91 3d 5e ed be bb d4 b2 f2 bc 15 3d 34 be
       0.07127816 -0.005826636 -0.029626288 -0.17601426
0000b0 1f 27 5a be 37 e8 59 be 23 75 3f bd 63 f5 62 3d
       -0.21303986 -0.21279989 -0.04674257 0.0554098
0000c0 29 57 3d 3e d9 e1 fd bd 94 7e 29 bf 93 7d 9b 3b
       0.1849028 -0.12396593 -0.6620877 0.004745194
0000d0 d2 f5 2d be f5 3b fb be a3 f2 c5 bb fb 81 35 3e
       -0.16988304 -0.4906918 -0.0060408874 0.17725365
0000e0 04 0e d1 bc 7b 33 30 3e ea f2 ca be 6a 27 ef bc
       -0.025519378 0.17207138 -0.39638454 -0.029193599
0000f0 b8 f3 ad be eb 91 a0 3d f2 ed 6d be ad 6a 48 bd
       -0.33975005 0.07840332 -0.232353 -0.04892986
000100 b6 a4 1c be 55 d3 4c 3e f6 1a 7f 3e cb e3 9e 3d
       -0.15297207 0.20002492 0.24912629 0.07758292
000110 b2 6b ea bd 67 c7 ac be 85 c5 96 39 d7 c6 d7 ba
       -0.114463225 -0.33745882 0.00028757393 -0.0016462457
000120 c7 88 c1 3d cf 90 c4 3e eb 26 b9 3d f8 1b 5e bc
       0.09449916 0.3839173 0.09040626 -0.013556473
000130 31 51 ed be a9 64 3c 3c af e6 98 be 7f f0 24 be
       -0.46351007 0.011498609 -0.29863498 -0.16107367
000140 10 63 39 be 5e bc 0c b9 3b 77 85 3d 78 97 82 3d
       -0.18104196 -0.00013421613 0.06516882 0.063765466
000150 f7 73 14 bc 77 eb 10 bc 06 cc d5 3d ac aa 74 3e
       -0.009060851 -0.008845202 0.10439305 0.23893231
000160 72 37 76 bd 24 f8 09 be 7b e5 2a be 81 a5 2f be
       -0.06011147 -0.13473564 -0.16689102 -0.17152978
000170 10 ad e4 3d 59 e0 51 bd ac 50 85 3e bf 8e 32 bb
       0.111658216 -0.051239345 0.2603811 -0.0027245728
000180 5f e1 b5 3d d9 d3 8a 3e 48 0e 48 be 24 cd a0 be
       0.08880877 0.27114752 -0.19536698 -0.3140651
000190 52 94 a1 3a c6 4d c4 3c a8 08 e7 bc 76 18 91 be
       0.0012327528 0.023962867 -0.02820237 -0.28338975
0001a0 ce 8b 22 3e 0d ba 5f 3e 39 bb de be 14 34 1d bf
       0.15873644 0.21848316 -0.43502215 -0.6140759
0001b0 a2 57 88 3c d5 7e 81 be 21 3e 9f 3e cc 6d 31 be
       0.01664335 -0.25292078 0.31102088 -0.1732704
0001c0 6d e8 b9 ba ef 32 2b 3e d2 19 9b 3e 33 f1 84 ba
       -0.0014183648 0.16718648 0.30293137 -0.0010142684
0001d0 31 1b 1a be c1 d8 b3 3d e4 12 4a bc 10 24 f1 3c
       -0.15049435 0.08781577 -0.012333605 0.029436141
0001e0 26 1a 46 be 4b d4 48 3e dd 4c 2e 3e 32 49 02 3c
       -0.19345912 0.19612233 0.17021509 0.007952021
0001f0 81 a0 07 3e c8 96 9e bd 62 63 97 bb 0b e5 6e 3e
       0.13244821 -0.07743603 -0.0046200017 0.2332956
000200 53 b7 ba be 34 c7 27 3e 81 46 25 3e ce 7d fe bd
       -0.3646799 0.16384584 0.16140176 -0.12426339
000210 24 f0 9f be b8 82 8e be 09 16 8e 3e 6a 0e 01 be
       -0.312379 -0.27834105 0.27751186 -0.12603155
000220 b0 3b 94 3e 4f f2 fd 3e 46 da 04 bc 50 d3 24 3e
       0.28951788 0.4959893 -0.008108681 0.16096234
000230 a0 61 b3 bd 1b bf 41 3d 40 28 31 be da a5 8d be
       -0.08758855 0.047301393 -0.1730051 -0.27665597
000240 94 56 38 3e 2c 22 eb 3d 68 5f bd 3d 8e 90 2f 3e
       0.18001777 0.11481127 0.09246713 0.17144987
000250 0f 63 b9 be 9b 57 37 3e cf 36 31 be ab b6 cf 3d
       -0.36208388 0.17904513 -0.17306064 0.10142263
000260 47 40 fc be e0 5b c4 bc 1f f0 a4 be 4e 43 86 3e
       -0.4926779 -0.02396959 -0.32214448 0.26223224
000270 a0 5d f1 3d a0 2f a7 be d1 81 04 3f b7 b2 bf bd
       0.11785436 -0.32653522 0.51760584 -0.09360259
000280 91 2c 59 39 e0 05 d4 bd dd 81 dd 3b 74 39 da 3d
       0.00020711335 -0.10352683 0.0067598657 0.106554896
000290 92 2a f5 be 46 06 01 3e 0a d9 a9 bc c5 1b fd 3e
       -0.4788404 0.1260005 -0.020733375 0.4943525
0002a0 dc 89 d5 3e 07 66 44 bc 45 c5 7a b9 93 a5 ad be
       0.4170674 -0.011987216 -0.00023915347 -0.33915386
0002b0 4d b4 05 be 1e c4 fe b6 19 ad 0c 3d 57 73 c7 b7
       -0.1305706 -7.592621e-06 0.034344766 -2.3776358e-05
0002c0 f8 b8 64 bd 97 4a 99 be 7b 58 32 bd 4f 0f b5 be
       -0.055840462 -0.2993972 -0.043541413 -0.35363242
0002d0 fd 23 25 bd 6f 6f c5 be ff d8 1d be f1 dd 45 3e
       -0.040317524 -0.3856158 -0.15414809 0.19322945
0002e0 cf 9c 30 be 3d c6 c4 bd 4d 83 40 3e 81 4d 04 be
       -0.17247318 -0.096081235 0.18800087 -0.1292019
0002f0 0f a9 38 3e d9 20 41 bc 7c f9 5b be 04 b4 be 3e
       0.1803324 -0.011787617 -0.2148189 0.37246716
000300 13 6c 12 be 0c 3e 4a be 2d db 02 be 47 a3 05 be
       -0.1429904 -0.19750232 -0.12778921 -0.13050567
000310 dc 9b b7 be c8 89 6f 3b a8 96 0d bf 91 3e a8 be
       -0.358611 0.003655063 -0.5530801 -0.32860234
000320 60 9b e8 bd 0e 15 c8 3b e7 f0 1d bd f6 29 33 bf
       -0.113577604 0.0061060255 -0.03855982 -0.699859
000330 42 69 35 be 4b f3 2f be c0 a7 45 3e 69 0b ab 3d
       -0.17715934 -0.17182653 0.19302273 0.08351786
000340 32 32 d3 bd 9d f5 90 be 79 76 91 bc 80 dc 7f 3e
       -0.10312308 -0.28312388 -0.017756687 0.24986458
000350 0e 6b 81 be 04 a5 30 be 73 cb 01 3e fb 48 2e be
       -0.2527699 -0.17250448 0.12675266 -0.17020027
000360 95 57 26 3e 82 e5 32 3d c6 31 42 be 52 a6 eb 3d
       0.16244347 0.043675907 -0.189643 0.115063325
000370 31 b2 88 3e 11 5e c4 3d 75 4c 6a bc a3 a7 3a 3e
       0.2669845 0.09588254 -0.014300455 0.18228011
000380 d1 a8 16 3e c3 e2 6b be 6b 88 a3 ba 77 d2 54 be
       0.14712836 -0.23035721 -0.0012476569 -0.20783411
000390 6c f9 0b bc 87 cd 1c bd ea 9f 30 3e cd 9d de bb
       -0.0085433535 -0.038281944 0.17248502 -0.0067937137
0003a0 c2 79 2b be 71 02 43 be 89 8b 63 3e da a0 04 3e
       -0.16745666 -0.190439 0.22221197 0.12951985
0003b0 4a 4f f5 3e 1f c7 30 be 86 82 1b 3e 43 8b 5b be
       0.47912055 -0.17263459 0.1518651 -0.21439843
0003c0 19 96 33 3c 74 ae a6 be ae 99 89 bc 68 c5 19 be
       0.010961079 -0.32554972 -0.016796913 -0.15016711
0003d0 08 1a 51 bd 75 87 e9 bc 15 46 31 be aa 0a fc bd
       -0.051050216 -0.028506974 -0.1731189 -0.123067215
0003e0 43 d0 29 be 67 eb 10 bd 65 e7 2f 3e 77 0a 00 3e
       -0.16583352 -0.035380747 0.17178114 0.12503992
0003f0 68 fd 85 be f3 bd 8d 3d d6 2b 91 bd e2 d5 5c be
       -0.26169896 0.069209956 -0.07088439 -0.21565965

fcl.weight f4 [10, 96]
000000 d8 47 6f be 98 eb a8 3e c0 37 86 3d 27 e5 a7 be
       -0.2336725 0.32992244 0.06553602 -0.32792017
000010 18 49 0c 3e ee b8 76 bf 72 0b 5d bf 74 2e 01 bf
       0.13699758 -0.9637593 -0.8634559 -0.50461507
000020 33 68 1d bf 9f b4 33 be 49 3c 63 3d c6 a7 88 be
       -0.6148712 -0.1754937 0.055477414 -0.266905
000030 24 30 08 3e be bf 8b 3d c9 ab 17 bf c5 62 15 bf
       0.13299614 0.06823681 -0.592465 -0.58353835
000040 f1 55 8e 3e 5b 75 02 3e 3d 8b 02 3e 17 7a 9c be
       0.27799943 0.1274008 0.12748428 -0.30561897
000050 98 8f 8c be 4b 7e 80 3e 98 a4 19 3e fd 8d 51 be
       -0.27453303 0.25096354 0.15004194 -0.2046432
000060 87 ea 04 bf d9 7a e5 be 00 88 8e 3e 4a 95 6d be
       -0.5192036 -0.44820288 0.27838135 -0.2320148
000070 77 53 aa 3e c1 c7 1c bf 66 32 47 3e a6 09 77 3f
       0.33266804 -0.612423 0.19452819 0.964991
000080 a7 ea 11 3e 5e 49 2b 3c 72 7c 51 be f3 75 30 3e
       0.14249669 0.010454504 -0.20457628 0.17232494
000090 73 f1 ca bd f7 fe dd be 94 f7 1c bf be 47 da 3e
       -0.09909334 -0.43358585 -0.61315274 0.4263286
0000a0 5b c3 54 bc 0a 7e 88 3e 70 c3 88 3e 42 76 47 be
       -0.0129860295 0.2665866 0.26711607 -0.19478706
0000b0 03 96 d2 bd 07 6e f2 be 37 69 80 be 2f 8c 53 be
       -0.10282519 -0.4734957 -0.25080273 -0.20658945
0000c0 39 17 44 bb 83 26 09 bf 32 cc 96 3d 38 b8 57 3e
       -0.0029921068 -0.5357439 0.07363166 0.21066368
0000d0 5d a9 88 3e 57 1f 77 bd d7 d0 10 be a8 c7 99 be
       0.26691714 -0.060332622 -0.14142166 -0.30035138
0000e0 bb 6a 88 be b6 0a 40 bb 00 b7 dc be 75 84 7e 3e
       -0.2664393 -0.002930326 -0.43108368 0.24855216
0000f0 03 f8 97 bf 16 8c 21 bf f6 ed 7f 3d a9 c1 82 be
       -1.1872562 -0.6310438 0.062482797 -0.25538376
000100 ed f2 0c 3f 87 03 49 bf 68 be bd be ab 97 df be
       0.55058175 -0.7852101 -0.3705933 -0.436704
000110 41 05 10 bf 8b 6e 7e be cf 54 ef be 4c 7f b9 bd
       -0.56258017 -0.24846856 -0.4674439 -0.09057483
000120 c9 fc 8b be e4 c8 bb 3e ad 2d 06 3b e1 ad 78 be
       -0.27341297 0.36676705 0.0020474002 -0.2428508
000130 6e de 4b 3f c8 66 f8 bd 61 94 01 3d b8 5a cf 3d
       0.79636276 -0.12128979 0.031635646 0.10124725
000140 50 6c cf be c1 a9 88 be 35 83 c0 be a4 12 94 be
       -0.40512323 -0.26692012 -0.37600103 -0.28920472
000150 59 6e c4 be 0d c4 84 bf cd 7b c4 b8 56 9b 30 bf
       -0.3836544 -1.037233 -9.369068e-05 -0.68987024
000160 16 5f 6d 3e dc eb 01 3f 88 df cf b9 76 0b 05 bf
       0.23180804 0.5075052 -0.0003964866 -0.51970613
000170 88 19 35 3e 99 23 d8 bb 82 fe 70 3e 38 21 37 bf
       0.1768552 -0.0065960404 0.23534587 -0.7153506
000180 12 21 8e be aa 13 ae be 16 a7 19 bf c0 1f 0f be
       -0.27759606 -0.33999377 -0.6002058 -0.13976955
000190 a7 bf 5b be 4a 5b f8 bd eb 4f 87 bd f2 cc b7 be
       -0.21459828 -0.12126787 -0.0660704 -0.35898548
0001a0 66 25 be 36 9a 2a 37 bf 1d a1 99 bd d1 70 9e be
       5.666795e-06 -0.7154938 -0.07501433 -0.30945447
0001b0 ec 76 86 be 08 ed ee bc 7e cc 12 3f 01 d0 81 be
       -0.26262605 -0.02916576 0.5734328 -0.25354007
0001c0 7f ed 26 bf 72 51 a9 3c 81 23 39 bf 5e e0 05 bf
       -0.6520614 0.020668719 -0.723198 -0.5229548
0001d0 60 5f 32 3e 31 91 69 bf 39 a8 92 3e 40 7f 69 bc
       0.17419195 -0.9123717 0.2864397 -0.01425153
0001e0 0c 99 b7 3e 17 da e2 3e 01 a8 78 3e 37 76 86 be
       0.35858953 0.44307014 0.24282838 -0.26262066
0001f0 a9 cd c6 be 12 39 27 3d 55 2e 77 3e 9d c7 37 bf
       -0.3882878 0.04082591 0.24138768 -0.7178896
000200 f4 c9 93 3e 51 7a a1 3e af e6 0b be 22 8c a9 bd
       0.28865016 0.31538633 -0.13662218 -0.08278681
000210 4d 4b 30 bd d9 af c2 be 3a 59 6e 3f d6 1e 47 bd
       -0.043040562 -0.38024786 0.931049 -0.04861339
000220 97 8d d1 be 9e bf e9 be 6e b0 2f bf 34 3e 86 be
       -0.40928337 -0.45654005 -0.68628585 -0.26219332
000230 69 aa 88 be 73 1d 32 be 98 13 e0 3e f5 d0 77 3e
       -0.26692513 -0.17394046 0.4376495 0.24200805
000240 9d 36 99 be 94 37 6e 3e 04 cf 93 be 1c 0b 98 be
       -0.2992448 0.23263389 -0.28868878 -0.29695976
000250 45 7e 4f be 79 36 bc be dc d2 9e 3e 07 50 8d be
       -0.20263012 -0.3676031 0.31020248 -0.2760012
000260 95 d9 87 be 66 0c 09 3f 42 17 89 be 89 ff 72 3e
       -0.2653319 0.53534544 -0.26775557 0.23730291
000270 e9 2a a7 ba ea 2d 6e be da df 88 be 8d f4 50 be
       -0.0012753877 -0.23259702 -0.26733285 -0.20405789
000280 d5 8d 66 3e 9f 54 6e be fa 87 86 3e 18 25 0e bf
       0.22515042 -0.23274468 0.26275617 -0.5552535
000290 6c 95 24 bd 09 4a 40 3d 98 aa 70 ba ef 5b aa be
       -0.040181562 0.046945605 -0.0009180694 -0.33273265
0002a0 87 d9 97 be 94 e0 88 3e c1 a0 b6 be e3 a9 88 3e
       -0.29658148 0.2673384 -0.3566952 0.26692113
0002b0 2b 6b 87 bf 11 a1 1c 3f 19 9b 83 be 80 e6 01 3f
       -1.057958 0.6118327 -0.25704268 0.5074234
0002c0 4d aa 88 be 49 46 89 bb a8 8f 45 be a6 0f 9e bd
       -0.2669243 -0.004189287 -0.19293082 -0.077178285
0002d0 f2 a2 88 3e 06 cd 16 be fc b5 5a bf 8b 7d 35 bf
       0.26686817 -0.14726648 -0.85433936 -0.7089469
0002e0 31 96 8d be 36 35 de be eb 21 ec bd 0e eb dc 3e
       -0.2765365 -0.43399972 -0.11529907 0.43148082
0002f0 a8 3c 89 be b5 81 ba bc cf 76 af be 01 3b da 3e
       -0.2680409 -0.022766927 -0.3427033 0.4262314
000300 c1 55 89 bd f8 35 9f bd a0 8f 49 3e 88 f9 40 bd
       -0.067058094 -0.077739656 0.19683695 -0.04711297
000310 8f 04 69 3e ef d9 9c be e9 65 80 3c 38 a7 8c bd
       0.22755645 -0.3063502 0.015673595 -0.06867832
000320 ab 7c 9f 3d d0 31 8e be da dd d6 3e 84 8d 88 be
       0.077874504 -0.2777238 0.41966134 -0.26670468
000330 69 6c 8d be 29 14 ba bb a2 58 b4 be 9f eb e1 be
       -0.27621773 -0.005678673 -0.3522387 -0.44125077
000340 d9 10 bb 3e 5c 15 b3 3e 74 b3 33 3e 59 68 bf 38
       0.3653629 0.34977233 0.17548925 9.127026e-05
000350 91 c2 98 3e f3 88 0d be 83 ef 17 bf af cb 9a 3e
       0.29835942 -0.13821773 -0.5934984 0.30233523
000360 7a 55 d2 be 8b 0e 38 bf 2e 52 78 be 7e d4 be be
       -0.41080838 -0.7189719 -0.24250099 -0.37271494
000370 d6 d2 05 bf d6 a1 88 be 4d c6 88 3e 9a 11 a6 be
       -0.52274835 -0.2668597 0.2671379 -0.32435304
000380 c8 7b 75 3e 8f 90 8f 3e 27 c4 41 3d e3 9c 0d 3e
       0.23973 0.28039977 0.047306206 0.13829379
000390 8f 2a 38 be 0b c4 0f bd 41 30 75 bf 58 7c 3a be
       -0.17984985 -0.03509907 -0.95776755 -0.18211496
0003a0 46 90 7a bd cc 56 00 3e cf 87 ed 3d fd a9 88 3e
       -0.061172746 0.1253311 0.11598169 0.2669219
0003b0 ac 96 89 bd 4b 82 a4 be 9d a9 65 3e 46 e7 8c be
       -0.067181915 -0.32130656 0.22427984 -0.27520198
0003c0 15 13 01 bf ac 3a 9e be a4 a7 9f 3e 58 89 54 be
       -0.5041974 -0.30904138 0.31182587 -0.20755517
0003d0 7b ae c6 bc 80 85 74 3c 6a 76 88 be 19 b1 d9 be
       -0.02425312 0.014924407 -0.26652843 -0.42517927
0003e0 46 8e 57 bf 50 d2 46 3e a1 f4 b1 bd 71 d7 ae 3d
       -0.8420147 0.19416165 -0.086892374 0.08537186
0003f0 7c a0 88 3e bb aa 88 be 42 2a 87 be 77 e2 59 bf
       0.2668494 -0.26692757 -0.26399428 -0.8511118
