modeldata/a11_Opt12k_cos_s00b22_Aug_BitMnist_PerTensor_4bitlog_RMS_width64_64_64_lr0.001_decay0.1_stepsize10_bs128_epochs60.pth (torch, 103707 bytes, 4 tensors)

fc1.weight f4 [64, 256]
00000000: 0c8e 96b7 e979 71bd 61a4 353d 387d 0d3d
00000010: bb17 923c 061a ac3d 06fd 833d d28a 7f3d
00000020: 8027 a43d 60c8 1e3d a93f 1c3d 56c9 043d
00000030: 2d62 e9bc 44d9 a03c 605d 33bd 70ee 25bc
00000040: 30ec 81bc f235 90bc 1dbd 483d 5ee2 0f3e
00000050: 4ac3 c53b 77c2 233d 776f 8dbc ee6c 153c
00000060: afe6 23bd ec2d 9e3c aef7 7fbd 9ef0 86bb
00000070: 91f9 b63d be66 8a3c f7ba bb3c 22f9 0b3a
00000080: 9add 363d d602 9e3d 7171 2d3d 8f1b a8bb
00000090: 5205 6bbd f796 adbd b952 c6bd e52f 9ebc
000000a0: 386b 463d 1983 29be 7881 a23c f4e1 abbc
000000b0: 644c c63b 5f3b babc 745d c0bc 52cd f13c
000000c0: 61e4 e43c 2709 56bc 18d4 273d 822c e23c
000000d0: 9568 293d 1726 823d 93f6 ffbb 0478 163d
000000e0: 4823 373d 0803 c33d 055c 9d3d e3b0 2abd
000000f0: 5fbb aabb 49c9 19bd 7e22 7e3c 20bb 723c
00000100: 2dfc 943d 1900 94bb f526 f2bb f4f8 18bc
00000110: 5329 92ba 63cb 9b3d a6b1 97bd 67a7 f63d
00000120: e48e c23d 6b5b 82bd f5eb d13d 63af 0f3e
00000130: 0032 45bd 988d 623c fd87 fa3d 2729 383d
00000140: 12e3 f03c a3c6 9a3d af7f c1bc 05f0 77bc
00000150: 0c1c 81bb fa16 233c 8f84 94bd 9b74 093e
00000160: 3800 9c3d d0e6 8cbd b0de 7f3d f0af b0bc
00000170: ab34 fdbd 3acc 8b3d f9d5 753e f8fb d23d
00000180: 6826 be3d 2f50 093e 7042 a93d cf54 273e
00000190: 4b7a a83d e0e7 0b3e 3281 f03c d76e ed3b
000001a0: b9eb a53c 8be9 81bd 353b a4bd 16ec a6bd
000001b0: 14c7 c2bc b56d 123e 23f2 1b3e 22a5 493e
000001c0: d480 9d3d f99c 3f3e 5f3f 993e 1d46 a43e
000001d0: ac37 533e b3e8 e83d e33d aa3d c36c a13d
000001e0: ceb0 af3d 8193 b63c 105f 223e 66b9 9d3e
000001f0: d26e 783e 5e9a 663e 0ec2 043e 38ec f13d
00000200: 4064 0c3e 87e8 743e bf02 a23e d868 a33e
00000210: 6100 2c3e 2963 b53d 148d d83d 54e1 7d3e
00000220: b471 643e 85af 993e 8df7 a83e 7981 c13e
00000230: be83 a53e c502 3b3e 5174 c43d c3aa 813d
00000240: 58bd 363d 6887 773d 3b6b 003e c3b4 1d3e
00000250: edd2 923e 9c99 f03d ceaf 683e 78c2 af3e
00000260: d170 9e3e 9815 a93e e5c3 893e 2b3b 683e
00000270: e307 703e b0f8 2d3e 51d7 f33d b610 b23a
00000280: 914e dabd 6799 12be 2f3f 03be a82b febc
00000290: cf8c a33c 09b5 2bbe f0a7 29bd cfb5 4dbe
000002a0: ea8e 2ebe 3dd8 1ebe 0dcf 8abe 7830 85be
000002b0: 90f9 d1bd ca8b a53c 18cb 7b3d f90a bfbb
000002c0: 8b2b 18be 3dbb 5fbe 96c3 23be c93a 96be
000002d0: 7575 a2be cf72 a0be a7f9 a8be 4afb a8be
000002e0: 87f9 aebe 31fa a8be ad70 f2be f064 0dbf
000002f0: c0b5 a8be b40a 50be e2bd 0cbe 7844 06be
00000300: f4d8 17bd c077 10be c339 35be 5571 0abe
00000310: dbd3 95be 16a5 6fbe 1ff6 6ebc a811 bcbd
00000320: e4d2 25be cdf2 74bd 6765 28be 7a72 1ebe
00000330: 2966 10be 0080 a4bd 7b58 ddbd 9528 47bd
00000340: a443 42bd 63f2 1abe 907b fcbd d503 29be
00000350: 4108 22be af7f 7ebe 115a 55bd df4e 24bd
00000360: b2e9 82bc 468b afbc a284 073c bb06 263c
00000370: 7e52 b8bd b078 8a3c 611b 2f3c 86f2 e93c
00000380: 683b a9bc 15b8 7cbd 83b3 31bd f2b5 00be
00000390: d605 abbd 91c3 d7bc 824b a63c 9d11 d1bd
000003a0: cd50 7fbd 9fb0 a2bd b75f 223d 2194 f2bd
000003b0: 39ad cd3b b396 42bd f2db 1cbd d1e1 ea3b
000003c0: 963e 133c 4bb5 373c cd65 b03c b2f7 61bb
000003d0: 0eb1 bf3c b5a6 853d bde7 483b 0ef0 2cbd
000003e0: aa90 e3bc 2edd 8fbc b630 2bbb 1687 28bd
000003f0: 7718 163d 7ed7 adbc 139a 273d 3a42 44bd
-1.794754e-05 -0.058954153 0.044346217 0.034543246 0.017833581 0.08403401 0.06444745 0.06238825
0.080153465 0.03876531 0.03814665 0.03241857 -0.028489197 0.01963485 -0.04379022 -0.010127649
-0.015859693 -0.017603848 0.049008477 0.14051196 0.006035243 0.039980378 -0.017265065 0.009120209
-0.04001492 0.019309007 -0.062492065 -0.0041180393 0.0893432 0.016894694 0.0229163 0.0005339553
0.04464493 0.07715385 0.042344514 -0.0051302384 -0.05737812 -0.0847606 -0.09683747 -0.019309947
0.048442096 -0.16553916 0.019837126 -0.020981766 0.006051587 -0.022733388 -0.023482062 0.02951685
0.02794093 -0.0130637055 0.040973753 0.027609114 0.041359503 0.06354921 -0.0078113764 0.03673555
0.04471138 0.095220625 0.07683567 -0.0416726 -0.0052103247 -0.037545476 0.015511153 0.014815122
0.07274661 -0.004516613 -0.007389898 -0.009336699 -0.0011151232 0.07607152 -0.074069306 0.12043648
0.094999105 -0.06365093 0.10250083 0.14031748 -0.048143387 0.013827704 0.12232969 0.04496112
0.02940515 0.07557418 -0.023620455 -0.015132909 -0.003940111 0.0099542085 -0.07251846 0.13423388
0.07617229 -0.068799615 0.06246823 -0.021568269 -0.12363561 0.068260625 0.24007405 0.103019655
0.09284669 0.13409494 0.08264625 0.16340946 0.082264505 0.13662672 0.02935848 0.007245879
0.020254003 -0.06343373 -0.08019105 -0.081504986 -0.023776568 0.14299662 0.15229087 0.196919
0.07690588 0.18712224 0.2993116 0.32084742 0.20626706 0.11372509 0.08312585 0.07882073
0.08578645 0.022287132 0.15856576 0.3080551 0.24261025 0.22519824 0.12964651 0.11812633
0.13710117 0.23916827 0.3164272 0.31915927 0.1679702 0.08856804 0.105737835 0.24792987
0.22309 0.30016723 0.33001366 0.37794092 0.32327074 0.18262775 0.09592498 0.06331398
0.044614166 0.060431868 0.12540905 0.15400986 0.2867655 0.11748049 0.22723314 0.34328055
0.30945447 0.33024287 0.26907268 0.22678821 0.23440509 0.16989398 0.11906303 0.0013585303
-0.106595166 -0.14316331 -0.12817071 -0.031026676 0.019964604 -0.16768278 -0.041419923 -0.20088886
-0.17046705 -0.15512176 -0.27111092 -0.2601354 -0.102526784 0.020208258 0.061472982 -0.0058301655
-0.1486036 -0.2184877 -0.15992579 -0.29341725 -0.31730238 -0.31337592 -0.3300297 -0.33004218
-0.3417475 -0.3300338 -0.4735159 -0.55232143 -0.32951164 -0.20316583 -0.1374431 -0.13112056
-0.037072137 -0.14108181 -0.17697816 -0.13519795 -0.29263195 -0.23402819 -0.014585047 -0.09183055
-0.1619373 -0.059801865 -0.16444932 -0.15473357 -0.14101471 -0.080322266 -0.10807892 -0.048622686
-0.04742779 -0.15131526 -0.12328255 -0.16505368 -0.15823461 -0.24853395 -0.052087847 -0.04011428
-0.015980575 -0.021428715 0.008271368 0.010133441 -0.09000109 0.016903251 0.01068768 0.028558027
-0.02065821 -0.06169899 -0.043384086 -0.12569407 -0.083507225 -0.02633837 0.020299677 -0.102084376
-0.062332917 -0.07943844 0.039642062 -0.118446596 0.0062767533 -0.047507 -0.038295694 0.0071680327
0.00898709 0.011212657 0.021532917 -0.0034479913 0.023399856 0.065259375 0.0030655705 -0.04222112
-0.027778942 -0.017561521 -0.0026121563 -0.041144453 0.036644425 -0.021220919 0.04091842 -0.04791472

fc2.weight f4 [64, 64]
00000000: c225 2abd 51bb 1fbe b5de e5bd a17d 023d
00000010: 4646 a6bd 5399 033f 51e0 c33e 7ec8 f33e
00000020: 3de7 5fbd 4f0a b43d 2636 833d b178 a8be
00000030: a2ba 99bc df8d e2bc 1dbe 403c 3a34 73be
00000040: 318c 18be d823 243c 2a30 b13d 473c 73bd
00000050: 06b0 03bd 7901 0d3e a2b9 d8bc 5d30 873f
00000060: f4ff 003e 1351 fdbd 27ef 3e3e 64b1 0b3e
00000070: ce1c 213e 0278 f7bd 300f 21be a60e 133f
00000080: 8e62 83bc 6996 9cbe 7a0f afbc 5949 063d
00000090: 7960 4f3f d6e9 163e bdb1 16be dc2f 2ebd
000000a0: 6e60 3e3c 3792 95bd d638 3dbe b0c2 35bd
000000b0: c104 8abe b905 7abd 21ad 2b3d 33a8 453e
000000c0: 5107 db3c 642c 38bb 14e2 0ebe 49ae 793d
000000d0: 340e 933e 4489 983d 9831 39be 6ca7 113e
000000e0: 14da 6cbe 432a f0bd aefc ac3e a799 e6bc
000000f0: 37f7 f1bd 04da 333e 74d9 d93b f6b6 11be
00000100: 1b2d 97be 1fba a73c 7d42 8d3e c706 13be
00000110: 2737 aebe d228 40be 4ae9 b23d 0ffa 9abd
00000120: de0c 8d3e 4acb 90bd 2ce0 943e e48d 22be
00000130: c7c3 cf3d 2507 01bb 7028 04be ab21 93be
00000140: 0da6 f03d b8e2 0f3f 7d8e 693e fb8c eabc
00000150: e27f 01bd 08eb ec3d 660c 24bd a962 8abe
00000160: dc30 05bd 1f7e 213e a70f 93be 9d4b 0e3e
00000170: 5b33 80bd 0249 583e 26fc 12be 0409 13be
00000180: cc3a 303d 7092 c03e ab0d 933e 8c79 973e
00000190: 1aa9 0fbe e532 4c3e f5d3 e3bc 942b a3bd
000001a0: 25d2 c6bd 1550 93be 38b3 15bd b953 6a3e
000001b0: 7f8b 89bd f294 cc3d a37f 083d c425 7cbd
000001c0: f61e f93d 24e7 f63d 1fe1 05be c19f d13c
000001d0: 7b15 933e 6885 b4ba 2d02 843e 8237 893e
000001e0: e983 423e d85e 57bd 9dd9 d73e 69e1 5fbe
000001f0: 5e2c fc3a a626 6fbe fd6e 923d f180 1abf
00000200: 5ec6 90bd c10d 13bf fadd b8bb f225 26bd
00000210: d5a9 003d 02a1 22be d1cd d6bc 1856 13be
00000220: 0f63 8d3e 3663 3e3e 9f6c 7c3e 85fb 83be
00000230: de56 13be ab16 01be 385f 1b3e 0df0 6f3d
00000240: 3b80 9ebe 80db 0fbe 29fd 373d 6c6c 843e
00000250: f9a2 9a3c 5be5 bb3d e541 da3e 5a27 483b
00000260: ab10 d6bc 569f 933d 6725 403e da27 163e
00000270: 484e 04bf e45c ebbe b623 1dbe cae1 eabd
00000280: 72f3 f9bd e470 8e3d 58e5 25bd b05d 213e
00000290: 5ebf 91be d086 0abf 2d50 2cbe dd88 b23d
000002a0: feb7 a3bd d173 d4bc 56a0 11be 05d8 003f
000002b0: 28b4 5cbc ea4e 893d 04cc 8cbe adf6 b8bc
000002c0: 9cb9 febe 021b c7be 3b78 af3d 7333 42be
000002d0: 873e 91bd fe06 553d b65e 933e 07e4 99bd
000002e0: 3efa 76bd b70c 933e 94f0 8a3d 7fee 93bd
000002f0: 4751 19bf 9c0e 13bf 6fa8 92be a7b4 983b
00000300: b1bb 153f 9499 94bc 3b96 72be 9218 023f
00000310: ae67 093f 1d4c 973d 2e4e 15bf 3391 8c3e
00000320: a0be c33c 3b1d dd3c f083 9cbe 527f 243d
00000330: 16da 35be 2e8e 163e 73ad 94be 5b8c b23e
00000340: 3817 f33d 3c38 35bf 77d3 12be 3429 923e
00000350: 81ff d03d 0dc6 71be 457a 00bf d486 b03d
00000360: 0467 66bd 4e15 17be e6fe 923e d9b0 67be
00000370: 0354 913e 2398 893e 05d9 17bb 37f3 883e
00000380: 9aa2 033d 651a 523d 9db0 70be d171 2dbe
00000390: 368f 11bf 51e6 973e aaf2 123a 67e0 2a3e
000003a0: 7489 853e 5163 473c 4d2b 36bd d850 213c
000003b0: b50d 933e 4d03 933e 8213 123e effa b1bc
000003c0: a676 1d3e a112 113c 43f1 333c f7a2 90be
000003d0: 3876 6cbe fae3 13be b80d 933e 340e 13bf
000003e0: 22a3 883d 7fdd 133e ad03 e2be 46c1 153d
000003f0: 0ebc 143e 60b9 05be 1f9f d03e dd7d bd3e
-0.041539915 -0.155988 -0.112241186 0.03185809 -0.08118872 0.5140583 0.38257077 0.476139
-0.054663885 0.08791029 0.06406812 -0.3290458 -0.018765751 -0.02765554 0.011764077 -0.23750392
-0.14897229 0.010018311 0.08651765 -0.059383657 -0.03215029 0.13770093 -0.026455704 1.0561634
0.12597638 -0.12368979 0.18645917 0.13641888 0.15733644 -0.120834365 -0.1572845 0.57444227
-0.016038205 -0.30583504 -0.021369684 0.032784794 0.8100658 0.14737639 -0.1471624 -0.04252611
0.01161967 -0.07303279 -0.18478712 -0.04437512 -0.26956752 -0.061040614 0.041913155 0.19302444
0.026736887 -0.002810263 -0.1395343 0.060957227 0.28721774 0.07448056 -0.18085325 0.14224023
-0.23130065 -0.11726811 0.3378653 -0.028149439 -0.118147306 0.17563635 0.006648237 -0.1422995
-0.295266 0.020474492 0.2758979 -0.14358054 -0.34026453 -0.18765572 0.087359026 -0.07567226
0.2754888 -0.07070024 0.2907728 -0.1587444 0.101447634 -0.0019688096 -0.1290605 -0.28736624
0.11750422 0.5620532 0.22808261 -0.028631678 -0.0316161 0.11568266 -0.040050887 -0.27028397
-0.0325173 0.15770768 -0.2872288 0.13896032 -0.06259795 0.211216 -0.14354 -0.14358908
0.043024823 0.37611723 0.28721365 0.2958492 -0.14029351 0.1994129 -0.02781103 -0.07967296
-0.09708051 -0.28772035 -0.03654787 0.228835 -0.0671606 0.099893466 0.03332485 -0.061559454
0.121641085 0.12055805 -0.13074158 0.025588872 0.28727326 -0.0013772668 0.2578291 0.26800162
0.18995632 -0.052580684 0.42158213 -0.21863331 0.0019239297 -0.23354587 0.071500756 -0.60353
-0.070690855 -0.5744286 -0.005641696 -0.04056353 0.031411964 -0.15881732 -0.026221188 -0.14388311
0.27614638 0.18592533 0.2465081 -0.25777832 -0.14388606 -0.12606303 0.15173042 0.05857854
-0.30957207 -0.14048576 0.044919167 0.2586397 0.01887654 0.091746055 0.426284 0.0030541033
-0.026130995 0.07208125 0.18764268 0.1466364 -0.5168195 -0.45969307 -0.15345654 -0.11468847
-0.12204637 0.06955126 -0.040501922 0.15758395 -0.28466314 -0.5411196 -0.1682746 0.08717511
-0.07994078 -0.025934132 -0.1422132 0.5032962 -0.013470687 0.06704505 -0.27499402 -0.022578562
-0.49750984 -0.38887793 0.08567854 -0.18964939 -0.07092004 0.05200862 0.28783196 -0.07514196
-0.060297243 0.28720638 0.06784168 -0.07223224 -0.59889644 -0.5744417 -0.2864413 0.0046602073
0.5848952 -0.018139638 -0.23690121 0.5081874 0.5367383 0.07387564 -0.5832242 0.27454528
0.023894608 0.026991477 -0.3056941 0.040160485 -0.17758974 0.14702675 -0.2903858 0.34872708
0.11869663 -0.7078893 -0.1433848 0.2854706 0.102049835 -0.23610707 -0.5018657 0.086194664
-0.056250587 -0.14754221 0.28710097 -0.22626056 0.28384408 0.26873884 -0.0023170125 0.26748058
0.03213749 0.051294703 -0.23504873 -0.16937949 -0.5685915 0.29667905 0.0005605618 0.16687165
0.2608143 0.012169675 -0.04447489 0.009845935 0.28721395 0.28713456 0.14265254 -0.0217261
0.15377292 0.008854539 0.010982814 -0.28249332 -0.23091972 -0.14442435 0.28721404 -0.5744355
0.0667174 0.14439963 -0.4414343 0.036561273 0.14524862 -0.13058996 0.407464 0.3701009

fc3.weight f4 [64, 64]
00000000: 20d8 79bd d82b a33e 0507 8a3e 9f47 11be
00000010: 608f ef3c d514 0a3d 1869 85be 7424 b2bd
00000020: ac9f 163e aa8a eb3c 5b69 06be 6e24 cf3c
00000030: 24c3 503e c300 02be 3855 33be 393f ba3e
00000040: 3283 cabe d705 df3c babd f5bd 0e4e 8f3d
00000050: 355c 533e 041d 9bbe cbea dbbd 8dd6 ea3e
00000060: 625a fdbe 0af7 493e afba c1be 8ae4 953e
00000070: e7aa 75be de24 9f3d b4ec 32be 8fc1 4e3e
00000080: 4d2f 253e 576f 3b3e 8bcf c13d d76d 55be
00000090: d12d 1b3e 3979 d43d 3a4f 00bf 1782 2fbe
000000a0: a86b b83d f716 52be 6c79 cf3c dba3 54be
000000b0: 5068 9cbd 0833 58bc 3ed8 7dbe 5f74 a73e
000000c0: 25ca 553e 0076 4cbe c92e 9f3e 8970 f8bd
000000d0: 1066 97bd daaf 3dbe 479e b73d ca36 fcbe
000000e0: b5de debd 3230 0fbb 3af8 7c3d ff2f 87be
000000f0: 3415 633d 7759 09be eefe 943c e6b8 503d
00000100: 00f6 b03c 351a 503d 53d4 23be 6b62 efbe
00000110: 0f5b d1bd 0861 4fbd 0d69 7fbe 3132 f73c
00000120: 502e a93d bd34 71bc b343 cf3e fa3f b7bd
00000130: f251 febd 4be2 943e d07c ac3b 3290 f23e
00000140: 5248 4abe 83ff abbd dd43 053b 0155 0e3e
00000150: 678a da3b 42bd 02bf 955f fd3d 5e02 7ebe
00000160: d0e3 8ebe 8060 40be 723a fdbe 5a76 753e
00000170: 6b40 27be 53a7 44bd 88da 7dbe e17f 9d3d
00000180: d71a fe3e 698f 783e 1a0a 10be a896 0fbe
00000190: ec91 52bb 1fb9 f5be a01c c4be 1bea 15be
000001a0: ab17 103d 67ff 20bf 694c 4dbc dc30 2f3d
000001b0: 5288 8dbe 04b0 763d 1ed7 88bd 7dca dbbd
000001c0: 7d07 523e 9de3 0a3e d400 be3e 9302 21be
000001d0: 6b3a d1bd 0b26 d9ba 468a 78be 8f76 973d
000001e0: 358d c03e dcc1 7fbd f029 ddbd 1c5b a93d
000001f0: 58ce cf3d bcb1 36bd d22e 1b3e a622 013f
00000200: 8a54 fc3d ed9c 353e 6d5d 7dbe e117 fe3d
00000210: 2199 6e3e 991a 6cbd caec 903e 2c69 36bd
00000220: 3f28 3f3c 6d4a fd3e e87f 393e a50d f7be
00000230: 998d edbc 5659 b73d 6c75 fdbe fc34 e8bc
00000240: c2ca 813c dfae f6ba 5b21 61bd be92 ee3d
00000250: a682 74bd 6f59 71bc 71f3 ffbd 2c86 42bd
00000260: 5f86 e83c dc83 0a3e 2f7f e6bd ddb0 7cbe
00000270: a8d7 253e 4205 94be a242 ce3c 5e47 f53b
00000280: 5ba5 023e 4cb9 86be af2b 4dbe a386 f1bc
00000290: e8f1 3fbe f54f c33d e047 a6bd ac9a 4e3e
000002a0: 3d8a 89be 89b3 c7bd fcd9 c73d 05c3 d53b
000002b0: 223d d0bc 5775 0d3e 3b0c 033e 3040 15be
000002c0: 6a03 fc3d fc21 bdbe 3f04 5abd 78f2 993e
000002d0: 9ac9 89be 0462 ba3d 1e34 03be a2ef 86bc
000002e0: 540e 6f3d b82c 603e 187f 683e 4054 7d3e
000002f0: 1c23 85ba cc15 8bbe ca10 89be 4cf1 2c3d
00000300: 6529 613e dd91 8d3c e031 a23d f05f fdbe
00000310: bca8 4d3e d15e 7d3e 8212 50be 44dd 6fbd
00000320: 8b1b 67be 9898 46bc a28e 6bbd 3e44 fabd
00000330: 907e 91bc 2d2e fd3d c54d 7a3e 3bb7 00be
00000340: 19ca 78bd f732 033e 4bae f2bd 7764 fd3d
00000350: 3d5e 68bc 756f 8fbe b5a8 75be 43ca 87be
00000360: a144 453c f786 49be c9c6 b93b f210 193e
00000370: da04 e53e f6b2 0dbf 7946 55bd 04f1 de3d
00000380: 9b45 c83e 6f1f 6bbe 1f70 7d3e e9a8 dabd
00000390: c56d 1d3d 3c6e 81bb 3638 f13c 4cea 3bbd
000003a0: df44 c0be 7999 62be 43d3 be3d 57d7 b8bd
000003b0: b2d3 13bd ffad 793e 3fdd 87be aade bcbe
000003c0: 10ea 973e c007 50be 1b14 a3bc 3dfe 3cbc
000003d0: 1f9e 8f3e 5214 a4bd a007 a4be 1bfe 863d
000003e0: 6a2d a2bd 6643 a0bc 25b9 523d 3686 ffbc
000003f0: ccde 5f3c 42fd 2fbe 9fcc e43d 71af 47be
-0.06099713 0.31869388 0.2695848 -0.14187478 0.029243171 0.033711273 -0.26056743 -0.08698359
0.14709347 0.028752644 -0.13126127 0.025285926 0.2038694 -0.12695603 -0.17512977 0.3637636
-0.3955322 0.027224464 -0.11999078 0.069973096 0.20640643 -0.30295575 -0.107381426 0.45866814
-0.4948302 0.19723144 -0.3783774 0.29275924 -0.23990975 0.07770704 -0.17473108 0.20191024
0.16131325 0.18304192 0.09463414 -0.20842682 0.15154196 0.10374684 -0.5012089 -0.17139469
0.09004909 -0.20516573 0.025326453 -0.20765631 -0.076370835 -0.013195761 -0.24789521 0.32705972
0.20877893 -0.19966888 0.31090382 -0.121308394 -0.07392514 -0.18524113 0.08965736 -0.4926055
-0.10882322 -0.0021848795 0.061760165 -0.26403806 0.055440143 -0.13413034 0.018187966 0.050957583
0.021601677 0.050806243 -0.15998964 -0.46754774 -0.10222446 -0.050629646 -0.24942417 0.0301753
0.082607865 -0.014722046 0.40481338 -0.089477494 -0.124179736 0.29078898 0.0052639022 0.47375637
-0.1975415 -0.08398344 0.002033464 0.13899614 0.006669331 -0.51070035 0.123717465 -0.2480559
-0.27908182 -0.18786812 -0.49458653 0.23970929 -0.16333167 -0.048011135 -0.24790394 0.076904066
0.49629852 0.24273457 -0.14066353 -0.14022315 -0.0032130433 -0.479928 -0.3830309 -0.14640085
0.03517882 -0.62889713 -0.012530425 0.042771205 -0.27643067 0.060226455 -0.06681655 -0.10731981
0.20510669 0.1356339 0.37110007 -0.15723638 -0.102162205 -0.0016567124 -0.24271497 0.0739566
0.37607732 -0.062440738 -0.107990146 0.08269331 0.10146779 -0.044603094 0.1515458 0.50443494
0.12320812 0.17735644 -0.2474267 0.12406898 0.23300602 -0.057642553 0.28305656 -0.044533893
0.01166731 0.49470845 0.18115199 -0.48252597 -0.028998183 0.08952586 -0.49503648 -0.028345577
0.015843753 -0.0018820426 -0.05496345 0.116490826 -0.05969491 -0.014730795 -0.12497605 -0.047491238
0.028384386 0.13526863 -0.11254727 -0.24676843 0.16195548 -0.2891026 0.025178257 0.0074853143
0.1275839 -0.26313245 -0.20036195 -0.029483145 -0.18744624 0.09536735 -0.08119178 0.2017619
-0.2686328 -0.097510405 0.09758374 0.0065234923 -0.025419775 0.13814293 0.12797634 -0.14575267
0.12305339 -0.3693999 -0.053226706 0.300678 -0.26911622 0.09100726 -0.1281285 -0.016471688
0.058363274 0.21892059 0.22704732 0.2473917 -0.0010157558 -0.27165067 -0.26770622 0.042222306
0.21988447 0.017281467 0.07919669 -0.49487257 0.20083898 0.24743201 -0.2031956 -0.058560625
-0.225691 -0.012121342 -0.057509072 -0.122200474 -0.017760545 0.12362323 0.24443729 -0.12569897
-0.06073961 0.1281241 -0.1184965 0.12372678 -0.014182624 -0.28014722 -0.23990138 -0.265215
0.012040288 -0.19680391 0.005669449 0.1494787 0.44730264 -0.553512 -0.05206916 0.10885814
0.39115605 -0.2296121 0.24749802 -0.10676748 0.038434763 -0.0039499085 0.029445749 -0.04587774
-0.37552544 -0.22128858 0.09317639 -0.09025448 -0.03609056 0.2438278 -0.26535985 -0.3688863
0.29670763 -0.20315456 -0.019907048 -0.0115352245 0.28050324 -0.08011688 -0.32037067 0.065914355
-0.07918818 -0.019563388 0.0514461 -0.031191926 0.013663959 -0.17186454 0.11171841 -0.1950052

fcl.weight f4 [10, 64]
00000000: 80e9 84be 24bb 95be 4ec3 8bbe 6f50 63bf
00000010: 0bc7 813e 70a9 26bf 811a 2cbe c1a5 26bf
00000020: 299d 0dbf 3d26 15bf 1d5a 15bf 8f75 72bf
00000030: 5cf7 72be f863 b3be 3f28 95be bd64 1dbf
00000040: 5d2f bebe d5df 80bf 8b59 8cbe 160d 223f
00000050: ae8a 113d 56d6 143f b356 89bd eea1 8bbf
00000060: b450 48bf 4891 f63e 2ec6 90bb 84fe dabe
00000070: 14d6 143f a727 07bf de80 cf3e f4c5 24bf
00000080: bbe4 d8be 66c7 a1be 9708 76be 39d9 14bf
00000090: 5f3a 803e a547 33bf 6530 f23e d2fa 283f
000000a0: 7a6e 47be 292b 143e 7d93 3a3f 54e3 2b3e
000000b0: ecd6 bebe eb06 133f 105d e2be 4c36 093f
000000c0: ec07 14be c59c 98be 4afd 053e c5dd 953e
000000d0: cccd 8bbe 3a89 46bf 57d5 14bf f9ff 4abe
000000e0: 3c96 1bbf 59fe f73e c831 94be c68f b4be
000000f0: 7f84 83bf 02ea 74bf 61ad 8b3e c269 943e
00000100: 4882 b13e 1c27 143f 2830 0fbe 335d b9bd
00000110: de64 9abe db28 92be 7367 35bf 824b ac3e
00000120: d905 42bf d500 22bf 7eac 403e 597c d2be
00000130: 58d4 04bd 8fce 143f 1fb2 95be c4e4 96be
00000140: a453 23bf 6aad 603e 76d6 14bf e298 59bf
00000150: 899f 14bf 7f10 2cbf 8106 013f 7948 9d3c
00000160: a8e2 ad3e c90f 0ebf 04d3 94be 7f37 22bf
00000170: de02 ab3e 08ab 063f 46e2 5cbe 6d19 38bf
00000180: dbda 96be 7f59 1ebf 980a e93d c5e7 14bf
00000190: 327b 153f c4ea f3be f035 39bf a1a2 6ebe
000001a0: 776f 143e 9b6f 2cbe 623f 7e3e d06b efbe
000001b0: c0f6 87be dd06 cebd b16b 46bf 053e 51bf
000001c0: 0c4a d33e 3a6b 2ebf 4819 0c3f b94a 6cbf
000001d0: 4d88 cc3e acd5 143f 0614 a33e f794 90be
000001e0: 4617 dc3e 87e1 13be de52 19bf 5048 783f
000001f0: ead8 4a3e 18b4 93be 52f2 4fbe 21df 143f
00000200: eda4 94be d842 17bf 7dfd d13e 3844 14bf
00000210: 68a4 c9be 4d02 15bf 855e 5cbf eba7 de3e
00000220: ae43 7fbe 34ec 9ebe 65df 313b 3471 b43e
00000230: bdc6 37bf 979b 4e3f c08c 223f 6cc5 863e
00000240: c46a b1be a39c f2be 04bc 20bf 15fc 70be
00000250: 4d40 a73e e5d8 5bbe d2c7 9abe 2b3d 41bf
00000260: e225 29bf d871 80be 7c31 743e bd46 84bf
00000270: 1cfc acbe 8429 933e 4f24 0c3f 70ef 13bf
00000280: b02e 09bf a833 a0be af8a 043f b82b 123e
00000290: 4f73 c6be 3895 a43e b22e 043f 34cd e13d
000002a0: 24f6 133f 0301 97bd b8e2 143b 2c6b a5be
000002b0: a4c4 abbe 6eac b5be 4b35 a13c af20 acbe
000002c0: b206 153f 7c3e 913e f840 14bf 4d71 a9be
000002d0: 3724 053c fbb0 063d 2a1c 94be d2fb 14bf
000002e0: f1ee de3e fd14 ba3d 3ca4 173f 160d 73bf
000002f0: dfd5 65be 65a8 15bf 732c acbe 865d 85bc
00000300: c290 10be c972 903e 4c04 95be 31a8 283f
00000310: 7add 143f 439c c8be 903b bdbe 6dd3 143f
00000320: 9c91 15be 6bf3 92bf 94cb ccbe f7d4 143f
00000330: 58f1 5fbe 3d93 14bf c55d 50bc 9dc7 09be
00000340: 6af1 82be 2d5a db3d 0a12 4c3e 83e3 30bf
00000350: ea31 95be df48 b1be f8a9 14bf 85d5 14bf
00000360: a3ab e4be 3deb d53e a484 93be a4e5 113f
00000370: 9fe7 babe a548 013d 8ab4 b5bc fc31 163f
00000380: 82a2 15bf 75e8 973e eda5 0dbe 0b3e e23e
00000390: b580 91be 4350 db3d 9337 d0be d0cc b9be
000003a0: d5bc 973e 90e7 a0bd 4d8d da3b 8888 a03c
000003b0: 9856 02bf 0af4 94be ac18 abbe 98a6 83be
000003c0: 3fc6 1fbf e9d9 983d ce47 3ebf 6f8e 1cbf
000003d0: 4ed4 143f 1fee 6ebe 5529 63be 8061 debe
000003e0: 56d2 14bf 0bff d43c 069d 61be 7d56 10bf
000003f0: 4cdd 143f 8b6f a1be 2794 123e 0b7e 37bf
-0.25959396 -0.2924434 -0.27297443 -0.88794607 0.2534717 -0.6510229 -0.16806985 -0.6509667
-0.5531793 -0.5826147 -0.58340627 -0.9471063 -0.23727173 -0.35037208 -0.29132268 -0.6148184
-0.3714551 -1.0068308 -0.27412066 0.6330122 0.035532646 0.5813955 -0.0670599 -1.0908792
-0.78248143 0.48157716 -0.004418156 -0.42772305 0.5813916 -0.5279488 0.40528005 -0.6436455
-0.42362007 -0.3159744 -0.24026714 -0.58143955 0.25044534 -0.70031196 0.47302547 0.6600772
-0.19475737 0.1446959 0.728813 0.16785938 -0.37273347 0.5743243 -0.44211626 0.53598475
-0.14456147 -0.29807106 0.13084903 0.2927076 -0.27305448 -0.7755314 -0.5813803 -0.19824208
-0.60776114 0.4843624 -0.2894423 -0.3526594 -1.027481 -0.9566957 0.27280715 0.28986937
0.3466971 0.57872176 -0.13983214 -0.090509795 -0.3015508 -0.28546795 -0.70860976 0.33651358
-0.7579017 -0.6328252 0.188158 -0.41110495 -0.03242907 0.58127683 -0.29237458 -0.2947141
-0.637995 0.21941152 -0.5813974 -0.84998906 -0.5805593 -0.6721267 0.5040055 0.019199597
0.33961987 -0.55492836 -0.29067242 -0.6336593 0.33400625 0.5260472 -0.21570691 -0.71913797
-0.29463848 -0.6185531 0.11378974 -0.5816615 0.58391106 -0.4764005 -0.7234793 -0.23304226
0.14495645 -0.16839449 0.24828866 -0.46761942 -0.26555443 -0.10059903 -0.77508074 -0.8173526
0.4126743 -0.68132365 0.54726076 -0.9230152 0.3994774 0.5813854 0.31851214 -0.2823865
0.42986506 -0.144415 -0.5989207 0.9698534 0.19809309 -0.28848338 -0.20307282 0.5815297
-0.29032078 -0.5908637 0.4101371 -0.57916594 -0.39383245 -0.58206636 -0.86081725 0.43487486
-0.24928162 -0.31039584 0.002714121 0.35242617 -0.71787626 0.8070616 0.6349602 0.26322496
-0.34651768 -0.4738513 -0.6278689 -0.23533662 0.32666245 -0.21469457 -0.30230576 -0.7548396
-0.6607343 -0.25086856 0.23847002 -1.0334088 -0.33786094 0.2874261 0.547429 -0.5778723
-0.53586864 -0.3128941 0.51774114 0.1427449 -0.38759848 0.32145095 0.5163375 0.110254675
0.57797456 -0.0737324 0.0022718143 -0.32308328 -0.33548462 -0.35483116 0.019678732 -0.33618686
0.5821334 0.28367984 -0.57911634 -0.33094254 0.00812631 0.032883625 -0.28927737 -0.5819675
0.43541673 0.090860344 0.59234977 -0.9494184 -0.22444867 -0.58460075 -0.33627662 -0.016279947
-0.1411772 0.28212574 -0.2910484 0.6588164 0.58150446 -0.39181718 -0.36959505 0.5813511
-0.14606327 -1.1480535 -0.39999068 0.5813746 -0.21869409 -0.5803717 -0.012717669 -0.13455053
-0.2557481 0.10710559 0.19928756 -0.69097155 -0.29139644 -0.3462591 -0.5807185 -0.58138305
-0.44662198 0.41781035 -0.28812134 0.5699103 -0.36504838 0.03156342 -0.022180814 0.5867002
-0.5845109 0.29669538 -0.13832827 0.4418796 -0.28418508 0.10708668 -0.406674 -0.36289072
0.29636255 -0.07856667 0.0066696764 0.019596353 -0.5091338 -0.29092437 -0.3341726 -0.25713038
-0.62411875 0.07463438 -0.74328315 -0.61154836 0.5813645 -0.23333023 -0.22183736 -0.43433762
-0.5813345 0.02600052 -0.22032556 -0.5638197 0.5815017 -0.31530413 0.14314328 -0.716767
