modeldata/a11_Opt12k_cos_s00n_Aug_BitMnist_PerTensor_4bitlog_RMS_width64_64_64_lr0.001_decay0.1_stepsize10_bs128_epochs60.pth (torch, 103695 bytes, 4 tensors)

fc1.weight f4 [64, 256]
00000000: 5977 9db9 6ebb 91bc 3244 773d 7c0f 063c
00000010: 6d41 a03d 6dda ef3d 6f9b f23d c237 81bd
00000020: 8235 63be 5edc 72be 2789 8cbd c804 933d
00000030: 4aa7 a83c e5db 8d3d be53 ed3c e58e dd3c
00000040: 99ef 8f3c 8453 f93b 13fc d43c b302 e63d
00000050: d4a4 f23d d0e0 3f3e 7125 083e b5d5 87be
00000060: baf6 41bf 2fb6 25bf 3eb2 0eba d6d8 a93e
00000070: 8f42 843e 0b04 5f3d 4952 a73d 4605 11bc
00000080: 1c08 fb3c 7dba 8f3d 156f 7a3d 81d0 e23d
00000090: ef54 3b3e 010c 8b3e 0b39 a93e 49cf e8be
000000a0: aa9f eabf 8101 7abf 2cbb 643e c202 e93e
000000b0: a69e 8f3e fc52 b13d ae06 003d dc9b 2a3c
000000c0: e012 2c3d a89d 303d 3a62 4f3b e446 723d
000000d0: 89bd 4c3d 755b 693e e69d f43e d08a 08bf
000000e0: de05 22c0 eaa5 e8be bc10 013f 2b50 e83e
000000f0: ff5a 383e e46d 5bbd 0279 06be a445 77bd
00000100: 4296 8e3d 4971 593d 5da5 dc3c a996 ab3b
00000110: 578b 31bd dcc4 683e a945 f93e b6bb e8be
00000120: 5fc5 cdbf 961f 063e 5bbc e83e c60e e13d
00000130: 7ce1 0cbe 273c 67be 86e1 63be b4f4 d8bd
00000140: a683 7d3d 333d 383d 733a 003c 153c e9bc
00000150: 6c3b 8dbd 5fab 633d e0fe ed3e 0b55 d2be
00000160: 47ac 37bf cabb e83e 267d 8e3e 723e f8bd
00000170: 1ad2 77be a6ef 66be 94d6 0abe 481c 79bd
00000180: 1a9d b43d 4989 a9bb 6fa2 6d3d 4ea0 fa3c
00000190: e2f6 30bd b4c2 733d 4157 b83e e73b 29be
000001a0: 41d0 68be 7f3f 673e 8a48 343d 0f0d f8bd
000001b0: f19e f6bd f3ca debd fe00 dcbc 4ec7 633d
000001c0: 6b70 abbc 739b 363d cdaa 7ebc 315b 1f3d
000001d0: b6fb a5bb a314 ecbc f76b 683e 85c5 94bd
000001e0: c77b 83bd 8838 6e3d ae49 a8bb 88e0 e0bd
000001f0: 032a 80bc 4efc dc3d 3362 e23d 0982 dd3d
00000200: 6b35 e93c 3c45 8abd 4252 3bbd 397d 523d
00000210: f794 28bc 9a12 053c 1eaa 653d 47be 50bd
00000220: b476 553d 6ca6 18bd acfe 423c 5b82 c43c
00000230: c473 733d d61e 8a3d 42a3 9b3d 8057 9bbc
00000240: 5e03 533d 5400 d1bc 6fee 47bd 2b4b dd3b
00000250: 6e77 d4bc 84f2 53bd 0866 433c e422 513d
00000260: 685e 27bc 8d0b cabd 27b4 6a3c 172c 5a3d
00000270: 0125 c93d 6357 11bd 4d53 323c 0c2b 663d
00000280: 990e 3d3d bfee c3bc 5d36 90bb d88e ae3c
00000290: a674 0cbd b545 043d d801 643d fbdc da3b
000002a0: 50c2 2ebd 1713 e0b9 ba24 3bbd 2aa6 97bd
000002b0: f323 c33c 75d5 4ebd 0f00 e5bc 1a9f 463d
000002c0: 5558 c43c 2697 84bc 0203 86bd 3342 683d
000002d0: ca52 e83c e46c e6bb d84e 8f3d a1f9 81bd
000002e0: 317c c13c 9b0b 35bc 37fc 4a3d a9e8 bf3d
000002f0: 4d3e d03c 12bb 6fbb 1370 6abc d4a3 653d
00000300: ceb7 a4bb 8bd5 703c 32da aabc 3863 073d
00000310: 5018 d6bc 89a0 ecbc 62b1 b1bc da6d 23bd
00000320: f3c5 3ebd 1795 d93a e626 d53c 9713 3cbd
00000330: 3c80 cc3c ca80 b03d 4281 93bc 1c6c aabc
00000340: 1602 883d 52a0 a33c a582 b5bd 6564 52bd
00000350: 4858 e7bc 3bce 74bd ed32 2bbd b8ff 953d
00000360: c9ba 413b 573f a0bd 9953 cd3c b892 9dbd
00000370: ec3f 553d b71e 7a3d 3bcf 483d a24a 993d
00000380: 8038 dc3c 2e88 01bd 6c75 3f3c 9f69 d5bc
00000390: 0faf b83b fae2 bc3c a6c9 d2bd 8959 9a3c
000003a0: 5c01 82bd 56c9 7fbd 2598 843c c0cd 31be
000003b0: 21be b7bc 0733 58bd ddde ab3b a440 6c3d
000003c0: 5223 213d ed73 20bd 7196 38bd 1a5c 5e3b
000003d0: a643 5a3d 6bc8 5abc 5a07 b2bc 0f1b c4bc
000003e0: 7ffd f7bc f244 8fbd 451f 24bc ee35 00bd
000003f0: 5b4c 2b3d d9cd 5a3d cae8 c7bc 49ab ac3d
-0.00030034294 -0.017789569 0.06036777 0.008182403 0.07824979 0.11711583 0.11846053 -0.06309463
-0.2218838 -0.23716876 -0.06862097 0.07178646 0.020587582 0.06926707 0.028970595 0.027045676
0.017570304 0.007608833 0.025999105 0.112309836 0.11847845 0.18738103 0.13295533 -0.26530233
-0.757671 -0.64731115 -0.000544343 0.33173245 0.2583203 0.054447215 0.081699915 -0.008851355
0.030643515 0.07017992 0.061141092 0.11074925 0.18294118 0.27157596 0.33051333 -0.45470646
-1.8329976 -0.97658545 0.22337025 0.45509917 0.28050727 0.08658406 0.03125637 0.010413136
0.042010188 0.043119103 0.003164424 0.059149638 0.049985442 0.22788794 0.47776717 -0.5333681
-2.531608 -0.45439082 0.5041616 0.45373663 0.18003462 -0.053571597 -0.13132098 -0.06036915
0.06962253 0.053086553 0.02693432 0.005236466 -0.043345775 0.22731346 0.4868596 -0.45455712
-1.6075858 0.13097987 0.45456204 0.10989146 -0.1375789 -0.2258154 -0.22253999 -0.105935484
0.061893128 0.04498024 0.007826435 -0.028471032 -0.068960994 0.055583354 0.46483517 -0.41080508
-0.7174725 0.45455772 0.27829856 -0.121212855 -0.24201241 -0.22552356 -0.13558418 -0.060817987
0.08819027 -0.0051738364 0.058016237 0.030594017 -0.043204196 0.059511855 0.3600407 -0.16526757
-0.22735693 0.22582816 0.04401449 -0.12111866 -0.120420344 -0.10878553 -0.026855942 0.055609994
-0.020927629 0.04458184 -0.015543652 0.038905326 -0.0050654067 -0.028818434 0.22697435 -0.07264236
-0.06420093 0.05815938 -0.0051357364 -0.10980326 -0.015645033 0.10790311 0.11053886 0.10815818
0.028467854 -0.06751487 -0.045732744 0.051388953 -0.010289422 0.008122111 0.05607044 -0.050962713
0.052115157 -0.037268087 0.011901539 0.02398794 0.059436575 0.06744163 0.07599498 -0.018962622
0.051516883 -0.025512852 -0.048811372 0.0067533455 -0.025935855 -0.051744953 0.011926182 0.051058665
-0.010215379 -0.098654844 0.014325178 0.053264704 0.09821511 -0.03548373 0.010884118 0.056193396
0.0461565 -0.023917554 -0.004401012 0.021308348 -0.034290932 0.03229304 0.05566582 0.006679175
-0.04266578 -0.00042738832 -0.045689322 -0.0740474 0.023820853 -0.050496537 -0.02795413 0.048491575
0.023967901 -0.016185354 -0.065435424 0.056703757 0.02835979 -0.0070320237 0.0699746 -0.06346441
0.02361879 -0.01105013 0.049556937 0.09370548 0.025420332 -0.0036580008 -0.014308947 0.05606444
-0.005026794 0.01469935 -0.020855997 0.033053607 -0.02613464 -0.028885143 -0.021691028 -0.039899684
-0.046575498 0.0016600218 0.026019525 -0.04591712 0.02496349 0.086183146 -0.01800597 -0.020803504
0.06641023 0.019973908 -0.08862809 -0.051365275 -0.028240338 -0.05976699 -0.041796613 0.07324165
0.0029560796 -0.07824581 0.025064277 -0.07694 0.052062914 0.06106445 0.049025755 0.07484938
0.02688241 -0.03162401 0.01168571 -0.02605134 0.005636103 0.02305745 -0.10292368 0.018841522
-0.063479155 -0.06244787 0.01618583 -0.17363644 -0.022429528 -0.05278304 0.005245073 0.057678834
0.039340325 -0.039173055 -0.045065347 0.0033929409 0.05328717 -0.013353447 -0.021732021 -0.023938684
-0.030272244 -0.06995572 -0.010017221 -0.03130143 0.041820865 0.053418968 -0.024402995 0.084311076

fc2.weight f4 [64, 64]
00000000: 8d28 133e 54a8 183e 401a ccbe 61a2 df3b
00000010: ff18 e23c e731 55be 490b 3e3e 821c a73d
00000020: 0359 4b3e fafa e63d 4608 5bbe 1826 5bbe
00000030: d028 e3be f96b 4dbe dcb0 0bbe 0602 14be
00000040: f077 1b3e 1562 cb3e fa65 cb3e 5430 5abe
00000050: 0868 a7bc f622 05be 2609 c03c 0d80 b3bd
00000060: 662e 7dbd 74aa f63b ab85 cbbe 42e6 503d
00000070: 8940 f5bb 6567 b73c 1a7e 15be 4b0d b63e
00000080: 0cdd 8e3d b645 193e b9bc 8cbe 0e6f 41be
00000090: c0e5 29bc d02a d8bd 550d 0c3d c982 afbe
000000a0: 5c2f c0be 646e 4bbf 1bdf 093e b9fe 713d
000000b0: c923 18be 7c87 77be 1f81 3c3e aea7 91be
000000c0: 3817 0d3e bec0 45be efc7 713e 937e cb3e
000000d0: 7efd cc3d 21a9 403e 9a27 3fbe 4551 5b3e
000000e0: 82c2 55bc 8631 0bbd 21f9 96bd 920e 15be
000000f0: 52ed b23e 1432 a13d 83c4 9a3e 974e ccbe
00000100: f103 043f cc30 cebe ebcb df3d f294 ffbe
00000110: 91ba cf3d d411 51be 183c f73d a5b7 ce3e
00000120: 1ea1 eabb c0db 40bf 64a5 e93d 33d8 403d
00000130: 2217 31be 5f29 293d d8f9 403e 7b44 4b3d
00000140: 33f8 833d c0f8 e53d f0c5 4abe b15b cb3e
00000150: dbcf a73d c681 7abc ea3d 173d bbd2 4dbe
00000160: eb5a 4bbf ae9c 2d3e d280 ca3d a62f cfbe
00000170: 43f2 2cbe a4b6 993d 6c14 423e 4902 7fbe
00000180: 3b9d b0bd 5530 bfbd 1149 423e 63ec 88bd
00000190: 62c6 a1be a93c 493e 3afa 323e 5936 ac3e
000001a0: 8644 703e 8b51 4b3e d61a c23d e26d cbbe
000001b0: c7d0 4b3e 56da efbd 6b99 ba3d bd6e 4bbf
000001c0: 2a7f 5f3d f06e 4bbf c34e db3d d81f 873e
000001d0: 4c0a 4c3e e4f0 0f3f 53e4 143e 0ded 383d
000001e0: 6882 bc3e 8878 cbbd 0886 cf3d 0d59 50bd
000001f0: 6bd8 4b3e e0dd 52be ab90 b9bd d35b e1bd
00000200: 07f5 02be a42f 9cbe ff48 213e e16e bd3e
00000210: 8974 83bd 3a83 123e 5cba 51bd 21df 71bd
00000220: 7a90 063e 6277 433e d06e 47be 0774 f3bd
00000230: 936a 4b3f 986f 54be 5b9d 503e 829c 4b3e
00000240: 1b6e cbbe 7263 bb3d 6a58 0ebd a5c0 61be
00000250: 98d5 493e 0d25 c93e 0cbc 7f3e 4454 4c3e
00000260: a9cb 18be 7bf5 d3be 28c1 52be da39 30bd
00000270: d850 e13e 8fff 8fbc 7bb3 42bd 062b 493d
00000280: a778 083d 4c6d 87be cd36 a8bd 080b d2be
00000290: ed50 b43e a66d cbbe 7a94 383d ad2f 89be
000002a0: ffa0 0c3e 0893 c7be da6e 4bbf 3770 a53d
000002b0: 7030 11bf a5a5 523d 9fbb 7d3b 5c18 e13d
000002c0: 5dc5 22bd 5269 7b3d db25 563c eb7f e2bd
000002d0: 8c62 9fbd 3dd3 6f3d d6a8 093e e132 4b3e
000002e0: 7c48 b8bd a949 983d c208 50be 4c24 8cbc
000002f0: e7b3 b8be e96c cb3e a749 bc3d ab32 2e3d
00000300: 289b 47be 3945 4b3e 1a0e 52be b56b d73e
00000310: 3d58 fc3c 6d8a 353f c725 8c3c b209 893d
00000320: 673e 753d 6e2f d93e b38d 133f 0900 ce3e
00000330: bb28 6a3e 9f12 cfbd 007b cb3e 3bf5 5fbd
00000340: a07e 3e3c 9599 7c3e 1351 cb3e 017c 24be
00000350: aa4b 13be d117 dc3c 78d1 753e 6305 ad3d
00000360: e5a1 263e cbea 8bbd 85be 10bd 3894 35bc
00000370: f317 853c 3efc cbbd f70f fe3d 256e cbbe
00000380: 9f07 bb3c 90c4 d93d 35ba 6c3d 31d7 a6be
00000390: 10b5 f6bd dcf7 b1be 2c27 40be 206f 4b3e
000003a0: 2cab 55be 2bd1 a6bf 1436 cbbe 3c79 cb3e
000003b0: 50e7 9b3d 1d13 f43b 829c c63e 7ac7 453d
000003c0: ad90 4fbe c98b 733d 74e6 46be dbaa 543d
000003d0: 74c9 2a3e 92da b4bd 8303 b63e 56e3 50bf
000003e0: 8076 6ebe 6c1c edbd 154a 4bbe b811 febc
000003f0: e94c 4b3e 5d73 cb3d e5cd 4bbe 276d 4bbe
0.14370938 0.14907962 -0.39863777 0.006824777 0.02759981 -0.20819817 0.18558992 0.08159734
0.19858174 0.11278339 -0.21389875 -0.2140125 -0.44367075 -0.2006072 -0.13641685 -0.14453897
0.15182471 0.39723268 0.3972624 -0.21307498 -0.020435348 -0.13001618 0.023441862 -0.08764658
-0.061811827 0.007527644 -0.39750418 0.05100084 -0.0074845 0.02238817 -0.14598885 0.35557017
0.06975755 0.14967999 -0.27487734 -0.1889002 -0.010369718 -0.10555041 0.034192402 -0.3427947
-0.37536132 -0.7946532 0.13464014 0.059080813 -0.14857401 -0.24172777 0.18408631 -0.28448242
0.13778389 -0.19311807 0.23611425 0.39745006 0.10009287 0.18814518 -0.1866745 0.2141772
-0.013046863 -0.033982776 -0.07371736 -0.1455634 0.34946686 0.0787088 0.30228052 -0.3990371
0.51568514 -0.40271604 0.10927566 -0.49918324 0.101430066 -0.20416957 0.12072009 0.40374485
-0.00716032 -0.7533531 0.11408499 0.047081184 -0.1729398 0.04129922 0.18845308 0.049625855
0.064438246 0.11229086 -0.1980207 0.39718392 0.08193942 -0.015289729 0.03692428 -0.20099919
-0.79435605 0.169543 0.09887852 -0.4046604 -0.1688929 0.07505539 0.18953103 -0.24903215
-0.08623739 -0.093353905 0.18973185 -0.06685712 -0.31596667 0.19652046 0.17478266 0.33635214
0.2346364 0.19855325 0.09477775 -0.3973227 0.19903861 -0.11711566 0.091112934 -0.7946585
0.054564632 -0.7946615 0.10708382 0.26391482 0.19925803 0.56226945 0.14540224 0.045147944
0.36818242 -0.09935099 0.10132986 -0.050866175 0.19906776 -0.20592451 -0.09060796 -0.11003842
-0.12788783 -0.30505097 0.15750502 0.36998656 -0.06418712 0.14307871 -0.051203117 -0.059050683
0.13141051 0.1908851 -0.19475865 -0.11887365 0.79459494 -0.20745695 0.20372526 0.19883922
-0.3973244 0.09149827 -0.034752287 -0.22046144 0.19710386 0.3928608 0.24974078 0.1995402
-0.1492144 -0.41398224 -0.20581496 -0.04302392 0.4400699 -0.017577915 -0.047534447 0.049113296
0.033318188 -0.26450574 -0.082135774 -0.4102404 0.3521799 -0.39732093 0.045063473 -0.26794186
0.1373329 -0.38979363 -0.7946602 0.08078044 -0.56714535 0.051427502 0.0038716567 0.10990974
-0.039739 0.06137974 0.013070549 -0.11059555 -0.07782468 0.058551062 0.13443312 0.19843628
-0.089982 0.074359246 -0.20315841 -0.017107151 -0.36074755 0.3973153 0.091937356 0.04252879
-0.19492781 0.19850625 -0.20513192 0.4207436 0.030803794 0.70914346 0.017107857 0.06691302
0.059873965 0.42418998 0.5763809 0.40234402 0.228671 -0.101109736 0.3974228 -0.05467723
0.011626869 0.24667962 0.39710292 -0.16062929 -0.14384332 0.026866825 0.24005687 0.08448293
0.16272695 -0.068318926 -0.035337944 -0.011082701 0.016246771 -0.09960221 0.12405389 -0.3973247
0.022830782 0.106331944 0.05779477 -0.32586053 -0.12046254 -0.34759414 -0.18764943 0.1986661
-0.20866078 -1.3032583 -0.39689696 0.39740932 0.07612479 0.0074485675 0.3879128 0.04828594
-0.20270033 0.05945948 -0.19423848 0.051920753 0.16678411 -0.088307515 0.35549554 -0.8159689
-0.23287392 -0.11577687 -0.19852479 -0.031014308 0.19853558 0.09934113 -0.19902761 -0.19865857

fc3.weight f4 [64, 64]
00000000: 8514 173e 35c9 08be dec1 1e3e 5786 ecbe
00000010: da7b 603e f3bd 333e 30ef 9b3d eacd 353b
00000020: 5a2d a73c d1b2 863d 2f49 33be 5dfd abbd
00000030: a962 f3bd 00b8 be3d edbf 26be 5d08 99be
00000040: 79ea b2be 7be9 103e 9654 7cbe b36e 87be
00000050: 71be 783e 07fb b13d 4d9a 3abe eb8b 7f3d
00000060: 168a 01be 26a1 3b3e 7773 3b3e ad55 963e
00000070: a1a4 aa3c a5e7 b43c 1fe0 4b3d 9813 78be
00000080: b652 183e 337b 32be 1c6b b13e c44d bbbe
00000090: f46b 1ebe 0ba0 debd c8c5 a53d c794 1fbd
000000a0: 9a51 4abd 0af2 b2be d19c 223d 293b b23d
000000b0: b33d 78be ec85 7d3e acaf 953e e000 33be
000000c0: 5a76 013e 4337 b83c aa64 c8bd f4bb 74bd
000000d0: dd5e a6bd 4c05 c1be cfac 4e3e 0da3 41bd
000000e0: 3200 963c e9cf 363b c181 213e 8ffa 873e
000000f0: 86a2 2d3e c3f3 00be 93b5 a73d d512 283e
00000100: a260 1e3e e96e 09be e9cb a1bd 2536 ad3e
00000110: 037c 2f3e 45be fc3d 53c0 b3bd 9543 78bd
00000120: 8ee0 a5bd 3b97 dfbc 2323 44bd e4a0 d8be
00000130: ede7 e3be 93d9 203e 00f1 a83c 92eb 3b3e
00000140: 8091 c7bd c4e6 683d 8822 5cbe 60f8 963e
00000150: f780 da3e 6052 97bd 0738 77bd b3f4 9e3d
00000160: 4879 9fbe 907a 7a3e 2ee4 143e a470 ba3e
00000170: 0c50 e8be 9536 323e 47f3 a33e cd1f 433d
00000180: 3fe8 abbd 1ab3 d1be da46 783e ad5c 89be
00000190: 5c2b 5cbe 20cb c23e 8c05 45be 6827 7e3e
000001a0: 91e3 8bbc 1a59 d6bd 8a89 05be 76bd 093b
000001b0: 644c 31be 5a85 b13e 5ab9 173e b1f1 9ebe
000001c0: 8e55 483e 6d77 043c dab2 e23d 4391 fdbd
000001d0: 873b c43a e195 8cbe b076 27be 476e 883e
000001e0: 80f9 323e be51 ac3e 99ad aebe f3be 2c3e
000001f0: c6e5 b63d 291a 22bc d453 8f3e 7cf3 033e
00000200: 22a5 35be 1c00 3bbd c301 8bbe 1e7b 47bd
00000210: 5a56 f73d 48aa 7fbe 204e 433e b60c 773e
00000220: a243 993c 334b 213e b298 903d d1ee 91bd
00000230: 49df 35be e6a3 4dbe 9cbd 203e bfbb 1e3e
00000240: 2f4c 3d3e 03f7 1d3e 5dba 5a3e cc20 abbe
00000250: 888e 1d3e 8f23 703c 0fee 8c3c b550 063e
00000260: 3699 9f3d a341 b0be a39f 503d 1a0d 8b3c
00000270: 73ae b8be 72a7 933d b310 803e ed75 303e
00000280: 4432 803c 8924 bbbd 21a7 3a3e 5a95 ab3d
00000290: b1f5 953d 67b8 553e ec6f 493d 638d cdbd
000002a0: 852e 3f3d 5053 b63d a57c 83be 592e 323e
000002b0: a4a9 783e 3be2 003e 976a 3ebc a45b 2e3e
000002c0: 597f 2dbd 79e7 b0bd 41dd 323e 2d50 ae3d
000002d0: 207c 773e a89a 39bd fa80 623e 804f cebd
000002e0: d022 33be 92e0 2fbe fca0 12be fcc7 1c3e
000002f0: 0820 d2bc f28f 2a3e 7d65 69be 9edb 30be
00000300: f92c 913e 7e32 a0bd c86d 2b3e e879 113c
00000310: 3317 a83c 00b0 3dbe 8d0e 723e 5da6 523e
00000320: f627 9e3d fcb3 b5bc e76f a1be c0d8 bc3e
00000330: ba84 81bd 6c06 f83d 7960 8b3e e6b3 dbbc
00000340: 535b 8b3c 29b6 d9bd f57a 63bc ccc7 6b3e
00000350: 39c9 c7be 25cc bb3e 7382 2ebe f986 7cbe
00000360: 7a92 393d 0943 823e 3637 fdbd 976f e5bd
00000370: bb7b d7bb 1140 c5be cdc9 c73d 399f c8be
00000380: 0ef5 b1be 6a13 c3bd 5029 343d c11e 0a3f
00000390: 52ba 05be b590 00be fe64 b33d e810 91bc
000003a0: a91f 6ebd 9eef 60bd 1e18 b03d 4fd9 a7be
000003b0: 4fd7 c4ba cc6c 183e 0dc7 4f3e 88f7 b2be
000003c0: e680 df3d 76a7 1cbd 3058 333e 03f4 513e
000003d0: 015b e6be 1ff6 fb3d e4b2 b53d f3f3 b2be
000003e0: c3de 70bd bebf 533e 25f9 72bb 4cef 323e
000003f0: d923 723b acc4 afbe ce47 bf3d 5cb8 0abe
0.14753921 -0.13358004 0.15503642 -0.46196243 0.21922246 0.17552929 0.07613981 0.0027741143
0.020407367 0.06577075 -0.17508386 -0.083979346 -0.11884052 0.09312439 -0.16284151 -0.29889193
-0.34944513 0.14151566 -0.24641642 -0.26451644 0.24291398 0.08690458 -0.18222924 0.062389296
-0.12650332 0.18323192 0.18305765 0.2936224 0.020830454 0.022083113 0.049774285 -0.24226224
0.14875302 -0.1742981 0.3465203 -0.36582768 -0.15470868 -0.108703695 0.080943644 -0.038960245
-0.049394228 -0.34950286 0.039700333 0.0870269 -0.24242286 0.24758118 0.2923559 -0.17480803
0.12642804 0.022487288 -0.09784825 -0.05974956 -0.081235625 -0.37699354 0.20183109 -0.047274638
0.01831064 0.002789492 0.15772153 0.2655835 0.16956529 -0.12592988 0.081889294 0.16413434
0.1546655 -0.13421215 -0.07900221 0.33830371 0.1713715 0.123409785 -0.08776917 -0.060611326
-0.08099471 -0.027293792 -0.04788507 -0.4231025 -0.44512883 0.15707998 0.02062273 0.18351582
-0.09744549 0.0568607 -0.21497548 0.2948637 0.42676517 -0.07388759 -0.060356166 0.077615164
-0.31147218 0.24460816 0.14540169 0.36414063 -0.4537357 0.17403634 0.32021543 0.04763775
-0.08393907 -0.40956956 0.24245778 -0.26828519 -0.21500915 0.38045597 -0.19240397 0.2481972
-0.017076286 -0.104662135 -0.13040748 0.0021017469 -0.17314297 0.34672052 0.148168 -0.3104377
0.19563887 0.008085114 0.110692695 -0.12381222 0.0014971354 -0.274581 -0.1635387 0.26646635
0.17477989 0.33656114 -0.3411682 0.16869716 0.089305446 -0.009893932 0.27993643 0.1288585
-0.17738774 -0.0456544 -0.27149782 -0.048701398 0.12077017 -0.24967301 0.19072771 0.24125943
0.018709008 0.15751342 0.07060374 -0.07125629 -0.17760958 -0.20082054 0.1569733 0.15501307
0.18486093 0.15426259 0.21360154 -0.3342346 0.15386403 0.014656915 0.017203359 0.13116725
0.077928945 -0.34425077 0.05093349 0.01697402 -0.36070594 0.07209672 0.2501274 0.17232485
0.015648969 -0.09137828 0.18227817 0.08378096 0.073222525 0.20871125 0.049179003 -0.10036733
0.046675224 0.08902609 -0.25681034 0.17400493 0.24283463 0.125863 -0.011622093 0.17027146
-0.042357776 -0.086379 0.17467214 0.08511386 0.24168444 -0.045313507 0.22119513 -0.10073757
-0.17493749 -0.1717551 -0.14319223 0.15310663 -0.02565004 0.16656473 -0.22792621 -0.17271277
0.28354624 -0.078221306 0.16741097 0.008879162 0.020518875 -0.1852417 0.23638363 0.20571275
0.07722466 -0.02218055 -0.31530687 0.36884117 -0.06324144 0.121106 0.2722204 -0.02681918
0.01701132 -0.106304474 -0.013884296 0.23025435 -0.39020708 0.36679187 -0.1704195 -0.24660863
0.045305707 0.2544177 -0.12364046 -0.11202925 -0.006576029 -0.3852544 0.09755287 -0.39183977
-0.34757274 -0.09525187 0.04398471 0.53953177 -0.13059357 -0.12555201 0.08759497 -0.017708257
-0.058135662 -0.054916017 0.0859835 -0.3278298 -0.001501778 0.14885253 0.20290776 -0.34954476
0.10913257 -0.03824564 0.1751411 0.2050324 -0.44991305 0.12302803 0.08872011 -0.34951743
-0.058806192 0.20678613 -0.0037074771 0.17474097 0.0036947636 -0.34329736 0.093398675 -0.1354689

fcl.weight f4 [10, 64]
00000000: 72a4 de3e c967 a73e cb1a 1cbf 1b4b 21bf
00000010: f537 27bd 5f2c cc3d 5b8a 50bf 7900 00bf
00000020: 5eef ccbd 5330 ce3e e8ea bf3e e3d0 d0be
00000030: e3cb 343f 62f1 5ebe 7158 4ebf 35f7 56bf
00000040: ec77 773d 4553 38be ca94 cebe 9647 e5be
00000050: 42c0 26bf f5d1 d53e 094b d2bd 3d06 71bf
00000060: ae6b 69bf a16f bdbe d235 f73d f3c3 0dbe
00000070: 78f3 15bf 10b2 cfbe 583d 0a3f 15de f5be
00000080: 5105 72bf 5b98 8d3d 1a38 2a3f 23af 26bf
00000090: 82a9 eebe 4197 a9bd f443 41bf ac26 d0be
000000a0: 238b 1dbf be34 cdbe a77e 2abe b243 93be
000000b0: 7f9c 2dbf 1e61 e13d a740 0fbf 7b9e 373f
000000c0: dfe4 3e3f 91f6 33bf 4092 4ebf 2491 4e3f
000000d0: 4c10 3bbf cc99 4ebf 223c 3fbe f442 f5be
000000e0: 557c 983e b803 45bf be4a c0be e829 15bf
000000f0: b196 a6be 5891 b9be abf4 193f 5217 c43e
00000100: 0d95 0fbf 9629 3c3e 5930 80be 9d13 e4be
00000110: 52ee cbbe c47d 94bf 064c 923e 236b 43bf
00000120: 6449 df3e a75e aebe c726 18bf 89e5 f03b
00000130: ae29 e13e ad0b 513f fcb4 873d 9a70 253f
00000140: 1e61 1d3e 5494 ce3e baf2 4ebf 6ea6 553d
00000150: accd 4e3f 1aa3 4e3f 2094 cebe 7b28 b33d
00000160: d79f b8bd de7c fabe a326 d6be eb76 ffbe
00000170: a49f 79be 2a6e 293f dc1c 09bf 03a2 fd3e
00000180: 703e 71be efac ce3e 2292 cebe c88f ce3e
00000190: 0678 1ebf 77ca 8e3e 2a27 1ebf 6f7a c2be
000001a0: ecaf 8b3e 3b41 c73e 930e 67be 75a0 22bf
000001b0: 88e2 ccbe b170 413e 97f3 9d3d 8a60 cdbe
000001c0: d8db 65bf 3214 32bf 559f 4bbf 15ae ccbe
000001d0: 8671 c33e d004 b63e 6444 8e3e 6de9 41bf
000001e0: ca97 30bf 03a2 9abe 4fda 28bf f7c3 e23e
000001f0: 0ad4 acbe ac53 f6bd e146 12bf 5fe7 2cbf
00000200: 5e19 0e3f 92ba 9e3e aa91 43be 3a61 d23e
00000210: e5ba f63e f9a8 1dbf 634b 5abf 2354 34bf
00000220: 6706 813c 7457 47be 1bbf 0ebf 11da 9f3e
00000230: 170f 19be ae57 87be 0d86 c93e 29f8 95be
00000240: f989 ccbe 368a 94be f55f cebe a15e 913e
00000250: c7a9 4ebf c4f9 11bf 9e49 cb3d 1a9e 2ebf
00000260: 1e53 01bf 30ae 2dbf a6fc c83e e8d3 e23e
00000270: 0cb6 04bf 2749 ce3e 9190 a83e 4b93 4ebf
00000280: 75a4 623e 82ba 75be b1b1 74be 95d0 f53e
00000290: 4fd0 123e 1045 503f eec9 67bc 5692 463e
000002a0: e742 043f 1fae b1be 4c36 b2be 6f53 d13e
000002b0: 845a 93be 0238 15bf 6c68 d7bd 53c8 82be
000002c0: 6297 8cbe cb45 42be 2b60 bfbd a7e1 53bf
000002d0: 2a92 4ebf d054 0fbf 5026 bdbe d744 77be
000002e0: f448 233f 8539 cdbe 7d9d ecbd 7738 0abf
000002f0: f263 debe 93b1 57bf 5bd9 3bbe eed3 c43e
00000300: 6a8c 90be 2bdb c53e 4bee 2bbf d48e 293e
00000310: 5e5d eebe 8fac 66bf 723b cebe 35ac fdbd
00000320: e53b 4fbe 869d c5be c5ac c6bd 058f df3e
00000330: 24bf 40be 5655 01bf 12bc ac3e e313 eabe
00000340: dc9e b83c 3885 52bf e422 c9be 7d41 cebe
00000350: d92b 8a3d aaff 4ebf 8ee9 ce3e ed95 673d
00000360: 1a9e 4e3f 9bb9 0abf 54ac c0be defb cdbe
00000370: 3950 9cbe 35b9 17bf 806e 4fbf 18da 0fbf
00000380: 817e ccbe e821 4dbe 8f48 65be 274a d0be
00000390: 9641 07bf fb5e d2be dfe9 3bbe 4bc5 143f
000003a0: 0b81 d23d 83fa 84bd 2d93 ce3e 000a ef3e
000003b0: 9c9e 9c3e 415f 1cbf 67db 8ebe 1445 d03e
000003c0: 48b7 5fbe 2587 113f 1755 81bc 4b1f b43d
000003d0: 3b6e 9e3c 5fba 973e e683 e3be d978 3bbe
000003e0: 0bfe d33d ca7f ce3e c832 c83e 5c22 003f
000003f0: ddbf ce3e 8cef 9fbe 16fb 143f 8a9b 203e
0.43484837 0.3269637 -0.6097838 -0.63005227 -0.04082485 0.099694006 -0.81461114 -0.5000072
-0.10006593 0.40271243 0.37483907 -0.40784368 0.70623606 -0.21771768 -0.806037 -0.8397096
0.0604171 -0.18000515 -0.40347892 -0.44781178 -0.6513711 0.41761747 -0.10268218 -0.94150144
-0.9117993 -0.3699923 0.12070812 -0.1384428 -0.5857463 -0.40565538 0.53999853 -0.48020998
-0.9453936 0.06913825 0.66491854 -0.6511099 -0.466137 -0.082808025 -0.75494313 -0.40654504
-0.6154043 -0.40079302 -0.16649877 -0.28762585 -0.6781692 0.11004852 -0.55958027 0.71726197
0.7456798 -0.70298105 -0.8069191 0.80690217 -0.7307174 -0.80703425 -0.18675283 -0.47902644
0.29782358 -0.769588 -0.37557024 -0.5826707 -0.32536843 -0.362437 0.6013896 0.38299042
-0.5608681 0.18375239 -0.25036886 -0.44546214 -0.3983026 -1.1600881 0.28573626 -0.7633535
0.4361068 -0.3405659 -0.5943417 0.0073515815 0.43977112 0.8165844 0.06626317 0.6462494
0.15369079 0.4034754 -0.8083912 0.052160673 0.8078258 0.80717623 -0.40347385 0.087479554
-0.09014862 -0.4892339 -0.41826352 -0.49895415 -0.24377304 0.6618372 -0.5355966 0.49537668
-0.23558974 0.40366313 -0.40345865 0.4034407 -0.6190189 0.27888843 -0.6177851 -0.37984034
0.27282655 0.38916954 -0.22564153 -0.6352609 -0.4001658 0.18890645 0.07712477 -0.40112716
-0.8978858 -0.69562066 -0.79539996 -0.39976564 0.3817255 0.35550547 0.27786553 -0.75746804
-0.6898161 -0.3020173 -0.6595811 0.44290134 -0.33755523 -0.12027678 -0.571394 -0.67540544
0.5550746 0.31001717 -0.19098535 0.41089803 0.48189464 -0.61585957 -0.8527128 -0.7044088
0.015750123 -0.19466954 -0.55760354 0.3122106 -0.14947163 -0.26434082 0.39360085 -0.29290894
-0.39949015 -0.29011697 -0.40307584 0.2839251 -0.8072781 -0.5702174 0.09926151 -0.68209994
-0.5051745 -0.67843914 0.39255255 0.44302297 -0.5184028 0.40290186 0.32922795 -0.806935
0.22133048 -0.23996928 -0.23895909 0.48010698 0.14337276 0.8135538 -0.014147265 0.1939176
0.51664585 -0.34703156 -0.3480705 0.40883967 -0.28779995 -0.58288586 -0.10517964 -0.2554346
-0.27459246 -0.18971936 -0.093445145 -0.82766193 -0.8069178 -0.5598879 -0.36943293 -0.24147354
0.6378319 -0.40082946 -0.11553476 -0.5399241 -0.43435627 -0.8425533 -0.18344633 0.3844294
-0.28232127 0.38643774 -0.6716048 0.16558391 -0.4655561 -0.90107054 -0.40279728 -0.123863615
-0.20237692 -0.38596743 -0.09700922 0.43663803 -0.18822914 -0.5052084 0.33737236 -0.45718297
0.022536688 -0.82234526 -0.39284432 -0.4028434 0.067466445 -0.8085886 0.40412563 0.056539465
0.80709994 -0.5418946 -0.37631476 -0.40231222 -0.30529955 -0.5926698 -0.81027985 -0.5619216
-0.39940265 -0.20032465 -0.2239096 -0.40681574 -0.5283445 -0.4108809 -0.18350933 0.58113545
0.10278519 -0.06493094 0.4034666 0.46687317 0.3058976 -0.61082846 -0.27901766 0.40677702
-0.2184726 0.5684684 -0.015787644 0.08795031 0.019339671 0.29634377 -0.44436568 -0.18307818
0.10351189 0.4033187 0.39101243 0.5005243 0.40380755 -0.31237447 0.58195627 0.15684333
