modeldata/a11_Opt12k_cos_s00_Aug_BitMnist_PerTensor_4bitlog_RMS_width64_64_64_lr0.001_decay0.1_stepsize10_bs128_epochs60.pth (torch, 103689 bytes, 4 tensors)

fc1.weight f4 [64, 256]
000000 a1 7a 36 bd df 3d 1e bd 4c 21 d0 bd 1d ed 96 bd
       -0.04455054 -0.038633224 -0.10162601 -0.073694445
000010 59 a1 0a be 92 d9 f2 bd 4e c4 04 bd 63 74 34 3c
       -0.13538112 -0.118579045 -0.032413773 0.011014077
000020 af c4 31 3e 30 14 6f 3e d4 1e a0 3e f8 12 71 3e
       0.17360185 0.23347545 0.3127352 0.23542392
000030 e3 2a 20 3d a1 50 e9 bd ca f4 0c be e2 fa 05 be
       0.0391034 -0.11392332 -0.13765255 -0.13083985
000040 bc b9 13 be 8a f2 f2 bd cf 44 ee bd fd 8e fd bd
       -0.14426321 -0.11862667 -0.11634218 -0.123807885
000050 c4 93 60 bd 16 69 c5 bd b7 1c 02 be a4 b1 c0 bd
       -0.05482842 -0.09639184 -0.12706266 -0.09408882
000060 a5 dd 4a bd 29 b5 79 3e d8 86 d2 3e a3 4f d7 3e
       -0.049527783 0.24385513 0.41118503 0.42052945
000070 ab 06 98 3e 12 2b ea 3d fe 2c 95 bc f5 a3 ca bd
       0.29692587 0.11433996 -0.01820993 -0.098945536
000080 0d 93 13 be 99 a9 e0 bd dc 33 4f be 70 50 24 be
       -0.14411564 -0.10969848 -0.20234627 -0.1604631
000090 1f 56 1f be 85 42 ff bd 86 5a d6 bd 9e e8 cc bd
       -0.15560196 -0.124638595 -0.10466485 -0.10005306
0000a0 1e 29 4d be 1c 87 f0 bd 75 37 6a 3e 0c 59 cf 3e
       -0.20035216 -0.1174452 0.22872718 0.40497625
0000b0 dd be e8 3e c0 2c 86 3e d6 9c 4d 3d 27 75 48 bd
       0.45458117 0.26206017 0.0501984 -0.04893985
0000c0 bb aa 00 be 7d df c6 bd 2a 4a 00 be b0 55 04 be
       -0.12565129 -0.09710596 -0.12528291 -0.12923312
0000d0 c6 35 3f be 53 36 e1 bd 09 17 82 bd dc 64 e6 bd
       -0.18672857 -0.1099669 -0.0635205 -0.11249706
0000e0 b2 df 0a be 42 92 49 be f8 6b 85 3d 01 09 ca 3e
       -0.13561895 -0.19684699 0.06514734 0.39459994
0000f0 da 93 09 3f ca b3 d3 3e 40 a0 4c 3e 9b f0 36 bc
       0.5374123 0.41348106 0.19983006 -0.011165763
000100 39 84 f3 bd 9b a0 90 bd 0b d6 17 be 05 9c e2 bd
       -0.11890454 -0.07061883 -0.14827745 -0.110649146
000110 24 ce 83 be cb 51 22 be 1c ed 79 be 99 5e 52 be
       -0.2574321 -0.15851514 -0.24406856 -0.20543899
000120 ea d0 bb bd 5c c2 64 be 25 a6 80 be cd 66 09 3d
       -0.091707066 -0.22339767 -0.25126758 0.033545304
000130 e9 dc 1a 3f f6 a3 02 3f 78 dd cd 3e 67 65 27 3d
       0.6049333 0.51031435 0.4020803 0.04086819
000140 1a ca 9a bd 68 34 0f be b4 a6 06 be f6 67 5c be
       -0.07558079 -0.13984835 -0.1314953 -0.21524033
000150 77 49 c7 bd 27 c7 d9 bd f6 80 c9 bd d4 4d a8 bd
       -0.09730809 -0.106336884 -0.098390505 -0.082179695
000160 42 d7 11 be 3c c2 68 be dc 41 e9 be c3 fc c1 be
       -0.1424227 -0.22730345 -0.4555806 -0.37888154
000170 62 f8 e7 3e 86 a6 0a 3f 86 4d c2 3e 48 60 0d 3e
       0.4530669 0.54160345 0.3794977 0.1380626
000180 db 20 08 be 19 73 b5 bc d8 b8 31 bd 6c e7 a8 3c
       -0.13293783 -0.02214961 -0.04338917 0.020618163
000190 1b 45 3f 3d 0d dd 81 3c b1 45 b4 3d 62 1e ae bd
       0.046696763 0.015852476 0.08802355 -0.08501889
0001a0 46 27 8f 3c 94 5c ca bd 03 68 d5 be cf 0a ab be
       0.017474782 -0.09880939 -0.41680917 -0.33406684
0001b0 d1 c8 e9 3e da cf 22 3f 0b 9e e9 3e 92 c4 64 3e
       0.45661023 0.63598406 0.4562839 0.2234061
0001c0 d8 86 35 bc 6c 78 1c bd 19 49 1e bb 7f ce 16 3d
       -0.011079513 -0.03820078 -0.0024152456 0.036818024
0001d0 86 87 85 3d 09 a4 47 3b dd 19 66 3d 8a 93 c8 bd
       0.0651999 0.0030462763 0.05617701 -0.09793766
0001e0 3b b6 e4 bd 3a 51 65 be 21 6b a4 be 13 a0 18 3c
       -0.1116757 -0.22394267 -0.32112983 0.009315508
0001f0 cd c0 d4 3e d1 88 e8 3e 0c bb e2 3e ae 51 69 3e
       0.41553345 0.45416883 0.4428333 0.22785065
000200 8e e0 d6 bd 70 42 8a bb 26 91 0b 3e 10 06 45 3d
       -0.10492049 -0.0042193457 0.13629588 0.048101485
000210 66 7a 1f 3d 18 c2 51 3b d0 60 0c 3d eb bb e3 bd
       0.038935088 0.0032006558 0.034272015 -0.11119827
000220 29 b4 d4 bd cd 42 4e bd b4 9d 6a bd df 48 71 3e
       -0.10385925 -0.050356675 -0.057279304 0.23562954
000230 69 2a 69 3e 1b 5e 56 3e 69 77 d8 3d 03 1b 92 3d
       0.22770084 0.20934336 0.10569651 0.07134058
000240 5d 93 60 bd 5e 77 72 bd fe 22 f8 3d f5 8b 02 3d
       -0.054828037 -0.05919587 0.12116049 0.031871755
000250 bc ad 6d 3c bf 9d 87 bd 8c 2e e4 bd ac 1f 68 bd
       0.0145067535 -0.066218846 -0.111416906 -0.05667083
000260 79 a6 4c 3d d5 76 c4 3a a1 b2 86 3d 2a fb 60 3e
       0.04996345 0.0014989028 0.065770395 0.21970811
000270 fc 2e 06 3e 45 a6 ab 3c 58 61 a3 3a b8 9c 40 bd
       0.1310386 0.020953307 0.0012464924 -0.04702446
000280 d8 68 45 bd c4 f3 dd bd f2 32 46 3e ce 5c d0 3d
       -0.04819569 -0.1083751 0.19355372 0.10173951
000290 a5 ab ac 3b e4 09 9a bc 5f 62 5f bd 4c 17 8e 3c
       0.005269485 -0.018803544 -0.054537173 0.017345093
0002a0 b0 b1 e5 3c bc 64 f2 bb 52 4c 22 3d ce 4f 1d bd
       0.02803883 -0.0073972624 0.039623566 -0.038406186
0002b0 9a 32 eb bc 49 d1 92 3c 58 f1 fd bc 05 82 c9 3c
       -0.028710652 0.01792206 -0.03099887 0.024598131
0002c0 9c 7d 61 bd 9f 3b 9b bd 6d f3 57 3e 3d 18 e1 3d
       -0.05505143 -0.07579731 0.21088953 0.10990951
0002d0 ad 98 ca 3c f8 e7 9b 3d f2 ec a6 bb 4f 6d e0 bd
       0.024731005 0.07612604 -0.005094164 -0.10958349
0002e0 c4 e8 d7 bd 77 3c f2 bd b2 7e 8c bc 92 16 d5 bd
       -0.105424434 -0.11827939 -0.017150257 -0.104046956
0002f0 11 7f 52 bd 77 a0 ff 3a fa e4 58 3d 0c b3 97 3d
       -0.05139071 0.0019502778 0.052952744 0.07407197
000300 c2 71 24 bd 36 ca d7 bc 8e a9 16 3d 27 30 e5 3d
       -0.04014755 -0.026341539 0.036782794 0.11190825
000310 b2 8f fa bc de 77 c6 bd ba a8 09 bd 8a 61 ca bc
       -0.030586097 -0.096908316 -0.033608176 -0.024704713
000320 de ec 85 bd 58 da bf bd d6 b2 59 bd bc 44 03 bc
       -0.065393195 -0.09367818 -0.053149067 -0.008011993
000330 cb ef 24 3b e1 cc 23 ba 2e 75 e8 3d 7c 39 8a bc
       0.0025167342 -0.0006248486 0.11350475 -0.016873114
000340 b9 4f dd bd 6a e6 e6 bc 25 6e de bd 80 a2 e5 3c
       -0.108062215 -0.028186042 -0.10860852 0.028031588
000350 fb 8d 10 3d 4a e7 6b 3d 69 7d c5 ba 70 15 81 bd
       0.035291653 0.05759362 -0.0015067282 -0.06302917
000360 f0 b9 bb bb 6e 0c 13 be e0 6e 80 bc d5 46 11 bd
       -0.0057289526 -0.1436021 -0.01567787 -0.03546794
000370 c1 0b 88 bd b0 fb 45 3d 2f 2b 04 3c 93 de d1 bd
       -0.06642867 0.04833573 0.008066936 -0.10247531
000380 50 bc e3 bd 22 49 84 bd 40 f3 b7 bd 38 8e e5 3c
       -0.11119902 -0.064592615 -0.08981943 0.028021917
000390 9d ac b3 3d 2f ff 05 bc fe 01 2d 3d 34 5a f5 bc
       0.08773158 -0.008178516 0.042238228 -0.029950239
0003a0 df f3 2d bc 30 01 03 bd d9 12 e8 3c 49 cf 04 bd
       -0.010617225 -0.031983554 0.0283293 -0.032424245
0003b0 a4 fe 0d 3d 4b 96 c7 3c 5a c0 1a 3d fe 64 00 be
       0.034666672 0.024363657 0.037781097 -0.12538525
0003c0 29 f6 85 bd db 89 6e bd e4 e1 e5 bd 2b 2a 89 3c
       -0.06541092 -0.058236938 -0.11224726 0.01674374
0003d0 38 13 7f 3c 0e 04 9a bd 88 54 ac bd 2a 8d 3f 3d
       0.015568547 -0.075203046 -0.084145606 0.046765484
0003e0 6e 14 b6 bd 01 1e 2c bd 22 6a 37 bc ce ef 1d 3d
       -0.088906154 -0.0420208 -0.011194738 0.038558774
0003f0 5e ba 70 bd a3 a6 d1 bd 97 ff bb bd a8 73 95 bd
       -0.058771484 -0.102368616 -0.09179609 -0.0729745

fc2.weight f4 [64, 64]
000000 2c 7b 41 3e 2e a6 31 bd d7 1c 2e 38 91 7d af bd
       0.18894643 -0.043371372 4.1511692e-05 -0.08568872
000010 f4 e7 14 bd 40 10 d6 bb b5 85 8c 3e a8 ff c8 be
       -0.03635402 -0.006532699 0.2744576 -0.3925755
000020 b7 73 81 3e ba 11 38 3e 1e 7a 4b be c3 7a c4 be
       0.25283596 0.17975512 -0.19870803 -0.3837491
000030 a3 06 45 3e 4b b3 94 be e6 c0 72 3e 20 5a 88 3d
       0.19240813 -0.2904304 0.23706397 0.06657815
000040 ac 94 5f 3e 59 e5 01 be 96 a9 ec bd 75 f5 18 3f
       0.21834058 -0.12685145 -0.115557835 0.5974954
000050 f3 86 ad 3a b3 8e 40 3e 7b 04 80 3c d5 73 b9 bd
       0.001323907 0.18804435 0.015627136 -0.09055296
000060 d2 18 27 3c dd d8 2f bb f4 30 cb bd fa 55 39 bd
       0.010198789 -0.0026832141 -0.099214464 -0.04524801
000070 51 9f d6 bd 9c aa 45 3e 45 03 91 be 28 47 0b 3d
       -0.10479606 0.19303364 -0.28322807 0.034003407
000080 4d 0a 6f 3e 8d bf 68 bd 1c 55 1a 3f 47 2b 4b 3e
       0.23343773 -0.056823302 0.60286117 0.19840728
000090 16 bb c3 be da 24 8e 3e 39 2f b2 bc e6 60 ca 3d
       -0.38228673 0.2776249 -0.021751033 0.09881763
0000a0 22 be da 3d ed 85 10 3f 70 e5 ae bd 75 0f cb be
       0.10680796 0.56454355 -0.085398555 -0.3966023
0000b0 71 01 9a 3e cb af 49 3e a6 98 80 be e6 f8 31 3e
       0.30079225 0.19695966 -0.25116462 0.17380103
0000c0 a7 93 07 3e bd 19 35 3e 4d a4 a1 3c 31 d8 00 3f
       0.13239919 0.176856 0.019731665 0.5032988
0000d0 49 fd ca be e9 d8 c9 3e b4 f3 a3 bd 23 37 42 bd
       -0.39646366 0.39423302 -0.08005467 -0.047415864
0000e0 10 f4 90 bc bf a5 83 3e ac 06 c5 3e 6b 9f 4f bd
       -0.017694503 0.25712392 0.38481653 -0.050689142
0000f0 6e 01 b7 be 88 94 9b bd da 15 86 be b4 8e 10 bd
       -0.35743278 -0.075966895 -0.26188546 -0.035292342
000100 b3 68 e6 bd 40 8a 4e 3d b8 72 c7 3d d0 10 8c 3e
       -0.112504385 0.050424814 0.09738678 0.27356577
000110 0f 02 06 be 51 6a b8 bd 6b 55 12 3e 19 43 56 bd
       -0.13086723 -0.09004653 0.14290397 -0.052310083
000120 7a 24 b0 bd 00 ed b8 3e 44 6d 33 3e 05 b6 ec 3b
       -0.08600707 0.36118317 0.1752215 0.007223847
000130 6f a6 6a 3a 3b 64 a2 3e db cc 96 bd 77 aa 0d 3e
       0.0008951192 0.31717095 -0.07363292 0.13834558
000140 32 33 8f 3e e4 18 07 3e 60 2e b6 bd 4f 82 44 3d
       0.27968746 0.13193089 -0.08895564 0.047975834
000150 9b 56 30 be 53 f2 0d bd d8 72 63 be 09 31 82 bd
       -0.17220537 -0.034654927 -0.22211778 -0.06357009
000160 c9 ce c6 3d ae 80 b8 3e f1 e3 4a be 35 a7 c1 3d
       0.0970741 0.36035675 -0.19813515 0.0945572
000170 33 14 85 3e 13 00 4b be 08 27 8d 3e 0e 29 3a be
       0.25991973 -0.19824247 0.2756884 -0.18179724
000180 ed 75 21 be 81 5e 49 3e 5b 0e c4 3e 09 9a 4a 3e
       -0.15767641 0.19664957 0.38292202 0.19785322
000190 4c 77 28 bf e6 a5 f8 3d df 29 96 3c 93 64 98 bc
       -0.6580703 0.121410176 0.018330513 -0.018602645
0001a0 48 a6 4a bf cb 26 9a 3d 84 da 30 3e b5 13 a7 3d
       -0.79159975 0.075269304 0.17270857 0.08158056
0001b0 25 a9 cc be 1a 78 4b 3e 45 d5 02 3e 20 cc e5 be
       -0.39972797 0.19870034 0.12776668 -0.44882298
0001c0 e2 ff 18 3d 40 73 cd bd d0 32 3f bf 44 a6 f1 3e
       0.037353404 -0.10031748 -0.7468691 0.47197163
0001d0 71 8d b6 bb ad 1f 48 3e c0 1d 35 3e 96 39 48 be
       -0.0055710603 0.19543333 0.1768713 -0.19553217
0001e0 5c 18 08 3e 9f 13 6b 3e 12 ea b3 3e 0d 6c 8e 3e
       0.13290542 0.22956704 0.3513952 0.2781681
0001f0 14 88 5a 3e 2b 98 40 3e 32 ae c7 3d 08 55 3b bd
       0.21340972 0.18808047 0.09750022 -0.04573539
000200 8e 15 80 3d 5d 1b f0 3d c0 d0 59 3e 26 19 d2 bb
       0.06254111 0.11723969 0.21271038 -0.0064116893
000210 52 ed 4b be d2 83 1f be 6c bf 84 be 53 f7 4a 3e
       -0.1991475 -0.15577629 -0.25927293 0.19820909
000220 83 45 8c bd 51 52 cb bd 15 0b 4b 3e cf a9 72 3d
       -0.06849196 -0.0992781 0.19828446 0.059243973
000230 69 45 c5 bd f9 25 04 3f da 13 01 3e 41 76 23 3e
       -0.096323796 0.5162044 0.12605229 0.15963079
000240 e4 bd d5 bd 05 d1 14 3d 1e 0e 48 bc 1e 94 8d 3d
       -0.104366094 0.03633215 -0.012210397 0.06913017
000250 c9 e3 4b 3e 11 da 72 bc c0 87 23 3d ac 80 4e 3e
       0.19911112 -0.014822499 0.039924383 0.20166272
000260 05 84 49 3e eb 1e fe be 55 81 4d 3d ea fe ca bd
       0.19679268 -0.49632964 0.05017217 -0.09911902
000270 1b 73 b8 be e8 4c d0 3d c9 7a d1 bd 23 f8 e5 3d
       -0.36025319 0.10170919 -0.102284975 0.11228969
000280 05 33 d7 bd 0d 7f ca be 24 25 2c 3e 36 ae 58 be
       -0.10507778 -0.39550057 0.16811043 -0.21160206
000290 f1 22 c2 3c 40 c8 dd 3d 43 b8 4a be e5 37 44 3b
       0.023698302 0.1082921 -0.19796853 0.0029940542
0002a0 67 47 94 be 43 5d be 3d 50 e6 fe bd 16 db da 3e
       -0.28960726 0.09295132 -0.124462724 0.42745274
0002b0 ba f2 cf 3e fb 10 cb be 86 21 cb bd bb e2 3f be
       0.40614873 -0.39661393 -0.099185035 -0.18738835
0002c0 05 12 8f bd 9b 1a cb 3e a5 a6 d8 bc 21 d3 de 3d
       -0.06985859 0.39668736 -0.02644665 0.108801134
0002d0 2e e3 48 be 06 a6 d7 3d d5 55 a4 3d ca a1 8c bd
       -0.19617912 0.10529713 0.08024184 -0.06866796
0002e0 04 2d 54 be d7 9b 15 3d f8 0c 6d be d2 c7 c9 3d
       -0.20720297 0.036525574 -0.23149478 0.09852566
0002f0 05 d3 eb 3e 5b 86 cc 3d 3f 1a 4b 3e 0e 61 1a bd
       0.46059433 0.09986564 0.19834231 -0.037690215
000300 be 85 0e be f3 35 b2 bd b3 da f4 be 8f ab 0d be
       -0.13918206 -0.08701696 -0.47823104 -0.13834976
000310 28 e6 4a 3e 09 12 cb 3e 43 ea e7 bd c8 eb be bc
       0.1981436 0.39662197 -0.11323979 -0.023305789
000320 68 15 23 3b 5e 42 aa bc 45 79 3e bd 00 82 b1 3b
       0.0024884585 -0.0207836 -0.04650237 0.0054171085
000330 5a a3 f3 3b ce 12 9a bd 48 de 8b be b9 12 e1 bd
       0.0074352445 -0.07523118 -0.27318025 -0.10989899
000340 d7 e0 17 bf 7a dc c7 3e 82 e9 a3 be f6 ef b5 3e
       -0.59327453 0.39035398 -0.3201409 0.35534638
000350 0d d8 15 be 2f a5 42 bf cb 14 ac 3e 52 7b 04 3d
       -0.14633198 -0.760333 0.33609614 0.03234417
000360 6b 2c 4f be 9e 43 4b 3e d8 8e 3c bd bf 17 75 3d
       -0.20231788 0.19850013 -0.046034664 0.0598371
000370 d6 fc 03 3e 35 8c 38 be c2 76 36 3f 59 50 cd bd
       0.12889418 -0.18022235 0.7127496 -0.10025091
000380 0e 83 77 3e 64 98 4b 3e 5b ae 51 3e 19 14 b5 3d
       0.24171087 0.19882351 0.20476668 0.08841724
000390 dc 14 cb 3e 96 c5 00 be 52 0f cb be 40 f1 90 be
       0.39664352 -0.12575373 -0.39660126 -0.2830906
0003a0 ff be 13 bd 10 4e 84 bd 81 e6 2b 3d c1 48 00 be
       -0.03607082 -0.06460202 0.041967873 -0.12527753
0003b0 d5 d7 89 be 82 6f 42 bd 20 cd c3 3d 5b 5d d8 3c
       -0.2692248 -0.047469623 0.09560609 0.026411703
0003c0 cc 12 cb be 6c 7f c3 3d 2a 6a 86 bc a2 11 47 3e
       -0.39662778 0.09545788 -0.016408045 0.1944032
0003d0 90 7e 31 3d eb 3a ff bd fa 81 88 3e 75 d1 6f 3d
       0.04333359 -0.124624096 0.26661664 0.058549363
0003e0 49 06 87 3e e2 23 59 3e 2b c4 6d 3c 1a 27 a3 be
       0.26371983 0.21205094 0.014512102 -0.3186577
0003f0 2d 53 37 bf 93 57 e4 3c 53 10 cb 3e 9f 2c 82 3d
       -0.7161129 0.02787379 0.39660892 0.06356167

fc3.weight f4 [64, 64]
000000 4e 3b dc be cc 32 02 be 55 65 b3 bd 8b b4 a0 bc
       -0.43013996 -0.1271469 -0.08759562 -0.01961734
000010 8e 2d 2f 3e 1e 70 af be f4 ce 4a bd 07 fa 18 bf
       0.17107221 -0.34265226 -0.049513772 -0.5975651
000020 3f 39 29 b9 0f d7 9f be 85 5b b2 bc d9 d2 3b be
       -0.00016138422 -0.31218764 -0.021772156 -0.18342151
000030 c6 6a a5 3e 41 9b 11 3e 96 71 81 be b7 4d cb bd
       0.32308024 0.14219381 -0.25281972 -0.09926932
000040 14 70 2f 3e ad 4a 91 3e ad aa 0d bd 6d 02 95 3e
       0.17132598 0.28377286 -0.034586597 0.29103413
000050 78 38 af 3e da f0 54 3d 68 25 a9 3e cc d1 01 3e
       0.3422277 0.051987506 0.3303635 0.12677687
000060 bc 3d d0 be dd 3f 46 bd 46 51 a1 3c 4d 44 8b 3e
       -0.406721 -0.04840075 0.019692075 0.27200547
000070 43 66 01 bd cc 4a 06 be 66 84 06 be 95 50 9b 3d
       -0.031591665 -0.1311447 -0.13136443 0.07583729
000080 e1 86 1f bf 7b a8 3c 3b 00 0d a7 3d 28 86 17 bd
       -0.62315184 0.0028786946 0.081567764 -0.036993176
000090 01 27 e4 bd 00 e4 8b bd 67 4c 2f bd 64 22 36 3d
       -0.11140252 -0.06830597 -0.042797472 0.04446639
0000a0 84 6d 8e bd bc 35 af be 5e 1a 7f be c5 90 70 3d
       -0.06954482 -0.34220684 -0.24912402 0.058731813
0000b0 71 c3 e2 3d be 93 37 3d aa 8e f7 bd e1 db 75 ba
       0.11072434 0.044818632 -0.12087758 -0.0009378773
0000c0 bc 1e f8 bc 0b b8 a8 3d b2 6d a8 bd 30 b2 24 bd
       -0.030288093 0.082382284 -0.08224048 -0.040208995
0000d0 57 c6 68 3d 5c 48 ca be d8 eb 0d bd a7 61 2f 3e
       0.056829777 -0.3950833 -0.034648746 0.17127095
0000e0 dc f9 09 3e 5d 7e 00 be fc bc aa 3e d9 dd a5 bd
       0.1347422 -0.12548204 0.3334731 -0.08098955
0000f0 36 7d 91 3c 3b 92 ae bd ea 07 d6 3d 28 de 85 3d
       0.0177599 -0.08523985 0.10450728 0.065365136
000100 4c 5b ad bd 6e e2 6e 3e 35 37 2f 3e de e4 68 3e
       -0.08464679 0.23328564 0.17110904 0.22743556
000110 7e 75 2f 3e cf 98 39 be 81 e2 a5 be c2 6b af be
       0.17134663 -0.18124698 -0.3239937 -0.342619
000120 33 b4 49 3d 35 13 e6 bc fd 3d 00 bc 4e ec 7e be
       0.049244117 -0.02808533 -0.007827279 -0.2489483
000130 68 d3 9c 3e da f6 22 3e b5 3a 03 be 8a a0 83 3d
       0.3063004 0.15914479 -0.12815364 0.06427105
000140 e4 14 1a 3d 69 c9 25 3e 42 52 1a 3d 01 47 70 bd
       0.03761758 0.16190113 0.037676103 -0.058661465
000150 5e 09 ab 3e 91 80 f4 bc 11 49 48 3d 3c c7 36 3a
       0.33405584 -0.029846461 0.048897807 0.0006972437
000160 df 1a 32 be ab 89 2b bf 14 f5 45 be c9 ee 45 3e
       -0.17393063 -0.6700694 -0.19331771 0.1932937
000170 68 26 39 3e d9 61 91 3d ff 80 b1 bd 73 3b 5d be
       0.18081057 0.07098741 -0.08667182 -0.2160471
000180 5f a7 1a be 97 3c dd bc 54 a5 ad 3e 9b 36 04 3e
       -0.1510291 -0.02700643 0.33915198 0.12911455
000190 02 38 a2 be 7f 85 36 bc 97 72 93 3d 9f 28 dd bb
       -0.31683356 -0.011140226 0.07199591 -0.006749227
0001a0 2b 74 dd bd 45 bd f0 bc c5 51 65 3e d7 71 87 bd
       -0.10813173 -0.029387126 0.22394474 -0.0661351
0001b0 58 6c 71 3d 48 92 c2 bb 42 ca 77 be 93 4d 12 3d
       0.058941215 -0.0059378482 -0.24198249 0.03571851
0001c0 e1 c9 2b 3e 15 54 af be 6c a7 f2 3d 0b 86 b3 be
       0.1677623 -0.34243837 0.118483394 -0.35063204
0001d0 91 af b8 3e db 2d 07 bd 75 41 1e be e0 16 d1 bd
       0.36071447 -0.033002716 -0.15454657 -0.10209441
0001e0 9b ed 8e 3e f0 3b c0 3b b6 5e 96 3d a9 e5 ca 3c
       0.27915654 0.00586652 0.073422834 0.024767714
0001f0 0a dc b2 be 48 b8 9c bc 41 92 98 bd 50 a8 8c 3b
       -0.349335 -0.01913084 -0.07449771 0.0042925254
000200 9a ef 3b 3e f5 90 e5 3d 26 35 5a 3b 5b 7c 3e 3e
       0.1835312 0.11209289 0.003329584 0.18602125
000210 e7 9e 24 be 0e aa 36 bc 5c 45 89 3d 4e fe 2d 3e
       -0.16076241 -0.011148943 0.067026824 0.16991541
000220 21 61 a0 3e 1a 74 51 3d 1a 34 59 3e 25 87 b4 bd
       0.31324103 0.051136114 0.21211281 -0.08814839
000230 6a f1 96 be 0b ea af be 0c 89 b3 3d 27 5c 79 3e
       -0.2948106 -0.34358248 0.08766374 0.2435156
000240 77 06 a0 be bc 06 f9 bc 00 8f aa 3e 5f c3 09 be
       -0.31254932 -0.030398719 0.33312225 -0.13453434
000250 c2 89 27 bf 64 89 8a bd 33 2d 92 be 9f 1c 2d be
       -0.65444577 -0.067644864 -0.2855011 -0.1690545
000260 66 0e af 3e 8b 26 d4 3d f9 60 13 3d db 73 2f be
       0.34190673 0.10358914 0.035981152 -0.17134039
000270 1f 79 40 be c0 0e 2d 3e ee f7 25 3e d0 28 5a be
       -0.18796204 0.16900158 0.16207859 -0.21304631
000280 d9 5e b7 3e e2 ba 17 3e 97 a9 40 be f2 68 c5 3d
       0.3581455 0.14817384 -0.18814693 0.09639157
000290 cc e0 b6 be 6f e2 b5 3e 8d 95 32 be 2a 38 b3 3d
       -0.3571838 0.35524318 -0.17439862 0.08750947
0002a0 2d 01 b1 be 98 44 95 3e 0f c6 e6 3d 71 86 05 3e
       -0.3457121 0.29153895 0.112682454 0.13039567
0002b0 a2 a8 1e be a2 d6 70 3e 6a c7 c5 bd 44 31 83 be
       -0.15494016 0.23519376 -0.09657176 -0.25623524
0002c0 97 7a 33 3d 0c 64 08 3e 6a b9 b6 3d c7 5f d9 bb
       0.043818083 0.13319415 0.08922084 -0.006633732
0002d0 67 b0 88 be f1 17 e4 bc cb 3b 1f be c6 d2 57 be
       -0.26697084 -0.027843447 -0.15550153 -0.21076497
0002e0 63 cf af be 46 8b 96 3e 2a 99 2d 3e ea c2 cc bc
       -0.3433791 0.29403132 0.16952959 -0.024995286
0002f0 b3 e3 16 3e 3f 34 2f 3e ec b6 41 be 0f 13 46 be
       0.14735298 0.17109774 -0.18917435 -0.19343208
000300 c2 68 98 3d 86 14 a4 3d 17 fc af 3e 40 22 8c 3b
       0.07441856 0.08011727 0.34372017 0.004276544
000310 62 ec 8f be a6 c3 2f bd 51 7a 43 bc d0 54 71 bd
       -0.28110033 -0.042911194 -0.011931018 -0.058918774
000320 fb 7d 98 bd af b6 64 3e f4 18 35 be af dc be bd
       -0.07445904 0.22335313 -0.176853 -0.09319436
000330 6d 83 af be ec a2 b9 3d 8c 34 4e 3d f1 23 31 be
       -0.34279957 0.09064278 0.05034308 -0.17298867
000340 24 2f 4e 3e 44 9f 15 3e fc 3b df 3c b5 4e 52 3e
       0.2013517 0.14611536 0.027250282 0.20537837
000350 0b e7 aa 3e f6 2b ce 3d 82 eb 09 3e 6f f0 4d be
       0.33379397 0.10066979 0.13468745 -0.2011125
000360 0c 37 06 3e 8a a9 66 bd 6a 92 30 be 83 1c 46 be
       0.13106936 -0.05631403 -0.17243353 -0.19346814
000370 10 3d c9 bd 28 1f fe 3d 75 fe 9c bd fb a5 1d be
       -0.098261 0.12408286 -0.07665721 -0.15395348
000380 bc b6 ae be 4a bb 04 3e 2d 80 05 3d 87 13 23 3c
       -0.3412379 0.1296207 0.03259294 0.009953386
000390 b1 30 38 3e bd 69 86 3e a0 b9 d7 be c8 44 af be
       0.17987324 0.26252547 -0.42133808 -0.34232163
0003a0 45 8f 05 bf 77 a2 67 bd 70 85 d8 bd d9 f9 9b bc
       -0.52171737 -0.056551423 -0.10572326 -0.019040035
0003b0 14 0d 07 3d a8 de 17 3d 78 96 4b 3e 4e 73 21 be
       0.032971457 0.037077576 0.19881618 -0.15766641
0003c0 9d 2f d2 be a0 0d a9 3e 25 cc a8 be 14 6c a5 be
       -0.4105195 0.33018208 -0.3296825 -0.3230902
0003d0 22 a9 fc 3d a8 e4 b0 3c e0 ef 9e be ec a3 2e be
       0.12336947 0.021593407 -0.31042385 -0.17054719
0003e0 41 e9 ed bd ce dc 80 3e bb 60 46 3d 67 0f 84 3e
       -0.11616755 0.2516846 0.048432093 0.25793
0003f0 2d 7c 97 3e dc fc 8f bd 59 ec 07 3e 24 15 36 3e
       0.29586926 -0.07030651 0.13273753 0.17781502

fcl.weight f4 [10, 64]
000000 04 e1 1a bf 55 34 04 3f 29 74 93 3e 0d d4 ac be
       -0.60499597 0.5164235 0.2879956 -0.33755532
000010 28 de 05 3f 39 52 81 be 93 9a 66 3e 62 92 99 3e
       0.5229211 -0.25258043 0.22519903 0.29994494
000020 6d fc 36 bf 17 8b cd 3e b9 90 21 bf 69 77 cf bd
       -0.7147892 0.4014518 -0.63111454 -0.101301976
000030 04 d0 21 bd 47 5b d5 3e c4 13 49 bf 29 9d 32 be
       -0.03950502 0.41671202 -0.78545785 -0.17442764
000040 f7 85 05 bf b4 69 01 3b 4a 79 59 bf 88 35 bc bd
       -0.5215754 0.0019746842 -0.849507 -0.09189898
000050 13 70 78 be 4a d8 56 bf 05 39 49 3f 06 21 7a be
       -0.24261503 -0.8392378 0.7860263 -0.2442666
000060 bf ba d8 3e 01 48 15 3f 28 11 c9 be 71 1a 49 3f
       0.42329976 0.58312994 -0.39270902 0.7855597
000070 80 83 b9 be e2 12 c9 be 52 a3 3d be ea 37 90 be
       -0.3623314 -0.3927222 -0.18519333 -0.2816766
000080 3b 5e ba 3e 57 2b 5f bf f7 bf c9 be ee 75 16 bf
       0.36400017 -0.87175506 -0.3940427 -0.58773696
000090 7a 5e bb be bd a8 ce be 33 ab b4 be bc 88 ee 3e
       -0.36595517 -0.40363112 -0.35286865 0.46588695
0000a0 61 71 d4 3e a5 13 c5 be 5a 0a 1e bf 35 41 3a bf
       0.4149275 -0.3849155 -0.61734545 -0.7275575
0000b0 4b d6 06 bf 52 72 bf be f2 ae ce be 72 6d 9b 3d
       -0.52670735 -0.37391907 -0.40367848 0.075892344
0000c0 0e 97 8f bd 8b 4b 4b bf 9e cc 2c bd b8 f9 49 bf
       -0.07011233 -0.79412144 -0.042187326 -0.78896666
0000d0 72 87 47 3e 16 96 11 bc 0b 37 ea be 35 ed 4e bf
       0.19485262 -0.008885881 -0.4574512 -0.808307
0000e0 0f 31 dd be f7 20 d0 be cf 47 d4 be f2 26 50 bf
       -0.4320149 -0.4065015 -0.41461036 -0.81309426
0000f0 74 92 f1 3e 37 bb 4d be 15 78 07 3f dd 83 17 bf
       0.47182047 -0.20090948 0.52917606 -0.5918558
000100 49 8a df 3e b1 4b 7b bf 39 c5 3a bf d6 34 11 3f
       0.4366019 -0.9816237 -0.7295719 0.56721246
000110 55 df 09 bf 96 77 45 be 4b 2e ab be f9 12 af be
       -0.538564 -0.192839 -0.33433756 -0.34194162
000120 15 6f 43 bf 1c 6c d8 be bd 3a f3 be 95 ea 0a bf
       -0.7634137 -0.4226998 -0.4750575 -0.54264194
000130 02 b7 2c bf df ae 0f bf 2d aa ed 3e f3 04 3e bf
       -0.6746675 -0.5612621 0.46418896 -0.742263
000140 3a a0 54 bd 9d 49 b3 bd 9c a0 31 bc 46 56 7e 3e
       -0.051910616 -0.08754275 -0.010841515 0.24837598
000150 e5 6e 44 be 3a 8e 6e be 7d ae 38 3e 8f 6c c9 3e
       -0.19182928 -0.23296443 0.18035312 0.39340636
000160 c5 fb 97 3e 69 6c cf 3e 13 64 55 3e 6b 14 3c 3f
       0.29684272 0.40512398 0.20838957 0.73468655
000170 d8 89 44 3e 01 a5 1d 3f b6 da 0a 3f 88 fb 45 be
       0.19193208 0.615799 0.54239976 -0.19334233
000180 f3 f5 48 bf ed 34 79 be b3 1e 17 bf f3 03 3b bf
       -0.7850029 -0.24336596 -0.5903122 -0.730529
000190 2a fd c8 3e de 83 ca be 6d 7c 2d 3e 12 1d c6 3e
       0.3925565 -0.39553732 0.16941996 0.38694054
0001a0 0e 4b 49 bf bd 9c d8 be f7 0a 12 3f 66 c9 84 be
       -0.7863015 -0.42307082 0.5704798 -0.25934905
0001b0 ca 2a 0a bf 2e f5 a9 be b4 35 97 bb 0c 41 99 be
       -0.5397154 -0.3319487 -0.004614556 -0.2993244
0001c0 57 5e 9e 3e 24 33 e6 3c ce 5f e1 be f4 ba 87 3e
       0.3093135 0.028100558 -0.44018406 0.2650982
0001d0 29 bd 5c bf 30 21 c9 be 0b 8b 09 3e 83 12 60 be
       -0.86226135 -0.39283133 0.13431947 -0.21882062
0001e0 be 89 00 3f 52 52 73 3f ec 2c c7 be d5 f6 28 bf
       0.5021018 0.95047486 -0.3890146 -0.66001636
0001f0 e5 62 07 bf ac 30 4c 3e 01 50 45 bf c0 e8 cf be
       -0.52885276 0.19940442 -0.770752 -0.40607262
000200 94 8f 8e 3e c9 85 4e 3e 4f a2 a8 3e 08 da c7 3e
       0.27843916 0.20168222 0.32936332 0.39033532
000210 8f f0 46 be 49 1c 3c 3e d2 9a 75 3b 37 b5 13 bf
       -0.19427703 0.18370165 0.0037476313 -0.57698387
000220 da bb c1 3d 90 59 41 be fc a0 42 be cc 36 31 bf
       0.09459658 -0.18881822 -0.19006723 -0.6922424
000230 f8 da d9 3e 43 ba b5 bd 4a 3f 10 be ce 12 49 3f
       0.42549872 -0.08873417 -0.14086643 0.7854432
000240 3a 81 b2 3e 9b 1b c7 be 59 eb 4c bf 86 e9 13 be
       0.34864217 -0.3888825 -0.8004661 -0.14444551
000250 46 94 f3 be e0 0c 71 be 27 40 59 be 72 43 18 bf
       -0.4757406 -0.23540068 -0.21215878 -0.59477913
000260 db be 06 3f a0 d1 c9 be e0 03 0c 3f 1d 4d c6 be
       0.5263497 -0.39417744 0.5469341 -0.38730708
000270 51 ac 23 3f 8c 2f 86 3e 5d c7 e4 be b8 11 49 bf
       0.6393481 0.2620815 -0.44683352 -0.7854266
000280 5e dc c8 be 41 0d 02 bf 99 f2 11 3f 6e 12 c9 3e
       -0.39230627 -0.50801474 0.570108 0.39271873
000290 ab a5 0e bf 50 b2 cb 3e 75 4d c9 be 2d 77 d0 be
       -0.5572154 0.3978448 -0.39316908 -0.40715924
0002a0 d9 71 1f bf d3 b3 3a 3c a5 a0 b8 be fb bf 01 3f
       -0.6228309 0.0113954125 -0.36060062 0.50683564
0002b0 25 62 c1 be e2 7b a0 3b db d8 35 3e 5f 7f e3 be
       -0.3777019 0.0048975805 0.17758505 -0.44433114
0002c0 b8 e5 49 be 42 8f 24 3e 9a 1a 49 3f 90 d9 cb be
       -0.19716537 0.16070274 0.78556216 -0.39814425
0002d0 b1 9d 74 3d 88 29 ab be 46 4a 2b bf ad 12 49 bf
       0.0597207 -0.33430123 -0.6691021 -0.7854412
0002e0 17 0a c9 be 98 13 1a be 15 fc b8 be 86 36 06 bf
       -0.3926551 -0.15046537 -0.36129823 -0.52426946
0002f0 9c b7 3d bd e0 f5 e4 bd fe 47 bd be b4 c9 14 bf
       -0.04631768 -0.111797094 -0.36968988 -0.58120275
000300 5f 0c 49 bf a5 4f 35 be 53 79 71 be 6c da 0a be
       -0.785345 -0.17706163 -0.23581438 -0.13559884
000310 e8 13 c9 be 2e d9 c9 3e 65 f0 c8 be 64 e3 28 3f
       -0.39273 0.39423507 -0.39245906 0.6597197
000320 04 f6 d6 be dd ee 9a bd 44 ff 28 bf 0e 8f a5 be
       -0.4198457 -0.07565091 -0.66014504 -0.32335705
000330 5f fa dd be 44 ae 9c be 99 39 de 3e cd 82 b5 be
       -0.4335508 -0.30601704 0.4340332 -0.35451356
000340 30 14 c9 3e cf 1f 3b bf d2 3a 24 bf 9d 3b c8 3e
       0.39273214 -0.7309541 -0.6415225 0.3910798
000350 1c af b6 be d4 6d 4a 3f 4d 27 50 bf dd bd 84 bd
       -0.35680473 0.79073834 -0.8130997 -0.06481526
000360 92 c8 3c be f2 18 32 bf b7 f9 73 3e e4 99 b0 be
       -0.18435887 -0.69569314 0.23825727 -0.3449241
000370 94 0d 76 be 50 0b 8b be 5f 08 c9 be 40 7e 4d 3e
       -0.24028617 -0.27157068 -0.392642 0.20067692
000380 8b 09 be be 04 c2 c8 3e 95 0a 1b 3d 1b ab 22 3e
       -0.37116656 0.39210522 0.03785189 0.15885584
000390 20 7d 5e be bd 9b 83 3c da 8b f9 be e3 35 f2 be
       -0.21727419 0.016065473 -0.4873951 -0.47306737
0003a0 fa be 35 be 07 48 eb be 92 cd 0d be 62 53 b2 be
       -0.17748633 -0.4595339 -0.1384795 -0.3482924
0003b0 0d 27 49 bf e5 9d 0d bf 06 c5 09 3e 26 40 37 bf
       -0.7857521 -0.5531905 0.13454065 -0.7158226
0003c0 ab 28 bb 3d 55 18 75 3e 99 08 cd be 85 28 c5 bd
       0.09138616 0.23935063 -0.40045622 -0.09626869
0003d0 92 37 bd 3e 38 e0 c7 be 49 c6 4c 3e ec 12 c9 3e
       0.3695646 -0.39038253 0.19997515 0.3927225
0003e0 46 64 ac bd ca 94 99 be 16 72 67 be 65 e9 07 3f
       -0.08417563 -0.2999633 -0.22602114 0.53090507
0003f0 92 b5 03 3f 64 25 e3 be f6 43 11 be e0 12 49 bf
       0.5144893 -0.44364464 -0.14186081 -0.78544426
