modeldata/a11_Opt12k_cos_Aug_BitMnist_PerTensor_Binary_RMS_width160_160_160_lr0.001_decay0.1_stepsize10_bs128_epochs60.pth (torch, 377853 bytes, 4 tensors)

fc1.weight f4 [160, 256]
00000000: 1699 f43b 9057 903d 58b0 7abd c459 84bd
00000010: 3154 ba3b c5dc eebd 3af9 03be b6e9 e4bd
00000020: 3d07 1bbd c358 00bd a1e5 843d 2bf3 87bd
00000030: 5fc0 ecbb fef2 a1bd c674 343c 8414 2d3d
00000040: af31 7f3d b543 813d f542 88bd a981 83bc
00000050: 97f7 c53b 44f3 b0bd 9ac7 86be 51c6 97be
00000060: 3ee3 6bbd 9c8b 1f3e 3563 5abd 4978 1ebe
00000070: 50ee e1bd b788 afbd 7963 acbd 5ba5 52bd
00000080: 2fa4 573c 3c02 c03a 806f 333d 7065 ecbd
00000090: d04c 1ebe 603c e5be 285b d6be fa69 acbd
000000a0: a0b8 053e b890 193e 0f06 acbd fe96 93be
000000b0: 7c21 25be b66a 193c 0048 88bd f196 c6bc
000000c0: dbff 523d 0f65 693d 848b be3c d05f 1dbd
000000d0: c3ca b8bd 0624 efbe 59c4 d2be f912 debb
000000e0: a470 a03e bc3c 833e 01a6 35be 6a7f 7dbe
000000f0: 0ccc 8fbd 4baa 323d f4d7 b0bc c23c b7bd
00000100: 766c a63c 3e9e 173d bea1 053e 8947 e93d
00000110: 8a1a eb3d 2301 51be 2993 08be 21d7 613e
00000120: 4691 c13e c4f1 d53c 427a 55be c7b3 60bc
00000130: a001 4b3e e2ff b1bc 906b f5bd 0c7c 8ebd
00000140: 1152 723c 3272 60bd 8149 933e 4a0b c03e
00000150: fa18 a6bd e7b9 91be 5321 08be 1974 1f3e
00000160: ebe7 913e 722c c0bd e207 4fbe e282 be3d
00000170: 5da7 5c3e 559a 51be 5c9a 08be dacc 0bbe
00000180: cdc7 053b bf87 8e3d 3272 583d bb0d c03d
00000190: 0c56 893d 30fb e4bd 427c 7abd 0d7a 10be
000001a0: de45 adbd df82 2dbd ab6c 05be 3918 85bd
000001b0: 47a6 acbd 5055 83be ecd4 7fbe 42ef 1cbe
000001c0: b719 52bd b487 f13c 96dc 143d a149 1f3c
000001d0: 90bc b73d 0961 ddbd b3d3 afbd 01c0 53be
000001e0: 9e5a cdbd 51ed 033e bc2c c13b dc4b 71be
000001f0: d013 38be 3303 24be 3c53 29be 418c 4ebd
00000200: cb82 c2bd d9b0 66bd 119a a2bd 17ab 8a3c
00000210: ceac 6dbd 518c b0bd f964 0dbd 5452 1ebe
00000220: 18a0 0bbd e9b1 c33e 5607 8e3e 38b2 03be
00000230: babb 97bd b27d acbd 1e1f aebd c666 b8bd
00000240: 197f 9bbd c54e 26be 9f46 82be 3d12 f6bd
00000250: e7d7 b93d d2f5 aebd 2b59 4abd c630 adbd
00000260: 6160 333e d935 223f 2947 893e d690 aebd
00000270: 2635 7fbd f625 e5bd 3dfd 0dbd 4af4 433b
00000280: aa14 41bd 5245 adbd 9e4d d2bd 80e6 96bd
00000290: cac7 033c cf0b a4bd 440e 41bf 440a 4bbf
000002a0: ba45 853e 59ba 1a3f 720e ee3c f418 60be
000002b0: c976 b1bd 48c6 adbd 4097 babd 0d65 89bd
000002c0: ae3a 89bd 9a2e 6f3c e86e 3abd 7365 8cbd
000002d0: 33ea d3bd 4142 fbbe 0aa8 c1bf c988 aebf
000002e0: c5dc 1b3f b6c6 813f 5f39 adbd 8de1 38bf
000002f0: 4d6b ddbe 3952 acbd 2174 b9bd c7c7 37bd
00000300: 3159 9abc 26ed bfbd f232 babd 3737 50bd
00000310: bb03 f0bd cca9 07bf 69aa a6bf 32c0 0fbf
00000320: 082d 733f a470 8b3f a857 c9bd c03c 44bf
00000330: 4a4b d5be 7155 b7bd 08c3 d8bd a3bb 57bc
00000340: f0e5 d03c 574c aabd 5754 eebd 5c10 85be
00000350: d999 11bf e667 54bf cffd 78bf d657 c7bd
00000360: 61b0 913f f83c 843f ad7b aabd 68c4 02bf
00000370: 703b e4be ad8a 8bbe 3b67 23be a4c2 5dbc
00000380: 6c4e 6e3d e67a 3ebd a389 46bd 9c1b 51be
00000390: 21f4 f6be 77f3 60bf 88da 5dbf 79e1 2dbd
000003a0: 97d7 913f f04b 5d3f 6382 98bc 3352 a1be
000003b0: 711d 98be 83a9 1fbe b10f 7bbd 9e86 93bd
000003c0: 6928 00bd 84de d6bc 4ad2 bfbd f152 29be
000003d0: a5f8 90be b938 0dbf 10d3 24bf de94 9bbd
000003e0: 383f 293f 2627 1d3f 4b63 cf3d a4a9 68be
000003f0: d0dc 11be 18f4 6abd 73df 87bd 4a6e e9bc
0.0074645383 0.07047951 -0.06120333 -0.06462434 0.005686306 -0.11663202 -0.12888041 -0.11177389
-0.0378487 -0.03133465 0.06489111 -0.066381775 -0.007225081 -0.07907675 0.011014169 0.042255893
0.06230324 0.06311742 -0.06653396 -0.016053038 0.006041478 -0.08640149 -0.2632416 -0.2964349
-0.057589762 0.155806 -0.053317267 -0.15475573 -0.110317826 -0.08570998 -0.084174104 -0.051427227
0.013161703 0.0014649103 0.043807507 -0.11542785 -0.15458989 -0.44772625 -0.41866422 -0.08418651
0.1305871 0.14996612 -0.08399593 -0.28826135 -0.16126055 0.009363821 -0.06654358 -0.024241896
0.051513534 0.056981143 0.023259886 -0.038421452 -0.09023049 -0.4670717 -0.41165426 -0.006777164
0.31335938 0.25632274 -0.17739107 -0.24755636 -0.07021341 0.043619435 -0.02158735 -0.089471355
0.02031539 0.037016146 0.13049981 0.113905974 0.11479671 -0.2041059 -0.13337387 0.22054721
0.37806147 0.02611626 -0.20847419 -0.013714737 0.19824839 -0.02172846 -0.119834065 -0.06957254
0.014790074 -0.054796405 0.28767017 0.37508613 -0.08110233 -0.28462145 -0.13293962 0.15571631
0.28497252 -0.09383477 -0.20217851 0.09302308 0.21548219 -0.20469029 -0.13340133 -0.13652363
0.002041328 0.06959485 0.05284328 0.09377619 0.06705865 -0.11180723 -0.061153658 -0.14109059
-0.08460592 -0.042361137 -0.13029735 -0.06498761 -0.084301524 -0.25651026 -0.24983567 -0.15325645
-0.051294055 0.029483654 0.03634318 0.009722144 0.08971512 -0.108095236 -0.085853 -0.20678712
-0.100270495 0.12883498 0.0058952253 -0.23564094 -0.17976308 -0.16016845 -0.16535658 -0.050426725
-0.09497603 -0.056321 -0.07939542 0.016927285 -0.058026128 -0.08620513 -0.034520123 -0.15461093
-0.034088224 0.38221672 0.27739972 -0.12860954 -0.07408853 -0.08422412 -0.08502029 -0.090039775
-0.07592601 -0.16240986 -0.25444505 -0.120151974 0.09074383 -0.0854298 -0.049401443 -0.084565684
0.17517234 0.63363415 0.26812103 -0.08523719 -0.062306546 -0.11188881 -0.034665335 0.0029900246
-0.047138847 -0.084604874 -0.102687106 -0.07368183 0.008043239 -0.08010065 -0.7541239 -0.7931254
0.2602976 0.60440594 0.029059622 -0.21884519 -0.086652346 -0.08485085 -0.0911088 -0.06708727
-0.067006454 0.014598513 -0.045515925 -0.068552874 -0.10347404 -0.49073985 -1.5129406 -1.3635494
0.6088374 1.0138767 -0.08458208 -0.72219163 -0.43245926 -0.0841412 -0.09055353 -0.044868257
-0.018841358 -0.09371404 -0.09091748 -0.050833907 -0.117194615 -0.52993464 -1.3020755 -0.5615264
0.9499059 1.089375 -0.09831172 -0.766552 -0.41659003 -0.089518435 -0.10584074 -0.013167295
0.025500268 -0.08315342 -0.1163718 -0.25989044 -0.5687538 -0.82971036 -0.9726228 -0.0973355
1.1381952 1.0331106 -0.083243705 -0.5108094 -0.44576597 -0.2725424 -0.15957348 -0.0135351755
0.058180258 -0.046503924 -0.048471104 -0.20420688 -0.4823313 -0.878715 -0.8666158 -0.042451356
1.1393918 0.86443996 -0.01861686 -0.31508026 -0.29709962 -0.15592007 -0.06129426 -0.072034106
-0.031288538 -0.02622915 -0.09366281 -0.16535546 -0.283147 -0.55164677 -0.64384556 -0.075967535
0.6611209 0.6138786 0.101263605 -0.22720963 -0.1424439 -0.057361692 -0.066344164 -0.028494973

fc2.weight f4 [160, 160]
00000000: 4f06 f93d 28f3 83be 2855 a3be 0f5e 61be
00000010: 321e 6bbe 27d1 77be 54ef fabd 2524 50be
00000020: 1d31 08bf e438 ebbe 835f 45be 933e 323e
00000030: ccb5 b8be 05bd 10be e316 05bf 4dca 63be
00000040: 3520 f0bd 9a10 04be 7283 46be 40ba 243f
00000050: 7666 aabe ad91 0ebe 9955 d7be 15bf 813e
00000060: 4fd1 70be 6923 8e3e 1059 9dbc 5dc0 22bf
00000070: 454b 92bf 633e 55bf b79d 3e3e 95f2 9abe
00000080: f853 3dbf fa02 33bf bc60 93bd 1f7f d1be
00000090: 7b44 46be dca1 143e 0c42 46be 5447 42be
000000a0: 79c1 333e fb6f 59bf c9d2 24be 135f 183d
000000b0: 3a52 3f3e fbe5 a53e 0da2 98be 5f2f cebe
000000c0: c14f 7cbe d6dc 01bf 0a86 46be 7c8b 69bf
000000d0: 24c6 e7be f3fc 0fbf 5c8f aabd 98f5 dcbe
000000e0: 71c1 833e e19c 5d3c 7b57 e8bd b563 46be
000000f0: 2dad 1ebe 16d8 46be 27b2 fe3d 2df6 40be
00000100: 0e15 8cbe 4208 e7be 99fb 21be d1aa 45be
00000110: 44d7 91be ed00 03be 5021 98be 45a1 d4be
00000120: 6cfe 03be 1f0f 0c3d afaa 07bf f5c4 45be
00000130: 393a cfbd 3f21 843e c3f8 c7be a0fe 73be
00000140: 1e91 26be 7b8c 32bf b9c1 bd3d 67b1 35be
00000150: 5c1e 45be f87b 443e bf71 39be 9755 d4bd
00000160: 19a6 563e 9cd0 75bf f535 46be 0d76 46be
00000170: c594 14bf 5e59 c23d 1192 4bbf 2a09 5a3e
00000180: 3a07 89be e883 213e 595a 59be 245c 8fbe
00000190: 97e0 17bf 8a08 46be 3868 3cbf b257 4cbf
000001a0: 331b edbe 9745 5d3e eef9 c1be 5373 88bf
000001b0: a4eb 59bf e19e 88be 2621 87bd e356 b5be
000001c0: 9aaa 8cbe cdb7 a8bd 1038 3a3d 5e6d 82be
000001d0: cfd8 94be 3a0f c73c 2a5b 853e 9e47 6fbe
000001e0: e9e7 81be cedb a3be 1e28 40be e74b c0be
000001f0: 5a48 40be 869f 693d b265 a5be e93e 793e
00000200: 1584 46be 96cc fabe d897 793e b520 02bf
00000210: 5c1f edbe 5ab9 91be 0181 cb3d 9c44 1ebf
00000220: 3edd dd3d 1765 a2bf c0ee 6abe fadd 15bc
00000230: b190 05bf 7b8a dbbe 42fc febc 6cdd ddbe
00000240: af0d a8be 1d29 8ebe 91e0 a5be bafc 6dbd
00000250: 1401 0abe eb68 00bf 4ecf e6be af01 4cbe
00000260: 9f07 b0be 95c9 623f 7b90 10bf 60bd a0be
00000270: 995e 66be fd82 c0be 20e3 48be bb52 2cbe
00000280: 6b30 ca3d 6544 cabe 4d92 2abf 653e bd3e
00000290: d339 02bd 4b88 a93c d457 f1be fa2e 4dbf
000002a0: 99be 76bc e030 49be c555 30bf 4e85 33be
000002b0: be53 42be e4cf 04bf e06d 35be f12b 7ebe
000002c0: fefc 52be 96e9 d0be 91e0 aebb 5df9 b3be
000002d0: c6a5 7cbf 8901 bdbe 2dac 043f e21e 6dbd
000002e0: 6662 2dbe 054e 69be 3b16 9bbe b60a 0fbe
000002f0: a04a 053d d7a2 16be 89ad 9dbe 90ab 54be
00000300: b83a e73d bd5d 45be f165 f8bd 1553 a6be
00000310: 47c8 b23d e733 45be b348 45bf 01f1 4ebc
00000320: 1972 ca3e 1261 45be 6350 98bd 9f75 3cbf
00000330: adb5 10bd 4309 e1bd 8bc9 46be 4f93 0d3f
00000340: 374f bd3e d560 febd 2acf 053f 4653 483e
00000350: b1d6 3c3f dc4e 46be ed51 46be e171 d2bd
00000360: 8b9f d73e 095c 913e 098a 19bf 00cb 18bf
00000370: 82f0 48bf 96ca 43be 8a46 d3bd e041 093e
00000380: 8492 473e bfce 1bbe 26f8 c1be 375e d7bd
00000390: fb08 96bb 54bc 46be 5d02 563d f6a8 94be
000003a0: 5d78 dc3d 2d1e ccbe fa18 f6bd bf5a 423e
000003b0: d185 7c3e 16bb 66bf d959 76bf 4160 1fbf
000003c0: 1ba7 cd3d 61fc 813e b2f1 8d3e 6f46 5cbd
000003d0: 5d2f 553e 5c3b 16bf 87af 50be c0d6 14bf
000003e0: 631b 82be 3b59 4cbe 5a28 3bbe f783 61be
000003f0: b98f 3bbe 8c64 92bf 19a7 1dbf b048 c23e
0.121594064 -0.2577145 -0.31900907 -0.22008537 -0.22960737 -0.24200879 -0.122526795 -0.20326288
-0.5319994 -0.45941842 -0.19274716 0.17406683 -0.360762 -0.14134605 -0.5198805 -0.2224514
-0.11724893 -0.12896958 -0.1938608 0.64346695 -0.33281296 -0.13922758 -0.42057493 0.25341097
-0.23517345 0.2776139 -0.019207507 -0.63574773 -1.142922 -0.8329832 0.18614851 -0.302632
-0.7395625 -0.69926417 -0.07196185 -0.40917298 -0.1936206 0.1451487 -0.19361132 -0.18972522
0.17554273 -0.84936494 -0.16096033 0.037200045 0.1868371 0.32402024 -0.29811135 -0.40270516
-0.24639799 -0.50727594 -0.1938707 -0.9122846 -0.45268357 -0.56245345 -0.08328125 -0.43156123
0.25733522 0.013526172 -0.113448106 -0.19373973 -0.15495749 -0.19418368 0.124363236 -0.18843909
-0.27359813 -0.45123488 -0.15818633 -0.19303443 -0.28484547 -0.12793322 -0.29712915 -0.4152929
-0.12890023 0.034194108 -0.5299482 -0.19313414 -0.10118527 0.25806615 -0.39056978 -0.238276
-0.16266295 -0.69745606 0.09265465 -0.17743455 -0.19249862 0.19187915 -0.18109797 -0.103678875
0.20961799 -0.9602144 -0.1935652 -0.1938097 -0.58039504 0.09489702 -0.79519755 0.21292558
-0.26763326 0.15772974 -0.21225871 -0.27999985 -0.5932707 -0.19339195 -0.73596525 -0.7982131
-0.46309814 0.21608578 -0.37885994 -1.0660194 -0.85125184 -0.26683715 -0.065981194 -0.35417852
-0.2747391 -0.08238182 0.04546362 -0.25474066 -0.29071662 0.024299253 0.26046115 -0.23367164
-0.25372246 -0.32003635 -0.18765303 -0.3755791 -0.187776 0.0570369 -0.3230415 0.24340405
-0.19386323 -0.48984212 0.2437433 -0.50831157 -0.46312988 -0.28461725 0.09936715 -0.6182344
0.10833214 -1.26871 -0.22942638 -0.009147162 -0.52173907 -0.4287909 -0.031126145 -0.43332994
-0.3282294 -0.27765742 -0.32397893 -0.058102347 -0.13476974 -0.5016009 -0.45080036 -0.19922517
-0.34380814 0.8858884 -0.5647046 -0.31394482 -0.22497024 -0.37599936 -0.19617891 -0.16828434
0.09872516 -0.39505306 -0.6662949 0.36961666 -0.031793427 0.020694872 -0.4713732 -0.80149806
-0.01506009 -0.1964755 -0.68880874 -0.1753132 -0.18977258 -0.51879716 -0.17717695 -0.2482145
-0.20604321 -0.40803212 -0.005336829 -0.35151187 -0.9869045 -0.36915234 0.5182522 -0.05789078
-0.16932067 -0.22783668 -0.30290398 -0.1396893 0.03254187 -0.14710556 -0.3079646 -0.20768571
0.112904966 -0.1927404 -0.12128819 -0.32485262 0.08729606 -0.1925808 -0.77064055 -0.012630702
0.39540175 -0.1927531 -0.074372075 -0.73616976 -0.03532951 -0.10988095 -0.1941282 0.553029
0.369745 -0.12420813 0.5226923 0.19563016 0.73765093 -0.1936602 -0.1936719 -0.10275627
0.4211391 0.2839053 -0.5997625 -0.59684753 -0.78491986 -0.19120249 -0.10316189 0.13404036
0.19489485 -0.15215586 -0.37884635 -0.10516017 -0.0045787073 -0.19407779 0.052248348 -0.29035157
0.10765145 -0.39866772 -0.12016483 0.1897993 0.24660422 -0.9012922 -0.96230847 -0.62256247
0.100416385 0.25387862 0.2772346 -0.05377811 0.20818849 -0.58684325 -0.20379458 -0.5814018
-0.2541152 -0.19955914 -0.18277112 -0.22022997 -0.18316545 -1.1436934 -0.61583096 0.3794608

fc3.weight f4 [160, 160]
00000000: d984 c8be 0318 9e3e 4861 bcbe efe2 dcbd
00000010: dcc2 53be f9a7 33be bdb0 19bf 6ec8 c13d
00000020: 777d efbd d9ef 35be 4001 3fbe c781 a6be
00000030: d53a 5fbe b390 063d 6e04 dbbd dc1c 61be
00000040: 1abc 68bf c13a 60bd e478 193e 32ec 5cbe
00000050: b7b1 a13a 7e16 b8be 9cf6 77be d588 303e
00000060: f8d6 1dbf a366 de3d 760c 75bd 7336 10bf
00000070: 8bbb 83bd aa71 01be f573 5abe 814d e03d
00000080: 8816 b6be 90f5 cebe 7c58 bf3d e844 20be
00000090: f460 6fbe a53c dabe 8ac9 cc3e b05a d3be
000000a0: 109c 88bd 3920 2f3e b5ca 5bbe 2a7b 5abe
000000b0: 1465 febe 5310 b5be 37fa d93c 2cc8 a1be
000000c0: 396c 173d a7e8 53be 669d 2b3e f3a3 f73c
000000d0: fc8e 023e 6113 72bf 1dbf b93e 1fe4 2ebe
000000e0: 97a4 8a3d bf13 2ebe 1c72 9ebe fabf c3bd
000000f0: dfa4 2dbe 481f 22bf 8e01 3d3d aea8 6ebe
00000100: 8337 28be b4ff dfbc d7fc 5cbf 0978 37bd
00000110: 94ef 53bf e8c3 023d c41d 253e 25c8 973d
00000120: d684 08bf 8390 5fbe 8e42 9bbe 2c6d a5bc
00000130: 7e5a 4abf 2128 babd 2b49 33be c29e 85bd
00000140: 8b21 84bd 7023 04bf b518 2cbe 000e 72be
00000150: a2b8 95bf a495 6dbf 945e c7bd 9f75 05bf
00000160: 2ad6 913e 0f0b 47be 2663 15bd b177 bb3e
00000170: 8e4b 59be 5fc3 cdbe 9c12 b3be c617 27be
00000180: c2f3 dc3c c079 d93d a227 3ebe 6775 ccbe
00000190: ae7f 67bd 6663 a8be eea9 63be 5d08 87be
000001a0: c8fa cbbe 3804 47bd 921b 8bbc 03ba 8bbe
000001b0: 09bc 19bf b9b2 063f 1cab 30be 5b83 7c3e
000001c0: f7e9 5bbe d1de 32be eb1c 8c3d 3954 89bd
000001d0: 75f7 2abe a6ff adbe 2c33 86be 3901 13be
000001e0: 8b28 d3bd c046 63be e881 e33d 97a8 21be
000001f0: d513 1bbf 9e23 1f3b 946e e23e b6cb dabe
00000200: 3b3b e5bc 48a3 88be 1341 0cbf 5b81 10be
00000210: b850 e7be 7497 c9be 625c c7be 6694 45be
00000220: a907 fd3d 041c 02be 3aaa 22bf c867 d7be
00000230: 7beb 0cbe d685 a5be 12aa 62bd 33d5 26be
00000240: fc21 49be 7041 2bbe 2601 e9be 4b85 c33d
00000250: dce2 2ebf 7fc2 8ebe 5fd7 26bf 0562 26be
00000260: a994 c8be 0d25 533a fa63 13be 93e4 293e
00000270: 0fc9 a83e 66ee a3be c91d b3bc b225 2ebf
00000280: f69d 72be f8b6 80be c652 f9be 3181 67be
00000290: 34bf ccbe e2a2 f1bd 4e0a 25be 0f31 efbe
000002a0: a3c7 1f3c 9861 913d a7a6 ccbd 92f2 b4be
000002b0: 125b f73d 4275 40be 6b9e ccbc e5ec 6fbe
000002c0: cf51 99bd 5a20 b6bf 8cf2 b33e b728 223f
000002d0: 4275 dcbe fd7a 063d 6ec9 c93d 031f 95bd
000002e0: 59ff 9ebd 63ce 1cbe 7e08 243e 843c fbbc
000002f0: 1688 c53e fdd9 7cbe 8917 7dbe dd0e 043f
00000300: 1003 543e bfaf e5bc a1ad 413e 59ae 8fbd
00000310: a45d 2cbe 86a6 3e3f 3afe 14bf d2f4 f33e
00000320: 853a 38bf e586 74bb 1e3b 113e 5b90 d7be
00000330: d91f 3fbe 75cc 66be 70ae e2be 68cf 36bf
00000340: 4074 40bd 47c9 e0bd 1fbf 60be 6968 99be
00000350: 39ad 31be cb1d 2ebe 0657 8cbe 56a9 2abe
00000360: 764b 223e cb03 b5bd 8358 653e f711 9bbd
00000370: 6ffe b0be de15 2ebe b276 993e aeaa 92be
00000380: 53e7 88be e287 363e b181 193f bbb0 2dbe
00000390: 6294 3bbf 8d81 18bf 1395 783e 0b00 1ebe
000003a0: 176d 40be 8792 9bbe 342a 173e a723 04bf
000003b0: a621 adbd 9177 90be c382 273d e465 eb3e
000003c0: 1bd7 30be 8a28 993c 48c0 dcbe e2bf e7be
000003d0: 2d62 bfbe 13f5 a33d cc6e 2fbe a825 78be
000003e0: f372 02bd d2b4 10bf d212 33bf 3b3e 83be
000003f0: bd36 2dbe 125e 193e b48d 013d 6d0c 1cbf
-0.39163855 0.30877694 -0.3679297 -0.10785472 -0.20679802 -0.17544545 -0.60035306 0.09462057
-0.116938524 -0.17767276 -0.1865282 -0.32520887 -0.21799786 0.03285284 -0.10694204 -0.21983665
-0.9091202 -0.054743532 0.14987522 -0.21574476 0.0012336288 -0.3595466 -0.24215168 0.17239697
-0.6165614 0.1085942 -0.059826337 -0.5633308 -0.06432255 -0.12641016 -0.21333297 0.10952283
-0.35564065 -0.40421724 0.09343049 -0.15651286 -0.23376828 -0.42624393 0.39997512 -0.41280127
-0.066703916 0.17102136 -0.21464045 -0.21336046 -0.4968649 -0.35364017 0.02660857 -0.31598032
0.036968444 -0.20694219 0.16759261 0.030229544 0.12749857 -0.9456082 0.3627862 -0.17079209
0.06769674 -0.1699972 -0.30946434 -0.09558101 -0.16957425 -0.6332898 0.04614406 -0.23306534
-0.16427426 -0.027343608 -0.86323303 -0.04479221 -0.8278744 0.031925112 0.16124636 0.074112214
-0.5332769 -0.2183247 -0.30324215 -0.020193659 -0.7904433 -0.09089685 -0.1750838 -0.06524421
-0.0645171 -0.51616573 -0.168063 -0.23638153 -1.169697 -0.9280646 -0.09734836 -0.521326
0.28483707 -0.19437812 -0.03647151 0.36614755 -0.21220228 -0.4018812 -0.34975135 -0.16317663
0.026971702 0.10618925 -0.18569806 -0.3993332 -0.05651825 -0.32888335 -0.22232792 -0.26373568
-0.39839768 -0.048588008 -0.01698092 -0.27290353 -0.60052544 0.5261646 -0.17252773 0.24659483
-0.2147597 -0.1746781 0.06841453 -0.06705517 -0.1669596 -0.33984107 -0.26210916 -0.14355935
-0.10310467 -0.22194958 0.11108762 -0.15786968 -0.60577136 0.0024282704 0.4422499 -0.42733544
-0.027982345 -0.26687074 -0.54786795 -0.14111845 -0.4517877 -0.39373362 -0.3893767 -0.19294891
0.12354977 -0.12706 -0.63540995 -0.42071366 -0.13761704 -0.3232867 -0.055337973 -0.16292267
-0.1964187 -0.16724181 -0.4550869 0.09546908 -0.6831491 -0.27882764 -0.6517238 -0.16248329
-0.3917592 0.0008054532 -0.14393607 0.165911 0.32965896 -0.3201782 -0.021864789 -0.6802627
-0.2369307 -0.25139594 -0.48695964 -0.22607876 -0.39989626 -0.117986456 -0.16117212 -0.46717116
0.009752187 0.07098693 -0.09992724 -0.35341316 0.12077917 -0.1879473 -0.024977883 -0.23430212
-0.07486307 -1.4228623 0.35145986 0.63343376 -0.4305821 0.032832135 0.09852873 -0.07281306
-0.077635475 -0.15313105 0.16018865 -0.030668505 0.38580388 -0.24692531 -0.24716009 0.5158518
0.20704293 -0.028037904 0.1891389 -0.07015676 -0.16832596 0.74472845 -0.5820042 0.4764772
-0.71964294 -0.0037311849 0.14182708 -0.42102322 -0.18664493 -0.22538932 -0.4427371 -0.71410227
-0.046985865 -0.109758906 -0.21947907 -0.2996247 -0.17351235 -0.17003553 -0.27410144 -0.16666159
0.15849099 -0.08838614 0.22397046 -0.07571786 -0.34569117 -0.17000529 0.2997337 -0.28645843
-0.26738986 0.17825273 0.5996352 -0.16961949 -0.7327329 -0.5957268 0.24275617 -0.15429704
-0.18791614 -0.3038523 0.14762193 -0.516169 -0.084536836 -0.28216222 0.04089619 0.45976174
-0.17269556 0.018696088 -0.4311545 -0.45263582 -0.3737959 0.080057286 -0.1713211 -0.24233115
-0.031847905 -0.5652591 -0.6995059 -0.25633416 -0.16915412 0.14977291 0.03162928 -0.6095646

fcl.weight f4 [10, 160]
00000000: d879 783e f384 a8be cb5f d8bd eb76 58bd
00000010: aaff a3bd bfac 163e afbe a63d f45b bd3e
00000020: 9c9f f9be 5c5c 013f e92c 8ebe a7dc e23d
00000030: 7cd9 93bd f8d5 44bf 7bfb 8bbe a8bd a2bd
00000040: 15aa f2be 16a6 e6bd 3657 1a3e e406 34bf
00000050: 17c0 a5be c69b 97bd 74ee f3be 72b5 a2be
00000060: 1c69 0a3e b774 94bd e014 94bd 40dd ffbd
00000070: 335e 39be 0983 5b3e 60c8 223d cc84 8ebd
00000080: 584c c43e e288 c1bd 850b 34bf 8a21 433d
00000090: 8492 7fbf 8ab2 d73d b736 2bbd 9afb c2be
000000a0: 6d7d 49bc 4ba7 d73e b9a6 f2bd f4e5 013e
000000b0: 1771 94bd f661 acbe 2575 18bf a237 a13d
000000c0: d213 1dbf f8c2 273f 5147 a6bd a407 b3bd
000000d0: e857 e03e e14c 4bbf 074b d5be cdb7 5bbc
000000e0: b284 433e 9e6d 94bd 2dc9 90bf 2376 f83e
000000f0: f1d6 2bbf fe1c 38be 4589 e43e f3e5 24bf
00000100: 76c2 a33e e870 87be d096 83be aff7 8a3e
00000110: 022a 88bf 820f a1bc fd89 433e 5b7f 94bd
00000120: 6900 8cbd 9174 2abe 0fbe 1c3f 61e8 a7be
00000130: 4cbb 983d c56c 94bd 33be a5bd b308 433f
00000140: 15c2 83bf f178 9dbd 9a18 3bbd fa8c 313e
00000150: 6909 adbe 7752 4e3d 637b 88be ff2d 77bd
00000160: f74d 36bf 7f6f dcbe 53c0 f4bd 6717 1e3d
00000170: f1fa f1be dfec 83bf 9974 623e dc14 a4bd
00000180: 79c0 64bf 9053 b7be 5871 b13e f446 94bd
00000190: 5724 053e 5994 56be 8f4a 2ebe 42be 60be
000001a0: 90f3 31bf 3304 95bd b15f 64be d719 c33e
000001b0: 312a 0c3f 8ad8 673d d790 2a3e 603e 1cbf
000001c0: b47d b53e 24f5 ae3e 707c 8d3f 6e39 66bf
000001d0: d8ae 86bf 4197 1cbe 5eb5 1d3e 91ea 39bf
000001e0: a88f aabd 4157 0dbf 7745 94bd 7fea 363f
000001f0: 2441 ec3e d6ba ca3b 67a1 a3be b012 8dbd
00000200: cf6f 27be 0290 52bf 7123 3a3f 5e7f 223f
00000210: 47a3 04be 3fc0 91be 8342 cd3e 3705 16bf
00000220: a933 f9be bfcb 9bbe 84e4 0cbf b257 493e
00000230: 3fa3 7fbd f0bf 91bf c675 75be 601f 023f
00000240: 3d6c 0cbf b4c6 74be a168 253f c281 87bf
00000250: cc2e a6bd 5767 94bd 6b57 04bf 819c edbd
00000260: d1b9 333e f647 033e 830a e4be 11de fb3c
00000270: 1e41 bd3e 25c4 f0bd 4966 94bd b7cd 9f3e
00000280: 3894 35bf bc72 94bd 861a dfbe 5716 8a3f
00000290: a09b 2dbf 203e d53e 2beb cfbe a790 30be
000002a0: ba39 01bf 0669 08be 68c5 a13e 4e61 97bd
000002b0: e39a 823d 90da a83d 593d 893e ed5d 71be
000002c0: b12b c0be bb48 0d3e 356c 1c3d df87 d73c
000002d0: 44ca 30be 035c b93e e064 533e f055 913e
000002e0: 878f ad3f 319b e93d f4c7 97bd 39df a03d
000002f0: cd68 993e 57e2 94bd 6472 1bbf 1450 94bd
00000300: 6921 26bd 505f 1a3f 3788 debd 816f 94bd
00000310: 4f62 3bbd 4cc2 39be 3255 fb3d 1d46 283e
00000320: 40f2 aa3d f878 f6bd b9b2 8e3f 1e13 bebd
00000330: ee3f 99bd 6609 01bf def7 063e 8da3 91be
00000340: 32e3 d43e ecdb 2f3d 9fa1 093e 85c7 4f3e
00000350: 6da6 a5be b8d7 95bd ba8e ccbe 1d88 8f3f
00000360: ad1c 133e cc84 c43e 0eb9 dc3e bcdd f8be
00000370: 42d7 1e3f 8eab fc3e 8708 8fbd 54bd 09bf
00000380: c108 98bd 9fa0 8bbe 4670 a53e 0299 40be
00000390: b521 41bf c7cc 55be 1973 54bf ac58 493f
000003a0: 4d9d d13d 3f59 d63e f29d 97bd adcd 0c3d
000003b0: 0c81 43be 658f 9dbe 29f6 463f f3bd 1abf
000003c0: 4672 b53e d294 89be c90a 453f 393c 8abf
000003d0: 1bdd 56bf 0720 93be 5c22 ab3d cb7d 12bf
000003e0: 4ed7 b9be 848a 923d 70e5 1f3f b0a4 c2be
000003f0: 9d9c 2f3f a972 07bf 10c3 82be 6cd7 873e
0.2426523 -0.32913932 -0.10565146 -0.052847784 -0.080077484 0.14714335 0.08141839 0.36984217
-0.48754585 0.50531554 -0.2776864 0.11077242 -0.07219216 -0.7688899 -0.27340302 -0.0794633
-0.47395387 -0.11262147 0.15072331 -0.70323014 -0.32373115 -0.07402758 -0.47642863 -0.31779057
0.13516659 -0.07248824 -0.07230544 -0.12493372 -0.1810234 0.21436705 0.039741874 -0.06958923
0.38339496 -0.094499364 -0.7033008 0.047639407 -0.9983294 0.105321005 -0.041800227 -0.38082582
-0.01229797 0.42119822 -0.11848206 0.12685376 -0.07248133 -0.33668488 -0.5955375 0.07871939
-0.6135837 0.65531874 -0.08119071 -0.08741692 0.43817067 -0.7941418 -0.41658804 -0.013410521
0.19093588 -0.0724747 -1.1311394 0.4852763 -0.6712485 -0.1797981 0.44635978 -0.64413375
0.319843 -0.26453328 -0.25700998 0.27142093 -1.063782 -0.019660715 0.19095607 -0.07250854
-0.06836016 -0.16646029 0.61227506 -0.3279448 0.07457599 -0.07247309 -0.08092918 0.7618515
-1.0293604 -0.07689083 -0.04567776 0.17338935 -0.33796242 0.050371613 -0.26656637 -0.0603466
-0.71212715 -0.43053815 -0.119507454 0.038596537 -0.47261766 -1.0306662 0.22114791 -0.08011791
-0.8935619 -0.3580594 0.34656787 -0.07240096 0.13002144 -0.20955028 -0.1702063 -0.21947578
-0.6951227 -0.072761916 -0.22302128 0.38105652 0.5475188 0.056602992 0.16656815 -0.61032677
0.35447466 0.34171402 1.10536 -0.8993138 -1.0522108 -0.15292074 0.15401217 -0.72623545
-0.083281815 -0.55211264 -0.07239812 0.7145156 0.46143448 0.0061868234 -0.31959078 -0.0688833
-0.16351245 -0.8225099 0.7271033 0.63475597 -0.1295291 -0.28466985 0.40089807 -0.5860171
-0.48672226 -0.30428883 -0.5503619 0.1966236 -0.062411543 -1.13867 -0.23970708 0.50829124
-0.5485266 -0.23903924 0.64612776 -1.0586474 -0.081143945 -0.07246273 -0.5169589 -0.116021164
0.17551352 0.1282042 -0.4453927 0.030745538 0.36963743 -0.117561616 -0.07246072 0.31211635
-0.7092929 -0.07248446 -0.43574923 1.0788068 -0.6781559 0.4164896 -0.40609106 -0.1724268
-0.5047871 -0.13321313 0.31595922 -0.07391606 0.063771985 0.082448125 0.26804617 -0.23570986
-0.37533334 0.13797276 0.03818913 0.026309906 -0.17264658 0.36203012 0.2064395 0.28385878
1.3559426 0.114065535 -0.07411185 0.07855076 0.2996277 -0.072697334 -0.6072142 -0.07241836
-0.040559206 0.60301685 -0.10865825 -0.0724783 -0.04574805 -0.18140525 0.12272109 0.16432996
0.08346987 -0.12034792 1.1148292 -0.0928099 -0.07482897 -0.50404966 0.13180491 -0.28445092
0.41579586 0.042934343 0.1344056 0.20290954 -0.32353535 -0.07316536 -0.39952642 1.1213413
0.14366408 0.38382566 0.43109936 -0.4860667 0.6204721 0.49349636 -0.06984048 -0.53804517
-0.07423545 -0.27270982 0.3231222 -0.18808368 -0.7544206 -0.20878898 -0.82988125 0.7865093
0.10235081 0.41864964 -0.074031726 0.034375835 -0.19092196 -0.30773464 0.7771936 -0.6044609
0.35438746 -0.26871353 0.7696958 -1.0799628 -0.8393113 -0.28735372 0.08356163 -0.57223195
-0.36297077 0.07155326 0.6245947 -0.38016272 0.6859835 -0.5290933 -0.25539446 0.2653154
