modeldata/a11_Opt12k_cos_Aug_BitMnist_PerTensor_4bitsym_RMS_width64_64_64_lr0.001_decay0.1_stepsize10_bs128_epochs60.pth (torch, 103665 bytes, 4 tensors)

fc1.weight f4 [64, 256]
000000 c2 b1 38 be fb 46 e7 bd 9d 55 b7 bd c6 8b 23 be
       -0.18036559 -0.11292835 -0.08951876 -0.15971288
000010 9d 13 9b bd 92 35 b4 bd 78 fc 9a bd f2 89 84 bd
       -0.075721 -0.0879928 -0.07567686 -0.064716235
000020 b5 1c df bd a0 c1 c8 bd 40 f3 d9 bb 74 b8 ef bd
       -0.10894147 -0.09802556 -0.006651312 -0.117051035
000030 b7 0e be bd ba ba 09 be 9c 07 0b be 00 01 f6 bd
       -0.092801504 -0.13450137 -0.13577121 -0.120119095
000040 48 b9 71 bd 83 fa 0b be f3 be cc bd e0 f0 a4 bd
       -0.05901459 -0.13669781 -0.09997358 -0.08053756
000050 ab 5e cb bd ba f0 f2 bc ae b4 a8 bc eb 63 4b bc
       -0.09930166 -0.029655803 -0.020593967 -0.012413959
000060 c2 4b c0 3c f4 0f 11 bd da 99 cb bd f5 d7 08 be
       0.023473624 -0.035415605 -0.09941454 -0.13363631
000070 f1 c7 92 bd 55 cf c7 bd 69 f8 18 be 17 ca cc bd
       -0.07167042 -0.09756342 -0.14938511 -0.09999483
000080 49 05 38 be d1 2a 37 be ac 03 ca bd df 20 c6 bd
       -0.17970766 -0.17887427 -0.098639816 -0.096742384
000090 43 98 cf bd 20 95 20 bc 7e 2a 68 3d 48 ae 4d 3d
       -0.101364635 -0.009801179 0.05668115 0.050215036
0000a0 94 23 d5 bd 13 5d 9e bc 04 b6 8c bb cd 61 7f bd
       -0.104071766 -0.01933149 -0.004294159 -0.06234913
0000b0 00 73 fb bd 52 2a d6 bd e2 00 01 be 3e 49 0f be
       -0.12277794 -0.10457291 -0.12597993 -0.13992783
0000c0 1f 6b 24 be 9a 79 33 be b6 e5 05 be f1 71 dc bd
       -0.16056488 -0.17526856 -0.13075909 -0.1076392
0000d0 8a 37 80 bd a2 47 36 3d 9d 9c 8c 3d 8f b2 58 bd
       -0.06260593 0.044501908 0.06865809 -0.05290466
0000e0 58 43 0d 3d 52 1b d2 bd b5 64 97 bc b3 5c 86 ba
       0.034488052 -0.10259117 -0.018480638 -0.0010251015
0000f0 12 38 15 be 5f d8 b2 bd 67 42 42 bd 62 aa 67 bd
       -0.1457217 -0.08732676 -0.047426607 -0.056558974
000100 75 55 dd bd 0e ba a4 bd da d9 bb bd 2a bd 8e bc
       -0.10807315 -0.080432996 -0.09172411 -0.017424185
000110 10 ca 88 bd 83 a1 36 3d fc 82 f0 3c 7d 42 37 3c
       -0.06679165 0.044587623 0.029359333 0.011185286
000120 ac 41 17 3b 84 2b a2 3c e9 8c a3 bd 85 59 02 be
       0.0023079915 0.01979614 -0.07985861 -0.12729461
000130 90 d0 10 bc 27 46 07 be 93 28 5a bd 94 74 ca bd
       -0.008838788 -0.13210355 -0.05326135 -0.09885517
000140 08 8d b3 bd 1a 62 16 be d5 4b 53 bc 2e 41 1d 3d
       -0.08767134 -0.1468586 -0.012896498 0.03839224
000150 7f 2e 88 bd f7 e8 18 bc 22 f9 1d bd 63 16 0f bb
       -0.066494934 -0.009332887 -0.03856767 -0.0021833412
000160 e1 5e a3 3d 10 26 10 b9 b2 3d e1 bd 0b 50 97 bc
       0.07977081 -0.0001374709 -0.109980956 -0.018470785
000170 2d b6 97 bc 6c d6 a9 bd c8 35 bc bd 91 68 ac bd
       -0.018519485 -0.08292851 -0.091899455 -0.08418382
000180 44 82 86 bd 8b 04 45 bc 8e 42 f0 3c 34 0b c4 3d
       -0.06567815 -0.012025009 0.02932861 0.09572449
000190 6f 38 aa bc c6 50 b6 3c 21 32 48 be 99 44 37 bd
       -0.020778863 0.022255313 -0.19550373 -0.044743154
0001a0 29 9d 18 3e c0 68 07 3d 01 ed 4c bc f8 11 99 3b
       0.14903702 0.03305888 -0.012507678 0.0046713315
0001b0 26 79 88 bd 37 72 c9 bd c6 d0 1d be 08 5b bf bd
       -0.06663732 -0.09836238 -0.15411672 -0.09343535
0001c0 94 f5 20 bd 9b dd ee 3c c5 5f 0c 3d 1e d0 cf bd
       -0.0392967 0.029158404 0.03427102 -0.10147117
0001d0 3e 4e 6b 3c da c1 9e 3d aa 6b 60 be 35 b3 52 be
       0.014361916 0.07751818 -0.2191607 -0.20576175
0001e0 af 90 52 bd a9 eb 22 3d 4e a8 48 3d 7f c6 4b 3d
       -0.051407512 0.039775524 0.048988633 0.049749848
0001f0 d5 33 87 37 dc 83 63 3d a7 58 17 be 41 af 1e be
       1.611739e-05 0.055545673 -0.14779912 -0.15496542
000200 6c 97 ed 3b 8b aa 9f 3d 22 b6 1f 3e da c7 16 3e
       0.007250717 0.077962 0.15596822 0.14724675
000210 2d 50 48 3e 8c 1c 4b 3e b5 87 13 bd 34 81 89 be
       0.19561835 0.19835109 -0.036018092 -0.26856387
000220 3e d9 3c bd 8a 0b c9 bd 1c 2e 19 3d b5 54 7d 3c
       -0.046105616 -0.09816654 0.03739749 0.01546209
000230 0d 5c 13 ba 15 c8 9b ba c1 93 0f 3d 2d 4c 5a bd
       -0.00056213216 -0.0011885191 0.03505302 -0.053295303
000240 8c f2 2e 3d 7c 35 a9 3d b0 fe 18 3e 1e 00 33 3e
       0.04271178 0.082621545 0.14940906 0.17480513
000250 0a 98 bb 3e f9 aa 13 3f 8b 89 6d 3e 18 67 4b be
       0.36639434 0.5768276 0.23197 -0.19863546
000260 59 7e 4f be fa 50 88 bd 4d 22 08 bd 05 c6 37 bd
       -0.20263042 -0.0665607 -0.033235837 -0.04486658
000270 1d b9 dd bd 14 ff c1 bc 4b bf 77 3c 6d c1 f0 bd
       -0.10826323 -0.023681201 0.015121291 -0.11755643
000280 18 eb 56 bd 14 26 3d 3d b2 28 c2 bc 8e c1 df 3d
       -0.052470297 0.046178892 -0.023701046 0.109255895
000290 f8 00 af 3e 81 11 1c 3f f8 d9 91 3e 3f f6 af bd
       0.34180427 0.6096421 0.2848661 -0.085918896
0002a0 b4 a6 ca bd c2 12 05 be 50 e7 ca bd 60 fe 18 be
       -0.09895077 -0.12995437 -0.099074006 -0.14940786
0002b0 b7 70 b7 bc ce 0f 05 be f5 29 c1 bc 60 ea a6 bd
       -0.022392614 -0.1299431 -0.023579577 -0.08150172
0002c0 eb 95 03 bd 8d 4f d3 3d 48 89 80 3d 06 fc 9f 3d
       -0.032125395 0.103179075 0.06276184 0.078117415
0002d0 90 09 59 3e a9 76 cf 3e d9 b1 58 3e a9 ee 92 3d
       0.21195054 0.40520218 0.21161593 0.07174427
0002e0 0c 33 62 bc 6c 69 b5 bd fa 5d 07 be 13 dc f1 bd
       -0.013806116 -0.08857998 -0.13219443 -0.11809554
0002f0 3e 67 0e 3c c3 9b a2 bd 4d b7 10 3d c3 ab e6 3c
       0.008691607 -0.079398654 0.03533106 0.028158074
000300 78 c7 f5 3c b1 94 2e 3e 02 3e b4 3d c2 e7 f1 3d
       0.03000234 0.17048909 0.088008896 0.118117824
000310 a4 a8 b3 3d 11 e4 2e 3e 65 c8 10 3e cd 32 f6 3d
       0.087724 0.17079188 0.14138944 0.12021408
000320 48 93 91 3d 2a 51 39 3c 89 5c fa 3b 92 36 89 3c
       0.0710817 0.011310855 0.0076404256 0.016749654
000330 02 f2 1d 3d 4d ea bb 3d 28 98 07 3e 2d bf c3 3d
       0.038560875 0.09175549 0.13241637 0.09557948
000340 81 77 65 bc e4 76 f3 3d 91 3a 01 3e d1 c3 01 3e
       -0.014005543 0.11887911 0.12619998 0.12672354
000350 10 b4 11 3e ff 13 a1 3d 2b b5 98 3d e6 1e c6 3d
       0.14228845 0.07865142 0.0745643 0.09673862
000360 b5 b6 47 3d 20 25 96 3d 83 77 c3 3d e7 ba e4 3d
       0.048758227 0.073313 0.095442794 0.11168461
000370 36 0e d2 3c 51 ab 06 3e 16 e9 23 3e 8f dd 17 3d
       0.025641542 0.1315129 0.16006884 0.03707653
000380 92 1c e0 bd 26 7d 6b bc a4 03 09 3d cd 98 79 3e
       -0.10942949 -0.014373099 0.033450738 0.24374695
000390 82 fd d0 3c f4 3b ea 3c e0 81 38 3d 8a b9 82 3c
       0.025511507 0.028593041 0.045045733 0.015957613
0003a0 af 8e 98 3c 91 7c 1c 3d 5a ba b0 3a 86 25 0d 3e
       0.018622724 0.038204733 0.0013483271 0.13783845
0003b0 64 a9 15 3e 07 80 33 3e 1b 66 58 3d cc 27 9a bd
       0.14615399 0.17529307 0.05283175 -0.07527122
0003c0 04 82 8e bd d7 1b 7e bd b0 be 89 bd 66 d6 0b 3d
       -0.06958392 -0.06203827 -0.06725824 0.034140013
0003d0 a3 dd 4c bc a9 e4 08 bb 49 a4 1a bd 8d 4a ab bc
       -0.012504014 -0.0020888245 -0.03775433 -0.020909572
0003e0 ce 9e 47 3d 4a 4b e7 3d 01 63 b4 3d a9 65 35 3e
       0.048735432 0.11293657 0.08807946 0.17714562
0003f0 54 db f1 3d f8 fa 84 3c fe 0b 08 bd a5 24 c3 bd
       0.11809412 0.016232952 -0.03321456 -0.09528474

fc2.weight f4 [64, 64]
000000 2b 66 83 3d 1e fb c0 3d b6 b6 41 3e f3 c2 81 3e
       0.06415971 0.09422897 0.18917355 0.25344047
000010 88 dd 29 3e c5 50 2c be 68 60 2e be 36 61 2c 3e
       0.16588414 -0.16827686 -0.17028964 0.16833958
000020 53 03 3e 3e b7 8b d4 bd a5 fa d4 be ec 3a 84 3d
       0.18555956 -0.10378211 -0.41597477 0.06456551
000030 63 c7 c3 bd fa e2 2d be af 22 e2 bd e9 4c 95 3d
       -0.095595144 -0.16981116 -0.110417716 0.0729006
000040 fe 7f 80 3e 68 4a 6d 3d cb f5 4d be ff ce d1 3d
       0.2509765 0.057932287 -0.20113294 0.102445595
000050 ba fd 03 3f 90 de 9c be 5f 9b ec 3e eb 05 db 39
       0.5155903 -0.30638552 0.4621229 0.00041775344
000060 ba ef 5c bd ea 73 d3 be 3c 23 b1 bd c3 81 81 3e
       -0.05393956 -0.41299373 -0.086492985 0.25294313
000070 ba f7 37 bc eb ff da 3d b0 a7 57 3d 85 ce 2b be
       -0.011228496 0.10693344 0.052650154 -0.16778
000080 d4 ac 96 3e 81 b0 5f 3e 2c ad d3 3a 31 1d 80 be
       0.29428732 0.21844675 0.0016149632 -0.2502227
000090 97 b9 62 3e 1a 3a 94 3e 79 97 f4 3c 7f 43 00 3e
       0.2214111 0.28950578 0.029857384 0.12525748
0000a0 b4 cb eb 3c a2 15 4a 3e ac 8f e1 bc ac 69 11 3e
       0.028783657 0.19734815 -0.027534328 0.14200467
0000b0 f0 38 aa 3d df 9a aa 3d 3a dc 39 3d 63 f5 76 bc
       0.08311641 0.083303206 0.04537604 -0.015073153
0000c0 1f ec 5c bd 67 77 be bd 96 46 b3 3d 3b fc 27 3e
       -0.05393612 -0.09300118 0.087536976 0.16404812
0000d0 7c 58 ba 3e 12 e3 56 be 98 f9 09 be ac 60 73 be
       0.36395633 -0.20985058 -0.13474119 -0.23767346
0000e0 9b 9f 1f be d7 43 62 bf 4b ae 83 be 84 21 21 3e
       -0.15588228 -0.88384765 -0.25718912 0.15735441
0000f0 48 5c ac be b8 ac 02 3e 00 72 d6 39 b6 7b 02 3e
       -0.33664155 0.127612 0.00040902197 0.12742504
000100 3b 59 34 3c c4 83 19 3c 9b 78 24 bd 15 f2 02 be
       0.011007602 0.009369794 -0.04015408 -0.1278766
000110 87 db b9 bd e3 2c c1 be 50 75 d3 bd 2e 61 47 3d
       -0.09075075 -0.37729558 -0.1032511 0.048676662
000120 70 20 85 3d 71 34 2c 3e 88 7a 11 bb 15 b1 90 bd
       0.065003276 0.1681688 -0.0022198278 -0.07065026
000130 8e 33 26 be cc 2c 81 3e 04 27 3c 3e dd a6 2a be
       -0.16230604 0.2522949 0.18374258 -0.16665216
000140 bd ec 37 be 7d 8c 89 be 20 30 ab 3d a2 70 a9 be
       -0.17961402 -0.26864997 0.083587885 -0.33093745
000150 1a 38 af bd 91 71 88 be 17 bc ac be 32 85 ba be
       -0.085556224 -0.26649144 -0.3373725 -0.36429745
000160 34 d7 1a be f4 55 2c be 4f 24 b0 3e ef 58 18 3e
       -0.15121156 -0.16829664 0.344027 0.14877675
000170 13 39 11 be b5 62 8d 3e 7f 6c ad 3d 52 c3 27 be
       -0.14181928 0.2761437 0.084679596 -0.16383103
000180 4d 13 9d bd fa 51 2f 3e 41 6b 35 3d ef 41 09 be
       -0.07669697 0.17121115 0.04429174 -0.13404058
000190 f4 9d 84 3d 4f e3 f1 bd d2 31 03 3e cf 58 52 be
       0.0647544 -0.11810934 0.12811974 -0.2054169
0001a0 73 70 2c 3e 90 04 88 be 74 76 c0 bc 9f ed f9 be
       0.16839771 -0.2656598 -0.023493983 -0.48814103
0001b0 35 b2 36 be 9d 9b 4d 3d 10 e6 9f be 70 79 0e be
       -0.17841418 0.050197233 -0.3123021 -0.13913512
0001c0 ab 07 4e 3e f6 12 b5 bc 85 6c 2e 3e 40 a3 df 3d
       0.20120113 -0.022103768 0.17033584 0.10919809
0001d0 28 0e b5 3e 28 d6 c4 3e 74 c8 60 be 14 20 6a 3b
       0.35362363 0.38444638 -0.21951467 0.0035724686
0001e0 a7 30 75 3b fa c7 a1 3e d8 13 1c bf c8 ae 92 be
       0.0037413032 0.31597883 -0.6096778 -0.28648973
0001f0 6e 47 80 b8 93 18 f5 bb 41 02 41 bd 89 26 12 3e
       -6.1168204e-05 -0.007479736 -0.04712129 0.14272512
000200 e6 bb 24 3b b7 40 82 3e fc 54 98 bd 7e d1 a7 3d
       0.002513641 0.25439999 -0.074380845 0.08194254
000210 70 ae ae bd 0b 4d 18 3c 1e 87 1e 3e 56 be 1d be
       -0.08529365 0.009295712 0.1548123 -0.15404639
000220 27 3e 52 3e 1e dc 7a 3b 8e 72 27 be 2e 96 91 be
       0.20531522 0.0038278173 -0.16352293 -0.2843489
000230 5a 6b af 3d 67 88 e6 3e 2e 19 e9 3d bb ab 18 be
       0.085653976 0.45025942 0.11381756 -0.1490926
000240 e3 8b bb 3c ed 94 a8 3d 11 54 0e 3e 30 f8 b9 3e
       0.022893852 0.0823153 0.13899256 0.36322165
000250 2e b3 69 be fe 30 56 39 89 fc 61 bd 50 2c 14 3e
       -0.22822258 0.00020426881 -0.055172477 0.14470029
000260 58 0b ab be 1c 1a ac bd 23 6f 82 3d 49 79 0a 3e
       -0.33407092 -0.084034175 0.06368854 0.13522829
000270 0f 9e 72 be 82 cc 9e 3d 40 68 ba bd 92 e3 3d be
       -0.23693107 0.077538505 -0.09101915 -0.18543842
000280 20 af 98 be 60 98 ae 3d fd ef 27 3e 70 8e 43 be
       -0.2982111 0.08525157 0.16400142 -0.19097304
000290 b0 b5 0a 3e 95 30 33 3e c7 a0 ac 3e ea 03 29 be
       0.13545871 0.17499001 0.33716413 -0.165054
0002a0 3e b6 6d bd 8c fc a5 bd 9a 27 b0 be b1 0c c0 be
       -0.058035128 -0.0810481 -0.34405214 -0.37509683
0002b0 1d b3 79 3e e0 e1 d0 3d 02 1a 46 3e c2 83 75 3d
       0.24384733 0.10199332 0.19345859 0.059940107
0002c0 03 28 84 bd 3f de d0 bd 08 72 72 be 6c 61 d6 3d
       -0.06452944 -0.1019864 -0.23676312 0.104678005
0002d0 bc 1d 2c bf 94 8f 67 3e 91 fc 59 3c 93 72 7d 3e
       -0.6723287 0.22613364 0.013304845 0.24750738
0002e0 50 06 b7 bd 12 22 9e bd b4 95 c4 be fb ee ae 3d
       -0.08936751 -0.07721342 -0.38395464 0.08541676
0002f0 ee 64 a7 3e b6 bb c5 bd 35 cc 18 be e8 7f 01 bf
       0.3269419 -0.09654944 -0.14921649 -0.50585794
000300 6d 5d 86 3e ee a5 be bb 9b c0 9e be c7 2c a9 3c
       0.26243153 -0.00581812 -0.3100632 0.020651234
000310 8d 42 80 3e 71 f6 96 bd 83 2e 3c be e3 5a 31 3e
       0.25050774 -0.07371224 -0.18377118 0.17319827
000320 25 e7 6b be 2f af 59 3e 8e 8f 6e bb 44 88 c9 bb
       -0.23037393 0.21258233 -0.0036401483 -0.0061502773
000330 41 3b 89 be ca 4f a6 bd 0b 85 44 bb 7e 63 87 3e
       -0.2680302 -0.08120687 -0.0029986526 0.26443094
000340 4a 0e 22 3a 74 6b e7 b8 a0 24 81 3e bb 9b 2a be
       0.0006181939 -0.00011034953 0.25223255 -0.16660969
000350 d7 5b 32 be 95 18 ac 3d db 8a a7 bd 4a cb 83 be
       -0.17417847 0.08403126 -0.081807815 -0.25741035
000360 1a 3b bd 3d 76 af ba bd 87 d0 8a 3d 1d 71 1d bd
       0.09239788 -0.09115498 0.06778055 -0.03843795
000370 97 fe 88 3d 10 f5 04 3e b4 c8 de be a6 9f 38 be
       0.06689184 0.12984109 -0.435125 -0.18029651
000380 7e 0e 81 be 94 45 ef 3e 28 08 be 3b aa 51 b1 3d
       -0.2520637 0.4673277 0.005799312 0.08658154
000390 56 11 01 be b4 9b 5c 3d b5 e3 a0 3c 01 14 01 bf
       -0.1260427 0.053859428 0.01963983 -0.5042115
0003a0 93 c4 af be db d7 08 3e e6 35 54 be ca 57 ab be
       -0.34329662 0.13363592 -0.20723686 -0.33465415
0003b0 cb 72 c8 38 42 6c 79 3d 62 3f 80 3b 2b 96 de bc
       9.558125e-05 0.06089426 0.003913806 -0.027171215
0003c0 45 40 0f 3e 6d 97 81 be 99 88 a8 bd 54 de 92 bd
       0.1398936 -0.2531084 -0.08229179 -0.07171312
0003d0 4b f9 af be a9 d4 d5 3e 9d d3 07 bf 91 b6 b5 bd
       -0.34369883 0.4176381 -0.5305727 -0.088727124
0003e0 76 4c b7 3d 5d 16 08 3e 57 7f 92 be 1f 70 ab bd
       0.08950131 0.13289781 -0.28612778 -0.08370995
0003f0 cb 79 65 3e 45 05 af 3d 28 54 e7 be f6 af db 3c
       0.22409742 0.08545927 -0.45181394 0.026817303

fc3.weight f4 [64, 64]
000000 8a f6 4b 3e 44 de 7e 3c 49 18 43 3e fd f9 6f 3e
       0.19918266 0.015555922 0.19052233 0.23435207
000010 a3 cb f4 bd 6b 83 24 3e 36 0c 02 3e 44 ee c9 be
       -0.11952903 0.16065757 0.1269997 -0.39439595
000020 59 c0 bf bd f6 6e 06 bf 22 09 31 be 78 9e 69 be
       -0.09362859 -0.5251306 -0.1728864 -0.22814357
000030 51 63 29 3e fc 45 c6 3d 60 9a 83 3d 71 4d 3e 3a
       0.16541792 0.09681317 0.06425929 0.00072594645
000040 bb fc 96 be 1d 6a 94 bd c9 b7 2c 3e ae 76 41 3e
       -0.29489693 -0.07246802 0.16866983 0.18892929
000050 6b 56 69 be c9 43 b8 3e 9e f2 f1 3d 65 28 be 3d
       -0.22786872 0.35989216 0.11813854 0.092850484
000060 f3 19 22 be 9e 97 36 bc 3b a7 a1 bd 05 8f 40 3b
       -0.15830211 -0.011144547 -0.07893225 0.0029382121
000070 76 a3 19 3d ce bb 85 3d 7e fd 13 bf 8a 47 0f be
       0.037509404 0.065299615 -0.57808673 -0.13992134
000080 3b 5f 9c 3c 47 ac 81 be f8 83 91 3e e7 ea ea be
       0.019088378 -0.2532675 0.28420997 -0.4588234
000090 73 41 a0 be 8d 51 7c 3d a1 97 62 3d dd b5 86 bd
       -0.31299934 0.06160121 0.055320386 -0.065776564
0000a0 11 aa a2 bd 90 7f 94 3e 0e b6 a0 bd c0 d1 12 be
       -0.07942594 0.29003572 -0.07847224 -0.14337826
0000b0 8a 50 91 be 75 8e f5 bb eb a2 a2 3e 37 d7 21 3e
       -0.2838176 -0.007493789 0.31764922 0.15804754
0000c0 d7 f0 90 bd 9c 37 09 3e 14 a1 a2 3d 16 9e 73 3e
       -0.070771866 0.1340012 0.079408795 0.23790774
0000d0 39 4d a4 bd 15 32 c7 bc 89 ac 63 bd 1e 62 c2 be
       -0.080225416 -0.024315873 -0.055584464 -0.37965482
0000e0 97 33 b1 bd 4a 3f 00 3d 55 9a 1f 3e 10 91 ae be
       -0.08652418 0.031310357 0.15586217 -0.3409505
0000f0 2a d9 9d 3d be 88 13 3d 9d c1 3e 3e 41 6b c4 be
       0.077074364 0.03601908 0.18628545 -0.38363078
000100 fe 51 90 be 7f e2 8e bd e5 da 0c bc 94 06 b1 3d
       -0.28187555 -0.069767945 -0.00859711 0.08643833
000110 d6 19 22 3e 9b 24 16 be 63 84 53 3e 4e e6 db 3e
       0.15830168 -0.14662401 0.2065597 0.42949146
000120 41 8e 56 be 1f eb eb bc 2a f6 1c be 7d 54 4b bd
       -0.20952703 -0.028798638 -0.15328279 -0.04964112
000130 df 70 60 bc ee 3d a0 3d 56 59 37 be c2 ad db be
       -0.013698786 0.07824312 -0.17905173 -0.42906004
000140 68 c3 14 3e 1c 1a 40 3e 69 49 b2 be db a4 8c bd
       0.14527667 0.1875996 -0.34821633 -0.06867381
000150 41 fb 80 be ec ad 52 3d b2 78 df 3b ff fa e5 3d
       -0.25191692 0.051435396 0.006819808 0.11229514
000160 f3 64 9c be d3 e1 56 be 6e f8 17 3e d7 e7 95 be
       -0.30545768 -0.20984583 0.14840862 -0.29278442
000170 cb fc 73 be 28 fe 02 3e 58 94 8f 3e 44 8f 9b bd
       -0.23826902 0.12792265 0.28042865 -0.07595685
000180 7f d3 3f be 98 bd 3a be 56 04 4f 3e b9 66 43 be
       -0.18733023 -0.18236387 0.20216498 -0.19082154
000190 87 f4 a4 3d 91 47 09 be d0 f5 62 3d da aa ca be
       0.080544524 -0.13406207 0.055410206 -0.39583474
0001a0 aa 74 9c 3e df 12 fb bd 94 2b a7 3e 6a 73 9e bd
       0.30557758 -0.12259459 0.32650435 -0.07736857
0001b0 f9 ef 61 be 70 a8 23 3b f0 f6 20 3d 8b f5 89 3e
       -0.22064199 0.0024972223 0.039297998 0.26945147
0001c0 7d bf 1c 3e a2 8f 92 bd d0 16 75 be f6 3b 00 be
       0.15307422 -0.07156302 -0.23934484 -0.12522873
0001d0 28 94 de bd bc c7 32 be d7 aa 2a 3e 70 e9 73 3e
       -0.10868102 -0.17459005 0.16666733 0.23819518
0001e0 50 10 7d 3d 81 09 6b be dc f1 dd be f2 64 43 be
       0.061783135 -0.22952844 -0.43348587 -0.19081476
0001f0 f1 cd 35 3e d5 ba 13 bf 69 94 4e be e5 26 ab 3d
       0.17754342 -0.5770696 -0.20173801 0.08357028
000200 71 d8 99 3e 3f 1f 75 3e 42 4d 61 be fc 7a 2c bd
       0.30047944 0.239377 -0.22002128 -0.042109475
000210 4f 84 c8 3d 48 ed 9b be 7b 2a 2d bd fd 5e 80 3e
       0.09790861 -0.3045447 -0.04227684 0.2507247
000220 b7 c6 35 3e 95 f7 73 3e 6b 5f 36 be b7 6c df 3d
       0.17751585 0.23824914 -0.17809837 0.109094076
000230 ba 01 99 bd df 4b a7 bd 29 1f a6 3c b9 ab 51 3e
       -0.074710324 -0.08168768 0.02027853 0.20475663
000240 a5 39 42 be 1c 93 26 3e 9d 06 3b be 52 b7 03 3d
       -0.18967302 0.16267055 -0.18264242 0.03215725
000250 44 a6 9b bd ee 0f c7 bd 05 8a eb 3b 94 14 e1 bc
       -0.07600072 -0.09719835 0.007188084 -0.027475633
000260 4b 96 17 3e de a3 aa 3e 04 c4 e0 3d 7d f8 17 bf
       0.14803426 0.33328146 0.10974887 -0.5936354
000270 da bd 4e 3e 7d 25 52 be ee 12 0f be 9a b2 87 be
       0.2018961 -0.20522113 -0.13972065 -0.2650345
000280 a7 b0 97 bb a7 cf 3c bd 2d 65 ca be ba a9 75 bd
       -0.004629213 -0.04609647 -0.39530316 -0.059976317
000290 94 fa 37 bd a6 23 8c 3d 40 40 7f 3e ee 58 06 3d
       -0.044916704 0.06842737 0.24926853 0.032799654
0002a0 2c c9 a1 3d 6f 44 bd 3c a6 da ef bd 45 f2 73 3e
       0.078996986 0.02310392 -0.11711626 0.23822887
0002b0 57 cc 28 3e 9f cc ea 3d 74 22 13 be 55 47 8b 3d
       0.164842 0.114648096 -0.14368612 0.06800715
0002c0 9b 37 3a bd 9b 71 26 be a3 69 f1 3b 95 88 21 be
       -0.045463186 -0.16254275 0.007367329 -0.15774758
0002d0 e1 e4 3a 3e e0 bf 1a bd 98 87 81 3d 4d e9 5e 3e
       0.18251373 -0.037780643 0.063246906 0.21768685
0002e0 62 a7 25 be cb cb 9f 3e 26 e6 2c be 0c 67 a8 be
       -0.16177133 0.3121017 -0.1688467 -0.3289112
0002f0 0e 3a 45 be 0e 8a 22 3e 69 5f cb be 55 26 89 3e
       -0.19260427 0.15872976 -0.3972123 0.26787058
000300 b1 b2 22 3e 5d bf 0f 3e 83 07 d7 bc d3 47 3a be
       0.15888478 0.14037843 -0.026248699 -0.18191461
000310 6b ea e9 3b e0 8b 81 bd a2 3d be bc ea a6 a3 3d
       0.0071385405 -0.06325507 -0.023222748 0.07990821
000320 e2 80 b6 3d c5 a2 27 be 32 85 a2 3e 04 07 3f 3d
       0.08911301 -0.16370685 0.31742245 0.04663755
000330 e6 3e a0 3c d6 4d f4 bd e2 a2 6f 3d 85 e9 30 bd
       0.019561242 -0.119289085 0.058504947 -0.04319145
000340 fe 2a a3 3d 0e a8 1e 3e fd e5 e4 bd 70 82 88 3d
       0.079671845 0.15493795 -0.11176679 0.06665504
000350 91 ba a4 3e 63 8b 2d be 10 68 f6 3d bf ea 2c be
       0.3217359 -0.16947703 0.12031567 -0.16886424
000360 b8 4e 4d be 25 55 74 bc 06 f4 f8 3d 29 e9 88 3e
       -0.2004956 -0.014912878 0.12155919 0.26740387
000370 8b 84 ef 3d 65 09 11 be 92 20 e8 3c 78 c9 c5 3d
       0.116952024 -0.1416374 0.028335843 0.09657568
000380 bc 6f fe 3d 4c 0c fb 3d dd 6b 9b 3b 25 da 82 3d
       0.124236554 0.12258205 0.004743083 0.06389264
000390 61 79 4f be 3f f7 35 be b7 ba 1e be 03 7c 56 3e
       -0.20261146 -0.17770098 -0.15500914 0.20945744
0003a0 12 57 4e 3e 71 de 37 3e 56 a0 d4 bc 87 a7 0c 3f
       0.20150402 0.17955948 -0.02595536 0.54943126
0003b0 d8 2b 3b 3c 52 44 c9 bd 7a 3c 52 bc d7 d2 69 bc
       0.011424027 -0.09827484 -0.012831802 -0.01427146
0003c0 6e 97 e8 3d 8e a2 74 3e 7f 8d f0 3a 12 59 90 3d
       0.11357008 0.23890135 0.0018352716 0.07048239
0003d0 0f 6d 8b 3e d4 95 74 3e a8 99 91 3b 56 b4 75 be
       0.27231643 0.2388528 0.004443366 -0.23994574
0003e0 f4 9e 59 be 04 f0 91 3d 82 63 6c 3d f5 37 84 bd
       -0.21252042 0.071258575 0.057712086 -0.064559855
0003f0 33 f3 bc bd e9 cb f5 3c 69 c4 a8 bc 57 24 2e be
       -0.09226074 0.030004459 -0.020601468 -0.1700605

fcl.weight f4 [10, 64]
000000 30 77 34 3d 50 a8 1e be 73 ef a3 be d5 44 13 bf
       0.04405898 -0.15493894 -0.32018623 -0.57526904
000010 b3 7c ee 3e 1f d5 07 3e 89 47 af 3e 7c 7f 11 bf
       0.46579513 0.13264893 0.34234264 -0.5683515
000020 27 bb b7 3c a6 6b 9d be a6 af e6 be 6b ed 6e bd
       0.022428108 -0.30746192 -0.45055884 -0.05833189
000030 cd 77 5c be 3e 80 1f bf 46 c0 f2 3e 76 7f 9e be
       -0.21530075 -0.6230506 0.47412318 -0.3095662
000040 88 d8 9d be 01 a1 19 be 28 fa 63 bf ac 8a e2 bd
       -0.30829263 -0.15002824 -0.89053583 -0.11061606
000050 2b f2 66 be a8 a1 ed be e3 b4 99 3e 80 ea 1a be
       -0.22553317 -0.46412396 0.30020818 -0.15128517
000060 06 87 bd 3c 8f 26 f5 be fa 1d c0 be 54 9c 8e 3d
       0.023135673 -0.4788098 -0.3752287 0.06963411
000070 01 89 1e 3e 56 e3 2d bc cb 3c 4e bf 08 1d e3 3d
       0.1548195 -0.010613283 -0.8056151 0.11089522
000080 61 38 df be 06 81 1e be fd 65 20 be 5b 23 17 bf
       -0.435977 -0.15478906 -0.15663905 -0.59038323
000090 db 7f e6 be 35 4d ed be b3 12 97 3e 5a f6 cc be
       -0.4501942 -0.46347967 0.29506454 -0.400317
0000a0 24 16 15 bf 65 bc 56 be c0 18 b7 3e 62 2c 13 be
       -0.5823691 -0.20970304 0.3576107 -0.143724
0000b0 de 2d 45 3f 04 4a 1e bf 86 0c 1c bf 63 fd 18 3f
       0.7702311 -0.6183169 -0.6095661 0.5976164
0000c0 ec 3c 66 3e da a3 81 3e e6 6f c2 be c4 b8 ed be
       0.22484177 0.2532032 -0.37975997 -0.46430027
0000d0 b5 b1 ed 3e 34 00 be 3d 21 a3 56 be 94 ac 06 bf
       0.46424642 0.092773825 -0.20960666 -0.52607083
0000e0 4a 99 c9 bd 04 29 1d bf 33 c3 e8 be 1c 2a 16 be
       -0.09843691 -0.6139071 -0.45461425 -0.14664501
0000f0 cb f2 03 bf 86 47 1e be 92 b1 0c bf e5 3b a0 be
       -0.5154235 -0.15456972 -0.5495845 -0.31295696
000100 7b 6e 81 bd 97 84 9e 3e 06 9a d6 3d af e0 9a be
       -0.063199006 0.30960533 0.104785964 -0.30249545
000110 70 c2 8d bf cc 60 bd 3d 1b 30 49 3c 33 86 1b be
       -1.1074963 0.09246978 0.012279536 -0.15187912
000120 b8 d0 1c bf bd 5d e2 3e a7 44 5a be 3e 8b f7 be
       -0.6125598 0.44212142 -0.21315251 -0.4834842
000130 50 f5 a0 3e 67 c3 ea be 9f d4 17 3e 1e 77 70 3d
       0.3143716 -0.45852205 0.14827202 0.05870735
000140 16 2a 05 be 15 8a 21 3e b9 f3 ee be 8c 0e 07 bf
       -0.13004336 0.1577533 -0.4667032 -0.5275657
000150 24 a4 a3 be ba 48 cd 3e 7b 7c 2b bf 3b 77 9d 3d
       -0.31961167 0.40094548 -0.6698682 0.07688757
000160 f4 d9 1d 3e c9 f0 0d bf 9e 24 1a be 3c 8c 12 bf
       0.15415174 -0.55445534 -0.15053031 -0.5724523
000170 b4 11 65 3e 1b 7c bf be 85 55 7a ba d8 e3 01 bf
       0.22370034 -0.37399372 -0.00095494866 -0.50738287
000180 a6 85 09 bf 49 a8 27 3f 3b 08 97 be af 35 8e 3e
       -0.53719556 0.6549116 -0.29498467 0.27775332
000190 fa f5 b8 bc 00 15 0f 3f 74 e6 ed be 9d 25 a9 be
       -0.022578228 0.5589142 -0.46464884 -0.3303651
0001a0 7c 7f 9e be f8 c0 21 bf ae 08 2f bd 72 3a 6b be
       -0.30956638 -0.6318507 -0.042732887 -0.22971514
0001b0 a3 84 35 be c9 0f 46 3f 5b 6b da 3e 2d be eb 3e
       -0.17726378 0.77367836 0.4266003 0.4604353
0001c0 13 98 46 bf de 1f df be 71 0b 6d be b3 7f 4e bd
       -0.77575797 -0.43579 -0.23148896 -0.050414752
0001d0 4b bf 59 be 19 21 46 bf e8 9a e5 3e 99 e4 19 bf
       -0.21264379 -0.77394253 0.44844747 -0.6011444
0001e0 86 f5 9d be 87 b6 ee be bc 05 dd be 71 cd ea 3e
       -0.30851382 -0.46623632 -0.43168437 0.45859864
0001f0 45 fe 1d 3f 94 31 bf ba fc 70 0f be b2 66 2d 3d
       0.6171611 -0.0014586919 -0.14007944 0.042334266
000200 65 c0 ed be 34 80 1e 3f 2e a6 2a bf 05 f1 1d be
       -0.46435848 0.6191437 -0.6665982 -0.15423973
000210 cd 78 17 be 49 b3 8f 3e bc 93 3d be 30 2b 20 bf
       -0.14792176 0.2806647 -0.18513387 -0.625659
000220 4d a1 1c 3e c2 47 fa bd c0 8f 24 bd c6 36 1b be
       0.15295906 -0.12220718 -0.040176153 -0.15157613
000230 19 6c ee be 6b 81 1e 3e 39 5f ee be 92 65 fb 3e
       -0.46566847 0.15479057 -0.46557024 0.4910093
000240 ab f4 ed be d8 c0 b9 3e ac ec 0f bf cc 90 ed 3e
       -0.4647573 0.3627994 -0.5622051 0.46399534
000250 ce cd fa ba 6b bf ed 3e 7e d1 9e 3e 50 18 97 3e
       -0.0019134821 0.46435103 0.31019205 0.29510736
000260 d2 53 cf be 74 bf ed 3e c8 06 03 be 89 73 9e be
       -0.40493637 0.4643513 -0.12795556 -0.3094752
000270 18 c2 84 be 74 60 c9 3e 55 e0 24 be 36 c9 ac be
       -0.25929332 0.393314 -0.16101201 -0.33747262
000280 8c 48 da be fb 20 f0 be e6 42 9e 3e fd cc 24 3e
       -0.42633474 -0.46900162 0.30910414 0.16093822
000290 8c 37 99 be f8 36 ae be 1d aa 84 bd aa 02 21 be
       -0.2992519 -0.34026313 -0.06477759 -0.15723673
0002a0 c8 6d 33 bf 40 f4 9a be 31 81 1e be d1 d5 1d be
       -0.7008939 -0.30264473 -0.1547897 -0.15413596
0002b0 26 76 55 3c 0d a2 6c be eb d5 06 be 5b 9d 35 be
       0.013028657 -0.23108692 -0.1316754 -0.17735808
0002c0 25 cf f0 be d6 a9 7c be 45 a8 a4 3e 09 38 b3 3e
       -0.4703304 -0.24674162 0.3215963 0.3500369
0002d0 c8 dd 9c 3e 97 7b 1e 3e d0 d8 ed be 86 e1 69 be
       0.30637956 0.15476833 -0.46454477 -0.22839937
0002e0 eb 90 8d be e9 e7 9b 3e ee 2b d2 be 7e 1c 10 be
       -0.27649626 0.3045037 -0.4104914 -0.14073369
0002f0 34 97 09 3e 3e d2 9e 3e 4d 9f ac bc 0c 49 07 3d
       0.13436586 0.31019777 -0.021072054 0.033028647
000300 50 76 1a 3f 9b a8 1d be b2 45 5e 37 08 1a 35 3e
       0.6033678 -0.15396349 1.3248458e-05 0.17685711
000310 6c fd ec be bb a8 29 3e 3d 0e 1e be bf 4b 61 be
       -0.46287096 0.16568272 -0.15435119 -0.22001551
000320 86 0c f1 be 56 93 cf be c4 80 9e be 59 d2 94 be
       -0.47079867 -0.40542096 -0.30957615 -0.29066733
000330 16 67 ee be 51 4b a3 be b0 87 00 bf 78 05 dc be
       -0.46563023 -0.318934 -0.5020704 -0.42972922
000340 2d 74 73 be f0 2c c5 be 36 94 93 3e a4 df 9d be
       -0.23774786 -0.38510847 0.28824013 -0.30834687
000350 51 b9 04 3f c1 26 7f be c9 5c eb 3d 0d 51 ca 3c
       0.5184527 -0.24917127 0.11492307 0.024696851
000360 26 cd 26 3e 43 5c d7 3d ee c5 ed be f9 d5 21 bd
       0.16289195 0.105156444 -0.4644007 -0.0395107
000370 a0 b2 9e be 55 cf c6 be 03 1b a9 3e ff 41 f7 3e
       -0.30995655 -0.38830057 0.3302842 0.4829254
000380 99 b8 1e be 8d ba e6 be d6 16 ee be d3 a6 9e 3e
       -0.15500106 -0.45064202 -0.46501797 0.30986652
000390 10 10 cd be c3 12 d0 3e 19 20 a4 3e 34 28 ee 3e
       -0.40051317 0.40639314 0.3205574 0.46515048
0003a0 d5 77 b7 bd ac a7 f4 be 5f cb 16 3e 23 a3 57 be
       -0.08958403 -0.47784173 0.14726017 -0.21058325
0003b0 a5 fb 08 bf 65 ac 29 be 0f a3 cf 3e 71 f3 31 bf
       -0.5350898 -0.1656967 0.4055409 -0.6951209
0003c0 0a b3 a0 be 07 af ae be 45 8e f3 3e 1c 67 4f 3e
       -0.31386596 -0.3411791 0.4756948 0.20254177
0003d0 bb a3 b5 be 0f f8 62 be 01 78 9e 3e a5 b9 ed be
       -0.3547648 -0.2216494 0.3095093 -0.46430698
0003e0 9a 8d d5 be bd e1 63 3e b3 74 1e be 1b 81 8b be
       -0.41709596 0.22254081 -0.15474205 -0.27246937
0003f0 ac 1b 8c be 55 f1 96 be d2 8d 1e 3e 78 88 8d be
       -0.27364862 -0.29480997 0.15483788 -0.2764318
