modeldata/a11_Opt12k_cos_s00b16_Aug_BitMnist_PerTensor_4bitlog_RMS_width64_64_64_lr0.001_decay0.1_stepsize10_bs128_epochs60.pth (torch, 103707 bytes, 4 tensors)

fc1.weight f4 [64, 256]
00000000: 98bd 67bd e9f9 82bc 680f f53c 1b82 57bd
00000010: 40f0 53bd 8291 2dbd 89bf 92bd bc19 febd
00000020: 1e79 bbbd 806a 08be 5694 0abe 5661 79bd
00000030: 11ae 41bd a345 abbb bf85 1abd bb47 203d
00000040: f2f2 133d 8968 7abd 21c3 aa39 b567 ddbc
00000050: 6dbc bdbc d3c6 06bd e533 18bc 9bec e0bd
00000060: 3805 d7bc bf0a 6a3d eea7 493d 0d28 58bd
00000070: 999b ffbc ff47 26bd 3308 e4bd 0abd 053d
00000080: d7cc 983c f80d 56bd 4a1f 5ebd 1d48 83bd
00000090: 6229 d6bc f396 8b3d d181 a5bc 297b f4bd
000000a0: 2912 b53c c3b7 65bd 0286 e3bd d3be d6bd
000000b0: a373 5ebd e351 e5bd 5daa 56bc ec4a 04bd
000000c0: fae3 25bc 6788 d3bc 449b cbbd fe5a ddbd
000000d0: 45d9 69bd ada0 25be 19bd 71bd 2aae c6bb
000000e0: e15a 36ba 8e28 a7bd fb7f 1c3a f9b2 acbd
000000f0: 4c82 93bd 0f30 97bd 61f2 083e 9287 c33d
00000100: f87d a03c 3d38 d9bc c3dc e3bd 86f1 18be
00000110: 78b0 f6bd 4db8 69be 711a babd 26ca 00be
00000120: 0149 2bbd 2841 a9bd f0f3 4abd a900 05bc
00000130: b1e0 3b3d be24 6dbd c9f4 a23d fbb0 06bd
00000140: e4da 82bd f0e2 b0bd e5a6 6cbd 6bd2 30bd
00000150: 58b1 d6bd ebfb 9abd a918 e2bd 39e6 41be
00000160: f62a bfbd 5118 c4bc b177 28bd ca5b 9bbc
00000170: 7673 8abd a26e b4bc 0af4 1b3d e0fe e8bd
00000180: fed2 ddbc 67dd 87bd b487 f2bd fc5a 1e3d
00000190: d440 e03c 701e 6bbc 0b7a a4bd f775 f4bd
000001a0: 1d27 fbbd b9eb 3ebe e48f 27be 6a30 a4bd
000001b0: 6b04 52be aa4f f1bd 4cbb 58be 09bb 3dbe
000001c0: 5ae3 a1bc 5b1a 18be c404 80be e975 37be
000001d0: 03cf e4bd ef2c bebd efce c0bd ad51 67be
000001e0: 8d3f c1be bd66 bbbe 1d15 bdbe 469a 95be
000001f0: f4a4 e7be ea76 c1be 1011 cebe aa3f 83be
00000200: d312 17bd afdc e1bc b66f dabd 881f 5dbe
00000210: 6c5d e5bd a5cc 59be 957a 12be 4440 eabd
00000220: d98e e8bd c951 61be ef73 acbe a052 d5be
00000230: eedd d7be 6bea eebe b442 e8be f589 68be
00000240: de91 b33d c140 da3d c330 1f3e 30e9 033e
00000250: b065 aa3c b3e1 523d ecfd 1d3d 8d3f d23b
00000260: d6f1 61bc 6453 36bc a5c3 47be 6bde 67be
00000270: 90de 79be 442f 68be 1145 89ba d905 79bd
00000280: 64c5 223e 45d2 7b3e f8a1 b03e 016e c43e
00000290: 2b16 683e db65 6f3e c22a 673e d3c7 683e
000002a0: 5ca4 ae3e 15ea ab3e d76c 893e ec53 8b3e
000002b0: 9595 843e 8a74 8f3e 848d 0b3e 72eb d73d
000002c0: 61b8 fd3d 5319 2e3e c473 8d3e 6156 0b3e
000002d0: f0a3 603e 2bdd 5b3e 18a1 683e e01e 683e
000002e0: 51ad 993e f813 e83e 1b76 0e3f 1416 e83e
000002f0: a2ec e93e 855a 193f 3a8f be3e 978e 3e3e
00000300: 8a61 123d 6b52 4a3d bdc7 e83d 6e52 ad3d
00000310: 10a3 3abd e232 a03d d0b6 61bd 16c8 ecbd
00000320: 20f2 c1bd bddb f13d 70d8 913e 3d54 a43e
00000330: 7758 993e 61ac 0b3f 1561 ea3e 4e79 233e
00000340: dd84 26bc 2595 393d 6722 12bd 7b09 34bb
00000350: ea2e 80bc 0366 f6bc 32ab e33d bf6e f83b
00000360: 9780 6bbe 1562 64be c67c e9bd 0ba7 cdbc
00000370: 90c7 073e 9ea8 483e 1e1d 853e 1e04 823d
00000380: 578a 83bd 0a21 2dbd cbfd bebb 73ce 33bd
00000390: a072 50bb 2634 26bd c704 213d 15e8 2f3d
000003a0: ca78 8bbd 19ca 00be 4a0c 14be ce97 d1bd
000003b0: e8b8 3f3b 0905 49bb 2918 ec3d 3b9e d0bb
000003c0: e15f 47bc 072d 813d bc05 95bc 240f 2ebd
000003d0: 6e22 be3a dad7 3dbc 41aa 643d 60f0 d4bb
000003e0: d6f0 48bc 3974 abbd 9ed6 b7bd 7618 d3bd
000003f0: 625e a4bd feb1 5fbb a27d e2bc ce84 d33c
-0.056577295 -0.015988307 0.029914573 -0.052614313 -0.051742792 -0.042375095 -0.07165439 -0.12407252
-0.09153961 -0.13321877 -0.13533148 -0.060883842 -0.047285143 -0.005226807 -0.037725206 0.039130908
0.036120363 -0.06113485 0.0003257031 -0.02702699 -0.023161137 -0.032904457 -0.009289716 -0.10982629
-0.026247606 0.057139155 0.049232416 -0.05277257 -0.031202124 -0.040596005 -0.111343764 0.032650985
0.018652363 -0.052259415 -0.05422906 -0.06410239 -0.02614278 0.06815901 -0.020203503 -0.119375534
0.022103386 -0.056083452 -0.11109544 -0.104856156 -0.0543095 -0.11197259 -0.013102141 -0.032298014
-0.010125155 -0.025821878 -0.09941724 -0.10808371 -0.05709197 -0.16174574 -0.05901823 -0.0060632424
-0.0006956291 -0.08162032 0.00059699983 -0.08432574 -0.072025865 -0.07382213 0.1337371 0.09547342
0.019591317 -0.026516074 -0.11126091 -0.14935884 -0.120453775 -0.22824211 -0.090870745 -0.12577114
-0.04181767 -0.08264381 -0.049549043 -0.008117833 0.04586858 -0.05789637 0.07956845 -0.032883625
-0.06389406 -0.08637035 -0.05777635 -0.04316942 -0.104830444 -0.07567581 -0.1103986 -0.18935479
-0.09334366 -0.023937376 -0.04112977 -0.018964667 -0.06760304 -0.02202541 0.03807453 -0.113767385
-0.027078148 -0.06634026 -0.118422896 0.03866099 0.027374662 -0.014350519 -0.0803109 -0.119365625
-0.1226332 -0.18644609 -0.16363484 -0.08017047 -0.20509498 -0.11782773 -0.21165198 -0.1852838
-0.01976173 -0.14853804 -0.25003636 -0.17916073 -0.11172297 -0.09285914 -0.094144695 -0.2258975
-0.37743798 -0.3660182 -0.3693017 -0.29219264 -0.45243037 -0.37786037 -0.40247393 -0.2563451
-0.036883187 -0.02757105 -0.106658384 -0.2159406 -0.111994594 -0.21269472 -0.14304574 -0.11438039
-0.11355371 -0.22003855 -0.336822 -0.416646 -0.42161506 -0.46663222 -0.4536339 -0.22708876
0.08768056 0.10656882 0.15545945 0.12881923 0.020800442 0.051484775 0.038572237 0.0064162672
-0.013790568 -0.01112828 -0.19508226 -0.2264344 -0.24401307 -0.2267428 -0.0010472854 -0.060796592
0.15895611 0.2459193 0.34498572 0.38365176 0.22664706 0.23378699 0.22574905 0.22732477
0.3410977 0.33577028 0.2684085 0.27212465 0.25895372 0.280186 0.13628203 0.105429545
0.12388683 0.17001848 0.27627385 0.1360717 0.21937537 0.21471088 0.22717702 0.22668028
0.30015042 0.45327735 0.55648965 0.45329344 0.4568835 0.59903747 0.37218648 0.18609081
0.03573755 0.049395006 0.11366222 0.08462988 -0.045565665 0.07822205 -0.055105984 -0.11561601
-0.0947001 0.1180949 0.2848544 0.3209552 0.29950306 0.54559904 0.45777193 0.15964243
-0.010163513 0.04530825 -0.03567734 -0.002747147 -0.01564737 -0.03007794 0.11116637 0.0075815613
-0.22998272 -0.2230304 -0.11400752 -0.025104066 0.13259721 0.19595572 0.25998777 0.063484415
-0.064228706 -0.042267837 -0.0058285943 -0.043898057 -0.0031806603 -0.040577076 0.039311197 0.04294594
-0.06810148 -0.12577094 -0.14457813 -0.102340326 0.00292545 -0.0030673167 0.11528046 -0.006366519
-0.012168855 0.063074164 -0.01819121 -0.042494908 0.001450611 -0.011587108 0.05582643 -0.0064983815
-0.012264451 -0.08371777 -0.08976482 -0.103074 -0.080258146 -0.0034133191 -0.027647797 0.025820162

fc2.weight f4 [64, 64]
00000000: 213e 96bd e82c d3be 1414 003e 4ed3 723d
00000010: 4499 5b3e e3d6 683d c82d 8e3e f345 273e
00000020: e01b a43d e9ad ccbe 1d0b 9ebe f34f e33e
00000030: 0ad8 47bc 48e3 ecbc d780 aebc bbc1 acbd
00000040: e78e 163e 4d73 efbe 6031 a53e 3eb3 cb3c
00000050: bcb3 20be f422 7e3e d4ac 4cbe 4f69 cebd
00000060: 2ca1 8b3b f68c cebe c726 6c3d 589d ec3d
00000070: d285 53be 7e2d ff3e 8e20 883e 5b82 26bb
00000080: 8dab bb3e 3bb4 49be e09c a3bd 2f0e e8bd
00000090: 5efb fa3c b172 7bbd 5a41 1cbd 8b04 87bc
000000a0: d108 afbe f1f6 24be b31b 97be 5e65 44be
000000b0: 327f cb3d 396f 2bbb 6e02 a23e 5ec5 ccbe
000000c0: 9a93 6fbe b1e2 b43d 09f2 dabc f393 2ebe
000000d0: 368f a93b 76d7 1dbe 1d6b b43e c6ea 783d
000000e0: 36b8 0fbe 518f 9ebc 729c 4c3e 084c 07bc
000000f0: 2e63 cbbe 5737 cd3d 5ca2 ab3e 5326 2e3e
00000100: 4dae cd3e 1ad4 063d fa3c 0bbd f475 cc3e
00000110: 011d 6c3e 6a31 e53d b3bb 99bc 1012 03bf
00000120: 15c5 cc3e 28c9 8abd 8623 253e 5083 353e
00000130: 3e3c 2a3e df79 fdbe c11c 73be ec04 823e
00000140: e978 6a3d d1f7 f9be 9766 8cbe e7fc b3be
00000150: 7941 8dbe bb21 da3d 8c08 953d 98a0 35be
00000160: 4325 02bf 3f05 17be c735 bfbc e608 29be
00000170: 61e7 c3bc 7c2d 4a3d 4b70 9f3e 6143 943d
00000180: fd9d cc3e fca8 dbbe a474 3abf e991 c33d
00000190: 3a26 1b3e db19 473e ff4f 81bf 3ac2 03bd
000001a0: 698e 2e3e 10bd 4bbe 7123 f1bd d057 3e3e
000001b0: 0e04 c83e 56d7 7ebe 9f20 48be 0b87 b73e
000001c0: 7b32 913e bf2b 3d3e 5016 6f3e 64fe e6bd
000001d0: 7d78 623e f25c 553d 8912 533d e49e e03d
000001e0: 9a72 cdbe 6822 9f3e b0a4 4c3e e97b cb3e
000001f0: 842c 483e 1296 4c3e 89c4 8cbe f8c4 f73c
00000200: 3698 953b e813 cdbe b331 713e c855 8c3e
00000210: 8cea b7bd 4640 c63d 9945 373e 8da3 ccbe
00000220: 7dc9 ba3d c6e2 13be d977 a9bc da79 783e
00000230: df6f d4bd a58f afbe c277 d3bc 9bce d73d
00000240: 8865 d43d 2a4e bf3e 3422 f43e ecc4 4c3e
00000250: 393a 4abe 45e0 c63e cae9 4ebe 7e2c 453e
00000260: ae9f 4cbf d473 4fbe a5a6 f13d c164 293e
00000270: b2ae 19bd 7574 f5bd 1f9c cc3e 2691 02be
00000280: c498 983d f692 2ebf fa89 a0be e200 a6b9
00000290: 7864 8f3e 8822 f9bd c487 9b3d e2f6 83bd
000002a0: cddb 4bbe 2602 243b ae43 70be 6e69 14bd
000002b0: 3085 ee3d 5717 393e 9605 963e d9a3 703c
000002c0: 5a61 4dbe 4799 ebbc 5fbd f83d 86b8 4e3e
000002d0: 89b4 cb3d ef40 783d 4364 213e 88b6 abbd
000002e0: cf70 e83d 90ca 403e 7230 5d3d 8044 ba3e
000002f0: 7668 b03e 18aa 383c 5c38 9cbc a20e e8bc
00000300: 186d 6a3d 3edc d9be b37d af3e 22a8 283e
00000310: c30b 4cbe 9a88 a7be dcbc 98be 3a7d 48be
00000320: ab6d 2ebe 333e 873e 9e68 9c3d 0b9c ccbe
00000330: 365a cc3e 7b2d 923e e1cd 2dbe cb64 2d3d
00000340: b0f3 1f3e 16b8 3ebd bdb8 58bd 8ebb 5ebe
00000350: bf55 c83e 7aab cc3e a4ce 87be a181 de3b
00000360: 2bf1 28be a69d cc3e 3f95 4c3e efaf 28bd
00000370: 70a3 f53c fd55 24be 8bf4 183e 9932 3dbe
00000380: 898c 0f3e 864b 59be e56d 5fbe a6a8 4a3e
00000390: 3647 03be 6de9 133e 4931 10be 050d cbbd
000003a0: 7ecf ef3e db60 19be 35b9 6939 eaf2 073e
000003b0: c799 cc3e 8488 debd 773c ebbc 794c 8cbd
000003c0: 30b6 723e dec0 593e b6ab 3fbe f178 6c3e
000003d0: de8e 583d 0586 eb3d ae06 5e3e 56e7 fdbe
000003e0: e570 553d 9c27 ccbe d2b4 e73d fef0 923e
000003f0: f797 4c3e 4808 4d3e 68ae 5cbc e5bc fb3d
-0.07336069 -0.41245198 0.12507659 0.059283547 0.21445185 0.056845557 0.27769303 0.16335277
0.08013129 -0.39976433 -0.30867854 0.44396934 -0.012197504 -0.02891697 -0.02130167 -0.08435389
0.1470295 -0.46767655 0.32264233 0.024865743 -0.15693563 0.24818021 -0.19987804 -0.1007868
0.0042611565 -0.4034192 0.05765417 0.115534484 -0.20656517 0.49839395 0.26587337 -0.0025407288
0.3665432 -0.19697659 -0.07988906 -0.1133083 0.03063744 -0.061388675 -0.03814826 -0.016481658
-0.34186414 -0.16109826 -0.2951332 -0.19179294 0.0993637 -0.0026158823 0.3164248 -0.3999433
-0.2339615 0.088323005 -0.02672674 -0.17048626 0.005174543 -0.15414223 0.3523797 0.060770772
-0.14035115 -0.019355448 0.19981554 -0.008257873 -0.39724106 0.10020321 0.33522308 0.17006807
0.40172043 0.03291712 -0.0339937 0.3993374 0.23057939 0.111910656 -0.01876626 -0.51199436
0.39994112 -0.06776649 0.16126832 0.17725873 0.16624543 -0.49507043 -0.23741437 0.2539438
0.057244215 -0.4882188 -0.2742202 -0.35153887 -0.27589014 0.10650965 0.07277021 -0.17737043
-0.50838107 -0.14748095 -0.023341073 -0.165073 -0.023914041 0.049359784 0.3114036 0.07239414
0.39964285 -0.42902362 -0.7283423 0.095493145 0.15151301 0.19443457 -1.0102538 -0.03216765
0.17046513 -0.1989634 -0.11774338 0.18588185 0.39065593 -0.24886832 -0.19543694 0.35845217
0.28358826 0.18473719 0.23348355 -0.1127899 0.22116275 0.052090593 0.05153135 0.10967806
-0.40126497 0.31080937 0.19984698 0.39742973 0.19548231 0.19979122 -0.27493694 0.03024529
0.004565264 -0.4005425 0.23554115 0.27409196 -0.08980283 0.09680228 0.17897643 -0.3996853
0.09120462 -0.14441976 -0.02068703 0.24265233 -0.103729 -0.3428928 -0.02581394 0.10537454
0.10370928 0.37364322 0.47682345 0.19996995 -0.19748773 0.3884298 -0.20206371 0.19255254
-0.7993115 -0.20259029 0.11799363 0.16542341 -0.037520118 -0.11985103 0.3996286 -0.12750682
0.07451013 -0.68192995 -0.31355268 -0.00031662645 0.2800634 -0.121647894 0.075942546 -0.064435735
-0.19908066 0.0025025695 -0.23463318 -0.036233358 0.11646497 0.1807531 0.29301137 0.014687502
-0.20056668 -0.028759612 0.12145495 0.20187578 0.09946544 0.0606088 0.15760903 -0.083844244
0.113496415 0.18827271 0.05400128 0.36380386 0.34454697 0.011271022 -0.019069843 -0.02832729
0.057232946 -0.42550844 0.34275588 0.16470388 -0.19926362 -0.32721406 -0.29831588 -0.1957902
-0.17034023 0.26414642 0.07637142 -0.399628 0.39912575 0.28550324 -0.16973068 0.04233245
0.15620303 -0.046562277 -0.052910555 -0.21751234 0.3912792 0.39974576 -0.26524842 0.0067903553
-0.16498248 0.39964026 0.19978808 -0.04118341 0.02998516 -0.16048427 0.14937036 -0.18476333
0.14018454 -0.21220216 -0.21819265 0.19790897 -0.12820134 0.14444514 -0.14081301 -0.09914593
0.4683799 -0.14978354 0.00022289607 0.13276258 0.39961073 -0.10865882 -0.028715355 -0.068505235
0.23702312 0.21264979 -0.18717846 0.2309301 0.052870624 0.115001716 0.21682236 -0.49590558
0.052109618 -0.3987397 0.113137856 0.28699487 0.19979845 0.2002269 -0.013469316 0.12291888

fc3.weight f4 [64, 64]
00000000: 4dfd 00be 4338 13bf 88e6 a5be 99f3 233d
00000010: a362 233e b32b aabe cf88 99be 325e d43d
00000020: 04de 48bf 939e 8cbe 4d75 39be 893a 9abd
00000030: e8bb 963e eb96 95bd 199e 973d 655f 6f3e
00000040: c9b9 f33d 5c01 683d 0315 123e ff58 acbe
00000050: b520 623e 751b c9bd b8fc 663c d33e 9dbd
00000060: e20f 83bd 982c adbe 6bfa 2bbe 53c3 b23d
00000070: 792c e13d 5e4c afbe 44c0 e5be 37b8 503c
00000080: cda8 af3e aae5 6bbd bf21 9dbd 0518 653e
00000090: 64d6 c93d e5dc 623e bdaf 2b3d a175 11bb
000000a0: c659 ccbd caaa ba3b 8e54 a0bc 48de 54be
000000b0: 0744 583e 8198 6c3e dc1b 22be 044b 103e
000000c0: 5284 cdbe b0e7 2e3e 046e b7be 5986 593e
000000d0: 2191 80be 35fc 0bbf 7012 7a3e d4fb 49bd
000000e0: 66b5 9d3d 54f6 aebe 4528 8bbe 2533 2fbd
000000f0: c2be 843c e26c 7ebe 0675 afbe bcf0 093e
00000100: 9b96 dc3c f9b5 94bc 02ad adbe e39a 08bf
00000110: 4c7f dcbd 9dbe d6bc 144f d6be d7f7 13bd
00000120: e566 be3d 68d8 84bd 5eb5 293e d196 aabd
00000130: 42ad 90bc 53c8 043d d143 29be 0a1e bc3d
00000140: d7e4 aebe c08d 2f3e 26d3 34bd c5f3 223b
00000150: e333 473e 2d66 1bbe 0c13 9fbe 4499 d83b
00000160: ed51 18bf fa91 423e 1aa1 773e dc4c d4bd
00000170: 094e ac3e 184a 833e a4b8 183d 7732 343e
00000180: 109b b0bc 882a fdbd 2dc5 aebe 3efb ae3e
00000190: 920e 33be d381 a5be fc3c 083e 7c5f a0bd
000001a0: c97c c93c d244 343e 61dc 853e ba2f 4a3e
000001b0: 67e3 d13d f11e 13be a5b8 85bc a219 9fbd
000001c0: 50bb 053d 9857 9e3e 5aff 733b ea7e 84be
000001d0: 9678 d5be 70d9 2e3e a39f 84bd fd8e 0abf
000001e0: 3278 493e b599 e73a 2724 9cbe 67a4 3d3e
000001f0: 2fd6 3f3c 749a 26be 1404 08be d554 dcbc
00000200: 8610 2f3e de1b 173e 32a7 7e3e 71e7 5cbc
00000210: c245 3d3e 3b87 e6be 4c00 0dbd 02bb ae3e
00000220: e70f bcbe ae93 893d a563 bdbc d515 853d
00000230: d06a 763e b00d 303e f0a6 1fbf 5471 733c
00000240: db23 aebe 64c7 64be 71dc 193e 67f9 c63d
00000250: 6086 1c3e 3b75 07bf b836 2dbd ff43 c8bd
00000260: 5191 45be 9981 f6bd 4f68 b0be c3ea b33d
00000270: 3cb6 b9bd a895 cd3d cdbc f73d a3b6 f7bd
00000280: f40a 0abd 0487 4dbe 74ad cfbd 1c23 afbe
00000290: 0788 36bc 6e88 a23e 051b 3fbd df33 553e
000002a0: 46e3 503e a637 21bf 564f 113e 1782 9cbe
000002b0: a32c 253e 0a98 b63d e622 a3bd eb73 bf3d
000002c0: d940 40be 2cd3 3b3e 2fd2 e3bd 00ec 193e
000002d0: f0ae f83d f10a 93be 4335 babd 2ba3 31be
000002e0: 88da 983e 1262 acbe 6733 abbe 24b1 0cbe
000002f0: f358 b13e aefb 533d 58ea 9c3d 7c4a af3d
00000300: a306 87bb 7830 b33e fa31 81bc f3e5 1bbe
00000310: 0f60 c5be 5233 273d dc6a 143e a4d9 e1bd
00000320: 3ada a23d c4b1 bd3c 1c46 40be 044c 67be
00000330: 972e 41be 0d26 dd3d 5ea3 dcbe 6de6 81be
00000340: 63a8 2c3d 0b3b 2f3d a399 e53d f0f3 3b3e
00000350: 047b 01bd c5d8 0c3d c89d 95be b877 ed3c
00000360: 09a3 afbe 72a7 ecbd 6860 483d 870d 043e
00000370: 44ca 453e c3e6 043e cd04 cf3c cec4 2f3e
00000380: ca54 03be cd88 413e 8a81 44ba e774 bebd
00000390: 53ef d7bd fd81 cdbd 4bfe adbd 3685 8f3d
000003a0: 2718 a3be 71e9 533e 9ea9 abbe f48e 8abe
000003b0: 72be 2abe c9fd cd3e 79a5 4ebd d7c7 39be
000003c0: 62f5 8e3e 4c96 19be 7a85 633a 1561 3d3d
000003d0: 86cb c1bb 4009 c6bd 3d62 503b 8fed a13e
000003e0: 9cab 063e 9e10 12bd 7793 a5be fd4a 013e
000003f0: 87a5 afbe 4723 19bc 0385 773e 94ae 8dbd
-0.12596627 -0.57507724 -0.32402444 0.040027235 0.15955596 -0.33236465 -0.2998719 0.10369529
-0.7846377 -0.27464733 -0.18111153 -0.07530696 0.29440236 -0.07304176 0.074032016 0.23376234
0.1190067 0.05664192 0.14265828 -0.3366165 0.22082789 -0.0981969 0.014098339 -0.076779984
-0.06399514 -0.33823085 -0.16794746 0.087286614 0.109948106 -0.3423795 -0.4487325 0.012739233
0.34308472 -0.05759207 -0.07672452 0.22372444 0.09855345 0.22154577 0.041915644 -0.0022195356
-0.099780604 0.005696629 -0.019571569 -0.20787919 0.211197 0.2310505 -0.1583094 0.14091116
-0.40140015 0.1708057 -0.35826123 0.21242656 -0.25110725 -0.5468171 0.24421096 -0.049312428
0.07700615 -0.34172308 -0.2717916 -0.042773385 0.016204242 -0.24846223 -0.3426897 0.13470739
0.026927283 -0.018153178 -0.33921057 -0.5336134 -0.107664675 -0.026213938 -0.41857207 -0.03612503
0.09296969 -0.06486589 0.16573092 -0.08329547 -0.01766074 0.032417607 -0.16529776 0.09185417
-0.34158966 0.17143917 -0.04414668 0.0024864536 0.19453387 -0.15175696 -0.3106922 0.0066100676
-0.5950001 0.19000998 0.24182549 -0.10366222 0.33653286 0.25642467 0.037285462 0.17597376
-0.021558315 -0.12361628 -0.34134808 0.34176058 -0.17486027 -0.3232561 0.13304514 -0.07830712
0.024595635 0.17604378 0.26144698 0.19744769 0.10248452 -0.14367272 -0.016323397 -0.07768561
0.03264934 0.30926204 0.0037231059 -0.25878078 -0.41693562 0.17075133 -0.06475761 -0.5412443
0.19674757 0.001766971 -0.30496332 0.18519746 0.01170878 -0.16269857 -0.13282806 -0.02689592
0.17096147 0.14756724 0.24868467 -0.013482914 0.18483642 -0.45025048 -0.03442411 0.3412705
-0.36730883 0.06717621 -0.023118803 0.06498305 0.24064183 0.17192721 -0.623641 0.0148585625
-0.3401173 -0.22341686 0.15025498 0.097155385 0.15285635 -0.52913254 -0.042288512 -0.09778594
-0.19293715 -0.120364375 -0.3445458 0.087850116 -0.090679616 0.1003831 0.12096558 -0.12095382
-0.033701852 -0.20071036 -0.101405054 -0.34206474 -0.01114083 0.31744713 -0.046656627 0.20820569
0.20399198 -0.6297554 0.1419042 -0.30568 0.16130309 0.08915718 -0.07965641 0.093482815
-0.18774737 0.18342274 -0.11124074 0.15031433 0.12142742 -0.28719285 -0.0909219 -0.173474
0.29854226 -0.33668572 -0.33437654 -0.13739449 0.34638175 0.051753692 0.07661885 0.08559129
-0.004120664 0.34997916 -0.015770901 -0.15224437 -0.3854985 0.040820427 0.14493889 -0.1102784
0.0795178 0.023156054 -0.18776745 -0.22587591 -0.18865429 0.10798273 -0.4309339 -0.25371113
0.042152774 0.042780917 0.112109445 0.18354774 -0.031611457 0.034386415 -0.2922194 0.02898775
-0.34304073 -0.11555375 0.048920065 0.12895785 0.1931544 0.12978654 0.025270844 0.17164919
-0.12825313 0.18899842 -0.00074961095 -0.09299641 -0.10543694 -0.10034559 -0.08495768 0.0700783
-0.31854364 0.2069452 -0.33527845 -0.2706219 -0.16674212 0.40232685 -0.050450776 -0.18142639
0.27921587 -0.1499874 0.00086792524 0.046235163 -0.0059141545 -0.09669733 0.0031796836 0.31626555
0.13151401 -0.03566038 -0.3233907 0.12626262 -0.34305975 -0.00934679 0.24171834 -0.06918064

fcl.weight f4 [10, 64]
00000000: cfee 493f 9e4b c73e fe5a 5fbd 8ea5 46bf
00000010: d36d d2be 47a8 49bf 5ff7 f43e ccab 3f3e
00000020: 2854 cabe 0803 52bf 0eb1 cabe c208 ca3d
00000030: 40cc efbe 5bea 49bf 2202 75bf 57c0 3b3f
00000040: 113a 453f 3252 2ebf 1d54 e7be 0ce0 e13e
00000050: e2fd 0dbf 00c1 95bd 9fc5 9a3e b9df 333d
00000060: e657 49bf 7b1f b2be 1b14 08bf aec2 b9be
00000070: 7a86 e8be d531 bcbe 9934 63be 0697 583e
00000080: ea4b 5ebf 6597 3fbf 107e c13e 14cf 1ebf
00000090: 9756 46be ebf7 a0be 8359 793d 39a3 afbd
000000a0: 0069 4bbf 0a7e 8e3c 68e1 e33e d3d6 bb3d
000000b0: 5334 0bbe 960e 463f 3404 83be 4a5a 7e3d
000000c0: ef71 f13e 9574 33be 3ce0 533d d2f3 15bf
000000d0: fadd 63bd 0820 cfbe 31fe d9bd 7efe f4be
000000e0: b7de 10bf b52b 83bf d579 bbbe bfb4 18bf
000000f0: 373c d83e 72d9 67bf 955f 333f d8ee 49bf
00000100: e012 d9be 7d59 4abf 8a74 4a3f 5b35 13bf
00000110: 1cce 063e 29aa ccbe 8236 24be f4df c93e
00000120: b881 18bf fe65 85be 77c2 c6be 53d6 23bf
00000130: 4903 953d 7f18 4bbe cb5d e13d c3aa 3abf
00000140: 73ef 48bf bc8c edbd 7af9 65bd 6c7b 38bf
00000150: aeab 38bf 8e19 bfbe 6dca c83d 08d0 8f3e
00000160: 2e20 523f 10d7 a7be bc97 47be 4592 de3e
00000170: 9f03 c7be 1771 a33e cd3b b3be 300b f33e
00000180: 7423 d1be c390 44bf d0ae d63e f029 4b3e
00000190: c277 063f 74d4 53bf 90b9 cebe d457 463f
000001a0: 5733 c2be ecfa a0be b7ec c9bf d630 d9be
000001b0: 16a3 76be e816 41bf 03ec c9be 342a 9ebd
000001c0: a533 e3be be1a f3be f4b6 cb3e 06d9 c9be
000001d0: 8a8b 2bbf b567 943d 74df 493f 9fa6 4bbe
000001e0: 1896 0cbf 0018 ef3e 9215 3dbe 6d6d 87be
000001f0: 7095 cdbe e0d3 b73c 41fb 49bf d65f b33e
00000200: d51e 49be 7811 323f 6862 4cbe b44a 4bbf
00000210: 084e 023f fb8f 33bf ddb3 a5be 7253 babe
00000220: 3b67 febe 3284 97be 3242 293f cf41 4dbd
00000230: 2152 3fbf 22c1 6a3e ac32 79be ff4d cebe
00000240: e8e7 49be df68 ea3d 13f8 c93e afaa 6dbe
00000250: f8b0 193f b595 b43e af23 0cbf 200b c7be
00000260: f205 a7be e605 e4be 26b9 f0be 9522 dd3e
00000270: fa35 67be fb67 c0be 8ae3 083e 2a76 c2be
00000280: 1070 1ebf f4e8 4fbf fea6 8a3e ef37 a83e
00000290: 6fe9 c93e 1642 47bf 77a4 d83c 4baa 2dbf
000002a0: 99ad 8abd e7a7 d03e 3757 4c3d 50dc 9bbe
000002b0: 421b bc3e 5825 9d3d 3fea 493e fa99 a93e
000002c0: eaf1 b73e b484 1b3d 1bfb 2dbe cce8 25bf
000002d0: 2209 17bf e7d5 c93e e540 cabe 2049 ccbe
000002e0: 32a3 ab3e da61 ebbe 9a2a 9bbe 096f e13e
000002f0: e78b 803e 829d 6ebf 0e22 3bbe b09a b3bd
00000300: 8fbc 7abe 21c7 bebd 39f4 49bf 5ac2 253f
00000310: 1816 84be e723 803e 1817 1d3d 2c30 02be
00000320: c84a 49be 4c50 cabe ebad 3bbf 8502 4ebe
00000330: b442 8c3e 8617 9dbe 6f52 3c3e 4597 e9be
00000340: 19e3 d43c 9817 1f3d 349f e23e 6cce e9bd
00000350: 4e4a 04bd 6db4 42bf 3a28 0dbf 1c13 4abf
00000360: 163f f5be 137d 47bb 0267 a53e b087 cabe
00000370: c079 0bbf 8306 a63e a1c7 943d 01a1 00be
00000380: 03ee c93e 4499 cd3e 96c5 6f3e 13fa d3be
00000390: c056 d33e 6840 1bbf 673e 1ebe 181a cabe
000003a0: c833 403d dc85 023f 4dd4 31bf 7f19 ee3e
000003b0: 5ee8 22bf f001 4bbe 6dfb 15bf 6f6f e4be
000003c0: 50e8 463e 1515 ca3e 12d8 aebe 6e0e 173f
000003d0: 0105 ee3e 1c32 c6be d66f df3d 32ef c93e
000003e0: b83a 4b3e 2424 3e3f 7130 04bf 6cd9 d7bc
000003f0: 4bf4 01bf 49d9 c9be 1988 25bf 92bb 05bf
0.7888002 0.3892488 -0.054530136 -0.77596366 -0.41099414 -0.78772396 0.4784498 0.18717879
-0.3951733 -0.82035875 -0.39588207 0.09864952 -0.46835518 -0.78873223 -0.9570638 0.7334036
0.7704173 -0.6809417 -0.4518136 0.44116247 -0.5546552 -0.073122025 0.30228898 0.04391453
-0.7864975 -0.34789643 -0.5315568 -0.3628134 -0.45415097 -0.3675677 -0.22188033 0.21151361
-0.86834586 -0.74840385 0.3779149 -0.62034726 -0.19368969 -0.31439146 0.06087638 -0.08576054
-0.7945709 0.017394084 0.4450791 0.09171834 -0.13594179 0.77366006 -0.25589144 0.062097825
0.47157237 -0.17524941 0.05172752 -0.58575165 -0.055631615 -0.40454125 -0.10644186 -0.47850412
-0.56589836 -1.0247713 -0.36616388 -0.59650797 0.4223344 -0.9056617 0.7006772 -0.7888007
-0.42397213 -0.790428 0.79084074 -0.5750329 0.13164562 -0.39973572 -0.16036418 0.39428675
-0.59572935 -0.26054376 -0.3882024 -0.6399891 0.07276017 -0.19833563 0.11004218 -0.7291681
-0.7849037 -0.115991086 -0.056146123 -0.72063327 -0.7213696 -0.37324184 0.09804235 0.28088403
0.8208035 -0.32781267 -0.19491476 0.4347097 -0.3886995 0.31922218 -0.35006562 0.47469473
-0.4084736 -0.7678339 0.41930246 0.19840217 0.52526486 -0.8274605 -0.40375948 0.77477765
-0.37929794 -0.31441438 -1.5775365 -0.4242007 -0.2408565 -0.7542558 -0.39437875 -0.07722893
-0.4437534 -0.4748134 0.3978802 -0.39423388 -0.67009795 0.07246343 0.7885659 -0.1988778
-0.54916525 0.46697998 -0.1846526 -0.26450673 -0.40153074 0.022439897 -0.7889901 0.35034055
-0.19640668 0.69557905 -0.19959414 -0.7941086 0.50900316 -0.7014157 -0.32363787 -0.3639179
-0.49688134 -0.29593045 0.6611663 -0.050111588 -0.74734694 0.22925237 -0.24335736 -0.4029388
-0.19717371 0.11445784 0.39447078 -0.23209642 0.6003566 0.35270467 -0.5474195 -0.38875675
-0.32621723 -0.4453575 -0.47016257 0.43190446 -0.22579184 -0.3757933 0.1336805 -0.37980777
-0.61889744 -0.81214833 0.2708053 0.32855174 0.39435908 -0.77835214 0.02644561 -0.6783797
-0.067713924 0.407531 0.049887862 -0.30441523 0.36739546 0.076731384 0.19718264 0.33125287
0.35926753 0.037968352 -0.1699032 -0.64808345 -0.5899831 0.39421007 -0.39502636 -0.3989954
0.33522946 -0.45973092 -0.3030594 0.44030026 0.25106737 -0.9320909 -0.1827471 -0.08769739
-0.24485992 -0.093153246 -0.7888828 0.6474968 -0.25798106 0.2502739 0.038352102 -0.12713689
-0.19657433 -0.39514387 -0.7331225 -0.20118149 0.2739464 -0.3068201 0.18390821 -0.45623222
0.025987195 0.03884086 0.44262087 -0.11416325 -0.032297425 -0.7605656 -0.55139506 -0.7893541
-0.47899693 -0.003043954 0.3230515 -0.39556646 -0.5448265 0.32426843 0.07264639 -0.12561418
0.394394 0.40155995 0.23415217 -0.4140173 0.41277122 -0.6064515 -0.15453492 -0.39473033
0.046924382 0.50985503 -0.6946457 0.46503827 -0.63635814 -0.19824958 -0.5858677 -0.44616267
0.19424558 0.3946921 -0.34149224 0.5900639 0.46488193 -0.38710105 0.10910003 0.39440304
0.19846618 0.74273896 -0.51636416 -0.026348792 -0.50763386 -0.39423588 -0.64660794 -0.52239335
