modeldata/a11_Opt12k_cos_Aug_BitMnist_PerTensor_4bitsym_RMS_width56_56_56_lr0.001_decay0.1_stepsize10_bs128_epochs60.pth (torch, 87473 bytes, 4 tensors)

fc1.weight f4 [56, 256]
000000 61 d0 ed bd 7d 7e 51 be 86 6b 43 be 9d b8 19 be
       -0.11612011 -0.20458408 -0.19083986 -0.1501183
000010 d2 7a cc bd 26 08 07 be 72 c9 fd bd e0 51 27 be
       -0.099843636 -0.13186702 -0.12391938 -0.16339827
000020 57 af 17 be b3 b6 38 be bc b5 2d be ec cb ea bd
       -0.1481298 -0.18038444 -0.16963857 -0.11464676
000030 42 89 43 be e3 42 27 be 12 59 47 be 39 10 ec bd
       -0.19095328 -0.16334109 -0.19467571 -0.11526532
000040 cd 11 15 be b5 a7 48 be 2c 16 bc bd 2b 5a 56 be
       -0.14557572 -0.19595225 -0.091839164 -0.20932834
000050 91 6a 15 be 39 2c e7 bd 95 44 3d be 86 12 5f bd
       -0.14591433 -0.11287732 -0.18483193 -0.054461025
000060 84 4d fa bc e8 69 19 3d a3 d9 c4 bd df fc fb bc
       -0.03055454 0.037454516 -0.096118234 -0.030760227
000070 5d d7 80 bd 68 59 cf bd 72 25 e6 bd 4c 0c 01 be
       -0.06291077 -0.10124475 -0.11237611 -0.12602347
000080 65 00 1f be 43 13 2f be f3 eb 95 bd f6 33 b1 bd
       -0.15527494 -0.17097192 -0.07320394 -0.08652489
000090 d3 22 88 3d cf 09 83 bc 13 6a 4b bd 0d 79 18 be
       0.06647267 -0.015995888 -0.049661707 -0.14889927
0000a0 b2 df 82 bd de bf 7c 3a 12 fe bf 3c 2b bb 66 bc
       -0.06390323 0.00096416275 0.02343658 -0.01408271
0000b0 39 cc 9f bb 74 f6 ba bc 93 f8 12 be 72 82 01 be
       -0.00487664 -0.022822596 -0.14352636 -0.12647417
0000c0 17 1a e4 bd 8b 37 e0 bd 7b 7f 95 bc d2 9d de 3d
       -0.11137789 -0.10948094 -0.018249264 0.108699456
0000d0 b6 9c 67 3d 76 b8 3c 3d 3a 4e fd 3d 65 89 91 3d
       0.056545936 0.046074353 0.12368436 0.07106284
0000e0 7f 64 c7 3d b3 a0 fb bc 24 6f 9f bd 78 aa 4e bd
       0.09735965 -0.030716276 -0.0778487 -0.05045554
0000f0 a1 fc 21 3d 5f f7 12 3c f8 95 ec bd 43 24 90 bd
       0.039547566 0.008970111 -0.11552042 -0.070381664
000100 58 98 1c be 2f 32 04 be 7d 6e 00 bb 5c 37 48 bd
       -0.1529249 -0.12909769 -0.0019597106 -0.04888092
000110 2c c0 01 3d 2f 9d 0a bd 02 9e ac 3b 1e fe c9 bc
       0.03167741 -0.03384131 0.0052678594 -0.024657305
000120 0e 97 76 bc 7f c7 c8 bd 04 76 bf bd 47 4e 4e bd
       -0.015050663 -0.09803676 -0.093486816 -0.05036762
000130 35 15 ce bd 48 2c 90 bd 79 50 4c bd f7 fc e7 bd
       -0.10062639 -0.07039696 -0.049881432 -0.11327546
000140 88 0d ed bd 78 6d 59 bd 0d 78 f4 3c 92 57 ea bd
       -0.115748465 -0.053082913 0.0298424 -0.11442484
000150 b2 98 2e ba e7 80 35 3d a5 08 ac bc 69 c7 cf 3b
       -0.00066603266 0.044312384 -0.021000216 0.00634091
000160 65 2a 52 bc 20 84 b3 3d b7 4d 92 39 ee ae 09 bd
       -0.01282749 0.08765435 0.00027905192 -0.03361409
000170 d6 f1 ed 39 62 bd b0 3c e5 82 86 bd 0e 72 07 bd
       0.00045384344 0.02157468 -0.06567935 -0.033067755
000180 11 80 09 be 5a 14 db bb 80 25 30 3d db 1a 31 bd
       -0.1342776 -0.0066857757 0.043004513 -0.043238502
000190 b9 fb 4e 3d 70 d9 0c 3c dc 33 8c 3c 73 8e 94 bd
       0.05053303 0.008596763 0.017114572 -0.072537325
0001a0 2b 50 a8 bd 1b 69 6b 3d 02 79 7d bc 1e d3 bd 3d
       -0.08218416 0.057473283 -0.015470745 0.09268783
0001b0 60 1d 51 3d f7 a7 7c 3d 5e 80 7b 3c 9c 95 83 bd
       0.051053405 0.06168362 0.015350429 -0.0642502
0001c0 98 52 d7 bd 3a 45 b6 3c 08 db fb 3d 29 9f 80 bb
       -0.105138004 0.022249807 0.12297636 -0.0039252234
0001d0 41 e2 70 3c 28 25 b4 bb e9 69 b1 ba 01 84 c4 bd
       0.014702381 -0.0054975934 -0.0013535592 -0.0959549
0001e0 b2 43 d7 bd 77 86 17 ba 29 88 4d 3d 4b ce fc 3d
       -0.10510959 -0.00057802297 0.05017868 0.12344035
0001f0 2f a5 dc 3d 0b 4a a8 3d 12 44 ba bc 3f cc 65 3c
       0.10773694 0.082172476 -0.022737537 0.014025747
000200 c4 7a d9 bd 28 10 d3 3c 34 75 0b 3d 80 ec 21 bd
       -0.10619119 0.02576454 0.03404732 -0.039532185
000210 87 0c 07 be 92 26 4d bd a4 8e 68 3c c6 be 91 3c
       -0.13188373 -0.05008561 0.014194164 0.017791163
000220 4b 7a 1b 3d 54 c8 6e bb 80 9a 3f bd 73 b5 b0 bd
       0.037958425 -0.0036435323 -0.046778202 -0.08628359
000230 75 e3 2b bd 1d 27 06 bd ef 4e 1b bc 40 1f a3 bd
       -0.041964967 -0.032752145 -0.009479268 -0.07964945
000240 58 4c a0 bd b4 1e f6 bd 47 03 eb bb ca 83 6e bc
       -0.078270614 -0.12017575 -0.0071720215 -0.014557788
000250 e9 16 e8 bb c2 43 b4 bc e2 75 cc bd f1 bd 68 bb
       -0.007082809 -0.022004966 -0.09983422 -0.0035513605
000260 f3 0a 64 bd 5f 75 cb bd a9 9a ae 3c 8f a9 9a bd
       -0.055674504 -0.09934496 0.021313982 -0.07551872
000270 8f 56 86 bc 75 79 4c 3d 57 25 83 3d 53 73 e2 3d
       -0.016398696 0.049920518 0.064036064 0.110571526
000280 b6 a9 e3 bd d5 84 2c bd d7 d0 e2 bd f0 f3 be bd
       -0.11116354 -0.042118866 -0.11074989 -0.09323871
000290 7f 53 16 3d c4 16 58 3d f9 4a 25 3d b4 04 6f 3e
       0.03670072 0.052756086 0.040354703 0.23341638
0002a0 54 0b 65 bd f4 bc 91 bd 56 8f 30 be 9e d7 b6 3c
       -0.055919006 -0.07116118 -0.17242178 0.022319611
0002b0 2a 43 e9 3d 0a b7 2d 3e a4 fa 10 3e 01 70 56 3d
       0.11389764 0.16964355 0.14158112 0.05235291
0002c0 49 88 a6 bd 7b 5f 45 bd d0 a5 0a be 62 28 b7 bc
       -0.08131463 -0.04818676 -0.13539815 -0.022358123
0002d0 78 95 c0 bd 53 43 1a be 5b a1 46 be a4 4e 66 be
       -0.09403509 -0.15064745 -0.1939749 -0.22490937
0002e0 a1 59 e8 be 0b f6 a6 be b9 40 f8 bd 3f 1d 2f 3e
       -0.4538088 -0.3260959 -0.1212172 0.17101
0002f0 6a a6 11 3e 3f 2d 4e 3e fa 1d 04 3e 06 c0 d8 3d
       0.14223638 0.20134448 0.1290206 0.105835006
000300 63 b1 11 bd 86 45 be b8 ef 2f 41 bd 7f 2e 8b bd
       -0.03556956 -9.072856e-05 -0.047164854 -0.06795978
000310 64 82 85 3c 10 12 2e be 11 73 b6 be bd fd b3 be
       0.016297527 -0.16999078 -0.35634664 -0.35154524
000320 51 2c 56 bd 86 6a 7e 3e c0 ba 88 3e d2 f0 9a 3e
       -0.052288357 0.24845323 0.2670498 0.30261856
000330 0c 4b 4f 3e 25 78 70 3e 23 6e 49 3e 16 d8 d7 3c
       0.20243472 0.23483332 0.1967092 0.026348155
000340 ee 50 ae bd 92 18 77 3d 97 21 18 3e 95 dd b9 3d
       -0.0851153 0.060326166 0.14856564 0.090754665
000350 e7 5c cc 3d 91 2e 1b 3e dc 55 9e 3e a9 f9 fd 3e
       0.09978657 0.15154482 0.3092488 0.49604538
000360 4e 52 29 3f fd d7 2a 3f 73 f8 08 3f 15 c2 6f 3e
       0.6614121 0.6673582 0.53504103 0.2341388
000370 14 0d 5c 3e 91 35 48 3e 84 fd 5d 3d e1 28 95 bd
       0.21489364 0.19551684 0.05419685 -0.07283188
000380 b1 17 81 bd 39 77 40 3c aa ef 3e 3e 42 3c b4 3e
       -0.06303347 0.011747175 0.18646112 0.35202223
000390 2b 0d b9 3e 5c f0 f0 3e 65 a9 14 3f 68 48 13 3f
       0.3614286 0.4705838 0.58070976 0.5753236
0003a0 12 73 b4 3e 14 86 8a 3e 98 9e 7f 3e c1 a4 53 3e
       0.35244042 0.27055418 0.24962842 0.20668317
0003b0 c8 7d 2e 3d a5 ff 6b 3d 12 5e f6 bd 48 31 fa bd
       0.042600423 0.05761685 -0.12029661 -0.12216431
0003c0 27 03 e2 bd d2 ac 96 ba 76 b3 eb 3c db ca 34 3e
       -0.110357575 -0.0011495596 0.028772097 0.17655508
0003d0 80 b2 5d 3e 68 b4 66 3e 4f 23 4d 3e 32 9b 19 3e
       0.21650124 0.22529757 0.20033 0.15000609
0003e0 d1 35 1a 3e 2a 1b 21 3e 21 39 2a 3d 39 e4 a6 3d
       0.15059592 0.15733019 0.04155839 0.08148999
0003f0 03 7f 0f bc 24 90 96 bd b2 79 f1 bd 0b 12 af bd
       -0.008758309 -0.073517114 -0.1179079 -0.08548363

fc2.weight f4 [56, 56]
000000 52 a3 58 3d d7 9e b6 bd 29 80 0d 3d d3 f2 4d be
       0.05289013 -0.08917015 0.03454605 -0.20112161
000010 80 4c b8 bd 03 93 df bd 37 38 89 be 48 b2 10 3e
       -0.08998966 -0.10916712 -0.268007 0.14130509
000020 6b df 3f bf 7c 06 30 be 63 e2 e7 3d 22 53 36 be
       -0.74950284 -0.17189974 0.11322477 -0.1780515
000030 29 54 b7 3e 4f ff b0 bd 05 e1 3c 3e d7 21 9d 3d
       0.35806397 -0.08642446 0.18445213 0.0767247
000040 85 dc 75 3e c5 9b 05 bf ef 0d d1 bc c1 e8 00 3b
       0.24009903 -0.5219081 -0.02551934 0.0019669982
000050 14 9e 03 be cc 18 c3 3d d8 bc 2f 3e 09 39 b6 be
       -0.12853271 0.09526214 0.17161882 -0.3559039
000060 4f 04 96 be 5c f4 37 3d fe f1 9a 3e c9 e1 a6 bc
       -0.29300162 0.044910774 0.3026275 -0.020371335
000070 d0 5b f6 3d bc 1f 37 3e 94 7f 92 bc be c4 0d bf
       0.120292306 0.178832 -0.0178831 -0.5537833
000080 af 1e d2 bd 9e f9 ef 3d 66 e8 10 bf c5 3c b5 bd
       -0.10259759 0.117175326 -0.5660461 -0.088494815
000090 44 1c b5 bd 75 09 98 bd bd fc 45 bf c4 a8 3f 3e
       -0.08843282 -0.07423679 -0.77338773 0.18716723
0000a0 bf a8 8e be 7c cd af bc 5b 7d b7 3e e1 33 b4 bd
       -0.27863118 -0.021460287 0.35837826 -0.087989576
0000b0 54 d4 e3 be ef c1 1e bc 6c 0a db 3e 3f 4c f3 3b
       -0.4449793 -0.009689792 0.4278139 0.0074248607
0000c0 4d 1e b7 be 9b 94 b8 be 15 7d b6 be 63 c5 a5 be
       -0.35765305 -0.36050877 -0.35642305 -0.32377157
0000d0 21 29 ac 3d 26 3c ac 3e f6 09 08 3e b3 88 f3 be
       0.08406282 0.3363964 0.1328505 -0.4756523
0000e0 1d c3 12 bd 89 7e af be da 17 9b 3d 4a be f3 3d
       -0.035830606 -0.34276226 0.07572909 0.11901529
0000f0 af 78 c7 be 94 51 16 3e 58 d1 ac bc 81 7a 80 39
       -0.38959262 0.14679557 -0.021095917 0.00024505335
000100 1e d3 1a 3b b8 08 c3 be 4d 6e e3 be 8b 52 a1 3e
       0.002362437 -0.3809259 -0.4442009 0.31508288
000110 ab 5c b3 3c 1b 3b 75 be b5 93 3b bb c0 ba 50 bc
       0.021894773 -0.23948328 -0.0028621976 -0.012739837
000120 9f 11 3a 3e 62 df 24 be f9 63 b7 3e 33 f4 33 be
       0.18170784 -0.16100839 0.3581846 -0.17573623
000130 e4 3e 7d be 47 fb c9 b8 7f 2a a2 bd ea 6f ae 3e
       -0.24731022 -9.631231e-05 -0.07918262 0.3406976
000140 2c 17 6e 3e 0e 33 e1 be b9 41 87 be 67 7b d3 3c
       0.23251027 -0.43984264 -0.2641733 0.025815679
000150 d5 5e da bd 3f e5 36 be 66 ec 34 be 7d 9b dd be
       -0.10662619 -0.17860888 -0.17668304 -0.4328269
000160 0a 95 1b 3e 28 6d 02 bd c9 69 b6 bd c0 ad 99 bc
       0.15193573 -0.03184238 -0.08906896 -0.018759608
000170 fa 1f b4 bd 51 11 cf bd 91 f2 9d 3e f5 71 41 be
       -0.087951615 -0.10110725 0.30849126 -0.18891127
000180 d4 88 30 be 7a cb 12 3e f1 cc 2a bd 1f be 85 be
       -0.17239696 0.14335433 -0.041699354 -0.26121613
000190 10 33 b5 3d 0f 42 d4 bd dd 79 44 be 72 76 40 3c
       0.0884763 -0.10364162 -0.19187112 0.01174699
0001a0 d4 63 cf be 91 76 32 3e 4d 58 a4 3e 87 d7 6d 3d
       -0.4050585 0.17428042 0.32098618 0.05806687
0001b0 cb 63 bd 3d e5 0d e7 bd 6f 8b 0a bf d9 d0 b6 3b
       0.092475496 -0.11281947 -0.5411901 0.005579096
0001c0 a6 80 33 be 64 a5 61 3c 8d f5 36 3e 77 4f 17 3d
       -0.17529544 0.013772342 0.17867108 0.036941018
0001d0 0d aa c2 3e db ec a4 3e 5d a8 2d be 90 8c b3 b5
       0.38020363 0.32211956 -0.16958757 -1.3377448e-06
0001e0 af eb ca bd ad d1 6a 3d 05 30 b5 bd ec 45 41 3e
       -0.09908234 0.05732887 -0.088470496 0.1887433
0001f0 fa 4b 73 3e a9 56 b6 be 1e c0 88 3e e7 01 80 be
       0.23759452 -0.3561299 0.26709074 -0.2500145
000200 60 11 f2 ba ff 9e 32 be 37 2e 93 3c 89 32 b2 be
       -0.0018468313 -0.17443465 0.017966373 -0.3480418
000210 af 37 9a 3c d0 55 b7 3d ce 20 a3 bd 08 5d 66 be
       0.01882538 0.08951914 -0.079652414 -0.22496426
000220 8f 79 00 3e 84 ab 84 be 3f 61 80 be b2 90 b9 bd
       0.12546371 -0.25912106 -0.25074193 -0.090608016
000230 71 f0 b6 bd c5 48 0a be 45 aa 89 be 8b 5a c3 3e
       -0.08932579 -0.13504322 -0.26887718 0.38155016
000240 1a 49 02 3e 0e 85 38 3e 97 b7 71 3e 40 23 a0 bd
       0.12723199 0.18019506 0.2360519 -0.078192234
000250 c5 93 a9 be 50 30 62 be 2d 0d 3e 3e 1a a2 38 be
       -0.33120552 -0.22088742 0.18559714 -0.18030587
000260 e5 c5 b2 bd da 7b 34 be 99 1d 89 3c d8 27 a4 be
       -0.08729152 -0.1762537 0.016737746 -0.32061648
000270 20 4d fa be f4 9f 23 be 98 5c 36 be 1c c8 b4 be
       -0.48886967 -0.15978986 -0.17808759 -0.3530892
000280 5f 98 f9 bb d7 a1 f4 39 9b 2d 90 3e 2b 3e 74 3e
       -0.007617041 0.00046659887 0.28159794 0.2385184
000290 bf 8a 5d 3e 81 26 22 3c 0d c1 9b 3c cd c6 88 3e
       0.21634959 0.009896875 0.019012952 0.26714173
0002a0 b6 8f 11 3d ec 3c 8c be 1b b1 af be e7 04 c6 3e
       0.035537444 -0.2739023 -0.34314808 0.38675615
0002b0 ff 8c c3 38 8b 54 b6 3d 67 d2 e1 be 64 58 86 be
       9.324587e-05 0.08902844 -0.44105837 -0.26239312
0002c0 fb ad 7d bd 03 9f 2d 3c f4 23 27 3e 32 11 45 3e
       -0.0619335 0.010596993 0.16322309 0.1924484
0002d0 3c 29 e4 3e a4 a4 b3 be 2e 5c fc 3d 87 cd fe bd
       0.4456271 -0.35086548 0.123222694 -0.12441545
0002e0 42 05 08 3e f5 2b ba be 23 05 76 b8 65 30 b2 3e
       0.13283256 -0.36361662 -5.8655754e-05 0.34802547
0002f0 58 8d 8d be 5a bd 88 3e cc 55 36 3e 51 7f 63 be
       -0.276469 0.26706964 0.17806166 -0.22216536
000300 d6 c3 88 be b4 b3 bd 3d 30 bc 00 3c 8f 2c 64 3d
       -0.2671191 0.09262791 0.007857367 0.055706557
000310 31 2d b2 bd 47 95 81 3e 29 4c 01 3e 13 c6 0a 3c
       -0.08700026 0.25309202 0.12626709 0.008470076
000320 27 83 24 3e fe 90 df bc 7b 10 87 3e fb 6b 31 be
       0.16065656 -0.027290817 0.2637976 -0.17326348
000330 64 7d 8d bd fc 8e 34 3e a0 e6 3a be 9d 95 bc 3c
       -0.06908682 0.17632669 -0.18252039 0.02302056
000340 91 ff 8e be a9 f7 58 be 28 cc 0e 3e 0f 19 86 be
       -0.27929357 -0.21188225 0.13945067 -0.26190993
000350 ba 24 36 be 2e e3 bf be a0 6f 20 3e 7b 7c d7 bd
       -0.17787448 -0.37478012 0.15667582 -0.1052179
000360 cf 38 49 3e 34 6f 01 bf 03 5c 97 3d 8e fd 8b bc
       0.19650577 -0.5056031 0.07390597 -0.017088678
000370 ed 2c 89 be a4 4f 5a ba 8d a7 30 3e 9d f8 48 be
       -0.26792088 -0.00083279074 0.17251416 -0.19626088
000380 17 2d 0c 3e a5 f0 09 bf 76 6f b7 3d a6 71 38 be
       0.13689075 -0.5388282 0.08956806 -0.18012103
000390 99 ba 14 be 37 87 36 3e db b9 42 be 0c ce c1 bd
       -0.14524306 0.17825018 -0.1901621 -0.094631284
0003a0 8c a7 8c 3e 18 cb 89 be aa bb 78 3d 07 e3 f5 39
       0.27471578 -0.2691276 0.060725845 0.0004689919
0003b0 52 92 3c 3e 09 dd e9 be 4b 55 15 3e 76 e1 8a 3e
       0.18415192 -0.4567645 0.14583318 0.27125138
0003c0 a0 80 38 3f 7e 38 8b be f0 c7 83 3d f0 0b 89 be
       0.72071266 -0.27191538 0.064346194 -0.2676692
0003d0 91 8f b2 3b 15 72 36 be 52 6e 46 3e 44 1a 23 bf
       0.0054492434 -0.17816956 0.19378021 -0.63711953
0003e0 30 e8 35 be bd 22 b6 3d 81 4a 3a 3e 62 ab b6 bd
       -0.17764354 0.088933446 0.18192483 -0.089194074
0003f0 ab 28 8a 3e 77 5e 34 be 11 dc 97 3e f0 8b a4 bd
       0.26984152 -0.1761416 0.29660085 -0.080345035

fc3.weight f4 [56, 56]
000000 50 ce 27 be ea bd dc 3e 25 f0 e8 3d 46 6a 0f 3e
       -0.16387296 0.43113643 0.11373929 0.14005384
000010 df e1 20 be 68 2b ad bd 6c bb 0a 3c e6 be cc 3d
       -0.15711163 -0.08455545 0.008467536 0.099973485
000020 2f 14 80 3e fb 96 3e 3e c7 7d 23 bd 09 4b 9d 3d
       0.250154 0.18612282 -0.039914872 0.076803274
000030 68 44 e2 be 2e 93 2c 3d d7 3d 5c bd 46 f0 01 3d
       -0.44192815 0.04213255 -0.053769913 0.031723283
000040 cb 46 90 be ce 91 7b 3e 9b 78 02 3e ab ca e9 3c
       -0.2817901 0.24567339 0.1274132 0.028539022
000050 ea bb 92 bc f9 6f 63 3e 7f f6 2c 3d b8 ed 48 3e
       -0.01791187 0.22210683 0.042227264 0.19621933
000060 a4 02 c3 bc 7c 91 77 3b 5c 8f 0d be 06 84 e1 bc
       -0.02380497 0.0037775924 -0.13824219 -0.027528774
000070 03 d6 28 3e 4c 22 ae ba de 98 bc bc 43 7c 12 bf
       0.16487889 -0.0013285368 -0.023022112 -0.5722086
000080 11 6e 05 3e 19 c7 d0 be 18 87 63 3e ed d4 cd 3d
       0.13030268 -0.407769 0.22219503 0.10050378
000090 76 e3 92 3d 66 8b a7 3d 24 13 5e be 5d 5f 39 bd
       0.07172291 0.08180885 -0.21686989 -0.04525696
0000a0 49 ea 9c 3e 9b ca 36 be 13 25 8c 3e 76 f9 c3 3b
       0.30647495 -0.17850725 0.27372035 0.005980666
0000b0 90 9f eb 3d 60 e5 a7 3d dd 9a c8 bd ec de 8a 3c
       0.115050435 0.08198047 -0.09795163 0.016952
0000c0 df d3 b6 3e ce f1 6a 3e f6 a8 0a 3a 31 ca 5d be
       0.3570852 0.22943804 0.00052894594 -0.21659161
0000d0 bf 52 36 be e0 89 1b be f6 8f 36 3e 3e 7d 39 3e
       -0.17805003 -0.15189314 0.17828354 0.18114182
0000e0 d9 a6 87 3e cb c4 d7 be a2 56 a8 bd b5 58 9d 3e
       0.26494482 -0.4214233 -0.08219649 0.3073174
0000f0 25 4f 99 3e 3d a0 a5 3d 87 d7 27 be 61 f4 a6 3d
       0.29943195 0.08087204 -0.16390811 0.0815208
000100 14 02 16 3c 25 79 82 3e ee 01 4c be 48 9e 23 be
       0.009155769 0.2548305 -0.19922611 -0.15978348
000110 34 f6 17 be 13 27 89 bb 87 af 2b 3d a2 65 21 35
       -0.14840013 -0.004185566 0.041915443 6.012507e-07
000120 39 1c 6d 3e 50 c5 a3 bd 34 3a aa 3d 92 e2 2a be
       0.23155297 -0.07996619 0.083118826 -0.16687992
000130 b7 d7 04 3d e4 1e d1 bc 95 fb 24 3e b4 97 e3 bd
       0.032432284 -0.025527425 0.16111596 -0.111129194
000140 8c 79 cf 3e 09 ac 8a bb 12 04 8c 3c 7d 2e a6 3d
       0.4052242 -0.004231934 0.017091785 0.08114336
000150 72 e4 76 be e0 04 36 3e 26 e9 27 be 26 2a 88 3d
       -0.24110582 0.17775297 -0.16397533 0.06648664
000160 b9 a3 4c 3e 6d de a3 be b5 e2 ab be 23 93 fe be
       0.1998433 -0.32005635 -0.335714 -0.4972163
000170 12 a8 9f 3d a3 47 aa 3e d6 40 45 be bc 85 ec b9
       0.07795729 0.3325778 -0.19263014 -0.00045113068
000180 ea de c4 bd 13 72 f4 3e 30 c9 20 3e fa a8 85 3d
       -0.0961283 0.47743282 0.15701747 0.0652637
000190 82 ce 7b 3e 6b d8 7b 3e 6b 7c 9c 3d 79 bd a0 b8
       0.24590495 0.24594276 0.07640918 -7.6646866e-05
0001a0 11 6a cf bd a1 7b be be 25 43 26 bd 5f 62 30 3c
       -0.101276524 -0.37203696 -0.040591378 0.010765641
0001b0 41 c1 e3 3c 23 ed 4f 3d 16 6d a7 bd ab 54 c3 3d
       0.027802112 0.05076326 -0.08175103 0.095376335
0001c0 61 ea 1b be fc 67 b7 3d 13 14 95 bd 40 98 b1 be
       -0.15226127 0.0895538 -0.072792195 -0.3468647
0001d0 c1 a3 81 be d8 7f a2 39 04 06 89 be 2a d3 c3 bb
       -0.25320247 0.000309943 -0.26762402 -0.0059761005
0001e0 a8 74 66 3e b3 19 32 bf c6 a8 6d 3e f4 03 f7 3b
       0.22505438 -0.69570464 0.23208913 0.007538313
0001f0 08 24 08 bd 5f e5 35 be fb d7 02 3b f3 b4 cf 3e
       -0.033237487 -0.1776328 0.001996516 0.4056774
000200 82 d8 e5 bb 3e 67 64 be e1 7b 9b bc e8 40 a5 bd
       -0.007014335 -0.22305009 -0.018979969 -0.080690205
000210 46 d0 af bd 98 64 36 3d 9f 60 8b 3e ae ed 62 be
       -0.08584647 0.044529527 0.27222154 -0.2216098
000220 bc 1b ec be c7 eb a6 3e 42 5d b0 bd 3d 89 8f be
       -0.4611491 0.3260176 -0.086115375 -0.28034392
000230 02 e7 49 3e 1b 57 4f bd ca 61 31 3e f2 53 a7 bd
       0.19717029 -0.05062018 0.1732246 -0.08170308
000240 9c c4 03 bf 0f 41 5b be 5d fb 22 3e 87 05 22 be
       -0.5147188 -0.21411537 0.159162 -0.15822421
000250 16 c3 27 3e bb 11 98 3c 9e b9 f7 3b 9d 83 b2 bd
       0.16383013 0.018563142 0.007559969 -0.087165095
000260 a2 bf 92 be 7b e2 c8 be a6 b9 b0 bd 3c fd a9 be
       -0.2866183 -0.3923529 -0.0862916 -0.33201015
000270 28 c7 96 be d3 11 1b be 3d 73 71 be 1e 63 0e 3e
       -0.2944882 -0.15143518 -0.23579116 0.13904998
000280 3b e1 b5 be b6 c6 50 3e d0 b5 ab 3e f5 d1 be 3d
       -0.355234 0.20388302 0.3353715 0.0931739
000290 75 da 21 3e e1 ee 52 bd 8b 7d b6 bd 4f 39 36 3e
       0.15805991 -0.051497344 -0.08910664 0.17795299
0002a0 dc 3c a8 3d dc a3 ec bd b1 3a 02 3e 7e 13 4f 3e
       0.08214733 -0.11554691 0.12717701 0.2022228
0002b0 32 02 1b 3e c7 d9 e2 bd 66 73 8b be 1b 2d a8 3d
       0.15137556 -0.11076694 -0.2723648 0.08211728
0002c0 d7 22 35 3e aa 3f 32 3c 0b bd ca be a1 c9 db bd
       0.17689072 0.0108794365 -0.39597353 -0.10731817
0002d0 a2 b8 78 bb 16 7a b0 3d 50 f7 18 3e 05 f3 4b be
       -0.0037951847 0.08617036 0.14938092 -0.19916923
0002e0 17 06 d9 3d 46 27 44 3e 8b 98 5d bf f6 30 5d 3e
       0.10596865 0.19155607 -0.8656089 0.21600708
0002f0 d4 94 e2 3d 99 53 a9 be b0 96 2d be 47 ef 8d bc
       0.11063543 -0.33071592 -0.16952014 -0.01732601
000300 bc 0f 80 3e 58 e3 a3 be c9 ab 89 bd 3d d9 a7 bd
       0.25012004 -0.32009387 -0.067222185 -0.08195732
000310 3a c1 0a bf cc 09 04 3e 36 64 9f be ca cc 7b 3e
       -0.5420109 0.12894362 -0.31131142 0.2458984
000320 4e 67 74 3e 69 f2 a3 3d fe f9 93 bd f3 ca 0a bf
       0.23867533 0.080052204 -0.072254166 -0.54215926
000330 56 3f a8 3e 6a 5e 26 3e 78 ba ff bd 9c b9 2b 3d
       0.3286082 0.16246954 -0.12486738 0.041925058
000340 4d df c6 bc 1c 6f a6 3d a0 46 14 3e 34 a9 73 3e
       -0.0242764 0.08126661 0.14480066 0.23795015
000350 be 9b 85 3e ba 01 73 3e 41 1d 8c 3d 52 ea 42 bb
       0.26095384 0.23731127 0.06841517 -0.0029741717
000360 ff f8 7b be ad 4e b2 3d f7 4a c8 3d c0 f8 a0 be
       -0.24606703 0.087064125 0.097799234 -0.3143978
000370 8a 26 7d be 79 19 53 3e ed 8b 42 be 7e a4 58 be
       -0.24721733 0.20615186 -0.1899869 -0.21156499
000380 ed a1 9e bd 37 65 61 3e b7 3c 77 3e 7c c8 04 bd
       -0.07745729 0.22011267 0.24144255 -0.03241776
000390 ff e1 98 be 8b 4c fd bd 6c 94 24 3e a0 d2 1b 3d
       -0.2985992 -0.12368115 0.16072243 0.038042665
0003a0 7c 7b 7b be 35 13 a2 bd 26 28 44 3e df ea 87 3e
       -0.24558824 -0.0791382 0.1915594 0.2654638
0003b0 c8 0c 26 3e 94 95 48 bd 3d 45 11 3e 7f 84 84 3e
       0.16215813 -0.048970774 0.14186569 0.25882336
0003c0 54 4b a6 3e 09 53 a9 bd 3d e5 93 3e 28 01 67 b9
       0.32479346 -0.08267791 0.28885832 -0.00022030307
0003d0 ca e0 bc 3d 21 bc b1 3d a7 19 af bd 87 cb 12 be
       0.092225626 0.08678461 -0.08549815 -0.14335452
0003e0 fb 74 1c be 7e 3d 80 be fd 46 58 3e 20 5b 50 bc
       -0.15279 -0.25046915 0.2112083 -0.012717038
0003f0 3a 5d a5 bd d5 a2 53 3e d6 82 d5 bd a7 ee e9 be
       -0.08074422 0.20667584 -0.104253456 -0.4568989

fcl.weight f4 [10, 56]
000000 17 78 fd be be b9 48 bf 5e 17 29 3f ef 3a 2c be
       -0.49505684 -0.7840842 0.6605128 -0.16819356
000010 1c 25 80 3e f8 5e d8 be 66 12 66 3e 32 1e 2d bf
       0.25028312 -0.42259955 0.22467956 -0.676242
000020 07 41 25 be 1d 5a 01 3f d8 60 3e be e7 e6 2b bf
       -0.16138087 0.50528127 -0.1859163 -0.67149204
000030 38 42 b9 be e7 17 28 be 6c 70 f1 3d 0d 12 8d bd
       -0.36183333 -0.16415368 0.11789021 -0.068882085
000040 6a c6 06 bf e0 ed dd 3c c2 be 01 bf 9c c8 20 bf
       -0.52646506 0.027090967 -0.506817 -0.62806106
000050 7e 6c 9b 3e ee c4 78 bd ae be 70 bf ae 0a 9f be
       0.3035621 -0.06073468 -0.94040954 -0.31062835
000060 70 c9 ec bd 2b 0c 72 bf fe 56 a9 be fd cf 0f 3e
       -0.11561859 -0.94549817 -0.33074182 0.14044185
000070 ef c4 ac 3e 13 22 34 3f 1f 5d 01 3f 46 95 26 bf
       0.33743998 0.70364493 0.50532717 -0.65071523
000080 9c 6e 33 be df 4d 89 3e da fe 4c be b7 0a ac be
       -0.17522663 0.26817223 -0.20019093 -0.33601925
000090 f7 91 99 3e f4 72 2f bf ce ed 22 be cd 51 ac 3e
       0.29994175 -0.6853478 -0.15911028 0.3365616
0000a0 cc 8a 6c bc 82 90 2f 3d 52 5e 00 bf 13 34 76 bd
       -0.014437389 0.042862423 -0.5014392 -0.060108256
0000b0 68 ee 7a bf b1 0b 06 bf fa 5a 04 bf 0d 2e ac 3e
       -0.9802003 -0.5236159 -0.5170132 0.33628884
0000c0 a8 67 c0 be bb 53 94 be de bc 21 3f cd 04 f5 3e
       -0.37579083 -0.2897013 0.63178813 0.47855225
0000d0 57 28 f3 be 91 93 9a bd d6 a6 af 3e f5 a8 18 bf
       -0.47491714 -0.07547677 0.34306973 -0.5963281
0000e0 84 31 22 be 58 1d 0c bd 11 4d 44 be c5 ed 3b bf
       -0.15839201 -0.034207672 -0.19170024 -0.7340968
0000f0 f3 df 9f bc ef fb 81 be 20 43 6c bf 46 29 c4 be
       -0.019515967 -0.25387523 -0.92289925 -0.3831274
000100 42 05 04 3f 8c 72 16 bf a0 f9 3e be da 78 01 3f
       0.5157052 -0.58768535 -0.18649912 0.5057503
000110 29 24 03 bf 91 db 2b be 98 d4 2b be 17 8e c1 3e
       -0.5122705 -0.16782977 -0.16780317 0.37803718
000120 cb 6d 2c 3f 28 0e fa be a8 eb a7 3e f1 39 e8 3e
       0.6735503 -0.48838925 0.3279698 0.45356706
000130 2f d2 e0 be 91 1e 01 bf 3c 3a 27 be 5c 66 2b be
       -0.43910357 -0.50437266 -0.16330808 -0.16738266
000140 f4 ba 69 be c5 3b 2c be ec 82 f4 be 19 82 66 be
       -0.22825223 -0.16819675 -0.47756135 -0.22510566
000150 88 23 f9 bd ac b0 35 be 41 bc 18 3f 0b f5 f5 be
       -0.1216498 -0.17743176 0.5966225 -0.48038515
000160 3c 3a c0 be 1a b0 9e be 13 72 ff 3e 7a 7b 20 bf
       -0.3754443 -0.3099373 0.4989172 -0.6268841
000170 be 39 fb be 3a 0f 02 bf f4 06 d1 bd 7c ad 30 bf
       -0.4906749 -0.50804484 -0.10206404 -0.69014716
000180 09 87 54 bf 62 da f3 be fa b4 01 3f 4e e5 c5 3e
       -0.8301855 -0.4762755 0.50666773 0.38651508
000190 78 64 32 bd db 3b cf 3e 09 5c 15 3f 3e 04 0a 3d
       -0.043552846 0.40475354 0.5834356 0.033695452
0001a0 5e f4 0a bf 88 19 46 bf 50 f7 e8 be 4c ab b9 3e
       -0.54279125 -0.7738271 -0.45501184 0.36263502
0001b0 28 1a 5f 38 11 72 65 3e 21 90 2c be 7a fa 36 bf
       5.3191703e-05 0.22406794 -0.16851856 -0.71475947
0001c0 6e 53 01 3f cc 26 45 bf db 5d bc 3e 70 71 eb bd
       0.5051793 -0.77012324 0.36790356 -0.11496246
0001d0 3a 2f 21 be db 70 ac 3e ad 56 ac be 46 77 ac be
       -0.15740672 0.33679852 -0.33659878 -0.33684748
0001e0 e6 04 28 bf 96 b2 22 bf dd 43 71 be c0 16 ea be
       -0.65632474 -0.6355375 -0.23561044 -0.45720482
0001f0 db af d2 be 5b 82 32 be 89 3a ea be df f2 aa 3e
       -0.41149792 -0.17432539 -0.45747784 0.3338842
000200 41 48 fb 3e 6c 86 b6 3e 3d d6 2c be a0 6e 02 3f
       0.49078563 0.3564943 -0.168786 0.5095005
000210 cb 62 ac be 0d b8 d5 be a0 a6 bc bb 04 c8 e4 be
       -0.33669123 -0.41741982 -0.005757168 -0.4468385
000220 fb 66 aa 3b b6 3d 03 bf 14 f6 05 bf 93 70 01 bf
       0.0052002645 -0.5126604 -0.5232861 -0.505624
000230 5a 40 ae 3e 23 8d ff 3e 1c 45 87 bc 64 74 ac 3e
       0.3403347 0.49912366 -0.016512446 0.3368255
000240 63 f9 fe 3d f0 63 42 bd ad bb 7c be 04 3b 32 be
       0.124499105 -0.04745859 -0.24680968 -0.17405325
000250 15 77 2c be bc 64 2c 3f a4 85 18 be be 78 3c be
       -0.16842301 0.6734121 -0.1489473 -0.18405434
000260 30 74 2c 3e 5f 92 cd 3e 9a b9 00 bf 22 fb 64 be
       0.16841197 0.40150735 -0.50283206 -0.22361425
000270 19 f4 e1 3d d4 07 ab 3e 48 a7 93 be ae fe 48 bf
       0.11032886 0.3340441 -0.28838563 -0.7851361
000280 7a 24 01 bf 80 74 a2 be 49 90 db be b5 06 a6 3d
       -0.50446284 -0.31729507 -0.42883518 0.08106748
000290 f8 ad 2b be 42 52 ab 3d 02 51 73 bd 10 44 a8 be
       -0.16765583 0.08365299 -0.059403427 -0.32864428
0002a0 ec 0b b7 3e 35 e3 c6 be ab 44 0b be 48 75 b0 be
       0.35751283 -0.3884522 -0.13600414 -0.34464478
0002b0 45 e7 03 bf db 7c 74 be 5b 12 93 be f4 b8 c4 3e
       -0.51524764 -0.23875754 -0.28724942 0.38422358
0002c0 8d 41 4d bf 44 c2 ae be 98 58 98 be 34 33 fe be
       -0.8017815 -0.34132588 -0.29755092 -0.4964844
0002d0 97 fe c2 3e ca c7 09 bf 1f 31 b0 3e 40 f3 8a 3e
       0.38084862 -0.5382048 0.34412476 0.2713871
0002e0 c9 97 03 bf 64 75 19 be e4 35 58 3d c2 c4 2a be
       -0.5140348 -0.14986187 0.05278577 -0.1667662
0002f0 2d 67 cc 3e 8f 0b 26 be 4f 96 00 3f 02 f7 dd 3e
       0.39922467 -0.16215347 0.5022935 0.43352515
000300 1c d6 83 3e 92 c0 1c be 23 de 6c 3f 5f c1 ad be
       0.2574929 -0.15307835 0.92526454 -0.33936593
000310 a5 23 2d be fe c9 91 be 88 5a ab be 6c 1f 3e bd
       -0.16908129 -0.2847442 -0.33467507 -0.046416685
000320 08 3a 3f 3d 29 e6 ac be 82 60 2c bf ab f9 85 3d
       0.046686202 -0.33769348 -0.6733476 0.06541761
000330 c3 fd ac 3e c7 26 23 be 80 e8 82 be af 32 00 bf
       0.33787355 -0.15932761 -0.25568008 -0.5007734
000340 2b 27 ff bd aa 7c ac be bd fd 35 be 5e a4 2e be
       -0.124586426 -0.3368886 -0.17772575 -0.17054889
000350 bc 82 82 3e 35 63 2c 3e f4 54 81 3e 71 8e 2c bf
       0.25490367 0.1683472 0.25260127 -0.6740485
000360 e8 74 ac be cc 4f 95 be 05 74 a8 be 4e 96 d9 be
       -0.33682942 -0.29162443 -0.32901016 -0.42497486
000370 a0 99 b5 be 71 c8 1c 3e 3b ec 9e be fa 67 bc be
       -0.3546877 0.15310837 -0.31039605 -0.36798078
000380 79 20 a4 be c4 79 ea 3b 51 0e 66 be 2c 38 33 bc
       -0.32056025 0.007155629 -0.22466399 -0.010938685
000390 ed 64 61 be 80 c9 2c 3e 77 78 ad be 38 db ab be
       -0.22011156 0.16873741 -0.3388097 -0.33565688
0003a0 c1 17 04 39 77 2b f9 bd f5 a8 bc be 54 92 4f 3e
       0.0001259735 -0.121664934 -0.36847654 0.20270663
0003b0 55 99 ea 3d 4e e8 04 3f 3c 88 91 be ca 61 08 bf
       0.11455027 0.5191697 -0.2842425 -0.53274214
0003c0 a3 0a a8 be 54 eb a9 3e 06 8a a3 bd 57 32 02 bf
       -0.32820615 0.33187354 -0.0798531 -0.5085806
0003d0 d1 ae 14 be d7 da 0d bf dd 6b e5 bc 2d 94 b6 bd
       -0.14519812 -0.5541205 -0.028005535 -0.08914981
0003e0 c1 89 2b be 2c 50 de 3e bf 97 8f be 5c 33 07 3e
       -0.16751768 0.4342054 -0.2804546 0.13203186
0003f0 cb ab 91 be 96 f7 79 3e 64 6c bd be 23 f0 a7 bd
       -0.2845138 0.24410853 -0.36996758 -0.08200099
