modeldata/a11_Opt12k_cos_Aug_BitMnist_PerTensor_4bitsym_RMS_width72_80_0_lr0.001_decay0.1_stepsize10_bs128_epochs60.pth (torch, 102285 bytes, 3 tensors)

fc1.weight f4 [72, 256]
0.05389235 -0.010806573 0.08444033 -0.049835347 -0.049840715 -0.018671015 -0.09547041 -0.063225485
0.05023929 -0.05830761 -0.024635334 -0.02150483 0.021855406 0.04978819 0.018020151 0.019047769
0.074736424 0.013847938 0.105442196 0.087449454 0.010546826 0.0015866203 0.0043749246 -0.049491636
-0.024770888 0.047792885 -0.047872458 -0.04939872 0.018619936 -0.014653449 -2.7431102e-05 0.03771557
0.024065616 0.11145545 0.04244082 0.06549556 0.12706843 0.043862697 0.035876423 0.0022491487
0.044965886 -0.01982472 0.026014764 0.0015821308 0.04335746 0.03160548 0.049867902 0.005160428
0.08010476 0.00040584916 0.0037207238 0.047128182 -0.00029648576 0.06616641 0.07553957 0.010143439
0.04972071 0.09975378 0.03266774 0.0696976 0.072953075 0.024027212 0.041554984 -0.004173158
0.06564704 0.0045405324 0.06015303 -0.052532338 -0.024363788 -0.00027019368 -0.021905536 0.044480737
0.02757253 -0.0019968154 -0.0017785878 -0.0383639 0.053430054 0.041494146 0.009129433 0.021279125
0.059209708 0.07890452 0.08379449 0.050484143 0.00011209238 0.0015269464 0.00012278478 -0.04419847
-0.09761879 -0.034610733 -0.048957482 -0.00044779337 -0.009212829 -0.0015783432 -0.005270328 0.00081940327
0.08255221 0.056339946 0.16514005 0.22960699 0.21099198 0.0039332802 -0.0005875995 0.00017521657
-0.019609418 0.047457967 0.09844424 0.032403607 0.007244609 -0.006525305 -0.042695563 -0.07192661
-0.076909535 -0.04684949 0.073687464 0.20694603 0.54727966 0.4801664 0.29861453 0.1361207
0.14853245 0.14153843 0.121206656 0.09983788 0.1486088 0.14760494 0.039270673 0.06901412
-0.07469894 -0.28708968 -0.50334907 -0.94235235 -0.26975235 -0.107626215 0.014164713 0.19798094
0.07077717 0.050676867 0.049650002 0.04940271 0.052478485 0.09949141 0.17314634 0.10353347
-0.09145632 -0.38598582 -1.0097271 -1.677138 -1.5666893 -1.8721219 -1.6839849 -0.9367417
-0.27656645 -0.29422295 -0.12434924 -0.1560557 -0.050509997 -0.009288821 0.03522911 0.09961112
-0.033932332 -0.07230487 -0.22011964 -0.41106188 -0.32076785 -0.3068786 -0.09185117 -0.050010078
0.04704146 -0.039331395 -0.038091406 -0.037153754 -0.009678184 -0.10734845 0.04388865 0.015642181
0.00027329833 0.08536596 0.19025517 0.30434057 0.33020514 0.31024137 0.24788743 0.007735536
-0.016239902 0.007625458 0.000834713 -0.09497191 -0.037293117 -0.040324036 -0.01689421 -0.0060503692
0.07256775 0.12062778 0.15571572 0.110052414 0.18910713 0.096849196 -0.047442943 -0.09285284
0.031470753 -0.049953904 0.002764866 -0.028529005 -0.11686957 -0.048041042 -0.10392041 0.04144578
0.023680333 0.037937365 -0.031064453 -0.050304614 -0.021786097 -0.09941349 0.01938785 -0.051553637
0.013871549 0.038306136 0.08037966 0.052543256 -0.030034805 -0.008015957 0.011527275 -0.026673893
0.029374227 0.012401261 0.010094337 -0.05473476 -0.054365937 -0.09634871 -0.08285328 0.011995978
-0.021578124 -0.0630398 0.07926205 0.035257433 0.06487368 -0.038989775 0.022895545 -0.036520585
0.07289254 -0.023724088 -0.03990134 -0.047445003 -0.046376638 0.0011526057 -0.041718967 -0.009676657
-0.061043754 -0.045550913 -0.036564678 -0.0061229854 0.05612725 0.06670303 0.04010053 0.08374707
00000000: 3abe 5c3d 0d0e 31bc 0def ac3d 2620 4cbd
00000010: c725 4cbd f5f3 98bc fe85 c3bd 5d7c 81bd
00000020: b7c7 4d3d f6d3 6ebd 0ad0 c9bc e62a b0bc
00000030: 1c0a b33c b3ee 4b3d ff9e 933c 110a 9c3c
00000040: 690f 993d 76e2 623c 14f2 d73d b318 b33d
00000050: 98cc 2c3c 25f6 cf3a 875b 8f3b beb7 4abd
00000060: 51ec cabc 79c2 433d e915 44bd 5056 4abd
00000070: d688 983c 0515 70bc d81b e6b7 a47b 1a3d
00000080: 4125 c53c c142 e43d 6dd6 2d3d 8922 863d
00000090: 3a1e 023e 5fa9 333d 28f3 123d 7466 133b
000000a0: 262e 383d 7467 a2bc ea1c d53c 805f cf3a
000000b0: 9897 313d bf74 013d 4942 4c3d cf18 a93b
000000c0: f70d a43d 27c8 d439 63d7 733b 7b09 413d
000000d0: a571 9bb9 4182 873d 7db4 9a3d ab30 263c
000000e0: f1a7 4b3d b64b cc3d 9cce 053d 9ebd 8e3d
000000f0: 6c68 953d b7d4 c43c 8f35 2a3d fdbe 88bb
00000100: f571 863d bfc8 943b 0663 763d 262c 57bd
00000110: 9196 c7bc c8a8 8db9 3d73 b3bc 6f31 363d
00000120: c9df e13c 01dd 02bb 811f e9ba 7723 1dbd
00000130: 79d9 5a3d c4f5 293d 9e93 153c 8f51 ae3c
00000140: e185 723d b198 a13d 729c ab3d 76c8 4e3d
00000150: 2313 eb38 d223 c83a cabf 0039 7409 35bd
00000160: 5cec c7bd fcc3 0dbd a487 48bd cfc5 eab9
00000170: 68f1 16bc 69e0 ceba b7b2 acbb 39cd 563a
00000180: 2211 a93d b7c4 663d 791a 293e 181e 6b3e
00000190: 480e 583e bfe2 803b 2309 1aba 57ba 3739
000001a0: eea3 a0bc 4963 423d 229d c93d a5b9 043d
000001b0: 2f64 ed3b 3ad2 d5bb 8be1 2ebd 424e 93bd
000001c0: bf82 9dbd 40e5 3fbd 74e9 963d a9e9 533e
000001d0: 851a 0c3f 5fd8 f53e 01e4 983e 3a63 0b3e
000001e0: e418 183e 73ef 103e 323b f83d cd77 cc3d
000001f0: e82c 183e c025 173e 49da 203d 4657 8d3d
00000200: c2fb 98bd 6bfd 92be 7cdb 00bf 013e 71bf
00000210: fb1c 8abe 226b dcbd 1d13 683c 84bb 4a3e
00000220: 9ff3 903d 8c92 4f3d cd5d 4b3d 7f5a 4a3d
00000230: aef3 563d 27c2 cb3d 464d 313e 5b09 d43d
00000240: 734d bbbd ef9f c5be bd3e 81bf 75ac d6bf
00000250: 4689 c8bf b1a1 efbf d18c d7bf 4ece 6fbf
00000260: 1e9a 8dbe 64a4 96be d0aa febd 11cd 1fbe
00000270: 92e3 4ebd 2430 18bc 664c 103d ea00 cc3d
00000280: a1fc 0abd 9314 94bd 0b67 61be b476 d2be
00000290: af3b a4be 311f 9dbe 771c bcbd 5ed7 4cbd
000002a0: 8cae 403d f519 21bd bc05 1cbd 892e 18bd
000002b0: 3f91 1ebc 81d9 dbbd 96c4 333d 0824 803c
000002c0: 7b49 8f39 59d4 ae3d 40d2 423e 87d2 9b3e
000002d0: a610 a93e f5d7 9e3e 34d6 7d3e 617a fd3b
000002e0: 8b09 85bc fade f93b a4d0 5a3a a280 c2bd
000002f0: abc0 18bd d12a 25bd ba65 8abc 2d42 c6bb
00000300: 679e 943d b30b f73d f173 1f3e 2963 e13d
00000310: 4da5 413e df58 c63d 8853 42bd a129 bebd
00000320: 7ae7 003d 779c 4cbd c132 353b a9b5 e9bc
00000330: 5059 efbd afc6 44bd 39d4 d4bd 0dc3 293d
00000340: 42fd c13c 3664 1b3d e17a febc 360c 4ebd
00000350: c278 b2bc 4d99 cbbd 45d3 9e3c e829 53bd
00000360: 7e45 633c e5e6 1c3d 179e a43d 9937 573d
00000370: 8d0b f6bc 5c55 03bc e5dc 3c3c 3583 dabc
00000380: 38a2 f03c a92e 4b3c b862 253c 8e31 60bd
00000390: d1ae 5ebd 7952 c5bd fbae a9bd c78a 443c
000003a0: 9bc4 b0bc 031b 81bd 2454 a23d 196a 103d
000003b0: 7edc 843d beb3 1fbd 708f bb3c 9c96 15bd
000003c0: af48 953d 0559 c2bc 966f 23bd b155 42bd
000003d0: 6ef5 3dbd 0813 973a 82e1 2abd d78a 1ebc
000003e0: 0409 7abd 9893 3abd d8c4 15bd 53a3 c8bb
000003f0: b0e5 653d 999b 883d 7440 243d 9583 ab3d

fc2.weight f4 [80, 72]
-0.44872326 -0.08422501 0.17129156 0.14450352 0.16821969 -0.020733748 0.24962972 -0.10288971
0.07401467 0.08388986 -0.12270164 0.24602564 -0.34656543 0.15995833 -0.19135639 0.1684526
0.41157976 -0.086130925 -0.027935874 -0.07825364 0.08058219 0.098213166 -0.25236985 -0.23260766
0.16568157 0.07798504 -0.27853617 0.006022361 0.03830319 -0.058348533 0.031563073 -0.010429673
-0.81229603 -0.10510002 0.16961658 -0.3038382 0.09629222 -0.24158086 -0.08486561 -0.41683686
-0.24321751 -0.25620243 0.19902323 -0.37890825 0.3369281 0.34546608 0.1999321 0.16938859
-0.03026222 -0.12451651 0.07801145 0.085379094 -0.08029653 0.07194638 -0.658828 0.13689125
0.0042521153 0.08420783 0.022664675 0.1750024 0.25084025 -0.13729788 0.050001748 0.21694124
-0.31495917 0.13919266 0.084190734 0.09002733 -0.06566606 0.082730144 0.047145523 -0.2775191
-0.57881457 -0.23799874 0.25054362 -0.00333344 0.31892958 -0.012647636 0.034929823 -0.16771294
-0.10440618 0.34242186 -0.08426447 -0.10367701 0.23407929 -0.26675197 -0.5093736 0.1707745
-0.20047624 -0.45742998 0.34020096 -0.25686803 -0.1068986 -0.120263755 -0.70307267 -0.2568227
-0.1869844 -0.23972102 -0.13503608 0.09989131 0.0050940476 0.009867425 -0.094836935 -0.2749704
0.046516623 -0.44669172 0.2173996 0.08531464 0.15296619 0.1861292 0.31513983 -0.03077199
0.20723617 -0.109782495 0.36620668 -0.091331206 -0.14737095 -0.18992849 -0.26872402 0.11388891
-0.24818271 -0.0022130108 -0.0069903685 0.11880827 -0.15230763 0.16557075 0.33718994 -0.26083758
0.08807222 -0.25056654 0.16641219 -0.25794807 -0.23914383 0.15477999 0.14527379 0.033866927
-0.12198984 -0.099685416 0.17752127 0.25338253 0.34616688 0.16870198 0.0053396216 -0.18271434
-0.16837586 0.08241317 -0.28115135 -0.05942037 0.2693448 0.13771974 0.017688382 -0.3337231
0.005052114 0.0023630674 0.04904138 0.02151264 0.27312848 -0.35413143 -0.044365 0.120221555
-0.14851375 -0.3084383 -0.27536538 -0.19815306 -0.098187484 0.03127919 -0.079018325 0.0039186045
0.1553694 0.09656243 0.14027005 -0.18265845 0.042878177 0.056486588 -0.00013116775 -0.0851625
0.16833758 0.010208564 0.42638427 0.12338305 -0.41203666 -0.0010691033 0.16877949 0.024292333
-0.0913528 0.041362166 -0.16019762 -0.09526684 0.06611225 -0.48067105 0.04145105 0.07749167
-0.02527394 -0.16535062 -0.19854175 0.25205058 0.020019434 -0.25591856 -0.06459031 0.16805558
0.20692419 -0.06664168 -0.33686373 0.032927133 0.125571 -0.13555905 -0.31017092 0.049058545
-0.16059828 -0.6320292 -0.6535351 -0.06210376 -0.34273037 -0.111607864 0.29790777 -0.09516285
0.16593844 -0.0026581292 -0.08225853 0.0576134 0.18746041 -0.21531166 0.0007885768 0.16826071
0.22622967 0.084215924 -0.084254034 0.17331728 -0.32739598 -0.0019609241 -0.09949081 -0.048282932
0.09242559 -0.15591882 -0.016513437 -0.17422275 -0.3288832 0.16158539 -0.16177918 0.12548082
-0.07228543 0.11018374 -0.011145961 0.06288041 -0.09735374 -0.320684 0.18218702 0.0024539202
-0.67360765 0.1576655 0.11078884 -0.17903389 0.07547168 0.109607026 0.038066573 0.16933677
00000000: 0ebf e5be 297e acbd 0e67 2f3e bbf8 133e
00000010: c841 2c3e d2d9 a9bc ef9e 7f3e d7b7 d2bd
00000020: 0195 973d 72ce ab3d ff4a fbbd 25ee 7b3e
00000030: 0671 b1be 1ecc 233e eef2 43be d77e 2c3e
00000040: 95ba d23e 6965 b0bd c6d9 e4bc 7243 a0bd
00000050: 4608 a53d fc23 c93d 9f36 81be b430 6ebe
00000060: 6ea8 293e 9fb6 9f3d 4b9c 8ebe 3a57 c53b
00000070: cee3 1c3d dffe 6ebd 4848 013d 38e1 2abc
00000080: a2f2 4fbf ae3e d7bd f8af 2d3e ae90 9bbe
00000090: db34 c53d f960 77be 05ce adbd a46b d5be
000000a0: 030e 79be f72c 83be bfcc 4b3e 4300 c2be
000000b0: d781 ac3e eee0 b03e 00bb 4c3e 3474 2d3e
000000c0: 7ae8 f7bc 8302 ffbd 78c4 9f3d 3cdb ae3d
000000d0: 8272 a4bd a058 933d f4a8 28bf 382d 0c3e
000000e0: 5455 8b3b 2875 ac3d 45ab b93c d433 333e
000000f0: 226e 803e d197 0cbe a2ce 4c3d d825 5e3e
00000100: 5442 a1be 8588 0e3e 316c ac3d 4060 b83d
00000110: ed7b 86bd 6c6e a93d aa1b 413d fc16 8ebe
00000120: 312d 14bf f1b5 73be 4147 803e d875 5abb
00000130: bd4a a33e 0838 4fbc 9312 0f3d f1bc 2bbe
00000140: e8d2 d5bd eb51 af3e da92 acbd 9d54 d4bd
00000150: 7bb2 6f3e b793 88be 4f66 02bf 83df 2e3e
00000160: a549 4dbe 4334 eabe d22e ae3e 3584 83be
00000170: a7ed dabd d84c f6bd 92fc 33bf 447e 83be
00000180: d778 3fbe 6d79 75be e646 0abe d193 cc3d
00000190: f8eb a63b fbaa 213c de39 c2bd ecc8 8cbe
000001a0: 3788 3e3d c7b4 e4be 009e 5e3e 71b9 ae3d
000001b0: 2ba3 1c3e a798 3e3e 025a a13e 8a15 fcbc
000001c0: b835 543e a5d5 e0bd 717f bb3e db0b bbbd
000001d0: 69e8 16be 9d7c 42be 3296 89be 973e e93d
000001e0: 9c23 7ebe 2908 11bb 760f e5bb c051 f33d
000001f0: 88f6 1bbe 618b 293e 29a4 ac3e 818c 85be
00000200: 355f b43d 424a 80be f567 2a3e c511 84be
00000210: 1fe2 74be a57e 1e3e a7c2 143e 0cb8 0a3d
00000220: cfd5 f9bd de27 ccbd 23c8 353e 5bbb 813e
00000230: c93c b13e 36c0 2c3e fef7 ae3b 7819 3bbe
00000240: b96a 2cbe 3cc8 a83d 12f3 8fbe c662 73bd
00000250: 90e7 893e 6706 0d3e 3ae7 903c c1dd aabe
00000260: 348c a53b b1dd 1a3b 9ddf 483d 473b b03c
00000270: 7fd7 8b3e b750 b5be 13b8 35bd b836 f63d
00000280: fd13 18be a0eb 9dbe b1fc 8cbe a3e8 4abe
00000290: 8516 c9bd 9c1e 003d 5cd4 a1bd a367 803b
000002a0: 2819 1f3e 86c2 c53d f4a2 0f3e d10a 3bbe
000002b0: 07a1 2f3d 7b5e 673d 138a 09b9 ad69 aebd
000002c0: b060 2c3e d241 273c 0a4f da3e 41b0 fc3d
000002d0: 78f6 d2be 2721 8cba 88d4 2c3e b700 c73c
000002e0: 2d17 bbbd 606b 293d d80a 24be 431b c3bd
000002f0: dc65 873d 841a f6be 94c8 293d f4b3 9e3d
00000300: 4b0b cfbc ac51 29be 874e 4bbe c60c 813e
00000310: ccff a33c c207 83be ed47 84bd c316 2c3e
00000320: efe3 533e 6f7b 88bd 6779 acbe 9ade 063d
00000330: af95 003e fecf 0abe b9ce 9ebe 9df1 483d
00000340: e073 24be aacc 21bf 144e 27bf 8360 7ebd
00000350: 5b7a afbe aa92 e4bd 5e87 983e bee4 c2bd
00000360: c4eb 293e 0234 2ebb 2977 a8bd 07fc 6b3d
00000370: 9ff5 3f3e a97a 5cbe 7eb8 4e3a 894c 2c3e
00000380: c0a8 673e 6679 ac3d 618d acbd 167a 313e
00000390: 72a0 a7be d982 00bb d6c1 cbbd 53c4 45bd
000003a0: a149 bd3d 2fa9 1fbe 3047 87bc 7367 32be
000003b0: 6163 a8be a476 253e 71a9 25be 0b7e 003e
000003c0: 620a 94bd 03a8 e13d 8c9d 36bc 72c7 803d
000003d0: 6661 c7bd b130 a4be 3c8f 3a3e f3d1 203b
000003e0: 8d71 2cbf 1173 213e 42e5 e23d a954 37be
000003f0: e590 9a3d a679 e03d b2eb 1b3d 9e66 2d3e

fcl.weight f4 [10, 80]
-0.64454174 0.0001018431 0.3232632 -0.38408017 -0.09516458 -0.4653131 0.123486064 -0.5608813
0.37882698 0.59625477 -0.6179195 0.16357845 -0.32738364 0.13443245 -0.6028775 -0.15984696
-0.32615423 -0.85296816 -0.2198378 -0.33328727 -0.17502923 -0.32737765 0.29388317 0.21825868
-0.23296833 0.030079793 -0.17622341 0.2773335 -0.58464646 -0.12205638 -0.19569127 0.0012653514
-0.49269933 -0.38255247 -0.49311605 -0.15757757 -0.32269418 0.16241902 0.41254675 -0.7444877
-0.26535636 0.3820316 0.7766663 -0.45391208 -0.71609575 0.48201364 0.16365784 -0.035605777
-0.4838198 -0.03541537 -0.79380256 0.1366101 -0.5857075 -0.65673363 0.35965928 0.1368899
-0.567269 0.2234588 0.29381803 -0.9347256 -0.35665178 -0.020998659 0.32736605 0.32904354
-0.30385083 -0.34833 0.16496174 -0.32401833 0.3274414 -0.43210822 -0.65513253 0.020414412
0.07221951 0.31765217 -0.51791084 -0.44528323 0.3344179 0.2704226 0.0021228176 -0.3152346
-0.3270384 -0.32751065 -0.16372363 -0.16376822 0.3803229 0.35123676 -0.63635504 -0.27435228
-0.33511913 -0.59720415 -0.21820475 -0.49806532 -0.2535282 0.81862646 0.043688267 0.52109134
-0.1803637 0.3495064 0.327369 -0.3114501 -0.057549298 -0.45638275 0.2730435 -0.16659856
-0.6601817 -0.14479037 -0.0039015985 0.65496 -0.57230467 0.537701 -0.4765618 0.004180214
-0.6548753 -0.49233678 -0.17372753 0.43073 -0.16376089 0.65574527 -0.6548266 0.10300473
0.04308298 -0.33552298 -1.3217636 0.35103264 -0.14977027 0.0915808 -0.15722638 0.3340075
0.000115420335 -0.16508493 -0.1749677 0.16557114 -0.39954534 -0.3319831 -0.43073803 -0.34631035
-0.33691698 0.33249477 -0.24743 -0.32739216 0.5487375 -0.48277292 -0.7932649 0.1640888
-0.38358578 -0.29226127 -0.6877001 0.32838446 0.3015158 0.062093098 -0.21137932 -0.17536125
-0.34573978 -0.93728536 -0.11896436 -0.026521523 -0.22261524 0.18379374 -0.44732913 0.5482455
0.15977238 -0.16351122 0.0013838072 -0.009666581 0.16478541 -0.005955008 -0.6133319 0.32742146
-0.20459461 -0.3296489 0.22416952 0.4906046 0.20228265 -0.6541627 0.13733178 0.049581725
0.21393138 -0.5110959 -0.9070146 -0.9742128 -0.16368504 0.20671353 0.3614712 -0.13249913
0.4163718 -0.32809213 -0.16341625 0.20631489 -0.4701251 -0.5070903 -0.33402961 -0.6008099
-0.5422531 -0.0016422431 -0.32770333 0.16570553 -0.65486556 0.3485082 -0.24728139 -0.3581865
0.66105473 -0.038438175 -0.32725415 -0.16347793 -0.16344185 -0.48888263 0.65455604 0.16304265
0.654798 0.37223333 -0.32996738 0.3273247 0.1959607 0.59107494 0.27763358 -0.5831637
-0.47928727 0.4715572 0.08222305 -0.48967078 0.16203265 0.042894002 -0.16613342 -0.00015940708
-0.042752966 0.491759 0.3384733 0.16138367 -0.38484487 0.1621 -0.75212157 -0.22374642
-0.4885565 0.0006041647 -0.3802538 -0.29619288 0.08193644 -1.5386591e-05 -0.16366398 0.3323254
-0.4240896 0.18969892 -0.22567217 -0.1534935 0.3461982 0.065922 0.1637061 0.5573673
0.37081283 -0.36046186 -0.18096018 -0.6549455 0.15374963 -0.16375482 -0.49109605 -0.65462875
00000000: b000 25bf 9994 d538 c182 a53e 28a6 c4be
00000010: a6e5 c2bd 853d eebe 43e6 fc3d eb95 0fbf
00000020: 9cf5 c13e 27a4 183f f92f 1ebf 1c81 273e
00000030: d49e a7be a9a8 093e 2e56 1abf ecae 23be
00000040: b0fd a6be 1f5c 5abf 291d 61be a1a4 aabe
00000050: dd3a 33be 0b9e a7be db77 963e 347f 5f3e
00000060: 408f 6ebe e669 f63c e973 34be a8fe 8d3e
00000070: 64ab 15bf b2f8 f9bd 4b63 48be 26da a53a
00000080: 1643 fcbe ebdd c3be b579 fcbe 045c 21be
00000090: 2c38 a5be 2c51 263e 5439 d33e bf96 3ebf
000000a0: cadc 87be a599 c33e 9ad3 463f 2a67 e8be
000000b0: 0d52 37bf 7eca f63e ec95 273e 5dd7 11bd
000000c0: 3bb7 f7be b50f 11bd a536 4bbf 85e3 0b3e
000000d0: edf0 15bf b21f 28bf 4325 b83e de2c 0c3e
000000e0: 8b38 11bf 62d2 643e 516f 963e 2d4a 6fbf
000000f0: 109b b6be 6105 acbc 869c a73e 6578 a83e
00000100: 5692 9bbe 4f58 b2be bbeb 283e bbe5 a5be
00000110: 66a6 a73e 4a3d ddbe c4b6 27bf 203c a73c
00000120: d3e7 933d 4ea3 a23e ce95 04bf 2afc e3be
00000130: d338 ab3e d574 8a3e f81e 0b3b 6e66 a1be
00000140: 9471 a7be 7aaf a7be 2ba7 27be dbb2 27be
00000150: afb9 c23e 4ed5 b33e 2ae8 22bf e777 8cbe
00000160: bc94 abbe 5fe2 18bf 1171 5fbe 6b02 ffbe
00000170: 73ce 81be 8191 513f 78f2 323d 3e66 053f
00000180: 43b1 38be 81f2 b23e e99c a73e 6376 9fbe
00000190: d0b8 6bbd 00ab e9be 5ccc 8b3e d098 2abe
000001a0: ab01 29bf ed43 14be f6b1 7fbb 75ab 273f
000001b0: 8f82 12bf c6a6 093f e9ff f3be 2dfa 883b
000001c0: e8a5 27bf 9113 fcbe a1e5 31be a488 dc3e
000001d0: efb0 27be ecde 273f b7a2 27bf 25f4 d23d
000001e0: c777 303d abc9 abbe 8d2f a9bf 8dba b33e
000001f0: 615d 19be b78e bb3d f4ff 20be 0803 ab3e
00000200: d20d f238 060c 29be bc2a 33be 7b8b 293e
00000210: 3591 ccbe b0f9 a9be b289 dcbe 974f b1be
00000220: 6280 acbe c13c aa3e 4a5e 7dbe f29f a7be
00000230: 107a 0c3f 032e f7be 6913 4bbf e506 283e
00000240: 5b65 c4be 45a3 95be 1d0d 30bf 0222 a83e
00000250: 4760 9a3e 5555 7e3d d273 58be e691 33be
00000260: ce04 b1be eff1 6fbf 96a3 f3bd aa43 d9bc
00000270: 40f5 63be 6d34 3c3e 5308 e5be d159 0c3f
00000280: 5f9b 233e 7c6f 27be dd60 b53a 9460 1ebc
00000290: 82bd 283e 3a22 c3bb 5203 1dbf c9a3 a73e
000002a0: 4081 51be bec7 a8be b28c 653e 8730 fb3e
000002b0: 2f23 4f3e 3577 27bf b4a0 0c3e 3516 4b3d
000002c0: d410 5b3e 2ed7 02bf 1c32 68bf 0366 79bf
000002d0: 0d9d 27be b6ac 533e c112 b93e daad 07be
000002e0: af2e d53e b1fb a7be 9756 27be 3644 533e
000002f0: 3db4 f0be abd0 01bf ee05 abbe adce 19bf
00000300: 19d1 0abf 8940 d7ba bbc8 a7be b6ae 293e
00000310: 45a5 27bf ab6f b23e 5537 7dbe 3964 b7be
00000320: e23a 293f 5971 1dbd db8d a7be c266 27be
00000330: 4d5d 27be d34e fabe fc90 273f a7f4 263e
00000340: d7a0 273f 5e95 be3e 7cf1 a8be 1a97 a73e
00000350: eca9 483e b050 173f fd25 8e3e 374a 15bf
00000360: 2465 f5be f26f f13e 8f64 a83d 21b6 fabe
00000370: e3eb 253e 9fb1 2f3d e11e 2abe 8326 27b9
00000380: bc1d 2fbd d6c7 fb3e 5f4c ad3e c341 253e
00000390: 630a c5be 8bfd 253e 0a8b 40bf c81d 65be
000003a0: 1424 fabe cf60 1e3a a0b0 c2be 98a6 97be
000003b0: 4bce a73d 7412 81b7 8897 27be 8e26 aa3e
000003c0: 4622 d9be 6f40 423e 9b16 67be 662d 1dbe
000003d0: e440 b13e 1d02 873d 92a2 273e a0af 0e3f
000003e0: 2edb bd3e 758e b8be a04d 39be 82aa 27bf
000003f0: 8b70 1d3e 58af 27be f170 fbbe c095 27bf
