modeldata/a11_Opt12k_cos_Aug_BitMnist_PerTensor_4bitsym_RMS_width64_64_0_lr0.001_decay0.1_stepsize10_bs128_epochs60.pth (torch, 86837 bytes, 3 tensors)

fc1.weight f4 [64, 256]
0.030971909 0.03974403 0.041519966 0.08924211 0.12722042 0.07859676 0.06027014 0.13317472
0.14973128 0.0066468483 -0.04423283 -0.07561888 -0.015115495 -0.039606012 0.097638346 0.057932854
0.13322355 0.14025395 0.006349527 0.043563783 0.02752842 0.018459355 0.00898922 0.1000779
0.25039998 0.2012345 0.03647884 -0.22268978 -0.2379511 -0.14040294 0.047723964 0.13780385
0.1022874 0.08013958 -0.021321382 -0.09054786 -0.037605017 -0.065107316 -0.130566 0.0015987678
0.29470012 0.2737976 -0.12718844 -0.32211393 -0.67041564 -0.26825032 0.031446606 0.13207237
0.09635867 0.069781594 -0.0056750244 -0.00048354486 -0.008144993 -0.099469654 -0.09761788 -0.08075121
0.44630736 0.2981528 -0.14659786 -0.7951495 -0.9360982 -0.29666528 0.040853035 0.060538873
0.10350724 -0.022707837 0.029566368 -0.06348103 -0.08565517 0.0001579316 -0.19411978 -0.04970114
0.74749005 0.3485802 -0.34949496 -1.2045085 -0.8428984 0.018672774 0.16326362 0.106870264
0.09023703 0.07233284 -0.03036862 0.0029689663 -0.018085921 0.00086927955 -0.19394884 -0.039250817
0.68096644 0.16506444 -0.9099194 -1.0228714 -0.05983797 0.24639562 0.120080166 0.13026758
0.13600521 0.053534545 0.036229372 -0.00031143913 -0.017824057 -0.008093122 -0.09128531 -0.051296532
0.4175829 -0.08684138 -0.7098734 -0.08806563 0.13817166 0.11495848 0.06906704 0.097386956
0.11814678 0.021738658 0.007731489 0.0011938052 0.0058119525 0.03728599 0.0010425632 0.0034994874
0.19911802 -0.096645124 -0.045720402 0.20042787 0.114200115 0.04727779 0.06858803 0.04942079
0.020668885 0.028963737 -0.022736903 -0.024053438 -0.041387293 -0.00015118145 -0.052468065 0.04943592
-2.7441458e-05 -0.04972554 0.048592903 0.09758036 0.018146336 -0.05030842 0.0011619108 0.010955143
0.08394232 0.059250403 0.041994024 0.050698508 0.00046379757 0.07214133 0.01534778 0.020294042
-0.09108622 0.05716421 0.04362985 1.5330278e-06 0.06100112 0.099947035 0.008844655 0.07092129
0.021086494 0.055404205 -0.02402102 0.00799396 -0.036405496 0.037636798 -0.049740393 0.06610933
5.8964304e-07 0.0491336 -0.0024211768 0.0019950103 0.050122675 0.0036054978 -0.004482968 0.035874277
0.096215025 0.041468516 -0.041609388 0.051793754 -0.04429214 0.046264485 -0.06367276 0.09954822
-0.04946622 0.008657327 0.06472037 -0.10025755 -0.104481705 0.012026271 -0.050484493 -0.026769653
0.10492608 0.0434116 0.04056238 -0.0041696923 -0.02050341 -0.039945744 -0.08392507 0.01664781
-0.0029324421 0.000113451046 -0.033206094 -0.064436704 -0.049982283 -0.077898175 -0.0762756 -0.015020676
0.12220374 0.08186025 0.03842942 0.050711263 0.028985525 0.043934103 -0.0350279 -0.04966851
-0.04756043 -0.098406926 -0.013840406 0.046753526 -0.084843464 -0.19901517 -0.09689591 -0.020498475
0.11258702 0.015510634 0.024591932 0.0046639335 0.028389864 -0.00059761154 0.03802498 0.012474447
0.0013824565 -0.07194091 -0.043513723 -0.04846288 -0.0629858 -0.014305468 0.0104227625 0.08725043
0.017086871 0.020018503 0.095039934 0.045347784 -0.0033549815 -0.04262347 -0.0015307702 -0.021000838
0.094681114 0.0036659802 -0.05311919 -0.049812112 -0.065778196 0.011140192 0.098508134 0.093701944
00000000: cdb8 fd3c a3ca 223d d710 2a3d 91c4 b63d
00000010: 1246 023e 57f7 a03d d3dd 763d f45e 083e
00000020: 2853 193e cecd d93b 7c2d 35bd 12de 9abd
00000030: fba6 77bc ea39 22bd 9df6 c73d 004b 6d3d
00000040: c16b 083e bb9e 0f3e b10f d03b f06f 323d
00000050: 4883 e13c 1338 973c 8547 133c a4f5 cc3d
00000060: 6d34 803e 6b10 4e3e d66a 153d ca08 64be
00000070: 74a9 73be cac5 0fbe 347a 433d 741c 0d3e
00000080: 0e7c d13d 3820 a43d 2eaa aebc 2871 b9bd
00000090: b807 1abd fc56 85bd 18b3 05be bf8d d13a
000000a0: efe2 963e 332f 8c3e b03d 02be 1eec a4be
000000b0: 5ca0 2bbf 1b58 89be 28ce 003d fb3d 073e
000000c0: b257 c53d a7e9 8e3d 8ef5 b9bb 4b84 fdb9
000000d0: 9472 05bc bfb6 cbbd e2eb c7bd e460 a5bd
000000e0: 6682 e43e 7ca7 983e c01d 16be eb8e 4bbf
000000f0: 22a4 6fbf 83e4 97be 8355 273d 9cf7 773d
00000100: 9bfb d33d c905 babc 2b35 f23c 5802 82bd
00000110: fa6b afbd 719a 2539 56c7 46be 6c93 4bbd
00000120: 825b 3f3f 1b79 b23e 01f1 b2be 562d 9abf
00000130: 31c8 57bf a5f7 983c 942e 273e ccde da3d
00000140: 31ce b83d 3d23 943d 9dc7 f8bc fd92 423b
00000150: ed28 94bc 5de0 633a 869a 46be 77c5 20bd
00000160: d153 2e3f a706 293e 7af0 68bf 73ed 82bf
00000170: a918 75bd 224f 7c3e 97ec f53d dd64 053e
00000180: f344 0b3e 0a47 5b3d 4065 143d a748 a3b9
00000190: c203 92bc 0499 04bc cbf3 babd 501c 52bd
000001a0: 6dcd d53e e5d9 b1bd 43ba 35bf c15b b4bd
000001b0: df7c 0d3e 5a6f eb3d 0573 8d3d d072 c73d
000001c0: f0f6 f13d 4515 b23c 6e58 fd3b 7579 9c3a
000001d0: 3172 be3b 32b9 183d 9ea6 883a a857 653b
000001e0: 98e5 4b3e e1ed c5bd 5145 3bbd f73c 4d3e
000001f0: c0e1 e93d 5ba6 413d e277 8c3d 746d 4a3d
00000200: cb51 a93c 5c45 ed3c be42 babc b70b c5bc
00000210: b985 29bd 7686 1eb9 c1e8 56bd 527d 4a3d
00000220: 1532 e6b7 02ad 4bbd 5a09 473d 36d8 c73d
00000230: a0a7 943c 3410 4ebd 424b 983a 337d 333c
00000240: f3e9 ab3d 8db0 723d ed01 2c3d 3da9 4f3d
00000250: db29 f339 d5be 933d 4175 7b3c b13f a63c
00000260: 6a8b babd 0525 6a3d 37b5 323d 6fc2 cd35
00000270: 4fdc 793d 08b1 cc3d 2ce9 103c 2e3f 913d
00000280: 95bd ac3c 85ef 623d bbc7 c4bc 19f9 023c
00000290: ee1d 15bd 0b29 1a3d 95bc 4bbd 5464 873d
000002a0: f647 1e35 5040 493d 9bac 1ebb b8be 023b
000002b0: 6f4d 4d3d 374a 6c3b dce5 92bb e8f0 123d
000002c0: 620c c53d e4da 293d 9b6e 2abd b025 543d
000002d0: ad6b 35bd d47f 3d3d dd66 82bd f0df cb3d
000002e0: 179d 4abd 76d7 0d3c 1d8c 843d d553 cdbd
000002f0: 81fa d5bd d609 453c d4c8 4ebd 084c dbbc
00000300: 7ce3 d63d 5dd0 313d bd24 263d eaa1 88bb
00000310: c4f6 a7bc 269e 23bd e8e0 abbd fd60 883c
00000320: 372e 40bb 91ec ed38 1d03 08bd 64f7 83bd
00000330: 39ba 4cbd 1489 9fbd 6236 9cbd 4819 76bc
00000340: f445 fa3d 59a6 a73d 2b68 1d3d 9db6 4f3d
00000350: 0d73 ed3c 3ff4 333d 6a79 0fbd 3571 4bbd
00000360: bace 42bd 9289 c9bd dfc2 62bc a080 3f3d
00000370: 69c2 adbd a2ca 4bbe 5d71 c6bd 6bec a7bc
00000380: 0694 e63d 5020 7e3c 0575 c93c e9d3 983b
00000390: dc91 e83c 08a9 1cba 15c0 1b3d 9f61 4c3c
000003a0: 8b33 b53a c155 93bd 723b 32bd 0381 46bd
000003b0: b3fe 80bd 7b61 6abc 3cc4 2a3c 5ab0 b23d
000003c0: c4f9 8b3c d8fd a33c 4ca4 c23d 99be 393d
000003d0: 40df 5bbb f395 2ebd 20a4 c8ba f309 acbc
000003e0: 2ce8 c13d f140 703b 8293 59bd c907 4cbd
000003f0: b8b6 86bd 5a85 363c a2be c93d cee6 bf3d

fc2.weight f4 [64, 64]
0.19886054 -0.62893564 -0.28207046 0.09281838 -0.34214336 -0.026368476 -0.05909365 0.09583261
-0.03776376 0.14583237 0.08976908 -0.27439994 0.032378647 0.0013179833 -0.27222124 -0.16498356
-0.37887934 3.065248e-07 0.0074300254 0.28333756 -0.08634366 -0.09449992 0.02849118 0.044430267
0.11524171 0.030170765 -0.5413491 -0.08398665 0.019692259 0.060696043 -0.40512204 0.17990766
-0.025200559 0.36076406 0.08233947 0.4068692 0.0862445 0.35688767 0.34716478 -0.32936293
-0.30990127 0.3703172 -0.32013887 -0.16804695 -0.18256098 0.27929163 0.06031227 0.17941724
-0.28725654 -0.075759746 0.02840935 0.16229571 -0.4197989 0.08853718 -0.2204078 -0.023327194
0.03680922 0.23878123 -0.0020907621 -0.39449292 0.13247266 -0.03324734 0.32788813 0.04222025
-0.09204683 -0.090550736 -0.41870037 -0.052474704 -0.3045864 0.08976853 0.14316215 -0.082653284
0.00031280072 0.05819729 -0.17962983 0.020051781 0.09047942 0.09087163 -0.06957592 -0.22037688
-0.25360608 -0.08162044 0.14054914 0.07800118 -0.089788094 -0.06603342 -0.010444223 0.11837751
0.2718641 -0.21715976 -0.2538018 -0.22097397 -0.19205664 0.1712172 -0.052018054 -0.09113666
0.30959493 0.44896385 0.17384972 -0.78127456 0.24339156 0.1915119 0.71591616 0.08640289
0.0872348 0.060465056 -0.17901786 0.008937645 -0.18044469 -0.09043351 0.11822216 -0.06316592
0.07153292 0.2243855 -0.28299046 -0.098507985 -0.005011962 0.10996325 0.38275105 -0.3076947
-0.24025513 -0.34985512 -0.103754476 -0.087660834 0.12317579 0.06775239 0.08734683 0.17890286
-0.1777166 0.16863824 0.07908317 0.100931056 0.09478576 -0.07100853 0.35898295 -0.11912958
0.11255434 0.16192257 -0.2686066 -0.18003091 0.25058323 0.17745416 -0.16963083 -0.29115063
-0.43673196 -0.08952419 0.0051576346 0.16094121 0.20971406 0.25991517 0.25762665 -0.37621102
-0.09905922 -0.1472736 -0.51441383 -0.22112203 -0.269364 -0.24223341 -0.2106398 -0.023194313
0.19850568 -0.18166274 -0.2856303 0.20758879 0.08882693 0.08654793 -0.10225332 -0.26544803
-0.5601734 0.17951429 -0.18038918 -0.24940324 0.020582605 0.18101364 0.09832232 -0.033218917
-0.35043743 0.075521976 0.17951883 0.15851966 -0.00017730801 -0.3445301 0.066317536 -0.070829645
-0.17543598 -0.0052859676 0.08827355 -0.1832789 -0.21790548 -0.05231427 -0.0194464 -0.13375472
0.099616125 -0.18922487 -0.028369628 0.09875024 -0.2587002 0.10194514 -0.058095306 -0.14006571
0.3432027 0.17041188 0.1592333 0.12149 -0.1729347 -0.04495213 -0.015606724 0.20856401
-0.095124386 -0.17001846 -0.08945416 -0.5129618 -0.07537205 -0.0014155398 0.26259378 -0.086609975
0.0838631 0.174963 0.17899689 -0.18119158 0.3882317 -0.20471157 0.07643237 -1.2374711
-0.11541414 0.039977133 0.017480053 0.53522533 -0.062701285 0.17334263 -0.11303787 -0.26427937
0.15498804 -0.358645 -0.08974709 -0.069793515 0.082864776 0.005172211 0.38440052 -0.052530427
0.35964075 -0.1089131 -0.109182954 0.08684429 0.17971826 0.08977054 0.28271055 -0.38877183
0.00069905 0.27081665 0.17941283 0.18936646 -0.08673599 -0.036610734 0.33249673 -0.10724609
00000000: 19a2 4b3e ed01 21bf 8a6b 90be 9017 be3d
00000010: 6a2d afbe b402 d8bc 2f0c 72bd e343 c43d
00000020: 2cae 1abd 1555 153e dad8 b73d 267e 8cbe
00000030: 799f 043d 2ec0 ac3a 9560 8bbe 73f1 28be
00000040: 79fc c1be 7390 a434 9277 f33b 9f11 913e
00000050: f2d4 b0bd 2d89 c1bd 5666 e93c 83fc 353d
00000060: d803 ec3d ae28 f73c db95 0abf 3101 acbd
00000070: a951 a13c 6a9c 783d 286c cfbe b739 383e
00000080: 6771 cebc 11b6 b83e 99a1 a83d 2951 d03e
00000090: f5a0 b03d fbb9 b63e 95bf b13e 42a2 a8be
000000a0: 61ab 9ebe 379a bd3e 3ee9 a3be 8014 2cbe
000000b0: 44f1 3abe 50ff 8e3e 000a 773d 27b9 373e
000000c0: 4a13 93be ed27 9bbd baba e83c d930 263e
000000d0: e2ef d6be fb52 b53d 95b2 61be ac18 bfbc
000000e0: 44c5 163d 1183 743e 2b05 09bb fafa c9be
000000f0: eaa6 073e 5d2e 08bd f4e0 a73e 24ef 2c3d
00000100: 0c83 bcbd aa72 b9bd e55f d6be b7ef 56bd
00000110: c0f2 9bbe 90d8 b73d 1999 123e 2046 a9bd
00000120: 67ff a339 4860 6e3d e2f0 37be a243 a43c
00000130: 464d b93d e81a ba3d d27d 8ebd 7aaa 61be
00000140: a8d8 81be 9e28 a7bd 1dec 0f3e 15bf 9f3d
00000150: d2e2 b7bd 883c 87bd 3f1e 2bbc e86f f23d
00000160: c531 8b3e 215f 5ebe 4ff2 81be 0047 62be
00000170: 7faa 44be 9053 2f3e e210 55bd dba5 babd
00000180: 3a83 9e3e 97de e53e a905 323e 9c01 48bf
00000190: a33b 793e b21b 443e 4846 373f 00f4 b03d
000001a0: 29a8 b23d 35aa 773d 7550 37be 336f 123c
000001b0: 7ec6 38be 3435 b9bd 761e f23d 225d 81bd
000001c0: da7f 923d 50c5 653e 20e4 90be 8ebe c9bd
000001d0: 623b a4bb 6a34 e13d f2f7 c33e 298a 9dbe
000001e0: 7105 76be 3620 b3be 3a7d d4bd 8687 b3bd
000001f0: 9743 fc3d c4c1 8a3d e5e2 b23d 5032 373e
00000200: 57fb 35be 81af 2c3e 5bf6 a13d f1b4 ce3d
00000210: 091f c23d ec6c 91bd 9dcc b73e 36fa f3bd
00000220: e482 e63d 08cf 253e ce86 89be 065a 38be
00000230: 724c 803e 8bb6 353e b4b3 2dbe b211 95be
00000240: 559b dfbe 7558 b7bd 6001 a93b c6cd 243e
00000250: 48bf 563e 9a13 853e a4e7 833e bb9e c0be
00000260: 8fdf cabd e4ce 16be a0b0 03bf d06d 62be
00000270: 14ea 89be 090c 78be f6b1 57be 0002 bebc
00000280: 1345 4b3e cc05 3abe 223e 92be 2892 543e
00000290: e5ea b53d 0b40 b13d 306a d1bd cee8 87be
000002a0: 8667 0fbf 98d2 373e f1b7 38be 9063 7fbe
000002b0: da9c a83c a45b 393e 365d c93d 8f10 08bd
000002c0: 896c b3be 44ab 9a3d c9d3 373e fa52 223e
000002d0: c2eb 39b9 4066 b0be 7dd1 873d 220f 91bd
000002e0: 7da5 33be e935 adbb c3c8 b43d 77ad 3bbe
000002f0: 9d22 5fbe 7d47 56bd 0f4e 9fbc fff6 08be
00000300: 8a03 cc3d 2ac4 41be 6c67 e8bc 913d ca3d
00000310: 5a74 84be 9dc8 d03d 58f5 6dbd 636d 0fbe
00000320: 44b8 af3e 7480 2e3e 0e0e 233e c0cf f83d
00000330: cb15 31be ba1f 38bd 58b3 7fbc ce91 553e
00000340: 93d0 c2bd 5219 2ebe be33 b7bd 7751 03bf
00000350: a95c 9abd a289 b9ba b172 863e 9260 b1bd
00000360: 6bc0 ab3d 8029 333e f64a 373e 498a 39be
00000370: 4ec6 c63e e99f 51be 9388 9c3d 7465 9ebf
00000380: 405e ecbd 10bf 233d 5432 8f3c 8704 093f
00000390: 8869 80bd bb80 313e 6680 e7bd a04f 87be
000003a0: 2fb5 1e3e 51a0 b7be 53cd b7bd e7ef 8ebd
000003b0: 02b5 a93d a77b a93b 25d0 c43e 252a 57bd
000003c0: d522 b83e d50d dfbd 509b dfbd 6bdb b13d
000003d0: 1008 383e 9ed9 b73d 70bf 903e 1a0d c7be
000003e0: 7440 373a 7ba8 8a3e ffb7 373e 48e9 413e
000003f0: a4a2 b1bd 23f5 15bd 033d aa3e d7a3 dbbd

fcl.weight f4 [10, 64]
0.50761193 -0.5515105 0.55103356 -0.7326069 -0.39165783 0.12660201 0.0006394611 -0.3721567
-0.18337125 -0.92509806 -0.18347953 -0.3657831 -0.36600524 -0.005183587 -0.49924895 0.72828585
-0.65630424 -0.36640617 -0.9701028 -0.5216843 -0.4038474 -0.6683044 -0.41772658 -0.0022033954
-0.6215939 0.015855884 -0.4188026 -0.013384957 0.696517 -0.00038477735 0.088763714 0.03802409
0.040164396 -0.3522087 0.16077045 0.32845896 -0.24710724 -0.35779095 -0.722184 -0.19158141
-0.2723055 0.341388 0.0041056955 0.7007093 0.55725163 -0.73981434 -1.1006968 -0.06083166
-0.20699275 -0.541398 -0.29588282 -0.566862 -0.668473 0.1913746 -0.184115 -0.56751966
0.39353746 0.9114931 -0.054536745 0.18348211 0.03972105 -0.02515952 0.20106678 0.18440095
-0.7260879 -0.15048018 -0.06957799 -0.18345036 -0.21852492 -0.0883626 -0.52737266 -0.2669816
-0.36717498 -0.18429634 -0.36891595 -0.07241811 -0.18520612 -0.36663216 -0.15335129 -0.9113559
-0.5544828 0.24010697 -0.44278008 -0.3471268 -0.2222644 0.5503511 0.55055565 -0.5476311
0.5503288 -0.18355274 -0.5124554 -0.55057997 -0.84532386 -0.047440894 0.34378654 -0.4519125
0.600969 0.6222579 0.42776585 0.18635538 -0.89236605 -0.32690674 -0.3670703 2.8285533e-05
0.41120636 -0.81313235 -0.19292302 0.5924155 -1.4413321 0.44692194 0.03395718 -0.73378515
-0.35896614 0.08492751 0.041218664 0.526157 -0.3747512 0.69756997 -0.12075486 0.5503439
-0.44581977 -0.26220813 -0.06655784 1.0416021 -0.27124465 -0.3578857 -0.85964674 -0.18400928
-0.5201283 -0.73389643 0.00016429865 -0.5489471 -0.30629307 -0.25191617 -0.43100494 -0.35409716
0.6228822 -0.7130166 0.17992309 0.23641762 0.36689377 0.18322559 0.18032674 4.1817046e-05
-0.57973725 -0.21444213 -0.51458365 0.7339742 -0.112483375 -0.3841294 -0.5777289 0.2927781
-0.36701602 -0.3388486 -0.6018987 0.20808354 0.1834459 0.7293471 -0.16900344 -0.7212667
-0.86623883 -0.36656716 0.2571605 -0.61899203 0.00026823397 0.3809172 -0.46064255 0.599671
0.33697963 -0.1834278 0.5503574 0.18340656 -0.3442566 0.3955092 -0.5396818 -0.54884017
0.5631264 -0.660692 -0.18345124 0.32723433 -0.606307 0.5655656 1.957378e-05 -0.6284184
0.3668959 -0.36746606 0.40194565 -0.36455625 -0.015451097 0.1703433 -0.18418092 -0.5569941
-0.1550159 -0.7340308 -0.26894897 0.39174062 -0.17394437 0.73350966 -0.6074719 -0.25327632
-0.15654816 0.5489024 0.076007396 -0.22326621 0.08010814 0.0037230738 0.7155582 -0.36503968
0.6841155 -0.58152413 0.3660407 -0.3658037 -0.36290088 -0.19800214 -0.35425162 -0.07453528
0.4938596 0.00019768058 0.18920237 -0.050771 -0.31005433 -0.8008026 -0.6241701 -0.36338586
-0.38615325 -0.56186485 0.27948862 -0.10876755 -0.37567985 0.1438732 -0.36580905 -0.01646837
-0.18173176 -0.18138199 -0.41253185 -0.3670167 -0.51629496 -0.5776736 -0.06027117 0.055785898
0.40586674 -0.5383263 0.7270791 -0.38119856 0.9113167 0.36680797 -0.033124816 0.002759318
0.48564684 0.050342403 0.18343915 -0.18139553 0.0003679624 0.038497325 -0.73367584 -0.34786785
00000000: dbf2 013f cb2f 0dbf 8910 0d3f 208c 3bbf
00000010: 6087 c8be f5a3 013e 82a1 273a 538b bebe
00000020: acc5 3bbe 3ad3 6cbf 0fe2 3bbe ec47 bbbe
00000030: 0a65 bbbe 14db a9bb 8f9d ffbe f170 3a3f
00000040: 8e03 28bf 9799 bbbe a858 78bf 1a8d 05bf
00000050: 16c5 cebe ff15 2bbf 42e0 d5be d766 10bb
00000060: c720 1fbf 33e4 813c 4b6d d6be 944c 5bbc
00000070: f04e 323f f1bb c9b9 c0c9 b53d 26bf 1b3d
00000080: 6c83 243d b354 b4be 02a1 243e c62b a83e
00000090: ae09 7dbe 6030 b7be 0de1 38bf eb2d 44be
000000a0: a06b 8bbe 68ca ae3e 1289 863b af61 333f
000000b0: 0ba8 0e3f 7964 3dbf a2e3 8cbf 9e2a 79bd
000000c0: e8f5 53be 0f99 0abf f47d 97be de1d 11bf
000000d0: 0c21 2bbf b4f7 433e a488 3cbe f848 11bf
000000e0: be7d c93e 9d57 693f ec61 5fbd bce2 3b3e
000000f0: 8ab2 223d 561b cebc 73e4 4d3e 9ad3 3c3e
00000100: e6e0 39bf 7a17 1abe e87e 8ebd 69da 3bbe
00000110: ffc4 5fbe 73f7 b4bd e501 07bf d0b1 88be
00000120: 5cfe bbbe 2eb8 3cbe 8de2 bcbe f24f 94bd
00000130: aca6 3dbe 36b7 bbbe 1f08 1dbe 9f4e 69bf
00000140: 96f2 0dbf 9ade 753e 12b4 e2be 9bba b1be
00000150: 4799 63be cfe3 0c3f 37f1 0c3f 8d31 0cbf
00000160: 59e2 0c3f 40f5 3bbe 4730 03bf cff2 0cbf
00000170: 2567 58bf 6251 42bd ca04 b03e 1361 e7be
00000180: 1bd9 193f 4b4c 1f3f 2004 db3e f2d3 3e3e
00000190: 1a72 64bf 5260 a7be a3f0 bbbe b846 ed37
000001a0: a489 d23e 7129 50bf 9d8d 45be 8ba8 173f
000001b0: 927d b8bf f4d2 e43e af16 0b3d 58d9 3bbf
000001c0: 69ca b7be 79ee ad3d e7d4 283d 3ab2 063f
000001d0: 64df bfbe f293 323f 534e f7bd 56e3 0c3f
000001e0: 7d42 e4be 2540 86be 7a4f 88bd 3853 853f
000001f0: 94e0 8abe cb3c b7be cf11 5cbf ee6c 3cbe
00000200: 2127 05bf a3e0 3bbf 9547 2c39 cc87 0cbf
00000210: 72d2 9cbe 28fb 80be aeac dcbe 394c b5be
00000220: 3575 1f3f 4288 36bf c23d 383e 7617 723e
00000230: 80d9 bb3e 7d9f 3b3e 93a7 383e b664 2f38
00000240: a969 14bf b896 5bbe c1bb 03bf bce5 3b3f
00000250: af5d e6bd 9cac c4be 0be6 13bf 03e7 953e
00000260: 86e9 bbbe 907d adbe 0916 1abf da13 553e
00000270: 3ed9 3b3e 7eb6 3a3f 3d0f 2dbe efa4 38bf
00000280: d4c1 5dbf b1ae bbbe 8baa 833e 4376 1ebf
00000290: c1a1 8c39 9407 c33e 57d9 ebbe 0a84 193f
000002a0: 9888 ac3e 7fd4 3bbe 39e4 0c3f eece 3b3e
000002b0: 6742 b0be 2f80 ca3e 9628 0abf ca80 0cbf
000002c0: 0d29 103f 1c23 29bf a4da 3bbe 428b a73e
000002d0: f036 1bbf e8c8 103f 5f32 a437 07e0 20bf
000002e0: c8d9 bb3e 8324 bcbe d2cb cd3e 1ea7 babe
000002f0: 9926 7dbc 796e 2e3e ec99 3cbe 2a97 0ebf
00000300: 7dbc 1ebe 71e9 3bbf aeb3 89be 3a92 c83e
00000310: 791e 32be 4ac7 3b3f 4783 1bbf 6fad 81be
00000320: 294e 20be de84 0c3f c4a9 9b3d e69f 64be
00000330: bd0f a43d d0fe 733b d22e 373f 7be6 babe
00000340: 3222 2f3f c4de 14bf b069 bb3e 9f4a bbbe
00000350: 25ce b9be 13c1 4abe 7860 b5be f4a5 98bd
00000360: 2adb fc3e 7a48 4f39 44be 413e 41f5 4fbd
00000370: 71bf 9ebe 6601 4dbf 9dc9 1fbf b60d babe
00000380: e1b5 c5be 60d6 0fbf 2219 8f3e 85c1 debd
00000390: 1c59 c0be 7f53 133e 534b bbbe ade8 86bc
000003a0: e417 3abe 33bc 39be 6037 d3be 9de9 bbbe
000003b0: e82b 04bf 6be2 13bf e7de 76bd c17f 643d
000003c0: c4cd cf3e c1cf 09bf db21 3a3f 752c c3be
000003d0: 0d4c 693f 41ce bb3e e3ad 07bd add5 343b
000003e0: b4a6 f83e d633 4e3d 79d7 3b3e c0bf 39be
000003f0: 14eb c039 5faf 1d3d 2ed2 3bbf bc1b b2be
