modeldata/a11_Opt12k_cos_wzero_Aug_BitMnist_PerTensor_4bitlog_RMS_width64_64_64_lr0.001_decay0.1_stepsize10_bs128_epochs60.pth (torch, 103701 bytes, 4 tensors)

fc1.weight f4 [64, 256]
000000 23 2d bc bc 9f cd d8 bc e1 a9 a9 3d 9b 18 65 3d
       -0.022970742 -0.026465235 0.08284355 0.05593167
000010 8b c2 e7 3b a5 46 b7 bb 5c a4 8b 3d ef b1 bd 3d
       0.007072752 -0.0055931383 0.068184584 0.09262454
000020 4f 68 55 3d 19 ef c6 3d 33 a3 62 3d 5c 9a 56 3d
       0.05210143 0.09713573 0.05533142 0.052393302
000030 09 33 a6 3d 68 0b cb 3d 94 7c b1 3b f3 af 6e 3d
       0.08115203 0.09914285 0.005416462 0.058273267
000040 53 27 ba 3d cd 27 99 3d 0b 42 d7 3c 74 ec 33 3d
       0.09089532 0.074782945 0.026276609 0.04392667
000050 f6 f4 6f 3d da ea 81 3d 20 6a 1e 3d f9 13 41 3d
       0.058583222 0.063436225 0.038675427 0.047138188
000060 a3 7a 84 3d e7 70 a9 3d c5 06 60 bd 65 58 c2 bd
       0.064687036 0.082734875 -0.054693956 -0.09489516
000070 c8 eb 9c bd 4e ba 37 bd fe e2 1b 3d 5c 68 d0 3b
       -0.07662159 -0.04485541 0.038058273 0.006360097
000080 86 e7 95 3c 89 a3 5f 3d d4 45 17 3d 7b 06 10 bc
       0.018298876 0.05459932 0.036931828 -0.008790608
000090 57 b8 50 3d ef 13 16 3b f2 84 23 3c db fa 9f 3b
       0.05095705 0.0022900065 0.009980427 0.004882199
0000a0 9c 3a b8 bb 0c b9 5a be ee db 99 be 39 62 c4 be
       -0.005622221 -0.21359652 -0.30050606 -0.38356188
0000b0 b3 1f 64 be 96 ff 65 be b7 9d 07 be 0e 9e 4b bd
       -0.22277717 -0.2246078 -0.13243757 -0.04971128
0000c0 a4 7d 5b 3c 3c 64 e2 bc 84 79 b2 3d 47 f1 28 3d
       0.013396654 -0.027635686 0.087145835 0.041245725
0000d0 1a 6c dd bc 08 0c 34 bb ba bd ea bd 35 22 63 be
       -0.027029086 -0.0027472991 -0.11461969 -0.22181018
0000e0 2f 9b 00 bf f9 9b ef be 60 2c e5 be 83 17 e2 be
       -0.5023679 -0.46798685 -0.44760418 -0.44158563
0000f0 94 73 51 be 7e ee 83 be b6 a2 81 be f6 5f b6 bd
       -0.20454246 -0.25767893 -0.2531945 -0.08905022
000100 1e 9d 86 3d 9e a3 6b 3c fb e0 63 3d b7 01 f4 bc
       0.065729365 0.014382271 0.05563448 -0.029785974
000110 76 72 b9 3c 81 6e 1f 3d ad 73 82 bd 8c a4 e4 3c
       0.022637587 0.038923744 -0.0636972 0.027910493
000120 66 38 0a 3d 38 56 29 3e db 39 38 3e e9 78 64 3e
       0.033745192 0.16536796 0.1799082 0.22311749
000130 bb 9d a9 3e 50 79 4a 3e 24 f1 e5 3d c4 94 0a 3d
       0.3312815 0.1977284 0.112276345 0.03383328
000140 e8 7b bc 3c ab 2a e0 bc 46 73 8e bb cf 74 dd bb
       0.023008302 -0.027364096 -0.0043472378 -0.0067583094
000150 06 12 e9 3d 0f 8e 68 3d 4c 1e f6 3d f7 1a de 3e
       0.11380391 0.056776103 0.120174974 0.43379948
000160 46 f9 2e 3f 2e ae 4f 3f 73 7f 3c 3f b1 44 e7 3e
       0.6834911 0.8112515 0.7363197 0.45169595
000170 97 1e e5 3e 00 6b c0 3e 0e 40 d4 3e 5f d8 e3 3d
       0.447499 0.37581635 0.4145512 0.11125254
000180 d4 57 04 3b 5f 54 2c bd fd f9 eb bc b5 7d bd 3c
       0.0020193951 -0.04207265 -0.028805727 0.02313123
000190 c5 20 75 bd 86 06 1f bd de ad 21 3d 83 22 da bd
       -0.059845705 -0.03882458 0.039472453 -0.10651114
0001a0 d2 fe 23 be 48 29 65 be 20 94 38 be bf ed 2d be
       -0.16015175 -0.22379029 -0.18025255 -0.16985224
0001b0 e4 8f 47 bd ac bf 44 3e 34 f4 75 3e cc e8 e3 3d
       -0.04872121 0.19213742 0.24018937 0.11128387
0001c0 38 70 31 bc b0 54 64 bc b4 67 8a bd c6 d9 18 bd
       -0.010829978 -0.013936207 -0.06758061 -0.03731706
0001d0 32 35 09 3d 9c a1 4b 3c e9 bf 00 bb 70 33 05 be
       0.033497997 0.012428667 -0.0019645637 -0.13007903
0001e0 37 4d 8b be 23 ca ad be 6c 78 74 be 6f 7d 87 be
       -0.27207348 -0.3394328 -0.23874062 -0.26462886
0001f0 43 e9 5a be c7 40 2e be c9 25 7c 3d ad 51 ba 3c
       -0.21378045 -0.17016898 0.061559472 0.022744024
000200 0d 5e a4 3d 7c 8f 9d 3b 3f 35 e9 bd 56 18 5a 3d
       0.08025751 0.0048083644 -0.11387109 0.053245865
000210 00 b0 8c bd a3 54 03 bd 67 e3 42 bd 2d 1d e4 bc
       -0.06869507 -0.032063138 -0.04758015 -0.027845943
000220 2a 19 da 3d 49 d8 13 3e 08 dc 3f 3e 86 78 08 3e
       0.10649331 0.14437975 0.18736279 0.13327226
000230 7a fc af 3d b8 cc 30 bd 61 fc 48 ba 58 3b 25 bd
       0.08593078 -0.043163985 -0.0007667002 -0.040339798
000240 43 88 35 bd 8e 02 de bc 9a e0 b1 3a c7 98 8b 3c
       -0.044319402 -0.027100828 0.0013570965 0.017040623
000250 04 c1 55 bc 62 d6 07 bd dc db 4b bc 5b 20 0d be
       -0.013046507 -0.033163436 -0.012442555 -0.13781874
000260 c6 52 59 bd a3 db 35 bd 08 a2 ba 3c 63 01 5d bd
       -0.053057455 -0.044398915 0.02278234 -0.0539564
000270 e5 15 2c bd 2b d1 ab bd 9c 70 fc bd f1 fa 2f bc
       -0.042013068 -0.08389505 -0.12326166 -0.010740981
000280 08 22 bc bc d0 cb e0 bd e4 2c 9a bd 81 e3 62 3d
       -0.022965446 -0.10976374 -0.075280935 0.055392746
000290 8a 03 65 bd 7d 1a 98 bc eb cf bb bd 27 0e bd 3c
       -0.05591158 -0.018567318 -0.091705166 0.023078037
0002a0 91 d4 6b bc ce 59 c1 3d bc 5a 87 3c 56 12 54 bd
       -0.0143939415 0.09440957 0.016522758 -0.0517753
0002b0 2c bd f0 bc cd b7 32 bd 06 ac db bd 18 15 9f 3c
       -0.02938708 -0.043632317 -0.1072617 0.019419238
0002c0 1f 71 56 bc 94 23 01 be 00 e3 eb bd 01 e6 bf bb
       -0.013088494 -0.12611228 -0.11517906 -0.005856276
0002d0 8c 63 62 3d 79 4a ed 3c ba 73 69 3c 19 e5 00 3d
       0.055270717 0.028966175 0.014248783 0.031468485
0002e0 d5 fa 7a bd 2c 0b 97 bc b7 2a ee ba 1e 6c 61 3b
       -0.06127437 -0.018437944 -0.0018170689 0.0034396718
0002f0 9b 25 42 3d c7 6b 89 bc 1f 12 89 3c 4e 86 34 3d
       0.047399145 -0.016775025 0.016732274 0.044073395
000300 1a 23 b7 bd 7e 75 c1 bc 2c 8b dd bd 83 cf 63 3c
       -0.08942242 -0.023615595 -0.108175606 0.013904455
000310 ad dc 75 bc a0 a1 e5 3d 90 61 cf bc 41 b4 07 bd
       -0.0150062265 0.11212468 -0.025315076 -0.033130888
000320 73 82 68 bd b2 32 0c 3c de 8c 20 bc 87 d0 6c 3c
       -0.05676503 0.008557009 -0.00979921 0.014454014
000330 a9 fe 2b bc b0 55 ae 3c 72 c0 29 3e 58 29 df 3d
       -0.010497727 0.021281093 0.16577318 0.108965576
000340 53 15 42 bd f3 b1 85 bd fd ec 94 3c 0f 97 c5 3d
       -0.047383618 -0.06528082 0.018179411 0.09647953
000350 14 bc 16 bd 92 25 08 3d 4f 10 59 3d 82 47 eb 3d
       -0.03680046 0.033238955 0.05299407 0.114882484
000360 24 40 e2 bb 7d ca 7a 3d 9a b2 df 3c a9 62 50 3b
       -0.006904619 0.061228264 0.027306844 0.0031797087
000370 17 81 aa 3d c7 fe ee 3d 0f 92 51 3d e8 88 ca 3d
       0.08325403 0.11669689 0.051164683 0.09889394
000380 26 a3 53 3d 81 a0 5d bd d6 51 8b bc 61 a2 93 bd
       0.051669262 -0.054108147 -0.017006796 -0.07208706
000390 17 44 93 bd 7c dd a5 bd d9 48 32 bd 17 0b 1f bd
       -0.071907215 -0.080988854 -0.043526504 -0.038828935
0003a0 90 8c 6c bd ed 8e 39 bd 84 a1 0e 3c 18 a4 e2 3c
       -0.05775124 -0.04530232 0.0087055005 0.027666137
0003b0 d3 f1 e1 3d 3c 7b cf 3d 37 d8 f8 3d df a3 4b b9
       0.110324524 0.10130927 0.12150615 -0.00019420635
0003c0 b8 f3 b7 3c ba 2a 95 3c a0 66 c6 bc ef b9 df bc
       0.022455081 0.01820885 -0.024218857 -0.02731034
0003d0 5d b0 71 3d 6e ba 4b 3d c1 75 fe bb 88 2b cd 3d
       0.059006084 0.04973834 -0.007765502 0.100180686
0003e0 88 f1 34 3d 76 2d c1 3d 7b 3d 24 bc 62 82 4f bd
       0.044175655 0.09432499 -0.010024424 -0.050661452
0003f0 b3 b9 b6 bb 6b f6 db ba 1e 97 ae 3c 4b 45 fe bb
       -0.0055763363 -0.0016781812 0.021312293 -0.007759725

fc2.weight f4 [64, 64]
000000 93 57 ce bb c1 22 4f bf c1 24 71 be f0 47 de 3c
       -0.0062970608 -0.80912405 -0.23549177 0.027133912
000010 79 e6 b7 3e 62 c1 51 3e de c6 90 3e ec f7 d0 bc
       0.35918024 0.20483926 0.28276724 -0.025508843
000020 7e e5 35 3e 9e c0 8f 3d 75 8f cf be 52 82 51 be
       0.17763326 0.07019161 -0.40539137 -0.2045987
000030 e5 e1 cf 3e 5c 3e 49 3e 54 21 59 3c 36 50 5d bd
       0.4060203 0.19652694 0.013252575 -0.054031573
000040 5f 23 03 be 54 9f da bc ca 0b 8c 3e 50 eb 3c be
       -0.12806462 -0.026687302 0.27352744 -0.1844914
000050 bf 53 06 bf 7d 76 3e 3e b6 7c af be 51 87 c8 3c
       -0.52471536 0.18599887 -0.34274834 0.024478586
000060 ef 92 30 3e 6c 8d 5d 3e 3f e9 4e bd 26 73 2c 3e
       0.1724355 0.2163598 -0.05051541 0.168408
000070 54 3a f7 3c 7c 1b 50 be d1 13 2b be a6 83 51 be
       0.03017918 -0.20322984 -0.16706778 -0.20460376
000080 ca a3 93 3e 2e 1a 2c 3e 2a d4 5a 3e eb de 08 be
       0.288359 0.16806862 0.21369997 -0.13366286
000090 32 5a d0 3d 9e 60 d5 3d 65 38 a0 be 98 a0 f9 bd
       0.101734534 0.10418819 -0.31293026 -0.12188834
0000a0 29 f7 4c be b7 f2 3c bf 95 76 bc 3e be 0f 44 3e
       -0.20016159 -0.73807853 0.3680922 0.1914663
0000b0 50 53 cc be 2a 8d 15 3e b3 25 81 be cc 96 14 bf
       -0.39907312 0.14604631 -0.25224075 -0.580426
0000c0 41 53 32 3e 31 17 38 bf 97 ed 11 3e 15 e4 9a bc
       0.17414571 -0.7191039 0.1425079 -0.018907586
0000d0 e7 fe 8d bb 59 0b 8d 3d f5 e1 8e 3e 61 69 de 3b
       -0.0043333652 0.0688693 0.27906767 0.0067874645
0000e0 34 10 ca bd be 00 1e 3f ed a8 41 3e 51 eb e4 bd
       -0.09866372 0.6171988 0.18912096 -0.111776955
0000f0 4b 90 09 be 4f 61 91 be 2b 37 d0 3d 5a fd 7e bf
       -0.1343395 -0.28394553 0.101667725 -0.99605334
000100 9f 7c 81 3e e5 54 6c 3d 7c 47 76 bd 6d e3 7d 3c
       0.2529039 0.05769815 -0.060126767 0.015496117
000110 fd 32 03 3e 06 eb 3d 3d f5 cd bd 3d aa c6 4f 3e
       0.12812419 0.046366714 0.09267799 0.20290628
000120 b7 f2 42 be 80 08 50 3e f5 73 c9 3e 37 d9 21 3e
       -0.19037901 0.20315742 0.3934628 0.15805517
000130 bf 54 30 3c 00 9b 13 3d a3 7c 81 3e fc ca 80 3e
       0.010762393 0.03603649 0.25290403 0.25154865
000140 35 6c 50 be 52 bd 54 be dc 5d bd 3d 7f 5e de 3c
       -0.20353778 -0.20775345 0.09246418 0.027144669
000150 fa 1a a7 3e ff 23 c9 3d 86 d3 70 be 5e 33 e9 bd
       0.3263777 0.09821319 -0.2351819 -0.11386751
000160 c1 fe af 3e 5c bf 37 3e 1c b4 20 3c 23 9f d1 3d
       0.3437405 0.17944092 0.009808566 0.10235431
000170 39 24 bb bd fd d9 d7 3d 65 6d 06 3e c4 20 4e 3e
       -0.09137768 0.10539625 0.13127668 0.20129687
000180 23 de c0 bd 63 7a 36 bf 8d d1 82 be 67 ba d7 3c
       -0.09417369 -0.712805 -0.255505 0.026334
000190 60 80 a6 3d 38 a8 36 3e 0d 8c 23 be df 0e 8d 3d
       0.08129954 0.17837608 -0.15971394 0.06887602
0001a0 52 37 03 3e 2b 81 71 be ae 11 45 be ea 72 b3 3d
       0.12814072 -0.2358443 -0.19245026 0.087621525
0001b0 90 7d bb 3d cf 6d 19 3e 88 3a 92 3b b4 6c 13 3e
       0.091548085 0.14983295 0.004462544 0.14396936
0001c0 2f 01 52 3e 44 04 4d bd 3d 9f 4f be e8 b6 5b 3e
       0.20508264 -0.050052896 -0.20275588 0.21456492
0001d0 3c e7 ca 3d c0 65 93 be 73 6f c8 3d 83 a8 b6 3d
       0.09907386 -0.28788567 0.09786882 0.0891886
0001e0 28 e0 35 bf db fe fe bd 71 a9 33 bd 7a 8a 77 3e
       -0.7104516 -0.124509536 -0.043862764 0.24173918
0001f0 15 e1 c2 3e 2a dd d0 3e 6a 24 d0 be 8e ce 30 3e
       0.3806235 0.40793735 -0.40652782 0.17266294
000200 3e 8d 31 bd d0 b8 f1 bd 41 5a c9 3e 29 eb 72 3d
       -0.04334759 -0.11802828 0.3932667 0.059306297
000210 60 2f b2 bd be fb 26 bf 62 8f d5 3d 58 74 7e bd
       -0.08700442 -0.6522788 0.10427739 -0.062122673
000220 1a 27 50 be 18 2c 50 3e 91 01 53 be 62 36 c2 be
       -0.20327416 0.2032932 -0.20606066 -0.37932116
000230 b4 6a 48 3e 30 a1 c4 be 06 e2 f0 3b 23 69 3d 3d
       0.19571954 -0.38404226 0.007351163 0.046242844
000240 00 ee 93 3e 69 44 19 3e 30 c3 28 be 45 3d a4 3e
       0.28892517 0.14967503 -0.16480708 0.32077995
000250 8f 30 2e 3e c3 14 5f bd fd 20 d0 3e 47 ea d7 bc
       0.17010711 -0.05446316 0.40650168 -0.02635683
000260 d8 c9 fd bc 9a 16 d0 3e e4 20 cd bd 3e 20 4d be
       -0.030980036 0.40642244 -0.10016039 -0.2003183
000270 87 b9 00 bf b6 0d 55 3e e9 5a 8f 3e 56 9b 45 be
       -0.5028309 0.20806012 0.27999046 -0.19297537
000280 30 bc 17 3e 19 ea b5 3e 7c b6 44 be cf 03 ba 3e
       0.14817882 0.35530165 -0.19210237 0.3633103
000290 b2 42 d0 be bc 46 d1 3e ff 0d 8b be c4 df 55 bd
       -0.40675884 0.4087428 -0.27159116 -0.052215353
0002a0 c3 84 cd 3e 7c 1c d0 3e 5a 1f 50 be 49 b7 5f ba
       0.40140352 0.40646732 -0.2032446 -0.00085340865
0002b0 48 ff fb 3d 76 32 e0 3d 7c 24 d0 be ff 69 50 bf
       0.123045504 0.10947125 -0.40652835 -0.8141174
0002c0 99 3c d0 3d 35 eb ee 3d 50 71 52 3d 8a 54 d4 3e
       0.10167808 0.11665956 0.051377594 0.41470748
0002d0 a8 ec ce 3d 22 43 c4 be 79 04 da be 70 03 df bc
       0.10103732 -0.38332468 -0.42581537 -0.027223319
0002e0 ac 3f be be 36 75 ee 3d 37 60 52 3e 5d 04 b9 3d
       -0.37157953 0.1164345 0.20544516 0.09034035
0002f0 bd c7 9b bd a1 94 f2 be 9e e5 50 3e 3b e4 ca be
       -0.076064564 -0.4737902 0.20400092 -0.3962725
000300 4e e7 36 bd 75 24 5a 3d 1a 77 3e bf af e2 4b bc
       -0.044654183 0.053257424 -0.74400485 -0.012444182
000310 68 0d f5 3c e3 ed 36 3e 34 24 50 bf ee 07 d5 3e
       0.02991362 0.17864184 -0.8130524 0.41607612
000320 8e a4 4c 3d a4 6f cb be 11 3e 8b 3d dc 27 10 be
       0.04996162 -0.39733613 0.067989476 -0.14077705
000330 96 79 77 3e b6 23 50 3e d5 24 d0 3e 8d 9e 6d 3e
       0.24167475 0.20326123 0.406531 0.23205014
000340 98 f0 d1 3d 72 fc 9f 3e 3e fd 89 be a3 07 b3 3c
       0.10250968 0.31247288 -0.2695102 0.021854227
000350 30 ed 5d be a9 b1 88 be d5 6d c4 bd b5 27 d0 3e
       -0.21672511 -0.26698044 -0.09591261 0.40655294
000360 25 67 ff bd bb ca b3 bb e1 dd 31 3e 46 10 e8 3e
       -0.12470845 -0.005486814 0.17369796 0.45324916
000370 da 1b bd 3e 43 68 4f be 7e e3 85 be b5 b1 de bc
       0.36935312 -0.20254616 -0.26150125 -0.027184347
000380 ee a9 5b be 89 f1 d0 be 8a 4c fd 3a a4 9e 4f 3e
       -0.21451542 -0.40809277 0.0019325179 0.2027536
000390 64 24 c3 bd 96 bf 1d be 51 0d 9a 3d 76 83 50 be
       -0.09528425 -0.15405115 0.07522071 -0.20362648
0003a0 e2 74 dd 3b 5d b7 b0 be 06 42 41 be 2e b3 f1 3d
       0.0067583183 -0.34514895 -0.18872842 0.11801754
0003b0 b8 39 64 3d 09 4b 3f 3e a8 7e b0 be b1 d7 88 be
       0.055719107 0.18680967 -0.3447163 -0.2672706
0003c0 2e 45 40 3e 9f 24 d0 3e 70 2d d0 be ee 14 12 3e
       0.1877639 0.4065294 -0.40659666 0.14265797
0003d0 62 5e 68 bd 43 fa e7 3c 6e 70 d3 3e a1 58 de be
       -0.056730635 0.028317576 0.41296715 -0.43426993
0003e0 6d 50 c6 3d f8 ac 8b 3b 5e e3 a1 be 00 d6 d0 3e
       0.09683309 0.004262563 -0.3161878 0.4078827
0003f0 12 97 85 bd 24 49 db bd b4 8d 50 be 85 99 76 be
       -0.06522955 -0.1070731 -0.20366555 -0.24082

fc3.weight f4 [64, 64]
000000 9e 37 73 be f1 2e 58 bc 67 a3 91 3c ab ff 2b 3e
       -0.23751685 -0.013194785 0.017778112 0.16796748
000010 e0 4c 2b 3e fc c1 0c be a1 c4 2e be f9 37 b1 3d
       0.16728544 -0.13745874 -0.17067195 0.08653254
000020 48 14 a8 3e a2 f9 42 be 54 a8 89 3e aa 6f ac 3e
       0.32827973 -0.1904054 0.26886237 0.33678943
000030 32 a3 9a 3e 78 0f c5 bd 10 6f 8e bc 68 d9 8e 3e
       0.30202633 -0.09622091 -0.017386943 0.27900243
000040 b8 8d 24 3e f3 48 06 3e b4 e1 b0 be 9f ba 21 3e
       0.16069686 0.13113765 -0.34547198 0.15793847
000050 e0 c0 90 3e 7f 2a 02 bf 42 2f 6e 3e b7 3f 8b bd
       0.28272152 -0.50846094 0.23260215 -0.06799262
000060 f7 6e 6d 3e c6 b7 46 be 27 b7 46 3d b7 62 ec 3a
       0.23186861 -0.19406042 0.04851451 0.001803479
000070 e5 e5 af 3e 29 57 ca bd 7c e7 b0 3e 70 41 83 be
       0.34355083 -0.09879906 0.3455161 -0.25635862
000080 ed 6a 94 be 6c 28 42 be 77 b1 20 be cb 47 b6 bd
       -0.28987828 -0.18960732 -0.15692697 -0.08900412
000090 df 48 25 be 03 d8 ad 3e 25 a8 27 be 54 4e c6 bc
       -0.1614108 0.33953866 -0.16372736 -0.024207272
0000a0 a9 e8 29 be 60 10 de bd 5b 7d cc 3d 52 f3 1d 3e
       -0.16592659 -0.10842967 0.09984847 0.1542485
0000b0 70 bd b3 3d da e7 05 bf e1 f7 b0 be 9a 3b 41 be
       0.08776367 -0.523069 -0.34564117 -0.18870392
0000c0 38 71 70 be 32 98 d7 3e 5b 2e 5e be 16 88 01 bd
       -0.2348069 0.42108303 -0.2169737 -0.031623922
0000d0 92 27 9c 3c 6e 9b c5 3e 17 78 68 3e aa 5f f4 3d
       0.019061837 0.38595146 0.2270206 0.11932309
0000e0 11 4e 0d 3e c4 3c b3 bd 25 13 20 be 42 9e ea bd
       0.13799311 -0.087518245 -0.15632303 -0.114559665
0000f0 47 85 db 3d 99 96 d9 be cb 01 0d be bd a6 1e be
       0.1071878 -0.4249771 -0.13770215 -0.15493293
000100 a0 d6 29 be bf 1a 3a 3e 8e f1 4f be f9 da 90 3e
       -0.16585779 0.18174265 -0.2030699 0.28292063
000110 cf 75 5e 3d 43 82 b1 be 6a a7 9c bd e6 f5 30 3e
       0.05431157 -0.34669694 -0.07649119 0.17281303
000120 43 40 54 be 04 b9 4b be 58 44 c1 be 63 20 44 be
       -0.20727639 -0.19894797 -0.37747455 -0.1915298
000130 60 ed 33 3e 2a d2 12 bd 49 07 03 ba b1 e8 bb bd
       0.1757102 -0.03584496 -0.0004998339 -0.09175242
000140 d6 6a 10 bd 49 45 17 3d 5b fd 83 bd 6a 8e 4f be
       -0.035258137 0.03693131 -0.06444808 -0.2026917
000150 46 38 d2 bd ed 9c 30 be 45 a3 3a be 27 2c 6e be
       -0.102646396 -0.17247362 -0.18226345 -0.2325903
000160 b3 2a b1 3d 1d 55 fe 3c cf f7 b0 be cd 38 10 bc
       0.08650722 0.031046445 -0.34564063 -0.008802605
000170 10 bc d2 bc ae 45 44 3e f9 48 f5 bd 3b da b8 bd
       -0.02572444 0.19167206 -0.11976809 -0.09025999
000180 52 fb c2 3e 80 6e 57 3e 91 3b d2 bd 63 89 ec 3c
       0.38082367 0.21038246 -0.10265268 0.028874105
000190 34 13 af 3d 62 bb fe 3d 15 e1 4c 3e 61 b2 f6 bd
       0.085485846 0.12438084 0.20007737 -0.12045742
0001a0 89 6f aa 3e 5c 3c 09 be 7b f4 fe 3d d2 90 1e be
       0.3328822 -0.13401932 0.12448975 -0.15484932
0001b0 e5 7d f9 bd 8f 73 89 bd 11 44 ba 3d 2c ab cd 3d
       -0.121822156 -0.06711494 0.09095014 0.10042414
0001c0 ba d1 8d 3a 3c 6c 31 3e d1 2c bc 3e af 32 a7 bd
       0.001081995 0.17326444 0.36752942 -0.08163964
0001d0 1a f7 fc 3d b0 8c 04 3e 77 82 81 be 66 08 31 3e
       0.123518184 0.12944293 -0.2529485 0.1728836
0001e0 04 b7 98 3e b5 12 be bd 2b b2 62 be 77 aa 3a be
       0.2982713 -0.09280912 -0.22138278 -0.1822909
0001f0 a4 9b 33 be 3d cf 82 3e b4 f9 bb be 10 bb c7 3e
       -0.17539841 0.25548735 -0.36713946 0.39009905
000200 a6 bb b1 3e 87 e9 04 3e 03 8a 2f be cd 04 03 3e
       0.34713477 0.12979709 -0.17142491 0.127948
000210 e0 f2 05 bd 62 a8 aa ba 68 49 e6 3c 6c 08 31 3e
       -0.032702327 -0.0013020153 0.028111175 0.17288369
000220 5b 32 ad bd c8 0e 89 3d 0c 3c 34 3e 9c e8 53 3c
       -0.0845687 0.066922724 0.17601031 0.012933876
000230 45 a6 a7 bc 25 d9 60 bc f4 fa 1e be ce 15 d2 be
       -0.020465026 -0.013723646 -0.15525419 -0.4103226
000240 dc cc 7f 3e 2b de c0 3d dc 99 ea 3d 4e dd 84 bd
       0.24980491 0.09417375 0.114551276 -0.06487523
000250 a0 3e 91 be 86 30 7e be 0a d8 b0 bd 16 f7 2e be
       -0.28368092 -0.24823198 -0.08634956 -0.17086443
000260 24 12 18 3e 63 08 37 3d 0c 65 94 be 10 04 77 be
       0.1485067 0.044685733 -0.28983343 -0.24122643
000270 b9 53 34 bb f8 77 28 3e 45 76 90 be a2 38 d9 bd
       -0.0027515723 0.16452014 -0.28215232 -0.10606505
000280 62 f2 b1 3e 74 b4 10 3e 58 26 c8 bd 9a d9 b7 3d
       0.34755236 0.14131337 -0.097729385 0.08977051
000290 c7 50 f0 bd b5 63 2c be 17 42 47 be a0 63 dd be
       -0.11734157 -0.1683491 -0.19458805 -0.4324007
0002a0 77 a0 2c be 83 01 4e 3e fc e6 b0 3e a5 5e f5 be
       -0.16858087 0.20117764 0.34551227 -0.4792377
0002b0 11 61 77 3e 79 f3 b0 be 18 e4 26 3e f9 39 4c 3e
       0.24158122 -0.34560755 0.16297948 0.1994399
0002c0 6b 48 3a 3d c1 5e 8f 3e cd 7b 30 3d f1 fe ff 3d
       0.04547922 0.2800198 0.043086816 0.12499798
0002d0 02 36 35 3e 23 b3 45 be ad ba a8 bd 9d ae df be
       0.17696384 -0.19306616 -0.082387306 -0.43687907
0002e0 5e 00 a1 3e de 51 e0 3d 46 da 30 be 6e 35 10 3e
       0.31445593 0.10953115 -0.17270765 0.14082882
0002f0 5f 07 8b 3e bf c2 28 3e 0f 6e ae bd cb 23 92 3e
       0.2715406 0.1648054 -0.08517086 0.28542933
000300 ca 08 e3 3e d9 43 89 3d b6 97 4e be ed 95 84 3e
       0.44342643 0.06702394 -0.2017506 0.25895634
000310 f4 fa 1c be b4 e4 48 3e 21 d2 24 be f6 82 43 be
       -0.15330106 0.19618493 -0.16095783 -0.19092926
000320 cd e8 a3 3b 0e f9 39 3e 8f 7a 33 3d 1b ed 21 3c
       0.0050021173 0.18161413 0.043818053 0.0098831905
000330 98 e9 b7 3d 51 2a 00 3e ee cb 8b bd 8d dd 54 be
       0.08980101 0.12516142 -0.06826006 -0.2078764
000340 a5 6c 9b 3d af 5e c5 be 8d 3d 28 bd 21 30 92 3e
       0.07589082 -0.385488 -0.041074324 0.28552344
000350 a1 a9 d1 3d e6 32 7c be eb 60 cd be 87 67 7b bd
       0.10237432 -0.24628791 -0.40113005 -0.06137803
000360 65 04 36 3e c4 95 c5 be 88 bc aa 3d 84 ea 6d be
       0.17775114 -0.38590825 0.08336741 -0.23233992
000370 d4 c3 76 be af 2d 33 3e c9 25 8c be 0f 24 ff 3d
       -0.2409814 0.17497896 -0.27372578 0.124580495
000380 fd 16 a8 3e f9 0d 76 3d 47 25 f4 bd b3 a2 bf be
       0.3283004 0.06007192 -0.119211726 -0.37428817
000390 ab b4 9a bd 36 4e c4 3d 8c b2 2f be de 7e 8d 3d
       -0.07553991 0.0958523 -0.17157954 0.069089636
0003a0 2c d2 c8 bd 53 5b 27 3e b4 ba 69 bd 16 ab 51 bc
       -0.09805712 0.16343431 -0.05706282 -0.012797138
0003b0 54 9c 2f be 97 a6 73 be 1e 87 32 bd 50 50 ac bc
       -0.17149478 -0.23794018 -0.04358589 -0.02103439
0003c0 12 ea b0 3e 2a 71 cc 3d 91 7f 30 3d 56 1b 13 be
       0.3455358 0.09982522 0.043090407 -0.14365897
0003d0 3a 68 9d be 67 d2 e7 be 12 f0 af 3d a7 0f 2c 3e
       -0.3074358 -0.45277712 0.08590712 0.16802846
0003e0 96 d7 af 3e 32 b9 dc 3e 35 ee d2 3d 83 1c 35 3e
       0.34344167 0.43110043 0.10299341 0.17686658
0003f0 65 5f 95 3d 27 f3 b0 3e d9 f4 fc bc 30 e3 bc bd
       0.07293586 0.3456051 -0.030878471 -0.0922302

fcl.weight f4 [10, 64]
000000 2b 2a 1d bf ac c4 c9 bd cb e4 a4 3e 47 b3 1e bf
       -0.6139247 -0.09851965 0.32205805 -0.61992306
000010 b8 b3 3c bf c6 67 8a bd a2 88 46 bf 60 6a d6 bd
       -0.7371173 -0.067580745 -0.77552235 -0.10469508
000020 1c 26 4b bf 2c 2e 34 bf d7 60 f7 bd 80 9f 0f bf
       -0.79355025 -0.7038295 -0.120790176 -0.5610275
000030 3a 1b e4 bd 63 86 4e 3e ed f9 33 bf 24 7f 57 bf
       -0.111380056 0.20168452 -0.7030323 -0.84178376
000040 c8 55 4e bf f1 12 50 bf 46 fc 09 bf 5a 31 14 3f
       -0.8059964 -0.812789 -0.53900564 0.57887805
000050 92 f4 b7 3e 71 fd 1d 3f e5 0a b1 be 59 66 cd 3e
       0.3592878 0.61714846 -0.34578624 0.40117148
000060 89 8c 0f bf 12 9b f4 3c 92 eb 9f be 20 15 4a 3e
       -0.56073815 0.0298591 -0.31234413 0.19734621
000070 69 f9 12 3f aa ef dc be 8c 86 36 bf e0 01 cc be
       0.5741182 -0.431516 -0.7129905 -0.3984518
000080 88 91 d7 be d2 13 cf be cf 7c 31 bf 59 08 1c 3d
       -0.4210322 -0.4044481 -0.6933107 0.0380939
000090 3a bf cd be f3 61 22 bd 76 7c cb bd 72 24 33 3f
       -0.40184957 -0.039644193 -0.099358484 0.69977486
0000a0 d4 9d cc be c1 df c7 be 05 40 cb 3d 5e 5c c7 3e
       -0.39964163 -0.39037898 0.0992432 0.38937658
0000b0 8f 9d ce be 41 57 84 bc 0f 55 56 3f 5d d7 25 3f
       -0.40354583 -0.016154887 0.8372354 0.64781743
0000c0 28 c6 6b bf 56 59 4d bf ac 59 ce be 53 39 85 38
       -0.9209924 -0.8021444 -0.4030279 6.352612e-05
0000d0 93 ed 90 bd 08 e1 4e bf 78 c2 1f bf 4c 34 13 bf
       -0.07076564 -0.8081212 -0.6240611 -0.57501674
0000e0 d1 e3 8b bd 7a db d4 3a d2 0a 4e bf e6 62 4d bf
       -0.06830562 0.0016239726 -0.8048526 -0.8022903
0000f0 d9 5c ce be 49 36 d8 3e 39 5a 56 be 8e 74 d3 bc
       -0.40305212 0.42228916 -0.20932855 -0.025812414
000100 d3 89 07 3f 33 5c 4e bf 4a d6 c1 be df 26 f6 be
       0.5294468 -0.80609435 -0.37858802 -0.4807653
000110 33 3c e2 be f1 9a 41 bf a0 8b d7 be 55 c6 e1 be
       -0.44186553 -0.75627047 -0.42098713 -0.44096628
000120 d7 1c c3 be 31 aa dd be 46 fd 07 3b 3f 64 ce 3e
       -0.3810794 -0.43293908 0.0020750328 0.40310857
000130 2d 5e df be bf 6b c9 3e bd 5e ce 3e fb 92 2f bf
       -0.43626538 0.39340016 0.40306655 -0.6858365
000140 2e 30 ce be ae f2 b8 3e 6c 88 ee bd 22 75 73 bd
       -0.40271133 0.3612265 -0.11647114 -0.05943788
000150 3f 78 4e bf f9 1b cf be cd ca 61 3e 68 65 ce be
       -0.8065223 -0.4045103 0.22050019 -0.40311742
000160 84 3b 24 bf c5 b9 01 3f 74 15 a9 be 5d 25 aa be
       -0.64153314 0.50674087 -0.3302418 -0.3323163
000170 4f 5d 4d be c6 83 4f be fb 67 45 3f 07 f4 5e be
       -0.20055126 -0.20265111 0.77111787 -0.21772777
000180 ca 57 41 bf ab f9 2a 3f 03 78 4e 3f 9f 91 fa be
       -0.7552458 0.66787213 0.80651873 -0.48939225
000190 56 29 c9 be 71 1e 2d 3f 6c 03 6e 3d d4 58 42 bf
       -0.3928935 0.67624575 0.058108732 -0.7591679
0001a0 fb d7 65 be fd 5f 02 3e b5 c5 09 bd b1 c8 18 bf
       -0.22445671 0.12731929 -0.033635814 -0.5968123
0001b0 57 c4 1b bf 49 3e 70 3f d4 77 ad 3e 21 91 4e bf
       -0.60846466 0.9384504 0.33880484 -0.806902
0001c0 2a 8d a6 be c4 f5 5f 3e 3d 26 b8 be bd cf b0 3e
       -0.32529575 0.21871096 -0.35966673 0.34533492
0001d0 b7 5d ce be 81 3a 89 3e 5d 7c 14 bf 40 87 00 be
       -0.40305874 0.26802447 -0.58002263 -0.12551594
0001e0 00 e1 dc be d4 5e ce 3e a0 98 49 3e 99 3e ce 3e
       -0.4314041 0.40306723 0.19687128 0.40282133
0001f0 19 38 ba bd 69 a6 95 bf d3 b0 99 3e de 1b 7b bf
       -0.09092731 -1.1691409 0.3001772 -0.98089397
000200 7b 0c 19 3f aa 1c 4f 3e a4 64 3a bf 34 40 a7 be
       0.5978467 0.20225778 -0.72809815 -0.3266617
000210 70 5e 4e bf f4 f2 56 bf da 85 33 3e 05 c0 41 bf
       -0.8061285 -0.8396447 0.17531529 -0.75683624
000220 d5 1b cf 3e a0 26 d4 3e aa 0c 52 bd 01 2d f4 be
       0.40450922 0.4143572 -0.05128161 -0.47690585
000230 03 46 d6 be 97 9c 71 be 05 58 e2 bd cf 4f d0 3e
       -0.4185029 -0.2359489 -0.11051945 0.4068589
000240 e5 5e ce 3e 5c bf f1 3e 4b 27 c6 3e b2 02 9e be
       0.40306774 0.47216308 0.38701853 -0.3086143
000250 63 5e 94 3e fd e4 76 3e 7c 48 d4 3e a1 1e 17 3f
       0.2897826 0.2411079 0.4146155 0.5903111
000260 46 28 50 3e 8b ba a1 bd 25 ee 20 bf f9 5d 4e bf
       0.20327863 -0.078969084 -0.6286338 -0.8061214
000270 b7 0b 40 bf 48 8f d9 be 84 8e 73 3e 90 3b 44 3e
       -0.75017875 -0.42492127 0.23784834 0.19163346
000280 5a 86 1d bf c8 63 c4 3e b4 51 82 3d bb 7c 50 bc
       -0.6153313 0.38357377 0.0636324 -0.012725051
000290 da cf 51 bf 24 8c d1 be 5a ad d1 be 5e 27 8e 3e
       -0.8195778 -0.4092723 -0.4095257 0.2776441
0002a0 0d 49 2e 3f b5 70 69 be 17 75 da bd 42 5d 4e be
       0.68080217 -0.227969 -0.10666864 -0.20152763
0002b0 5f 0a ce be d7 a4 e0 be e8 99 98 be e7 a0 16 bf
       -0.40242288 -0.43875763 -0.2980492 -0.5883927
0002c0 2c fe 33 bf 33 e9 cc 3e c1 6a 80 be 9f 65 ce be
       -0.7030971 0.40021667 -0.25081447 -0.40311906
0002d0 78 5e 4e be 7d b8 44 bf b9 51 af be 9b 02 15 bf
       -0.20153224 -0.76844007 -0.34242037 -0.582071
0002e0 e9 4f 49 3e 48 ca c2 be 4e ac d3 be 69 24 10 bf
       0.1965939 -0.38044953 -0.41342396 -0.5630556
0002f0 b0 3e 13 3f b2 6d 6a be 47 48 43 3f 0f 91 09 bf
       0.5751753 -0.22893408 0.7628216 -0.53736967
000300 fa 61 ce be 69 b1 82 be f7 8e 77 bd 66 3e 69 be
       -0.40309125 -0.25525978 -0.060439076 -0.2277771
000310 6d c5 ec be 20 5e 33 bd 3b b3 e9 3e df 3f 2b 3f
       -0.46244374 -0.043790936 0.45644554 0.66894335
000320 03 4b 2b bf 25 50 70 3d aa 47 fd bc c5 b2 c3 bd
       -0.66911334 0.05867018 -0.030917961 -0.09555582
000330 39 23 2c bf af 7c ce be 01 b7 cf be 17 73 b5 3e
       -0.67241246 -0.403295 -0.40569308 0.3543937
000340 40 f3 bf bd d3 fa 33 3e 1c 40 da 3e d1 77 17 bf
       -0.09372568 0.1757615 0.42627037 -0.591672
000350 dd d7 99 be fa e5 0c be 8f d3 b3 be 80 5e 4e be
       -0.30047503 -0.13759604 -0.35122344 -0.20153236
000360 28 06 e5 3e ac 5e ce 3e 53 c8 4e bf ae ab 4d 3f
       0.4473126 0.40306604 -0.8077442 0.8034009
000370 2d 69 4c 3d 4c 5a e4 3e 8c 5a ce be eb ec 0a bf
       0.04990499 0.4460014 -0.40303457 -0.5426776
000380 1f 7d 05 3f 93 57 06 bf 21 db c5 be 33 05 ac 3e
       0.52144045 -0.5247738 -0.38643745 0.33597717
000390 a8 bd 64 bf 3e 1f be 3e 66 a9 da 3c 83 5e ce be
       -0.8935189 0.3713321 0.026692104 -0.40306482
0003a0 ba ed 99 bd cf 42 6c be 1b ad 1c bd 73 64 db bd
       -0.07516046 -0.2307236 -0.038251024 -0.107125185
0003b0 3f e2 4d bf db 01 4e be 1f e2 29 bf 7b 89 18 bf
       -0.8042335 -0.20117895 -0.6636066 -0.5958478
0003c0 3b c8 e9 bd 3d ea c9 be 77 fc a6 3e 3b 86 07 bc
       -0.11415144 -0.39436522 0.3261449 -0.008271749
0003d0 3f e2 c7 be 6a d7 dd 3d 81 92 6f be b5 78 43 bf
       -0.390398 0.108321026 -0.2339573 -0.7635606
0003e0 4e 6c 4e 3f 0b bd 07 3d 85 b9 24 bf e5 69 3c 3f
       0.8063401 0.03313927 -0.6434558 0.7359908
0003f0 c0 27 eb 3e ab 58 0d bf 2f a6 19 3e 24 a7 62 be
       0.45928764 -0.5521342 0.150048 -0.22134072
