modeldata/a21_Opt12k_cos_mixed_Aug_BitMnist_PerTensor_4bitlog_RMS_width64_64_64_lr0.001_decay0.1_stepsize10_bs128_epochs60.pth (torch, 103701 bytes, 4 tensors)

fc1.weight f4 [64, 256]
00000000: 9681 a93d 08af 9b3d bfc8 f3bc 7590 683c
00000010: bf2a cdbc 87ac e3bc 9ec5 143c 5769 d13d
00000020: af73 a93c 1070 203c 7916 f5bc 1068 bc3c
00000030: e63e 863c 00f3 2fbd af32 17bd 76b9 2e3d
00000040: 240a 3fbb 3b47 fe3b 8683 233d 7aab bfbc
00000050: ab87 dc3c 2ecc b1b9 9475 fb3c 930d 4a3e
00000060: f4b7 473e 12eb 593e b81f dd3d 65f4 17bc
00000070: 8f2f 80bd d589 b63a 7a07 d63d 6901 293d
00000080: d889 64bb f6a2 b43d 6b99 44bd 6522 38bc
00000090: cb30 0f3d 176c f73c f512 cf3d e90e 3b3e
000000a0: 2857 263e 29ec 0e3d 2879 363e cda2 153d
000000b0: 684c 42be 6af1 8bbc 100b ac3d 8502 16bd
000000c0: 2a3b 763d 6807 863d 8e91 7cbb 2018 76bd
000000d0: 6430 f2bc 258d 08bd caaa 37be 4c7d 61bc
000000e0: 9102 623d 4f74 7c3d 1337 c93d 6a12 23be
000000f0: ec96 25bd c603 9e3c e1b4 29bd 1d45 563d
00000100: 8f6c 98bc a2d6 84bc a60c ca3b 419f aa3d
00000110: a7a9 703d ccd3 0dbd d1d7 c1bd 32c6 773d
00000120: ecdd 523d 5967 44ba ce89 c83d a12b 48be
00000130: 3ba6 ecbd fd29 a8bc f997 aabc aa3e aabc
00000140: 262f 8b3d 756a 493c ecfb 2a3d 5cf8 c13d
00000150: 9636 ec3d 8a22 9e3d 340f 6a3e 6a57 583e
00000160: 55fd 2c3e 4cbf ecbd 052d c0bd 1362 7fbd
00000170: 0725 c1bd a88d 5cbd 9ee5 38ba dda9 62bc
00000180: 8b6d c63c 33f6 06bd 646e 6abd e122 473d
00000190: b7c1 833d ff4b e93d fd7b 303e d8eb 693e
000001a0: 99ac ba3e 65f8 9cbd 2a5e 8cbe 258b cdbd
000001b0: 027a f2bd 27c6 4fbd 56f8 403c 7962 6abd
000001c0: 0f98 af3c 5243 103d 6896 513c f08c e13d
000001d0: d49e 8f3d 8ac1 5b3b 9a99 603d dead 143e
000001e0: 750c 913e 5f45 07be 5e4a 36bf b4a1 99be
000001f0: 0ba7 2abe f884 59be 1fbb e8bd 532d 7fbd
00000200: 0a92 d4bc e028 893d ee66 0b3e 1c27 1b3e
00000210: 432b 873d c199 ddbc d5ea dabd 261a 9e3d
00000220: f70f 543e 1b0d 0abe 50e6 64bf d995 7cbe
00000230: a853 6abe a6bc 0bbe 0847 81bd 68a0 1bbc
00000240: 0bde 863d fe23 2b3e 22db 043e 34b9 003e
00000250: 524a 643e 191c 343e eee4 cfbd c3df 06bd
00000260: 7892 083e b114 e6be 3064 80bf d0fa 74be
00000270: 8e0d 9fbe 5f93 97be b33f 07be c0de febd
00000280: c928 bc3d 8206 5c3e 77d3 4e3e b447 8f3d
00000290: 1eee db3d ffa9 6bba 5985 1fbe a3fb c4bc
000002a0: 55ea b9bd 1494 06bf 7a0c 15bf 87fc a6be
000002b0: fa6b 21be 1ac8 82be a7b5 41be 5376 efbd
000002c0: 147c f23c 2d0f 8f3d 92bd c53d 1c1f 41bc
000002d0: fefc e4bd 3ff5 14be ccc0 c9bd 8cb6 8fbc
000002e0: a226 fc3c 2c83 773c 8c55 f4bd c242 47be
000002f0: 5e03 48be 64ae 3cbe 8b40 37be 3be3 a0bc
00000300: 7b01 993b a496 63bc 589a 593d 9f5e 823c
00000310: 5c9d dd3c ad81 a9bc 81cf 91bc d405 07bd
00000320: 1494 fc3c 4ab9 7c3c 9721 a13d f095 b6bd
00000330: d470 34be 8d83 33be 5c16 dbbd 7d00 92bd
00000340: 2312 973d 2bbb ba3c 4604 8dbb b0e6 babb
00000350: c2af b83d 9b3f 2a3d d043 453c e8b4 f8bc
00000360: ad21 6cbb 2480 abbd a2fa 1f3e fccc 04be
00000370: 7a79 0dbe 81db d9bd 6c19 cdbc 8c7c bfbc
00000380: beca 81bb 16d1 a5bb b14d 3cbd 5a5c e1bb
00000390: a1cd a63d b1bf 893d e527 943d 3ae5 90bc
000003a0: fb56 343d fcbc 653d f4b1 613d a29e 913d
000003b0: c119 82bd 4d20 20bd 61a8 2dbc 61d1 413d
000003c0: 0dc5 5dbc f797 4abc c6b6 ecbc 51df d6bc
000003d0: 1360 263c bb1e 15bd 14f9 d8bd 0010 503d
000003e0: 0393 413d 2213 eb3d 7e2c 903d 0181 423d
000003f0: 1816 a6bd f516 91bb f48c 813d 6985 d5bc
0.0827667 0.07601744 -0.02975881 0.0141945975 -0.025044797 -0.027792228 0.009080319 0.1022517
0.020685045 0.009792343 -0.029917942 0.02299884 0.016387414 -0.042956352 -0.03691357 0.042657338
-0.0029150331 0.007759956 0.039920352 -0.023397196 0.02692016 -0.00033912197 0.030695714 0.1973174
0.19503766 0.21281078 0.107970655 -0.009274577 -0.06259071 0.0013926575 0.10450645 0.04126111
-0.00348722 0.08820145 -0.047997873 -0.011238669 0.034958642 0.030202908 0.10111038 0.18267407
0.16244185 0.03489319 0.17819655 0.036532212 -0.18974459 -0.017082889 0.084005475 -0.036623497
0.060115017 0.065443814 -0.0038538906 -0.0600816 -0.02956409 -0.03333773 -0.17936245 -0.013762783
0.05517823 0.061634358 0.09824958 -0.15924993 -0.040427133 0.019288909 -0.041432265 0.052312005
-0.018606452 -0.016215626 0.0061660586 0.083311565 0.058755543 -0.034625813 -0.09464992 0.06049175
0.051481172 -0.00074922066 0.09791909 -0.19547893 -0.115551434 -0.020527834 -0.02082442 -0.020781834
0.06796102 0.012293448 0.041744158 0.09471199 0.11533849 0.077214316 0.22857362 0.21127096
0.16893514 -0.115599245 -0.09383587 -0.06234939 -0.094308905 -0.05384603 -0.00070532586 -0.013834444
0.024222156 -0.032949638 -0.057234183 0.048617247 0.064334325 0.11391448 0.17234798 0.22843874
0.36459807 -0.07664565 -0.2741559 -0.10036305 -0.118396774 -0.050726082 0.011777958 -0.057222817
0.021434812 0.03522045 0.012792207 0.1101321 0.07012716 0.0033532106 0.054833986 0.1451945
0.28329816 -0.13210057 -0.71207225 -0.30006182 -0.16665284 -0.2124213 -0.113638155 -0.062299084
-0.025948543 0.066972494 0.13613483 0.15151638 0.066000484 -0.027050855 -0.10689322 0.07719831
0.20709215 -0.13481562 -0.8941393 -0.24666537 -0.22883475 -0.13646182 -0.06312376 -0.009498693
0.0658532 0.16712949 0.12974218 0.1257065 0.22293976 0.17588843 -0.10151087 -0.03292824
0.13337123 -0.4493766 -1.0030575 -0.23923802 -0.3106503 -0.29604623 -0.13207893 -0.1244483
0.09187467 0.21486858 0.20197855 0.06996098 0.107387766 -0.000898987 -0.15578212 -0.024045771
-0.090778984 -0.525697 -0.5822216 -0.32614538 -0.15763846 -0.2554329 -0.18916951 -0.116924904
0.02960018 0.069853164 0.09655298 -0.011787202 -0.11181067 -0.14546679 -0.09851226 -0.0175431
0.03078014 0.015106957 -0.11930379 -0.1945906 -0.19532534 -0.184259 -0.17895715 -0.019639602
0.004669366 -0.013890896 0.05312571 0.01591426 0.027052574 -0.020691717 -0.01779914 -0.032964543
0.030832328 0.015425036 0.07867735 -0.08915317 -0.17621166 -0.17530651 -0.10697624 -0.071289994
0.07376506 0.022794327 -0.004303488 -0.0057037696 0.09017898 0.041564565 0.012040094 -0.0303597
-0.0036030815 -0.0837405 0.15622953 -0.1296882 -0.13815871 -0.1063757 -0.025036536 -0.023374818
-0.0039609363 -0.0050603254 -0.04597253 -0.0068774642 0.08144689 0.06726015 0.07234172 -0.017687429
0.044028264 0.056088433 0.05510135 0.07110335 -0.063525684 -0.039093304 -0.010599227 0.04731882
-0.01353575 -0.012365333 -0.028895747 -0.026229532 0.010154742 -0.03640626 -0.10594383 0.05079651
0.047259342 0.11478259 0.07039736 0.04748631 -0.08109683 -0.0044277855 0.06325713 -0.026064591

fc2.weight f4 [64, 64]
00000000: 645c b9bd 46db 023b 1484 8dbe 264e a13e
00000010: e9f4 853c 9049 e3bd 4deb 02be 21c2 9e3d
00000020: dcbd 313e cd8b cd3d 9f05 a3be 9b89 713d
00000030: 7520 993d 4cc5 5d3e 687f ac3a 1a1e 9bbd
00000040: 1096 b63e 6609 f4bd a6cb a83d 724e c13d
00000050: 6ff8 973e 059e 473e 1bbf 293e 80a8 563e
00000060: 2dba 013d 9cd1 913a 7344 a63d b2cf 85bc
00000070: 765c 7e3e 8a2d 293e f5f8 1c3d 057d adbd
00000080: b681 e93d d3fd d73e 68e5 23bd ae15 5c3d
00000090: 0512 abbe d920 17bf cebb d7bd d1f7 e73e
000000a0: d12e 033e 5603 8a3a 8bdc b0be d901 f23c
000000b0: 5bb0 29be 5bdc 953e 1cb3 5ebe 9549 6abe
000000c0: 97a2 283e f1b6 37bc a4ce edbd a10c 3b3e
000000d0: 6264 013e 2db5 25be 4ffd 5bbd 1456 62be
000000e0: 7b53 3f3c eb4e db3b 0e92 7d3e 7219 07bf
000000f0: f759 c03d fc6d c8be 9c61 da3d e3db ee39
00000100: be5a 083e 7a0a 4ebe 22cb fabc 8a66 8c3e
00000110: e566 803e 71b7 75be ec74 a3be aa97 5fbe
00000120: 5253 4fbc 785f 4f3d 7e5d a13c 5429 d83c
00000130: 8b25 983d 228b 303e 5cbf 553e da91 09be
00000140: c5d0 6ebe be4c 9bbd 5e86 16be f6b4 acbd
00000150: dfa6 29be 5a12 a03d 1ff4 aebe 550a 883d
00000160: 6aaa 903d 2176 ae3d 0c48 253e e12e 7f3e
00000170: d861 e43d cda0 12be 2581 493e 6b27 6abe
00000180: 912b 00bf 128b 5b3b 6847 4d3e aac3 82be
00000190: da7d cdbe db9f 98bd 2bfc b53d d235 413e
000001a0: 445b 03bf 1c8e a83d 7c6d b0be 6b51 a43d
000001b0: 0fd3 cd3d 6db8 293e 4aff 5cbb 1557 763c
000001c0: f27d 28be d8ae a53e e0fc e13e f957 243e
000001d0: 2fc4 7ebe e8cd 3f3e 0a43 a63d 81b7 923e
000001e0: 89bb a13d f170 e93b a461 743e a3f6 3bbe
000001f0: 1613 7dbe 5819 03bf a1ea 68bd 4091 ae3d
00000200: 0d80 083b fc6c eabd ea14 a93d 8f11 e93d
00000210: 9e72 acbd a4b9 293e f3d1 f0be 1835 453e
00000220: 36e9 06bf 68a9 173d 50a6 b33d f009 ac3d
00000230: 3e07 88be c181 aa3e c08b 31be 2ff9 e0bc
00000240: 97c0 18be 4af8 113e f55e c53d 4c40 7d3d
00000250: d621 44be 4973 60bd 5429 8cbd 838a d4bb
00000260: 8b62 25be 48e0 e9be e8e2 663e 1126 583e
00000270: 5c59 26be 2f82 fb3d 3ff7 51be 3b97 7e3e
00000280: 45a5 963d 698a 7e3e 63e7 353e 7a92 503d
00000290: f57c 78be 2540 a23d cf4b de3d 6199 3dbd
000002a0: 5cee aabe 06f2 b33c be11 8c3d a89b 253e
000002b0: 2b77 7ebe 3b26 33be e629 d43e 53a8 a33d
000002c0: 5ef1 933e be79 743e ae38 57bd 7b2e 09be
000002d0: 9730 0d3e 794e 41bc 7e38 27be 413b 973e
000002e0: b836 0abf 982a 153e 9587 5b3e be37 aabe
000002f0: 6786 b5bd 1b28 a53e 7fd3 ed3c 951b 63bd
00000300: 69f5 a8bd 013a 7f3e c8d1 e9bb 73c2 f83e
00000310: 4421 a33d c9ae e9bd c746 513e fb81 513d
00000320: 6ab4 d03e 23c5 d93e 7100 c4bd d662 2d3e
00000330: 7065 ab3d a966 a13e 43d0 443d 2a4e 65be
00000340: a54d f2be 2808 25be 6851 01bf 7420 d63d
00000350: 3d0e 283e 28c9 ac3d 539a c43c 0dd9 293f
00000360: e11c d4be e1dc 56bd 17ae 8bbc e61a 4ebe
00000370: 21e9 813e bd6e 7c3e 1a7f 183e 0c76 61be
00000380: b583 a9bd 2f9a 7ebe 9162 843d 8bd8 f7bd
00000390: 5f3a a9be 10ac d9be 0332 0dbe 4133 003f
000003a0: bf59 123d d54c f5ba e09d c03c 1940 56be
000003b0: de9c 393e 84ba 3d3e 2b78 c33d 1868 3fbe
000003c0: aee5 da3d 78e3 90bd a86c e63d 6035 6abb
000003d0: 5729 7d3e 505a 3abe 3b39 293e 6179 1cba
000003e0: 6719 163c 62bd 293e 31de 80be a8d6 13bd
000003f0: 6cf5 773e aaf4 f33d c0a5 3b3c 651d 2dbe
-0.09050825 0.0019967123 -0.2763983 0.31504935 0.016352134 -0.11098015 -0.12785073 0.07751871
0.17357582 0.100364305 -0.31840226 0.05896912 0.07476894 0.21657294 0.0013160529 -0.07574101
0.35661364 -0.11915855 0.08241968 0.094387904 0.29681727 0.19493873 0.16576807 0.20962715
0.03167169 0.001112509 0.081185244 -0.016334388 0.24839959 0.16521278 0.03832336 -0.08471111
0.114016935 0.4218584 -0.0400137 0.053731613 -0.33412185 -0.59034497 -0.10533868 0.45306256
0.12810828 0.0010529559 -0.3454326 0.029541897 -0.1657118 0.2926968 -0.21748012 -0.22879632
0.16468273 -0.01121305 -0.11611679 0.18266536 0.12635949 -0.16182394 -0.05370837 -0.22103149
0.011677618 0.0066927574 0.24762747 -0.527732 0.093921594 -0.3914641 0.10663149 0.00045558726
0.13315865 -0.20121184 -0.03061444 0.2742198 0.25078502 -0.23995759 -0.31925142 -0.21835199
-0.012654142 0.050628155 0.0196979 0.026386894 0.07429036 0.17240575 0.20873779 -0.13434544
-0.23321827 -0.07582997 -0.14699695 -0.08432953 -0.16567563 0.07816 -0.34170625 0.06642596
0.07063754 0.08518625 0.16140765 0.24920227 0.11151475 -0.14319153 0.19678171 -0.228666
-0.5006648 0.003349964 0.2004677 -0.25539905 -0.4013508 -0.07452365 0.08885988 0.18868187
-0.51311135 0.0823023 -0.3445853 0.08023342 0.10050022 0.16574259 -0.00337215 0.01503541
-0.16454294 0.32359958 0.4413824 0.16049184 -0.24879526 0.18730891 0.081182554 0.28655627
0.078970976 0.0071240594 0.23865372 -0.18355803 -0.24714312 -0.51210546 -0.056864385 0.08523798
0.0020828277 -0.11446568 0.08255942 0.11380302 -0.08420299 0.16574723 -0.4703518 0.19258535
-0.526996 0.037026793 0.08771956 0.08400333 -0.26568025 0.3330212 -0.17338467 -0.02746257
-0.14917217 0.14254871 0.09637252 0.061828896 -0.19153532 -0.054797444 -0.0684382 -0.0064862384
-0.16150872 -0.45678926 0.22547495 0.21108271 -0.16245025 0.1228069 -0.20504473 0.24862377
0.073557414 0.24857487 0.17764048 0.05092094 -0.24266417 0.07922391 0.10854303 -0.04628885
-0.3338498 0.021965992 0.068393216 0.1617266 -0.24850146 -0.17495053 0.41438216 0.0799109
0.28895086 0.23874566 -0.05254429 -0.13396637 0.13788067 -0.0117984945 -0.16330144 0.29537395
-0.53989744 0.1456703 0.21438439 -0.33245653 -0.08863526 0.3225716 0.029031513 -0.055446226
-0.08249933 0.2492447 -0.0071356036 0.48585853 0.07965329 -0.11410291 0.20437156 0.05114935
0.40762645 0.42533216 -0.09570397 0.16932234 0.08368957 0.31523636 0.048050176 -0.22393098
-0.47324863 -0.16116393 -0.5051484 0.10455409 0.16411681 0.08436805 0.023999369 0.6634682
-0.41428283 -0.05245674 -0.017050786 -0.20127448 0.25373176 0.24651618 0.14892235 -0.22017688
-0.08277074 -0.24863504 0.064641126 -0.12101849 -0.33052346 -0.42514086 -0.13788609 0.5007821
0.03573012 -0.0018714914 0.02351278 -0.20922889 0.18126246 0.18528181 0.095444046 -0.18692052
0.10688339 -0.07074636 0.11251193 -0.003573738 0.24722801 -0.18198514 0.16525738 -0.00059690146
0.00916133 0.1657615 -0.2516952 -0.036093384 0.24214715 0.119119 0.011453092 -0.16905744

fc3.weight f4 [64, 64]
00000000: 3d2b 9fbd 0851 9e3d b93d 99bd 3de9 cdbe
00000010: cbef 93bd 27b7 463e c8f9 9a3e 3237 a4be
00000020: cdfc cfbe 5a46 283e 4de5 9ebe 06f1 ebbc
00000030: 7c56 ec3d 6c33 713e d71d 13bd 3ab1 cdbc
00000040: 06bd a0be 8c14 bcbe 6cb8 1cbb ade0 c13c
00000050: a80c 85be bb05 953d 8f4a a2be 7e99 093d
00000060: 7a2b 763d dea9 063e d9aa 66bd 7adc 48bc
00000070: 0a34 1cbe aaff a93d 75aa 09bf 147a bbbd
00000080: ffc8 59be b2d3 a03d 1c8d 02be 0542 83be
00000090: 324b cd3e 21a4 153e 0719 b1be 7c4a 0a3e
000000a0: 6ad1 e6bd cf70 46bd a7b3 983e a863 2b3e
000000b0: 19c9 523d 00d1 233c f7fb be3e 305b 8b3c
000000c0: 9283 2d3d 41c5 dfbc bfb6 d8be 132a e53d
000000d0: beda 5e3e 3ee4 3cbe 69b5 143e 6c02 9f3e
000000e0: 9bc2 37bd 6466 1c3e 120c 8d3d 975a db3c
000000f0: 6da5 0ebe 905a 1cbe 15b5 1e3e e57a b0be
00000100: b4dc 9b3e d3aa e9b8 3bec 5ebe 7979 1f3e
00000110: c228 7839 14a0 39bb dafa 35bd 7375 54bd
00000120: 289b 9fbe 487e 743e 0644 24be 6455 a3be
00000130: de9a 1cbe ce79 afbd c341 1d3e 84ec 6abe
00000140: 7eae 593e 391d 68be 4044 903b 7782 1e3c
00000150: 6516 97be a04a 213d 902b 723e 6298 98bd
00000160: 179a 9e3c e866 92bc fcaf 29be 0fb1 c7be
00000170: 09f8 9fbe 8c8e 95bd 6765 29be b645 9f3e
00000180: 46fe 0dbe 35c1 50bf f3e6 20be f047 a2bd
00000190: 0403 743e cac2 fa3d 1d66 9b3c 99f3 893d
000001a0: 428e 1cbe 8aed 783e 4887 70be 183f 4c3c
000001b0: cfbb 753e 459c 903c e2d2 1e3e c1a0 e03c
000001c0: 6322 1abe cf66 493e e533 10be 6734 203e
000001d0: 1802 53be 1815 263e 46ae 783d f7da 2bbc
000001e0: f4ab 433e 25bc c93c 5fb4 9dbe 55b0 c1bc
000001f0: be78 16be 4359 6ebe 8291 9ebe 0ce7 4a3e
00000200: 6bba ec3c 4761 6a3e 07f6 6f3e 661f 47be
00000210: 27a8 1e3e 6b23 a2be 0dfa 9ebd c181 d8bd
00000220: b866 cf3c e5a0 ccbe e64e 843d 8354 133e
00000230: 7800 1c3e b62b 0fbe b865 883e 5490 713e
00000240: 2efe 0dbe bf4d 953e 1e0f e6be e1ad 913a
00000250: 2d8a a6be 5237 ecbd 1a09 a4bd 090f 263e
00000260: 7a62 923d 97a7 a3be 5df3 6cbc add1 263e
00000270: 861f e73d 1211 b9bd 2d71 0a3e 4eea 7c3c
00000280: 3a17 eabd e2d8 3ebe 3e7b 0cbe 33b0 963d
00000290: 2a50 183e 5013 8fbd b484 9d3e 622f 083b
000002a0: 48e8 7abb 0f45 97bd 341e 29be 6b9f 3c3e
000002b0: a5c3 51bc 3156 6f3e 2c85 b8be ebaf 503e
000002c0: 8c4c 5d3e ba89 8abd ad58 a0bd ff63 d03c
000002d0: 619c f93d 74a7 56be 94a7 97bd 2f51 303e
000002e0: ba7d f7be fb90 303e 2502 bcbe 8e5b b53e
000002f0: 7aa8 af3e 24eb 2cbe bcd0 9dbd c0bc 19be
00000300: 94f1 2f3e 5a4e adbe 17a3 e63d 24c3 d0bd
00000310: 0327 82be 3039 9dbd 566b 87bd dbbb 793d
00000320: 1ca2 153e 68f3 b7b9 ea17 1fbe 0520 17be
00000330: 340b 31b9 5d1f 153e bc1f c4be c352 1d3e
00000340: 058f 233d d99e a2bd d33d 81bc cfde 9e3d
00000350: 6806 13bd 4ab4 833d 613e 873d 5cda 76be
00000360: 042c 56be e159 c4bd 0899 54bc 9086 c5bc
00000370: 0670 53bd 2fa2 9d3d 65c9 d7be a2ef de3c
00000380: 983c 213e ac81 1ebe 3454 b8bd bb7c 203e
00000390: 24e9 93be 1cb1 86be 5612 0abf 5627 e93d
000003a0: 48d1 9e3e a8e2 92bd e620 183d 21c7 44be
000003b0: 586f 85be 0200 d6bd dee9 24be 7913 adbd
000003c0: b934 bdbd 240a 0b39 e254 123e fe01 ccbd
000003d0: 630d 1a3e eb9d 8a3e 2882 463e 9d8b 1e3e
000003e0: 72e9 1d3e 8be5 0bbf d216 9f3e d3f1 953c
000003f0: 6276 8c3e 6076 1b3e 685c d83c 977b 42be
-0.07771919 0.07730299 -0.07482476 -0.4021701 -0.07223471 0.19405805 0.30268693 -0.3207336
-0.4062256 0.16433087 -0.31034318 -0.028801452 0.11539933 0.23554772 -0.03591713 -0.025108922
-0.31394213 -0.36734426 -0.0023913635 0.023666704 -0.25986218 0.072764836 -0.3169751 0.033593647
0.060100056 0.13150737 -0.056315277 -0.012259597 -0.15254226 0.08300717 -0.5377572 -0.09154144
-0.2126808 0.07852878 -0.12749141 -0.25636306 0.40096432 0.14613391 -0.34589407 0.13504976
-0.11270411 -0.048447426 0.29824564 0.16737235 0.051461313 0.00999856 0.3730161 0.017011255
0.042361803 -0.027315738 -0.42326924 0.11189666 0.21763131 -0.18446442 0.14522327 0.31056535
-0.044863325 0.15273434 0.06887068 0.026776595 -0.13930292 -0.15268922 0.15498765 -0.3446876
0.3044182 -0.00011142124 -0.21769802 0.15573682 0.00023666307 -0.0028324174 -0.044428684 -0.05186982
-0.31173062 0.23876297 -0.16041574 -0.31901085 -0.15293452 -0.08568154 0.15357117 -0.22941786
0.2125797 -0.22667398 0.0044026673 0.00967466 -0.29509273 0.03937781 0.2364943 -0.0745094
0.019360585 -0.017871335 -0.16571039 -0.39002272 -0.31243923 -0.07302579 -0.16542588 0.31107873
-0.13866529 -0.8154481 -0.157131 -0.07923877 0.23829275 0.12244184 0.01896959 0.06735916
-0.15288642 0.24309364 -0.23489106 0.012466215 0.23997425 0.01765264 0.15510133 0.027420403
-0.1505218 0.19668125 -0.14082296 0.1564499 -0.20606267 0.16218984 0.060713075 -0.010489217
0.19108564 0.024625847 -0.30801675 -0.023643652 -0.14694497 -0.23276238 -0.3097039 0.198147
0.028897485 0.22888671 0.23433696 -0.19445571 0.15493833 -0.31667647 -0.07762537 -0.105716236
0.025317535 -0.39966503 0.06460361 0.14387707 0.15234554 -0.13981518 0.26640105 0.23590213
-0.13866493 0.29160878 -0.44933408 0.0011114442 -0.32527295 -0.11533989 -0.080095485 0.16216673
0.07147689 -0.31963798 -0.014462319 0.16290922 0.112853095 -0.09036459 0.13519736 0.015436722
-0.11430211 -0.18637422 -0.13718888 0.07357826 0.1487433 -0.069861054 0.30765307 0.0020780195
-0.0038285423 -0.07386219 -0.16515428 0.18420188 -0.012802993 0.23372723 -0.36039102 0.20379607
0.21611232 -0.067645505 -0.078294136 0.025438307 0.1218803 -0.20962316 -0.0740501 0.17218469
-0.4833811 0.17242806 -0.36720386 0.35421413 0.34308225 -0.16886574 -0.077058285 -0.15013409
0.17181998 -0.3384884 0.11261576 -0.1019347 -0.2542039 -0.07676923 -0.066122696 0.06097017
0.14612621 -0.00035085832 -0.15536466 -0.14758308 -0.00016884209 0.14562745 -0.3830546 0.15363602
0.039931316 -0.07940454 -0.01577655 0.07757341 -0.03589478 0.06430872 0.06603695 -0.24106735
-0.20915228 -0.095874555 -0.012975939 -0.024112016 -0.051620506 0.0769695 -0.4214584 0.027213875
0.15745771 -0.15479153 -0.090004355 0.15672581 -0.2888881 -0.26307 -0.5393423 0.11384456
0.31019044 -0.071721375 0.03714075 -0.19216587 -0.2606151 -0.1044922 -0.16104838 -0.0845098
-0.09238572 0.0001325985 0.14290193 -0.099613175 0.15044169 0.27073607 0.19385588 0.15482946
0.15421084 -0.5464713 0.31072098 0.018303787 0.2743407 0.15181875 0.02641125 -0.18992458

fcl.weight f4 [10, 64]
00000000: 2f8a cfbe 9f31 92be b4c0 86bf 08b1 b53e
00000010: 8a60 cfbe fe7e 9cbe 4a12 2abf 4183 d5bd
00000020: 4116 51bf 90ff 863e c415 503f f477 69bf
00000030: 2535 98ba 7bb4 343d b779 d1be e0cc ed3c
00000040: dc86 42bf 9b18 d13e 6c35 08be f2e7 babe
00000050: 2605 11be a04b cebe caaa 58be fb39 0cbf
00000060: a79f 9ebe 9232 8fbe ea95 9dbd 3891 febe
00000070: 9818 51bf 8415 db3d 0cbc a7be 8c11 513f
00000080: f1b9 55bf eb19 d13d 7c18 933e 6dda d0be
00000090: d4ec 54be 71ad 113f fba5 6e3e 2b37 e6be
000000a0: 00cb 523f bb55 0abf 8d1d 51bf 0039 513f
000000b0: e99b b43e 32c9 57bf cd3f dfbe bae0 4d3f
000000c0: 7fb0 6abe 15a8 a8be 79fe 363e 50c9 48bf
000000d0: 4985 00bf 74bd 1f3f d4cf ca3e 6b26 5e3e
000000e0: afc6 4dbf fd38 a4be 54eb 7e3e 9ab4 1ebf
000000f0: a242 5cbf c97a 613e 340b 0fbf a6cd d0be
00000100: b609 843e 0b8e a3be a01d 54be d75b 51bf
00000110: 7dcf d4be be2a 51bd b547 1b3f db21 d8be
00000120: 93af 2d3f e0f8 53bf 6de1 40bf 1cfc 89be
00000130: 81d3 97be b262 94be cca6 36bf 8059 d1be
00000140: c0e1 a3be f17a 4abf 56c4 243f d6f6 cb3e
00000150: 8ee5 8f3e c551 0e3f d7fd c5be 7695 233f
00000160: dd94 6cbd c43a 4e3d 286f aabe 6f6e 343e
00000170: a115 51be 159f 803d b5d8 50bf 86f3 24bf
00000180: ec14 02bf 5153 7ebe 3f09 5a3e 4e45 4cbf
00000190: df59 6a3f ebb6 cdbe b0f5 5d3d 7b0d 51bf
000001a0: 5799 b6bf 8505 3fbf 5856 1ebf cf67 37bf
000001b0: 59fd 913e 8f2c d13e 24b5 15bf 4f56 2f3f
000001c0: eb7e 293e a2b7 46be 8897 07bf ad32 a7be
000001d0: 396e c0be caf5 29bf 2eb3 d8be e425 513f
000001e0: 4f14 d1be e6b6 dcbe b578 8ebf d235 4abf
000001f0: d172 033f f207 11bf 33ec a93e bd56 4d3e
00000200: 80e0 f23e 1093 783e 9e15 d1be 7e33 90bf
00000210: b077 6abe 48cf 41bf a6ff 1b3f 9060 04bf
00000220: 1753 3fbf 9a18 d13e 9bd2 cfbe 13fb ed3c
00000230: 9527 c9be 1ccf a4be 06bb c0be 98c6 223e
00000240: da53 bebe e8d8 f7be 3491 51bf a07c 283f
00000250: e571 d2be 8006 d1be 5a58 51bd 34a0 39be
00000260: 39eb 193f 8283 13bf 5618 51bf 5121 513f
00000270: 43d5 89be d622 52be e189 bb3e 8d02 113b
00000280: 3018 d1be df55 c7be 158c 973e b5ec 3dbe
00000290: 8af9 d3be b610 cc3e f6f6 013f 0ea9 ce3e
000002a0: e93c 6ebf 6a8f 03bf 1f17 c93e fb2d 3a3d
000002b0: 8594 c43e 83ad 0fbf bc55 d13c d276 32bf
000002c0: 9b06 d63e 5f7a babe 49d7 54be 67be f43e
000002d0: 1053 d8bd 282c d23e aa2c 08bf 9e77 0dbd
000002e0: 30f0 a8be 935c 08be 37b4 ab3e 380a 793d
000002f0: aca7 d1be a663 9f3e 7348 81be 9d96 4a3e
00000300: 271e 2b3f 08fb e2be 581e a63d b562 5abf
00000310: 9935 66bd 003c cfbe a65b dabe 97d9 0fbe
00000320: 2c00 a3be 9902 2abe a6ee c0be c126 c4be
00000330: 274a f43e 8cfa 38be 101e 1abf dbde 0ebe
00000340: 0d52 973e fe6b 9f3e 3e17 52bf 71be 14bf
00000350: f926 d13e 7f83 37bf de3e c73e d245 b0bd
00000360: f316 d1be 0543 ce3e ad39 253f 626d 913e
00000370: 1b5e a8be 8a07 bf3e 15a2 1cbf 0979 81be
00000380: 3adb 333f b9da b6bd ea05 4abe e8b6 1d3e
00000390: 3970 14bf 2ef3 cf3d abea 50be 7769 2abe
000003a0: ca40 90be cf86 f2be 5914 d1be 4f6a 16bf
000003b0: fa2e 6bbe 6a5a 3abf aa1d 4b3e 8b70 a3be
000003c0: e306 51be 0d41 d1be c47f d0be 0b29 2c3f
000003d0: 5870 aebe 114a 1fbf 2531 d1be 1ec2 b7bc
000003e0: 2301 f8bd da01 303d a821 51bf 99e7 02bf
000003f0: 42ad e83e 38c9 a43e 0d0b 123f 8c66 e63e
-0.40535113 -0.28553483 -1.0527558 0.35486627 -0.4050334 -0.30565637 -0.66434157 -0.10425425
-0.8167458 0.26366854 0.8128321 -0.9119866 -0.0011612518 0.044117432 -0.40913174 0.029028356
-0.7598703 0.40839085 -0.13301629 -0.36505085 -0.1416212 -0.40292072 -0.21158901 -0.5477597
-0.3098118 -0.2796827 -0.076946095 -0.49720168 -0.8167815 0.10697463 -0.32760656 0.816674
-0.8348685 0.102100216 0.28729618 -0.40791646 -0.20793468 0.56905276 0.23305504 -0.44963965
0.82341003 -0.54037064 -0.81685716 0.817276 0.352752 -0.84291375 -0.43603364 0.8042103
-0.2291889 -0.32940736 0.17870511 -0.7843218 -0.50203377 0.6239846 0.39611685 0.21694343
-0.8038129 -0.3207473 0.24894458 -0.61994326 -0.86039174 0.22019495 -0.5587647 -0.40781897
0.2578866 -0.31944308 -0.20714426 -0.8178076 -0.4156455 -0.051066153 0.6065629 -0.4221333
0.6784603 -0.8280163 -0.7534397 -0.26950157 -0.29653552 -0.2898155 -0.7134826 -0.40888596
-0.3200817 -0.79093844 0.64362085 0.39836758 0.28104824 0.5559352 -0.38670227 0.63899934
-0.057759155 0.050349012 -0.3328793 0.17620252 -0.20418407 0.062803425 -0.8158067 -0.6443409
-0.50813174 -0.2483647 0.2129259 -0.7979325 0.9154338 -0.40178618 0.054189384 -0.81661195
-1.4265546 -0.746178 -0.618505 -0.71642774 0.285136 0.40854308 -0.58479524 0.6849107
0.16552322 -0.19405988 -0.52965593 -0.3265585 -0.37584093 -0.6639067 -0.42324203 0.8169844
-0.40835807 -0.4310829 -1.1130587 -0.78988373 0.5134707 -0.5665275 0.33188018 0.2005262
0.47436905 0.2427485 -0.40836805 -1.1265714 -0.2289722 -0.7570691 0.60936964 -0.5170984
-0.7473616 0.40839082 -0.40590367 0.029050386 -0.3928801 -0.32189262 -0.37642688 0.1589607
-0.3717335 -0.48407674 -0.8186219 0.6581516 -0.4110252 -0.40825272 -0.05110965 -0.18127519
0.60124546 -0.5762254 -0.8167776 0.8169146 -0.26920518 -0.20521101 0.3662863 0.0022126765
-0.40838766 -0.38932702 0.29599062 -0.18547328 -0.4140132 0.398565 0.5076746 0.40363353
-0.9306169 -0.5139071 0.39275452 0.045454007 0.3839456 -0.5612413 0.025553577 -0.69712555
0.41801915 -0.36421487 -0.2078525 0.47801515 -0.10562718 0.41049314 -0.5319315 -0.034537904
-0.3299575 -0.13316564 0.3353593 0.06080076 -0.40948236 0.31130713 -0.25250587 0.19784017
0.66842884 -0.44332147 0.08111256 -0.85306865 -0.05620346 -0.40475464 -0.42648047 -0.14047848
-0.3183607 -0.16602553 -0.37682074 -0.38310817 0.47712824 -0.18064326 -0.6020212 -0.139522
0.29554787 0.3113708 -0.82066715 -0.5810309 0.40850046 -0.7168502 0.3891515 -0.08607067
-0.4083782 0.40285507 0.6454113 0.28403765 -0.32884297 0.3731044 -0.6118482 -0.25287655
0.7025639 -0.08928437 -0.19728819 0.15401804 -0.5798374 0.10153805 -0.20402019 -0.16641794
-0.2817443 -0.47368476 -0.40835837 -0.58755964 -0.22967139 -0.7279421 0.19835535 -0.319218
-0.20412783 -0.40869942 -0.40722477 0.67250127 -0.34070086 -0.6222239 -0.40857807 -0.02243143
-0.12109592 0.042970516 -0.8169198 -0.5113464 0.45444685 0.32184768 0.5704811 0.45000112
