modeldata/emnist_letters_Cosine_lr0.001_Aug_BitMnist_PerTensor_4bitsym_RMS_width96_96_96_bs128_epochs60.pth (torch, 185123 bytes, 4 tensors)

fc1.weight f4 [96, 256]
0	0x3cfc2dec	0.030783616
1	0x3de59119	0.11209316
2	0x3de57b1c	0.11205122
3	0x3dcd2cd3	0.10018315
4	0x3cf17464	0.029474445
5	0x3da5c972	0.08095063
6	0x3d96292c	0.07332072
7	0x3e057ffe	0.13037106
8	0x3dc4626c	0.09589085
9	0x3e255637	0.1614617
10	0x3e7530e5	0.23944433
11	0x3e2b8879	0.16751279
12	0x3e156dbd	0.14592643
13	0x3d3638a6	0.044487618
14	0x3dd0427e	0.101689324
15	0x3dcc69de	0.0998113
16	0x3df05fb0	0.11737001
17	0x3e1eb0aa	0.1549708
18	0x3d46017c	0.04834126
19	0x3e52a532	0.2057083
20	0x3e54a5ba	0.20766345
21	0x3e545087	0.20733844
22	0xbe11f14d	-0.14252205
23	0xbdfe903d	-0.12429855
24	0xbe34f4cf	-0.17671512
25	0x3d8ecc9e	0.069726214
26	0xbe10f72e	-0.14156792
27	0xbd99636b	-0.074896656
28	0xbd8a5e5f	-0.06756281
29	0x3cbfc604	0.02340985
30	0x3e95332f	0.29140612
31	0x3daac748	0.08338791
32	0x3df4382b	0.11924776
33	0x3e3c6154	0.18396503
34	0x3e0bd75e	0.13656375
35	0x3e535389	0.20637335
36	0x3e153a11	0.14572932
37	0x3d8b8106	0.06811719
38	0xbe0f943b	-0.14021389
39	0x3decfa4b	0.11571177
40	0xbd12ddeb	-0.03585617
41	0xbe27a224	-0.16370445
42	0xbea038b2	-0.31293255
43	0xbe8df521	-0.2772608
44	0x3e2ad9a9	0.16684593
45	0x3e8db57f	0.27677533
46	0xbcd5808c	-0.026062272
47	0x3ddfe528	0.1093238
48	0x3d8b6a86	0.06807427
49	0x3e712248	0.23548234
50	0x3ea56466	0.3230316
51	0x3e4220e7	0.18957864
52	0xb93cb7b8	-0.00017997518
53	0x3dc40f9d	0.095732905
54	0x3d5852d7	0.052813377
55	0xb744e0ad	-1.1734822e-05
56	0xbd15e511	-0.036595408
57	0x393f5db4	0.00018250087
58	0xbd94c0bf	-0.07263326
59	0xbd95b967	-0.07310753
60	0x3d10a0ce	0.035309605
61	0xbe3ebf67	-0.18627702
62	0xbd05eec6	-0.032698415
63	0x3d9b6809	0.075882025
64	0x3da7d56d	0.081950046
65	0x3e2857ee	0.16439793
66	0x3ea22db8	0.31675506
67	0x3e00f860	0.12594748
68	0x3d8f1acf	0.06987535
69	0x3e5a273d	0.2130403
70	0xbdb39479	-0.08768553
71	0xbc1a24fa	-0.00940823
72	0x3d1a2627	0.03763404
73	0x3d8f12da	0.069860175
74	0xbdbdd7e6	-0.09269695
75	0xbe99794b	-0.29975352
76	0xbeba4e79	-0.36387995
77	0xbeb0a2d1	-0.3449922
78	0x3c369412	0.011143701
79	0x3d36fa74	0.044672444
80	0x3dc7c648	0.09754616
81	0xbd1859b8	-0.037194937
82	0x3e5fd446	0.2185832
83	0xbc8eff95	-0.017455855
84	0x3df66ad5	0.12032095
85	0x3de654f2	0.11246671
86	0xbbe1dff2	-0.0068931514
87	0xbd16eaab	-0.03684489
88	0x3e3a37cb	0.18185346
89	0x3e604e7d	0.21904941
90	0xbda3a80a	-0.07991035
91	0xbebb5775	-0.36590162
92	0xbebb38ea	-0.3656686
93	0xbe48597c	-0.19565386
94	0x3db69bd8	0.089164436
95	0x3d4e2200	0.050325394
96	0x3dda97c2	0.10673477
97	0x3cec57b8	0.028850421
98	0x3e6d653c	0.23183149
99	0x3d8574d7	0.06516426
100	0x3d951437	0.07279246
101	0x3ec27fe9	0.37988213
102	0xbd5aebdd	-0.053447593
103	0xbd155e32	-0.036466785
104	0x3ea47a15	0.3212439
105	0xb96c87ec	-0.00022557349
106	0xbe943607	-0.2894747
107	0xbec2d3fa	-0.3805235
108	0xbe933f0b	-0.28759035
109	0xbe95a98f	-0.29230925
110	0xbd019b89	-0.03164247
111	0x3d31efdf	0.04344165
112	0x3e34380e	0.17599508
113	0x3e678a9e	0.22611472
114	0x3e831a3a	0.25605947
115	0x3be5dd7c	0.0070149284
116	0x3e087a4c	0.13327903
117	0x3ea96086	0.33081454
118	0xbd9a377d	-0.07530115
119	0xbd56b185	-0.05241539
120	0xbc7def4f	-0.01549895
121	0xbdb17da8	-0.08666545
122	0xbe1525c2	-0.14565185
123	0xbe92e18f	-0.28687713
124	0xbe8f73ae	-0.28017944
125	0xbf13b3bf	-0.57696146
126	0xbe96f594	-0.29484236
127	0x3dcb3a3d	0.099232174
128	0x3e44a044	0.19201761
129	0x3eddebe4	0.43344033
130	0x3e44b138	0.19208229
131	0x3d946076	0.07244961
132	0x3d86f59f	0.06589817
133	0x3e090587	0.13381015
134	0x3e306df3	0.17229442
135	0x3e40788b	0.18795983
136	0x3e9e843c	0.30960262
137	0x3e809c08	0.25119042
138	0xbf02354b	-0.5086257
139	0xbf318af2	-0.6935264
140	0xbe2c849a	-0.16847458
141	0xbedf8ef2	-0.43663746
142	0xbea7802b	-0.32714972
143	0x3e058a43	0.13041024
144	0x3e0f9a04	0.14023596
145	0x3eae7a29	0.34077576
146	0xbd2a37e4	-0.041557208
147	0x3e63f17e	0.2226009
148	0x3de1abff	0.11019134
149	0x3e5f8c6b	0.21830909
150	0x3eb1441d	0.3462228
151	0x3edffff4	0.43749964
152	0x3e6b5eeb	0.22985427
153	0xbebc417f	-0.3676872
154	0xbf0c35b9	-0.54769474
155	0xbe2dfb98	-0.16990507
156	0xbdae658e	-0.08515464
157	0xbe0fe36c	-0.14051598
158	0xbd740c6d	-0.059582163
159	0x3d05a09e	0.03262388
160	0x3de04df9	0.10952372
161	0x3e425238	0.18976676
162	0x3dba2c8e	0.090905294
163	0x3d76db40	0.060267687
164	0x3dba3e83	0.090939544
165	0x3e4a9d19	0.1978649
166	0x3e5aaabb	0.21354191
167	0x3e0fba99	0.14036025
168	0xbe0ac486	-0.1355153
169	0xbf205b77	-0.62639564
170	0xbf3f84cb	-0.74812
171	0xbe94b10c	-0.29041326
172	0xbdfad3a5	-0.12247399
173	0xbe6633de	-0.22480723
174	0xbe3d81a4	-0.18506485
175	0x3d898516	0.06714837
176	0x3db96892	0.09053148
177	0x3d8e572c	0.069502205
178	0x3e01f0a5	0.12689455
179	0x3dc246a6	0.09486131
180	0x3dacfdf0	0.08446872
181	0x3df1bf53	0.1180407
182	0x3e0c1eb6	0.1368359
183	0xbcd4f0e2	-0.025993768
184	0xbdaa69d7	-0.083209686
185	0xbefebef7	-0.4975507
186	0xbf1c6493	-0.61090964
187	0xbe99f1ab	-0.3006719
188	0xbe847c7d	-0.25876227
189	0xbec000e4	-0.3750068
190	0xbe93eb74	-0.28890574
191	0x3dd7fe6a	0.105465725
192	0x3e2b8824	0.16751152
193	0x3eba52e5	0.36391369
194	0x3e2210e9	0.15826763
195	0x3dc14132	0.09436263
196	0xbe327018	-0.17425573
197	0xbdfc2542	-0.12311794
198	0xbe803996	-0.25043935
199	0xbe59ee34	-0.21282274
200	0xbe148a1d	-0.14505811
201	0xbe057fbe	-0.13037011
202	0xbeafd06d	-0.34338704
203	0xbd93f0ec	-0.072236866
204	0xbd564c23	-0.052318703
205	0xbee05616	-0.43815678
206	0xbe2d114e	-0.16901132
207	0x3d490550	0.049077332
208	0x3decf935	0.1157097
209	0xbda0d93f	-0.078539364
210	0x3dbfe1c8	0.09369236
211	0x3c2d6cbf	0.010585009
212	0xbd8b8a45	-0.06813482
213	0xbdf73471	-0.12070549
214	0xbe9a24b6	-0.30106133
215	0xbe5d6ca5	-0.21623476
216	0xbebd2233	-0.36940154
217	0xbea73714	-0.3265921
218	0xbe9bbee2	-0.3041907
219	0xbda229f8	-0.07918161
220	0x3cbf4e4d	0.023352766
221	0xbddb0390	-0.10694039
222	0x3d79987d	0.06093644
223	0x3dca03a9	0.09863979
224	0x3ddf8035	0.109131254
225	0xbdec369c	-0.115338534
226	0x3b3a3650	0.002841372
227	0x3e31b5a8	0.17354453
228	0x3e11a796	0.14224085
229	0x3ec1c6d2	0.37847
230	0x3c16e41c	0.009209659
231	0xbe4de84f	-0.2010815
232	0xbe9b3e1f	-0.30320832
233	0xbe8060cc	-0.2507385
234	0xbebe41f6	-0.371597
235	0xbe8b9070	-0.27258635
236	0x3d80fb25	0.06297902
237	0x3db6f08a	0.08932598
238	0x3d8f0907	0.06984144
239	0x3d589f00	0.05288601
240	0x3dd3b9e7	0.103381924
241	0x3c4cdc8c	0.012503754
242	0x3bb960eb	0.0056573055
243	0x3db0ad27	0.08626776
244	0x3d874f16	0.06606881
245	0x3d854633	0.0650753
246	0x3c5fedd2	0.013667541
247	0xbd5fa666	-0.05460205
248	0xbe0a23dc	-0.13490242
249	0x3d374fb0	0.04475373
250	0x3dd045ad	0.101695396
251	0x3db924dc	0.090402335
252	0x3d81319d	0.06308291
253	0x3d68db5c	0.056849822
254	0x3c927d46	0.017882
255	0x3dd1a0c8	0.10235745

fc2.weight f4 [96, 96]
0	0xbe5c83be	-0.2153463
1	0xbde4cfa7	-0.11172419
2	0xbef5346b	-0.47891554
3	0x3e89e64f	0.26933524
4	0x3e20d5cc	0.15706557
5	0x3c0c0810	0.008546844
6	0x391632cf	0.00014324042
7	0x3e5e43f1	0.21705605
8	0xbeb26f40	-0.34850502
9	0xbf06ce02	-0.5265809
10	0x3e6e6482	0.23280528
11	0xbbabab5b	-0.005238933
12	0xbe5d5941	-0.21616079
13	0xbec3ccc0	-0.3824215
14	0xbf06648b	-0.52497166
15	0x3ab4c132	0.0013790487
16	0x3eb694c0	0.35660362
17	0xbedc8060	-0.43066692
18	0xbf0b331c	-0.5437486
19	0x3e829603	0.25505075
20	0x3e51e0db	0.20495932
21	0x3e937c66	0.28805846
22	0xbeb0a3b2	-0.3449989
23	0xbf398bdd	-0.7247904
24	0x3e7a393b	0.24435894
25	0x3e5e37c7	0.21700965
26	0x3e9f925c	0.3116635
27	0x35b5d2e8	1.3546933e-06
28	0xbdded12d	-0.10879741
29	0xbeba14db	-0.36344036
30	0x3ea6b292	0.32558113
31	0xbe307349	-0.17231478
32	0xbe8108fc	-0.25202167
33	0xbd1b5253	-0.037920307
34	0xbedc9fb6	-0.430906
35	0x3e65ba88	0.22434437
36	0x3e8acf08	0.27111077
37	0x3df6f701	0.12058831
38	0x3ed4497a	0.41462308
39	0xbd4629a5	-0.04837956
40	0x3e9071d1	0.28211835
41	0xbe5e4305	-0.21705253
42	0xbde0ec57	-0.10982578
43	0xbe5e4177	-0.2170466
44	0xba884270	-0.0010395776
45	0xbe3ca4f2	-0.18422297
46	0xbea39610	-0.31950426
47	0xbeb13fd4	-0.3461901
48	0xbf250bb8	-0.64471006
49	0x3910c75c	0.00013807177
50	0x3e8704ab	0.2637075
51	0xbec91176	-0.39271134
52	0xbab5f36e	-0.0013881752
53	0x3e5e7111	0.21722819
54	0x3e6172bf	0.22016428
55	0xbe954963	-0.29157552
56	0x3e3f9d0a	0.1871225
57	0x3ea5d052	0.32385498
58	0xbd8e1acd	-0.069387056
59	0xbe41b6db	-0.1891741
60	0xbe083202	-0.13300326
61	0xbe5e6510	-0.2171824
62	0x3dde380b	0.10850533
63	0x3dde851e	0.10865234
64	0x3dd4529c	0.10367319
65	0xbcde1bfb	-0.027112952
66	0x3bd55b16	0.0065111024
67	0x3ddd72d7	0.108129196
68	0x3f26b70d	0.65123063
69	0x3e5e3c98	0.21702802
70	0xbde9caa2	-0.11415602
71	0x3db6dcb6	0.08928816
72	0xbfb56652	-1.4171851
73	0xbebb6940	-0.36603737
74	0xbeaa6301	-0.3327866
75	0xb8bf6148	-9.12571e-05
76	0xbed9f8d6	-0.4257266
77	0xbdad5863	-0.08464124
78	0x3d84cd5a	0.0648448
79	0xbe29fe35	-0.16600879
80	0xbe0baa29	-0.1363913
81	0x36b64a47	5.4326697e-06
82	0xbe46e8b5	-0.19424708
83	0x3a8408df	0.0010073445
84	0x3dd4a19b	0.10382386
85	0xbe0c4c3c	-0.13700956
86	0x3db8ac0d	0.09017191
87	0x3e029a5e	0.12754199
88	0x3ddf78d4	0.10911718
89	0x3e5d6268	0.2161957
90	0xbecbf47d	-0.39834967
91	0xbe437a18	-0.19089544
92	0x3dee754f	0.116434686
93	0x3dd63509	0.104593344
94	0xbe612d21	-0.21989872
95	0xb9918381	-0.00027754533
96	0xbc9caf03	-0.01912642
97	0xbdde3fe5	-0.10852031
98	0x3e965dde	0.2936849
99	0x3edcb29c	0.43105018
100	0xbc839227	-0.016060902
101	0xbea7f897	-0.32806846
102	0xbe5e3e97	-0.21703564
103	0x3dde0fe2	0.10842873
104	0xbbac42e1	-0.005256996
105	0x3dee8136	0.11645739
106	0xbec26d09	-0.37973812
107	0x3e55ce4f	0.20879482
108	0xbea6bbcd	-0.32565156
109	0x3e85770e	0.26067394
110	0xbcd98ee1	-0.026557388
111	0xbdde2900	-0.10847664
112	0xbf0b56d5	-0.5442937
113	0xbe6ccccc	-0.23124999
114	0xbe9f353e	-0.31095308
115	0xbea74946	-0.3267309
116	0x3dde3fca	0.108520105
117	0x3cea23ed	0.028581584
118	0x3e65e648	0.22451127
119	0x3ea6b2f8	0.32558417
120	0x3ea7ab6f	0.3274798
121	0xbeac3085	-0.33630767
122	0x3ea6ffc9	0.32617024
123	0xbef4c138	-0.47803664
124	0x3e4395e5	0.19100149
125	0x3e907e75	0.2822148
126	0x3b2d012f	0.002639841
127	0x3e5c063e	0.21486756
128	0xbdc81a95	-0.09770695
129	0x3dde15e5	0.1084402
130	0x3d6cf214	0.05784805
131	0xbde15725	-0.110029496
132	0xbec673d9	-0.3876026
133	0x3ea48687	0.32133886
134	0xbe645e87	-0.22301684
135	0xbe4eb49d	-0.20186086
136	0x3e6a1417	0.22859226
137	0x3e1568bc	0.14590734
138	0x3edcc2d8	0.43117404
139	0xbe1a9723	-0.15096717
140	0xbf0acb69	-0.5421663
141	0x3ea6972a	0.32537204
142	0xbe0b06d3	-0.13576822
143	0x3dd117ed	0.102096416
144	0xbea38605	-0.31938186
145	0xbdc47e04	-0.09594348
146	0x3b16d97f	0.0023017821
147	0xbcbb073f	-0.022830604
148	0xbf02d4f9	-0.5110622
149	0x3e98a820	0.2981577
150	0x3e021c9b	0.12706225
151	0x3ea6028e	0.32423824
152	0x3e11dc3e	0.14244172
153	0x3de293c3	0.110633396
154	0x3edd9d7f	0.43284222
155	0xbde9da17	-0.114185505
156	0x3c66c6eb	0.014085512
157	0x3e167325	0.14692362
158	0xbeeea5df	-0.46610925
159	0xbd1a5505	-0.037678737
160	0x39b976b5	0.00035374393
161	0x3e076516	0.13222155
162	0xbdd9913d	-0.10623405
163	0xbeae9b24	-0.34102738
164	0x3e912403	0.28347787
165	0x3eae0202	0.33985907
166	0xbd036fa5	-0.032088894
167	0xbe3627cc	-0.17788619
168	0x3e5e417d	0.2170467
169	0x3ddccfdc	0.107818335
170	0xbe5e3051	-0.21698119
171	0x3dde0c10	0.108421445
172	0xbef540ef	-0.47901103
173	0xbe84a7a1	-0.2590914
174	0xbf0a8ec6	-0.54124105
175	0x3dc73294	0.09726444
176	0x3dfddcce	0.12395631
177	0xbde7b1bc	-0.11313197
178	0xbd876c60	-0.06612468
179	0xbf0a1fb0	-0.539546
180	0x3e653008	0.22381604
181	0xbe859425	-0.26089588
182	0x3f2fe5a7	0.68709797
183	0xbc69aead	-0.014262837
184	0xbea4e7c1	-0.32208064
185	0x3e53042a	0.20607057
186	0x3dad74ca	0.08469541
187	0x3c1bfb8b	0.009520422
188	0xbed45367	-0.4146988
189	0xbd66e32b	-0.056368988
190	0x3ea69f00	0.32543182
191	0x3f772612	0.96542466
192	0xba829645	-0.0009962997
193	0x3dcd151d	0.10013793
194	0x3f078af4	0.529464
195	0x3dfd6a7e	0.123738274
196	0xbe5c7fd9	-0.21533145
197	0x3e6467ee	0.22305271
198	0xbddd6ce6	-0.10811786
199	0x3dd17626	0.10227613
200	0x3dd722ff	0.10504722
201	0xbe575e1a	-0.2103199
202	0xbf0cb783	-0.54967517
203	0xbee8a3f2	-0.4543758
204	0x3e93e41f	0.2888498
205	0xbddd86c4	-0.1081672
206	0x3ebf95e3	0.37419042
207	0x3da19229	0.07889206
208	0xbede4145	-0.43409172
209	0xbf464bf9	-0.77459675
210	0x3e044ef6	0.12920746
211	0xbf327dfa	-0.69723475
212	0x3e5e44fd	0.21706004
213	0x3ddc2379	0.10748953
214	0xbe212055	-0.1573499
215	0x3eedb2a6	0.4642536
216	0xbac161e2	-0.0014753903
217	0xbea6c0e9	-0.32569054
218	0xbe9525c8	-0.29130387
219	0xbea87c72	-0.32907444
220	0xbee1f1c0	-0.44129753
221	0x3e6f3d63	0.23363261
222	0x3e5e3a5a	0.21701947
223	0xbf09b406	-0.5379032
224	0xbe434c16	-0.19071993
225	0xbd54390d	-0.05181222
226	0x3ce03700	0.027369976
227	0xbe83938f	-0.25698516
228	0xbb4e8e92	-0.0031518084
229	0x3d24c0a1	0.040222768
230	0xbf07d755	-0.53062946
231	0xbe06bcce	-0.13157961
232	0x3ad5f5e3	0.001632389
233	0xbd588741	-0.052863363
234	0x3ea6ace9	0.32553795
235	0xbedd8b61	-0.432704
236	0xbe5ab696	-0.21358714
237	0xbdde469e	-0.10853313
238	0x3dbf88e8	0.09352285
239	0x3dd81be7	0.10552197
240	0x3dde735f	0.10861849
241	0x3e05d893	0.13070898
242	0x3e6033e2	0.21894792
243	0xbe5e5873	-0.21713428
244	0xbc83b89a	-0.016079236
245	0xbe61471f	-0.21999787
246	0x3e17749e	0.1479058
247	0x3e141805	0.14462288
248	0xbe114c66	-0.141893
249	0xbe60add1	-0.21941306
250	0x3e34f1f6	0.17670426
251	0xbe6e09d8	-0.23245943
252	0xbee68767	-0.4502518
253	0x3c8dbf30	0.01730308
254	0x3deb8573	0.11500063
255	0x3ee01858	0.43768573

fc3.weight f4 [96, 96]
0	0x3e9bcd9b	0.30430302
1	0xbe130005	-0.14355476
2	0x3c1f007d	0.009704706
3	0xbdff399b	-0.12462159
4	0x3e992722	0.29912668
5	0x3cea41ef	0.028595893
6	0xbcc6d717	-0.024272485
7	0x3e544cdd	0.20732446
8	0x3d923a3a	0.07140012
9	0x3c5b5a09	0.013388165
10	0xbeb944be	-0.3618526
11	0xbd1b8bd6	-0.037975155
12	0xbe338d1e	-0.175343
13	0xbecb78fa	-0.39740735
14	0x3e819993	0.2531248
15	0x3dec8c3a	0.115501836
16	0xbeee0046	-0.46484584
17	0xbb51451e	-0.0031932066
18	0xbd940f8a	-0.07229526
19	0xbe486fbe	-0.19573876
20	0xbe163bcd	-0.1467125
21	0xbecdf8cf	-0.40228888
22	0x3d925e2d	0.07146869
23	0x3d8071a3	0.062716745
24	0xbd81ca6b	-0.06337436
25	0x3d8d6ea9	0.069058724
26	0xbf19f173	-0.6013405
27	0x3ee31167	0.44349214
28	0xbdb5ccee	-0.08876978
29	0xbdcded9a	-0.100550845
30	0xbf15787a	-0.5838696
31	0xbd0c7b69	-0.03429738
32	0x3e9dfc53	0.3085657
33	0xbec04ce5	-0.37558666
34	0xbd888d32	-0.06667556
35	0xbe5f6aa2	-0.21818021
36	0xbe4d4f91	-0.20049883
37	0x3eedec5b	0.46469387
38	0x3ee8ec43	0.45492753
39	0xbde6c8b5	-0.112687506
40	0xbde2ece6	-0.11080341
41	0x3bad77d6	0.0052938266
42	0xbe4be042	-0.19909766
43	0x3e8d4c94	0.27597487
44	0x3d10e1d9	0.035371635
45	0xbe4317ce	-0.1905205
46	0xbe4b9164	-0.19879681
47	0x3ef6a66c	0.48173845
48	0xbe7d4cc4	-0.24736315
49	0x3d09ce95	0.033644278
50	0x3d3d8984	0.046273723
51	0xbeb29c0e	-0.34884685
52	0x3d9f7a7f	0.07787036
53	0xbd472d70	-0.048627317
54	0xbe074488	-0.13209736
55	0x3d3ebb22	0.046565183
56	0x3ecd8893	0.4014326
57	0xbeeb8128	-0.45996976
58	0xbd511a6e	-0.051050596
59	0xbe885c76	-0.26633042
60	0xbd994a0a	-0.07484825
61	0xbec7d80c	-0.39032018
62	0xbcd8c0da	-0.026459146
63	0x3df6bee1	0.12048126
64	0xbd8be7ed	-0.06831346
65	0x3d12e4aa	0.035862602
66	0xbea0d609	-0.31413296
67	0xbf001668	-0.5003419
68	0x3dcd56c5	0.100263156
69	0x3e45f3db	0.19331305
70	0xbd81a1ee	-0.06329714
71	0xbdcdb0ba	-0.100434735
72	0xbd84fd73	-0.06493654
73	0x3ec756d9	0.38933447
74	0xbdaaba45	-0.08336309
75	0xbce898c1	-0.028393151
76	0xbe74c65c	-0.23903793
77	0x3ec8c76f	0.39214656
78	0x3e945c73	0.28976783
79	0x3dcbf38f	0.099585645
80	0x3e0fee7c	0.14055818
81	0xbee14310	-0.43996477
82	0xbe92297b	-0.28547272
83	0x3e0c2d42	0.1368914
84	0x3da20189	0.07910449
85	0xbefefe7d	-0.49803534
86	0xbe3cb4b4	-0.18428308
87	0x3e9abdfd	0.30223075
88	0xbe5fd256	-0.2185758
89	0x3e4b1b52	0.1983464
90	0xbe18b50a	-0.14912811
91	0xbd693dcd	-0.056943703
92	0x3ccecea8	0.025245026
93	0x3e9bbc0d	0.3041691
94	0xbeee6d34	-0.4656769
95	0xbe3b45b0	-0.18288302
96	0x3e478ef5	0.19488128
97	0x3e881b04	0.2658311
98	0xbe993792	-0.2992521
99	0x3c542e23	0.012950453
100	0xbeba0d62	-0.36338335
101	0xbe4d5890	-0.20053315
102	0xbe94983c	-0.29022396
103	0xbe9a01e3	-0.30079564
104	0xbd020226	-0.03174033
105	0x3e8b6db7	0.27232143
106	0x3eaed280	0.34144974
107	0x3e9495dd	0.29020587
108	0x3e643feb	0.22290008
109	0xbd0231bd	-0.031785715
110	0xbeab83e4	-0.33499062
111	0xbf17bcd4	-0.59272504
112	0xbecd7501	-0.4012833
113	0x3ecd589e	0.40106672
114	0xbe8f078f	-0.27935454
115	0x3e04a571	0.12953736
116	0x3eb6bdf3	0.35691795
117	0x3e829458	0.25503802
118	0xbe386a07	-0.18009196
119	0x3e674a9f	0.2258706
120	0x3e8baa79	0.27278498
121	0x3e99d28d	0.3004345
122	0xbb239692	-0.0024961573
123	0x3ecef2fc	0.40419757
124	0xbeabfda9	-0.33591965
125	0xbe16bb51	-0.14719893
126	0x3e7980ef	0.2436559
127	0x3ea24a21	0.3169718
128	0xbe342f7e	-0.17596242
129	0x3b3742d0	0.0027963407
130	0x3dc0aadf	0.09407591
131	0xbdcc6c09	-0.099815436
132	0x3de0a08f	0.10968124
133	0xbd407b27	-0.046992447
134	0xbe9af301	-0.30263522
135	0xbe84bc5a	-0.2592495
136	0xbdd6e036	-0.104919836
137	0x3ece1752	0.40252167
138	0xbb63ac72	-0.0034740237
139	0xbed012f6	-0.40639466
140	0xbeb26692	-0.3484388
141	0x3e90b7a4	0.28265107
142	0xbe8f3ef9	-0.27977732
143	0xbea8106e	-0.32825035
144	0x3e495371	0.19660737
145	0xbe7c6b30	-0.24650264
146	0xbea069fc	-0.3133086
147	0x3e8190f5	0.25305906
148	0x3e39b34f	0.18134807
149	0xbe4c9b17	-0.19981037
150	0xbdcd613e	-0.10028313
151	0xbb60a7a7	-0.0034279616
152	0xb4dfeff0	-4.1711564e-07
153	0x3ed3f711	0.41399434
154	0xbe912f3d	-0.28356352
155	0x3dad888c	0.0847331
156	0x3e83662b	0.25663885
157	0x3c8d9682	0.017283682
158	0xb923d90a	-0.00015625745
159	0x3dcd525c	0.100254744
160	0xbe99a3fd	-0.30007926
161	0xbe56e3b1	-0.20985295
162	0xbd052a54	-0.03251107
163	0x3dc590a4	0.09646729
164	0xbe8aee25	-0.27134815
165	0xbecd59c8	-0.4010756
166	0xbed864bb	-0.4226435
167	0xbe4d6d22	-0.20061162
168	0x3c9f020c	0.019410156
169	0x3e228340	0.1587038
170	0x3e3504a9	0.17677559
171	0xbe6fdcbe	-0.2342405
172	0xbf1a1df6	-0.60201967
173	0xbe65ac25	-0.22428949
174	0x3dcd58a5	0.10026673
175	0x3ed1b3bf	0.40957448
176	0x3e8f724c	0.2801689
177	0xbc8dcf39	-0.017310726
178	0x3cf5870a	0.029971618
179	0x3e8fb315	0.28066316
180	0xbdd644cf	-0.10462343
181	0xbdd140e9	-0.10217459
182	0xbe4b1477	-0.19832025
183	0xbcc8bf25	-0.024505207
184	0xbf119023	-0.5686056
185	0xbe8c008c	-0.27344167
186	0x3ba55bc7	0.005046341
187	0xbe2bb675	-0.1676882
188	0x3dcdb06d	0.10043416
189	0xbe8cd6a1	-0.275075
190	0x3df785f9	0.120861
191	0x3d9fec1c	0.07808706
192	0x3e95c80b	0.29254183
193	0xbeb0fc06	-0.3456728
194	0xbee089dc	-0.43855178
195	0x3a180f1d	0.0005800592
196	0xba87e760	-0.0010368638
197	0x3e4d53dc	0.20051521
198	0x3dcc0e58	0.09963673
199	0x3d6ed2e1	0.05830658
200	0x3ce07fc8	0.02740468
201	0x3af46147	0.0018644714
202	0xbe73a1e1	-0.2379222
203	0x3f000a1b	0.5001542
204	0x3e3afede	0.18261287
205	0x3e99f02e	0.30066055
206	0xbf25c412	-0.64752305
207	0xbead2599	-0.33817747
208	0x3e9a9e63	0.30198964
209	0xbe62dbe5	-0.22154196
210	0x3d6ba35b	0.057528835
211	0x3e9d81ad	0.30762997
212	0xbe27e07a	-0.16394225
213	0xbf05b4c5	-0.5222896
214	0x3e2fd848	0.17172348
215	0xbdceb76b	-0.10093578
216	0xbf373c17	-0.71576065
217	0x3b89d09e	0.0042057773
218	0xbed1b010	-0.40954638
219	0xbd147a24	-0.036249295
220	0x3e009bd1	0.12559439
221	0xbe5f4b1c	-0.21805996
222	0x3e4d31f2	0.20038584
223	0x3e4e63c8	0.20155251
224	0xbdcc4501	-0.09974099
225	0x3ecd3ee7	0.40087053
226	0xbde69f01	-0.11260796
227	0xbe8c0ca6	-0.273534
228	0x3e8a10a1	0.26965812
229	0xbb6e1267	-0.0036326887
230	0x3e10737b	0.14106552
231	0x3ddddf21	0.10833574
232	0x3c99cd1d	0.018774563
233	0x3e4f245d	0.20228715
234	0x3e15e61e	0.14638564
235	0xbdcd5917	-0.10026758
236	0xba97753a	-0.0011555322
237	0x3e2151c2	0.15753844
238	0xbed489c0	-0.41511345
239	0xbe00eceb	-0.12590377
240	0x3d30028e	0.042971186
241	0x3e98edec	0.2986902
242	0x3dcd674a	0.100294665
243	0xbe0abadd	-0.13547845
244	0xbde4f00a	-0.11178596
245	0x3e6d80af	0.2319362
246	0x3bbeec42	0.005826504
247	0x3e01cd08	0.1267587
248	0x3dcd361c	0.10020086
249	0x3deaf12f	0.11471783
250	0x3e4878e0	0.1957736
251	0xbdcd44cc	-0.100228876
252	0xbe1eeb27	-0.15519391
253	0x3db1a338	0.0867371
254	0x3d9f8ded	0.07790742
255	0xbeaaddb2	-0.33372265

fcl.weight f4 [27, 96]
0	0xbd76246c	-0.06009333
1	0xbf06b288	-0.5261617
2	0xbc03fa96	-0.00805535
3	0x3d7ce05e	0.06173741
4	0xbee257d1	-0.44207624
5	0xbe269039	-0.16265954
6	0xbe9c4a48	-0.30525422
7	0xbd6cd26d	-0.057817865
8	0x3e899fcb	0.26879725
9	0xbf33849b	-0.70124215
10	0xbeb06206	-0.34449786
11	0xbf174242	-0.59085476
12	0xbf0cc4de	-0.54987895
13	0xbf2dd9e1	-0.6791058
14	0xbe8e052c	-0.2773832
15	0xbe28da62	-0.16489556
16	0xbea736d6	-0.32659024
17	0xbf17d004	-0.5930178
18	0x3c09eec4	0.008418743
19	0xbe38bfb2	-0.18041876
20	0xbe1d06ca	-0.15334621
21	0x3e50c460	0.20387411
22	0xbf105730	-0.5638304
23	0x3e2e4e3f	0.17022036
24	0xbf28c8fb	-0.6593167
25	0x3f3235a8	0.6961312
26	0xbf0aa13d	-0.5415228
27	0xbe9eeacb	-0.31038508
28	0xbed1ca6c	-0.40974748
29	0xbeb1f3c7	-0.347563
30	0xbea6a175	-0.32545057
31	0xbe335423	-0.17512564
32	0xbd8621d6	-0.065494224
33	0xbf05b2bf	-0.5222587
34	0xbe360901	-0.17776872
35	0xbe374ef3	-0.1790121
36	0xb5697ab0	-8.69778e-07
37	0xb9046fae	-0.00012630105
38	0xbeaf56a4	-0.3424579
39	0xbf048c33	-0.5177643
40	0xbe7f3099	-0.24920882
41	0xbd4bbdf5	-0.049741704
42	0xbf561f6d	-0.836417
43	0xb87cc331	-6.0263268e-05
44	0x368dc805	4.225413e-06
45	0xbe325792	-0.17416218
46	0xbf062c62	-0.5241147
47	0xbe277d0a	-0.16356292
48	0x3e2bd7ed	0.16781588
49	0xbf0225ca	-0.5083891
50	0x3efc2dea	0.4925378
51	0x3e325c6e	0.17418072
52	0xbeb398ac	-0.35077417
53	0xbeb145be	-0.34623522
54	0xbeb24712	-0.34819847
55	0xbe38fa1c	-0.18064159
56	0xbf6dd1aa	-0.92898047
57	0x3e908325	0.28225055
58	0x3e8cdfed	0.27514592
59	0xbf1b0752	-0.60558045
60	0xbf04bc74	-0.51850057
61	0xbea0ca03	-0.31404123
62	0xbe3224f1	-0.17396905
63	0xbead5544	-0.33854115
64	0x3e280751	0.16409041
65	0xbf16e549	-0.5894361
66	0x3f2d5c89	0.6771932
67	0x3e287cd1	0.16453864
68	0xbe32694a	-0.17422977
69	0xbe19384c	-0.14962882
70	0xbe4468ca	-0.19180599
71	0xbe37d02d	-0.17950507
72	0xbf5dad92	-0.8659297
73	0xbf3270b2	-0.6970321
74	0xbd804f01	-0.06265069
75	0x3f26b620	0.6512165
76	0xbf36138e	-0.7112359
77	0xbeb242d5	-0.34816614
78	0xbebcab3f	-0.368494
79	0x3f33f43c	0.7029455
80	0xbeb3a4b6	-0.35086602
81	0xbeb30f36	-0.34972543
82	0xbf1105ce	-0.5664948
83	0xbd0bfc47	-0.034176137
84	0x3ec1b880	0.37836075
85	0xbeb0a046	-0.3449728
86	0x3f01785a	0.50574267
87	0xbd7a8a4a	-0.06116704
88	0x3e0499cc	0.12949294
89	0x3dbfde1e	0.09368537
90	0xbde42694	-0.11140171
91	0x3e153c22	0.1457372
92	0xbf589d02	-0.84614575
93	0xbf01e2ff	-0.50736994
94	0xbf30df0d	-0.6909035
95	0xbe893327	-0.2679684
96	0xbdc9d404	-0.09854892
97	0x3eb2472e	0.3481993
98	0xbf31e88c	-0.69495463
99	0xbe324621	-0.17409565
100	0xbcd12c9b	-0.025533965
101	0xbf05a95f	-0.52211565
102	0xbf05b870	-0.52234554
103	0x3eb24864	0.34820855
104	0xbe3244d1	-0.17409064
105	0x3ebf1b0f	0.37325332
106	0x3f324598	0.6963744
107	0x3eff7296	0.4989211
108	0xbe69c481	-0.22828867
109	0xbc54e714	-0.012994546
110	0xbf2f3b88	-0.6845021
111	0x3eb2460f	0.34819075
112	0x3eb246db	0.34819683
113	0xbf07d920	-0.5306568
114	0x3ee2d4f9	0.4430311
115	0x3e3bebeb	0.18351714
116	0xbeb270fb	-0.34851822
117	0x3f1b9add	0.6078318
118	0x3d75d60f	0.060018595
119	0xbecd29f8	-0.40071082
120	0xbf32dd93	-0.69869345
121	0xbeb24d87	-0.34824774
122	0x3f05b4d9	0.52229077
123	0xbf05b555	-0.52229816
124	0xbe324606	-0.17409524
125	0xbeb23871	-0.34808686
126	0xbeb24824	-0.34820664
127	0xb9f2a338	-0.00046279444
128	0xbba527bb	-0.0050401366
129	0xbeb2455c	-0.34818542
130	0xbf05b01e	-0.5222186
131	0xbed12d3f	-0.40854833
132	0xbd3760e2	-0.04477013
133	0xbdc6d610	-0.09708798
134	0xbeb73236	-0.35780495
135	0xbec6e412	-0.3884588
136	0xbeb2cc3b	-0.3492144
137	0xbeb112f6	-0.3458478
138	0xbf109b7f	-0.5648727
139	0x3f05b5b6	0.52230394
140	0xbeaf14c5	-0.34195533
141	0xbf01e646	-0.50741994
142	0x3e4c8330	0.19971919
143	0x3e778e02	0.24175265
144	0xbef67695	-0.48137346
145	0xbf749dd9	-0.95553356
146	0x39a9c887	0.00032383596
147	0xbde2727c	-0.110569924
148	0xbf5b5e88	-0.8569112
149	0xbeb24679	-0.3481939
150	0x3e08196c	0.13290948
151	0x3ea5c601	0.32377627
152	0xbe637e71	-0.22216202
153	0x3e324777	0.17410074
154	0x3e474780	0.19460869
155	0xbf323eea	-0.6962725
156	0x3f2bc6cc	0.67100215
157	0x3f04b57f	0.5183944
158	0x3da6cdcd	0.08144722
159	0x3df28fee	0.11843859
160	0xbdbcd7dc	-0.092208594
161	0xbf05ba91	-0.522378
162	0x398bb135	0.00026644176
163	0xbe8ba0d1	-0.2727113
164	0x3f05b4dd	0.522291
165	0xbf0b2878	-0.54358625
166	0xb6ae8ba8	-5.201862e-06
167	0xbf04e936	-0.5191835
168	0xbf0a1b02	-0.5394746
169	0x3e1dd1b9	0.15412034
170	0x3f33b631	0.7019988
171	0xbf5efe45	-0.87106735
172	0xbf78d816	-0.9720472
173	0xbf4a6479	-0.7905956
174	0xbe15b2ba	-0.1461896
175	0x3e18d45c	0.14924759
176	0xbdaf8f82	-0.08572294
177	0xbe797ce2	-0.24364045
178	0x3eb24f49	0.34826115
179	0x3f32469e	0.69639003
180	0xbe4ecf2e	-0.2019622
181	0x3e322887	0.17398272
182	0xb987c3a8	-0.00025894982
183	0xbe3fc33b	-0.18726818
184	0x3e09332b	0.13398425
185	0xbeb067f8	-0.34454322
186	0xbd5d3a11	-0.054010455
187	0x3e327c43	0.17430215
188	0xbeb246cb	-0.34819636
189	0xbeb24643	-0.3481923
190	0xb738fc6f	-1.1026029e-05
191	0x3f05bb17	0.522386
192	0xbe24f12c	-0.16107625
193	0xbecad9d5	-0.39619318
194	0x3e3246f0	0.17409873
195	0x3e0e5919	0.13901176
196	0xbf05b723	-0.5223257
197	0xbef33ee8	-0.4750893
198	0xbf0ad4b5	-0.54230815
199	0xbe31d168	-0.17365038
200	0x37b7911b	2.188287e-05
201	0xbf05b36b	-0.52226895
202	0xbeb4a24b	-0.3528007
203	0xbeb25536	-0.34830636
204	0xbeb12c2e	-0.3460402
205	0x3e5f09e4	0.21781117
206	0x3eb2457a	0.3481863
207	0xbf04613f	-0.51710886
208	0xbce21961	-0.027599992
209	0xbe0c6078	-0.13708675
210	0x3d9e7e09	0.07738883
211	0x3e813adc	0.2524022
212	0xbeb17bfb	-0.34664902
213	0xbea31b62	-0.3185683
214	0x3c8acfe6	0.016944837
215	0x3e32463a	0.17409602
216	0xbea56221	-0.3230143
217	0x3e333020	0.17498827
218	0xbeb22ac3	-0.3479825
219	0x3ed1c7a8	0.40972638
220	0xbea75903	-0.32685098
221	0xbdfe232f	-0.124090545
222	0xbe9b69a2	-0.3035403
223	0xbe46f3f4	-0.19428998
224	0xbe7bbf82	-0.24584773
225	0x36a6d625	4.972115e-06
226	0xbe9d5c8c	-0.3073467
227	0x3e6e747d	0.23286624
228	0xbe3250d6	-0.17413649
229	0xbec1729c	-0.37782753
230	0x3e323e32	0.17406538
231	0xbecc3da7	-0.39890787
232	0xbe3ec21e	-0.18628737
233	0xbe3245a5	-0.1740938
234	0xbf05b0bd	-0.52222806
235	0x3e3244b3	0.17409019
236	0xbe432263	-0.19056086
237	0xbcbe3d4b	-0.023222586
238	0xbe324195	-0.1740783
239	0x3e3246df	0.17409848
240	0xbe27679f	-0.16348122
241	0xbf11279e	-0.56701076
242	0xbe04854d	-0.12941475
243	0xbea862dc	-0.32887924
244	0xbeb24b95	-0.3482329
245	0x3eb592eb	0.35463652
246	0x3eb081f3	0.34474143
247	0x3d44dd04	0.04806234
248	0xbf3bd0b7	-0.7336535
249	0xbe31d36b	-0.17365806
250	0x3e5e889f	0.21731804
251	0xbe552445	-0.20814617
252	0xbf5d2ab0	-0.8639326
253	0x3f5dc912	0.86634934
254	0xbd1c5577	-0.038167443
255	0xbdd1a2f0	-0.10236156
