modeldata/emnist_letters_Cosine_lr0.001_Aug_BitMnist_PerTensor_4bitsym_RMS_width64_64_64_bs128_epochs60.pth (torch, 107939 bytes, 4 tensors)

fc1.weight f4 [64, 256]
000000 94 31 54 3e ac ce 2f 3e 31 3b 2f 3e fa 70 14 3e
       0.20722038 0.17168683 0.17112423 0.14496222
000010 a6 ad d0 3d 91 ac df 3d b3 f7 81 bd a7 1a fe bd
       0.10189371 0.10921586 -0.06346073 -0.12407427
000020 17 96 22 bd c6 0c f8 bd d4 4b 22 bd 0e a4 16 3e
       -0.039693918 -0.12111811 -0.039623097 0.1471102
000030 ab 72 83 3e 25 c9 81 3e c0 80 76 3e cd ce 47 3e
       0.25673422 0.25348774 0.24072552 0.19512482
000040 fd 0d 90 3e 22 b3 17 3e 50 f6 21 3d 9e c0 25 be
       0.28135672 0.14814427 0.039541543 -0.16186759
000050 9c 18 10 be 31 c6 c3 be 3b 30 28 bf c6 cf 06 bf
       -0.14071888 -0.38237146 -0.65698594 -0.5266079
000060 3b 39 f0 bd a8 88 4d bd 28 33 01 3b ba e2 23 3e
       -0.11729666 -0.050179154 0.001971433 0.16004458
000070 61 d0 e1 3d 65 47 55 bd e3 8b 53 bd f7 4a 81 3e
       0.11026073 -0.05207004 -0.05164708 0.25252506
000080 e9 ad 19 3e 0a 01 17 be 1b c2 31 bd 6d 7d d1 bd
       0.15007748 -0.1474649 -0.043398004 -0.10229001
000090 8e f3 98 be a9 cb 70 bf 2f b1 bc bf 90 5d 1a bf
       -0.29873317 -0.9406076 -1.4741572 -0.60299015
0000a0 9a 3b 23 3e 7a e7 1a 3e e6 3a 1e 3e 25 e7 86 3e
       0.15940705 0.15127364 0.15452155 0.26348224
0000b0 25 b0 48 bd c0 89 f2 3c 9f 8c 85 3d 89 69 5e 3e
       -0.04899611 0.0296067 0.06520962 0.21719946
0000c0 ae c6 48 3e ae 48 4d be 56 45 5a be 67 61 b2 bc
       0.1960704 -0.20047256 -0.21315512 -0.02177496
0000d0 85 cc a1 be d5 bf ce bf 21 3c ec bf 57 62 5b be
       -0.3160135 -1.6152292 -1.845585 -0.21424232
0000e0 72 ee 6d 3e 3a d7 22 3e 64 9c b6 3b 2b bb 63 3d
       0.23235491 0.15902415 0.0055728424 0.05559842
0000f0 8b 37 4d 3e 4c 3b 55 3d 79 61 4f 3d 6a 5e 92 3e
       0.20040719 0.052058503 0.050630067 0.28587657
000100 90 26 35 3e d4 0a 99 be 2c 95 da bd cf 67 0a 3d
       0.17690492 -0.29891074 -0.106729835 0.033790406
000110 e7 0f 22 bf 9e 9d 20 c0 b6 a4 bb bf da 2c 9f 3e
       -0.63305515 -2.5096202 -1.4659641 0.31088907
000120 5b d3 33 3e 09 a4 9f 3d 99 e3 8f 3d 8b 12 20 3e
       0.17561094 0.07794959 0.07025833 0.15632074
000130 a1 c4 9a 3d 2f 0b 20 3e 8d a4 e0 3d 50 f6 89 3e
       0.07557035 0.15629266 0.109688856 0.26945734
000140 59 fc 45 3e 59 c3 12 bd 68 b0 ac bd 42 f2 70 be
       0.19334544 -0.03583083 -0.08432084 -0.23529914
000150 c4 16 87 bf c4 eb 26 c0 57 d3 2c bf 2a ed 75 3e
       -1.0553823 -2.60814 -0.6750998 0.24016252
000160 42 cc 1b 3e 08 3d 72 3d 68 29 0c 3e 84 d2 40 3c
       0.15214637 0.059140235 0.1368767 0.011768941
000170 39 a9 9f 3d fa 28 1b 3e d0 d1 48 3e e7 36 9d 3e
       0.077959485 0.1515235 0.19611287 0.3070595
000180 17 4a 44 3e 2e b2 0a 3e 1e 1f 90 3d 2b 16 f8 bd
       0.19168888 0.13544533 0.07037185 -0.12113603
000190 b2 6c 2d bf 37 57 df bf 31 47 c3 be d9 29 61 3e
       -0.6774398 -1.7448491 -0.38140252 0.2198862
0001a0 51 22 d7 3d df d4 c7 3d 25 4e a3 bd b6 dd 1d bd
       0.10504592 0.09757399 -0.07973889 -0.03854152
0001b0 59 c1 a7 3c e3 0b ad 3d a1 5f 6f 3e a1 a7 ae 3e
       0.020477938 0.08449533 0.23376323 0.34112266
0001c0 a9 88 98 3d 6c b1 3d bd 3f a5 9c 3d 5b b8 c7 be
       0.07447941 -0.04631178 0.07648706 -0.3900784
0001d0 3b 22 3b bf 79 ae 30 bf c3 7a c5 bd a6 3b 4f 3e
       -0.73099107 -0.69016224 -0.096425556 0.20237598
0001e0 b2 fe 42 3e 7a 08 a0 bd f2 aa 08 3e 34 1e ec 3d
       0.19042471 -0.07814117 0.1334646 0.11529198
0001f0 81 de 00 3e 26 90 a3 bd 16 60 9e 3d c2 5b cc 3d
       0.12584879 -0.079864785 0.07733171 0.09978439
000200 0e 90 18 bc 8d 16 a3 3d 66 fc f3 3e fa 14 eb 3d
       -0.009311689 0.079632856 0.47653502 0.1147861
000210 4a 1c 0b be e6 da f4 be 73 ef 21 be db 14 70 3e
       -0.1358501 -0.47823256 -0.15813999 0.23445456
000220 ea 29 a3 3d 11 8f 1c 3d f1 e3 99 3d ab 32 a1 3d
       0.07966979 0.038222376 0.075141795 0.07870992
000230 a3 d6 0c bd 47 99 21 be 6a cb e7 bc 8d b5 85 3c
       -0.03438438 -0.15781127 -0.028295238 0.016321922
000240 3c 79 41 be 22 e5 66 3c 75 f5 bd 3e 3a dc 20 3e
       -0.18893903 0.014092715 0.3710133 0.1570901
000250 b5 8b bf bd 4d e9 89 be 1b 45 8a bd 38 0c 8c bd
       -0.09352819 -0.26935807 -0.06751462 -0.06838268
000260 30 44 a9 bc 43 32 0d 3d c7 26 a9 3d 83 a0 ac 3d
       -0.020662397 0.03447176 0.08259349 0.08429053
000270 33 ff 7b bd ec 3b 9c 3d 7b a5 65 be 7a a5 40 bc
       -0.061522674 0.07628617 -0.22426407 -0.011758203
000280 6e 48 22 be 7f 69 c8 bc 2b 9d 5a 3e 00 ec 30 3d
       -0.15847942 -0.024464367 0.21349017 0.043193817
000290 53 31 86 bd b8 c1 19 bd c6 8b 83 35 86 41 d4 bd
       -0.065523766 -0.03753826 9.80094e-07 -0.1036406
0002a0 dd ef 0e 39 1c 78 d8 bc 74 4f 9a 3d f7 c0 cf bd
       0.00013631531 -0.02642446 0.07534686 -0.10144227
0002b0 f7 08 a1 bd cc 28 09 3e ed 9e 35 3e 48 16 74 3d
       -0.07863038 0.13394469 0.17736407 0.05959156
0002c0 89 10 70 bc 57 d8 23 be a8 22 45 3a 2d b9 8c bd
       -0.01465238 -0.16000496 0.0007520118 -0.06871257
0002d0 38 45 a9 bd ec a7 d1 3d 38 83 98 3d e6 1e 33 3d
       -0.082651556 0.10237107 0.07446903 0.04373064
0002e0 c0 c5 d0 bb 24 ef 0b 3d 96 c5 38 3e 03 94 ba 3d
       -0.00637123 0.03416361 0.18044123 0.09110262
0002f0 38 58 9c bd c1 c1 08 be 14 7e 6b 3d b9 05 1b 3e
       -0.07634014 -0.13355161 0.057493284 0.15138902
000300 bf 24 8f bd b7 7a a3 be f5 26 a0 bd 27 78 20 be
       -0.06989431 -0.31929561 -0.078199305 -0.15670834
000310 7c 03 70 be 7b 9e df bc 8b 6f cb 3d 4e c9 26 bd
       -0.23438829 -0.027297249 0.099333845 -0.040719323
000320 e7 54 78 bc 9c 45 af 3d 87 89 90 bc 83 f2 57 bc
       -0.015156961 0.08558199 -0.017643703 -0.013180378
000330 b1 d6 56 bd 1a 94 ce bd 0e fd 39 bd 96 b8 1c 3e
       -0.05245084 -0.10086842 -0.045407347 0.15304789
000340 78 44 ce 3c e9 cf 9f bd 85 74 06 be 7e 9f 86 bd
       0.025179133 -0.078033276 -0.13130386 -0.065733895
000350 87 7c 76 39 3d 8f 3d ba 83 e2 bc bc d7 0e da bd
       0.00023506778 -0.0007231122 -0.023057228 -0.10647362
000360 24 21 2b bc 39 14 f4 bb 2d 98 65 ba 01 e5 7b 3e
       -0.010444913 -0.0074487 -0.00087583327 0.24599077
000370 61 07 71 3e 7d de d4 3d 1a d1 0d bd 19 10 48 3e
       0.23537971 0.10393999 -0.034623243 0.19537391
000380 e5 cb 34 3e 87 1c ab bd d3 1d 13 3d 9a 89 be be
       0.17655905 -0.083550505 0.035917114 -0.37214357
000390 b2 01 70 be 44 d1 c7 bd 6c 93 50 3d f0 9b 03 3c
       -0.23438147 -0.09756711 0.050921842 0.008032784
0003a0 72 e5 8b 3d e2 cf 7c ba b4 5a f1 bc 5b 0a 18 3e
       0.068308726 -0.0009644014 -0.029462196 0.148477
0003b0 d9 06 42 3e 17 15 71 bc c6 a8 9b 3d 9b 31 24 3e
       0.18947925 -0.014714501 0.0760055 0.16034548
0003c0 83 b4 80 3e 91 ae 64 3e a7 0a 22 3e 08 3c aa 3c
       0.2513772 0.22332217 0.15824376 0.020780578
0003d0 b2 15 0c 3e 2a 04 1c 3e 23 1a 30 3c a8 4b 88 3b
       0.13680151 0.15235963 0.010748419 0.0041594096
0003e0 28 bc 2a bc 60 1c 86 3c cd 93 de 3d d3 cf a9 3d
       -0.0104208365 0.016370952 0.108680345 0.082915924
0003f0 74 20 19 3e db f8 1e 3e 9c 56 89 3e 1d 54 81 3e
       0.14953786 0.15524618 0.2682389 0.25259486

fc2.weight f4 [64, 64]
000000 f3 ac 0d 3e 85 4d d7 be 9f b1 8d 3e 2c a9 c6 3b
       0.13835506 -0.4205133 0.27674577 0.0060626473
000010 d2 ad 0d 3e c4 48 0e 3e 9d 00 8e 3e 01 59 97 be
       0.13835838 0.13894945 0.27734843 -0.29560092
000020 76 04 33 3d 5f 78 25 be aa 5c d8 3b 00 6b 0d be
       0.043705426 -0.16159199 0.0066028433 -0.13810349
000030 e6 2e c1 3d b1 cb 94 be 3f 86 a6 be 74 ef 15 bd
       0.09432773 -0.29061654 -0.32524297 -0.036605313
000040 f3 e4 c6 3e 2f 7e d4 3e 10 0c 00 3e dc 21 31 3f
       0.3884655 0.4150252 0.12504601 0.6919229
000050 46 02 83 3e e8 1e a1 be 36 c2 10 3f 65 b5 eb be
       0.25587672 -0.31468892 0.5654634 -0.4603683
000060 5f ca 9d be b1 1a d9 3e 5f f9 0c 3f be 82 44 3e
       -0.3081846 0.42403176 0.5506801 0.19190499
000070 48 d5 81 3e 10 53 99 3e 59 f0 5c 3e 55 81 80 3e
       0.25358033 0.29946184 0.2157606 0.25098673
000080 c0 40 62 3c 8a 17 46 bf 18 20 33 3f 61 30 08 be
       0.013809383 -0.7737967 0.69970846 -0.13299705
000090 56 9b 0d 3e 2d ac 0d be 21 98 3a 39 89 55 50 3e
       0.13828787 -0.13835211 0.00017795015 0.20345129
0000a0 b2 6c cc 3d 8b 9f 11 3f ad 4c 2c 3f 0a 1d 7b 3e
       0.099816695 0.5688407 0.673045 0.24522796
0000b0 5e 77 c5 3e b3 16 a2 3a 64 75 66 bc 6a 04 db 3d
       0.38567632 0.0012366384 -0.014066074 0.10694201
0000c0 53 d7 3a be 21 f2 0d 3f ba 8a 8b bd 20 4f 15 3e
       -0.18246202 0.55447584 -0.06813569 0.14580965
0000d0 6e df 93 b5 a3 26 90 3e 73 20 8d 3e 4d d6 0d 3f
       -1.101738e-06 0.28154477 0.2756382 0.5540512
0000e0 80 18 31 bf 6b b8 8d be ac 8f e2 3d a1 b7 82 bf
       -0.6917801 -0.27679762 0.110625595 -1.0212289
0000f0 a3 97 d6 3e e6 6c fd 3d bb 20 31 3f ea be 0d be
       0.41912565 0.12374286 0.6919057 -0.13842359
000100 a4 e8 57 3e 5f 85 fb 3e 6a 7e 0b be 93 a0 53 3c
       0.21084839 0.49125192 -0.13622442 0.012916702
000110 8c 71 fe be 9d 31 41 be 14 1e c6 be 04 b5 35 bf
       -0.49696004 -0.18866582 -0.38694823 -0.7097933
000120 4f 9e d4 be 3c ad 0d be 91 be 0b 3e 7e f7 0a 3e
       -0.4152703 -0.13835615 0.13646914 0.13570973
000130 89 a7 35 3d 2c 5a 3b 3f 88 04 ba 3d 11 1b fd 3c
       0.044349227 0.73184466 0.090828955 0.030896695
000140 db 12 8b 3e f2 73 a9 3e 86 3a ec 3e 61 ae 0d 3e
       0.27162823 0.33096272 0.461384 0.13836052
000150 11 03 d2 3d 63 4a 19 be 39 bc 0d 3e 92 b2 8d 3e
       0.10254491 -0.14969783 0.13841332 0.276753
000160 dc ac 8d 3e 95 d8 4e be b4 ed b9 3e 2e 1d 0b bf
       0.27670944 -0.20199807 0.36314166 -0.543414
000170 cc 9e 0d 3e c1 fe 81 be 6a f8 d3 be a6 12 40 39
       0.13830107 -0.25389674 -0.41400462 0.00018317494
000180 1b c5 8d 3e cf ac 8d be c5 94 8c 3c 58 f8 16 bf
       0.27689442 -0.27670905 0.017160783 -0.5897269
000190 97 15 31 3f 64 b6 0d be 84 3b c7 be e7 d4 8d be
       0.6917357 -0.13839108 -0.38912594 -0.27701494
0001a0 d0 1a 21 bd 7c b6 0d 3e e6 68 bc bd 32 a9 0d bf
       -0.03933221 0.13839144 -0.09199695 -0.55336297
0001b0 1e 67 ff 3d c1 cb f3 be 82 e2 0b 3e 33 6e 05 3f
       0.1247084 -0.4761639 0.13660625 0.52121276
0001c0 11 a8 b8 bd 2d 57 2e 3e d5 b8 0d be 74 8b ed bd
       -0.09016431 0.17025442 -0.13840039 -0.11598864
0001d0 d8 00 07 3f 05 e4 47 3c bb c2 fb be aa b7 7c bf
       0.5273566 0.01220036 -0.49172005 -0.9871775
0001e0 68 3f c6 3c bc 15 31 bf 16 b4 8d be 0c d9 a9 bd
       0.024200156 -0.6917379 -0.27676457 -0.082933515
0001f0 47 ac 14 3b 8c 82 d4 be ff 09 2c bc 5e ac 0d 3f
       0.0022685693 -0.4150585 -0.01050043 0.55341136
000200 c3 10 2b bf ad ab 8d 3e be 99 d0 bd 1a 7b a9 3e
       -0.6682245 0.2767004 -0.10185574 0.33101732
000210 a4 87 6e bf 5a 4b eb 3b 21 da bf be 99 00 d6 3e
       -0.9317572 0.0071806135 -0.37471107 0.4179733
000220 2b ac 0d bf f8 ab 8d 3e 59 31 03 bf c7 b4 0e be
       -0.5534083 0.27670264 -0.51247174 -0.13936149
000230 a1 84 aa 3e e1 2c 2d b6 90 aa 8d 3e 5c 69 d7 be
       0.33304313 -2.5805132e-06 0.2766919 -0.4207257
000240 fe ee e0 3c 67 c7 9b be 2e 04 47 ba 4d a3 8d 3e
       0.02745771 -0.3042557 -0.00075918704 0.2766365
000250 b3 8b c9 3e 3c 5b 91 3e 8b ac 0d 3e 9a cb 90 bd
       0.39364395 0.2838992 0.13835351 -0.07070084
000260 44 9b 88 be ef fd 4b 3b 21 82 72 be 58 bd 65 3e
       -0.26680958 0.0031126698 -0.23682453 0.2243551
000270 ff fc 89 be 60 07 99 37 9f 93 c3 be 44 fd 1f be
       -0.26950833 1.8242456e-05 -0.38198563 -0.15623957
000280 0d a1 8d 3e ef 00 d3 be 80 c2 d4 3e 85 04 15 3f
       0.27661934 -0.4121165 0.41554642 0.5821002
000290 5e 52 30 bf 73 b9 d3 3e cf 33 54 bf 56 a5 b5 bd
       -0.6887568 0.41352424 -0.82891554 -0.08869426
0002a0 1a f1 d1 3e 8d a7 67 be 93 37 ee be a1 e8 cb 3d
       0.41004258 -0.2262251 -0.46526775 0.0995648
0002b0 76 e4 0d 3e b2 7e 0d be 8e 05 8c be 0e 0c 8d 3e
       0.13856682 -0.13817862 -0.27347988 0.2754826
0002c0 28 cd 1c be 74 78 64 37 d5 b5 e8 3d d1 87 1c bf
       -0.15312636 1.3617904e-05 0.11362807 -0.6114474
0002d0 e4 8f 16 3e 99 34 b4 bb ee ac 0d be 2a 78 52 3e
       0.14703327 -0.005499434 -0.13835499 0.20553651
0002e0 2e 4a 0e be c9 b8 9d 35 dc 2c 30 3e 14 83 d4 3e
       -0.13895485 1.1751191e-06 0.17204612 0.41506255
0002f0 e1 fe 81 3d c7 82 d4 be ec eb 3e be 42 6c 4e 3f
       0.063474424 -0.41506025 -0.18644685 0.8063394
000300 0e f8 0c 3e 77 60 6d 3e a1 7e 63 be 67 91 96 bd
       0.137665 0.2318133 -0.22216274 -0.07351952
000310 89 a1 ae 36 47 ab 0d 3e 0d 67 48 3e a5 df 81 3e
       5.2044093e-06 0.13834868 0.19570561 0.2536594
000320 41 9b 0d 3e 89 6f 15 bf 7a aa 0d be 94 2b e5 bc
       0.13828756 -0.58373314 -0.13834563 -0.027974881
000330 ee 7a 05 3f 83 54 28 3f 8d ac 0d 3e ae f3 00 3e
       0.521407 0.65753955 0.13835354 0.12592956
000340 03 46 73 bd e4 d7 a8 bc 05 0a 8e 3e bc ec 16 bf
       -0.05939294 -0.020610757 0.2774202 -0.5895498
000350 b4 b9 13 be 79 7e d4 be 41 ad 0d 3e 30 ae 79 3e
       -0.14426309 -0.4150274 0.13835622 0.24382854
000360 40 fe d0 3d e6 ab 8d 3e e4 75 09 3e 1d 83 d4 3e
       0.10204744 0.2767021 0.13423878 0.41506281
000370 dc 39 e0 bd 83 ad d6 bb be a5 87 3d 85 9a ab 3e
       -0.10948536 -0.006551446 0.0662341 0.33516327
000380 b7 c6 23 3b 60 89 8d 3e 23 5b 26 be 6e d7 8d 3e
       0.002499027 0.2764387 -0.16245703 0.27703422
000390 b6 52 85 bc c5 6b ac be 60 fb aa 3d af b6 0d 3e
       -0.016274791 -0.33675972 0.08348727 0.1383922
0003a0 4a 58 03 bf be e0 e8 be 72 b8 8d be 4f b1 8d 3e
       -0.51306593 -0.45483965 -0.27679783 0.27674338
0003b0 e7 69 cd be 92 83 d4 3e 11 6b 87 3e 3d 9d 09 bf
       -0.4011986 0.4150663 0.26448873 -0.5375555
0003c0 13 ad 0d 3e a8 f5 50 bf 1d ac 0d 3e 2d a0 0d 3e
       0.13835554 -0.8162484 0.13835187 0.13830633
0003d0 dd 16 6b be 5b ba 8d be 0b c2 4a be 8c 91 28 38
       -0.2295794 -0.2768124 -0.19800584 4.0189872e-05
0003e0 04 b4 42 3d c9 39 d4 3e 19 1c 42 3e 06 b0 8d 3e
       0.047534958 0.41450337 0.18956031 0.27673358
0003f0 6a 29 8f be 18 79 08 b9 40 8e 1c bf fb c6 9e 3d
       -0.27961284 -0.00013015082 -0.61154556 0.07752796

fc3.weight f4 [64, 64]
000000 ce 67 58 3e 6e 28 8f 33 50 8f 19 bd 1b 49 78 3e
       0.21133348 6.6663105e-08 -0.03749019 0.24246638
000010 3e fb 76 3e 71 50 09 3f bc b4 8a 3e 76 6a b9 be
       0.24119279 0.5363837 0.27091014 -0.36214036
000020 18 15 8a be 7f 09 77 be 49 1c 38 bf 9d 8d 77 3e
       -0.26969218 -0.24124716 -0.7191816 0.24175115
000030 00 41 19 b7 29 59 70 3e d3 f0 75 3e 64 21 f7 3d
       -9.134645e-06 0.23471512 0.24017648 0.12066916
000040 f9 a0 8d 3e 34 99 28 be 3e a9 04 3e 42 24 dc 3e
       0.27661875 -0.16464692 0.12955186 0.42996413
000050 da 5b e2 3d c4 7a a4 bd 57 28 a7 be e5 27 84 be
       0.110526755 -0.08031228 -0.32647964 -0.25811687
000060 24 b3 08 bf 03 e7 0a bf 3c 2c f7 bd 93 4e cf bc
       -0.53398347 -0.54258746 -0.12068984 -0.025306022
000070 a6 cd b9 3e 4d 46 7b be a9 dc a4 be 91 0c 3f be
       0.3628971 -0.24538536 -0.321996 -0.18657137
000080 e6 d3 63 3b dc 91 f6 3e 33 d1 1f bf 1d 89 b2 be
       0.0034763752 0.48158157 -0.6242859 -0.34870234
000090 5c 3f 41 bf 4c e6 1b 3d 41 02 ca 3e f1 70 06 3e
       -0.75487304 0.038061425 0.39454845 0.13129021
0000a0 14 b6 7b be e9 4c 78 3e b0 56 9e 3d 57 1d bb 3e
       -0.24581176 0.24248089 0.07731378 0.36545822
0000b0 e6 5c b9 be d2 1b 77 3e 1d 79 f7 be 60 48 db 3e
       -0.36203688 0.24131706 -0.4833459 0.42828655
0000c0 f9 c9 80 bd 35 a3 b7 3e 72 00 9b be fa 28 03 be
       -0.06288523 0.35866705 -0.30273777 -0.128086
0000d0 0d f4 cf be 50 82 ae be 07 41 d1 bc f1 bb 14 be
       -0.40615883 -0.34083796 -0.025543703 -0.14524819
0000e0 bc a5 87 be ee a9 93 be ba 26 b4 be e3 5d ad 3e
       -0.26493633 -0.28840584 -0.35185796 0.33860692
0000f0 e8 b5 ed 3d bf 29 2d 3b 22 f2 64 be e2 b8 aa 3e
       0.116069615 0.0026422588 -0.22357991 0.3334418
000100 86 e9 f8 3d 67 20 1e be 24 69 d6 be 6d 87 a0 bd
       0.12153916 -0.15442048 -0.4187709 -0.078383304
000110 6b 1c f7 3e 46 81 01 be 9b 6a 71 3d a6 d9 65 3e
       0.4826387 -0.1264697 0.058939558 0.22446308
000120 55 4b b9 be 4d 5d 51 bf 4a 48 89 b6 9a 28 92 be
       -0.36190286 -0.8178299 -4.0913337e-06 -0.28546602
000130 92 f5 97 be 92 e9 f5 be 71 d3 bf be 27 c5 8a 3e
       -0.29679543 -0.48029763 -0.37466004 0.2710354
000140 29 1a 83 3e 8b 43 ab 3d 0b 47 81 be 10 18 f7 bd
       0.25605896 0.08362492 -0.25249514 -0.120651364
000150 a9 84 33 bf e1 ec eb b7 5c 25 1d 3e cb 99 dc 3e
       -0.701243 -2.8124488e-05 0.15346283 0.43086085
000160 bb c5 b8 be b5 28 f7 3d 8f 36 0b 3d 63 e4 ea b9
       -0.36088356 0.12068311 0.033987578 -0.0004480212
000170 e2 7c 08 be 24 44 00 3f 10 de da bd 1a ed bb 3e
       -0.13328889 0.50103974 -0.10686886 0.36704332
000180 40 de f6 be 7c 24 f7 3d 40 99 e9 be eb 59 d5 be
       -0.48216438 0.12067506 -0.45624733 -0.41670164
000190 f7 04 54 3e 43 80 f7 bd c4 b8 7c 3e aa 3a 03 3e
       0.20705019 -0.12085011 0.24679857 0.12815347
0001a0 64 4d b9 be 15 20 f7 3d da 0d e1 be ad 70 19 be
       -0.36191857 0.12066666 -0.4395588 -0.14984389
0001b0 9f f1 f6 bd 41 d6 a1 3e a2 2a 36 3e 66 91 29 3b
       -0.12057804 0.31608775 0.177897 0.0025874018
0001c0 37 2b f7 bd fd 96 f5 bc 50 5d b0 be a8 78 1a bf
       -0.120687895 -0.029979223 -0.34446192 -0.60340357
0001d0 de 4d 62 3e 55 bb b8 b6 2b 0b 03 3e 59 c8 b8 be
       0.22100016 -5.5054356e-06 0.12797229 -0.36090353
0001e0 ca c0 ae 3e b2 29 f6 3d e8 a3 3c bf 45 08 f7 3d
       0.3413146 0.120196715 -0.736876 0.12062124
0001f0 3a 1d 4c 3e 5e 32 1b 3f 1b fb ac bd a5 47 91 be
       0.19933024 0.6062373 -0.08446332 -0.28374973
000200 13 ce f2 3d 98 1b b9 3e 8b 12 f1 3d 81 2f 6a 3d
       0.11855712 0.36153865 0.11771115 0.05717421
000210 08 17 ad bb b1 32 6b b9 29 fa a1 3e 37 d1 67 3e
       -0.0052822866 -0.0002243023 0.3163617 0.22638403
000220 f8 b7 88 3d 2c b6 f6 be 9b 4b 6a b6 fc 9b f6 be
       0.06675714 -0.4818586 -3.4912725e-06 -0.48165882
000230 2c 58 54 be d4 2c 9b 3e 17 cd 07 3e 46 b4 b9 be
       -0.2073676 0.3030764 0.1326183 -0.3627035
000240 03 51 b9 be 5d e0 ee 3d d2 fe f6 3e 81 15 2f bf
       -0.3619462 0.11663888 0.48241287 -0.6839219
000250 47 d6 23 3c 78 3a 67 3e 40 6a b9 be e0 9b f7 3e
       0.009999818 0.22580898 -0.36213875 0.4836111
000260 77 10 20 be 12 23 b8 be 19 e9 1d bf 50 4f b9 be
       -0.15631281 -0.35964257 -0.61683804 -0.36193323
000270 ff 4c 7a 3e e2 b1 ba 3e 5a d7 ff 3d 02 f4 b4 be
       0.24443434 0.3646384 0.12492247 -0.35342413
000280 cf 2d b9 be f0 25 f8 bd d9 a3 f5 be 25 dd 93 3e
       -0.36167762 -0.12116611 -0.47976568 0.28879657
000290 6f b7 aa 3e af 4e 7f bf ca e3 9f 3d aa b5 ef bd
       0.33343074 -0.99729437 0.07807119 -0.117045715
0002a0 91 84 b9 3e ec a8 cc b5 96 bf d4 bd 74 81 98 be
       0.36233953 -1.5248347e-06 -0.103881046 -0.29786265
0002b0 f2 10 b2 3e b7 68 77 3e 3d be a8 be de 7f 82 3d
       0.34778553 0.2416104 -0.3295764 0.06372045
0002c0 a1 43 27 be 6f c6 77 be a4 1b 77 be 2e ba db 3d
       -0.16334392 -0.2419679 -0.24131638 0.1072887
0002d0 5a 59 3f bf 82 9c 72 be 92 1d 77 be 92 c7 1f bd
       -0.74745715 -0.23692515 -0.24132374 -0.039008684
0002e0 47 69 60 3b 16 ae b0 be 1e b5 8b 3e 5b cf 19 3f
       0.0034242438 -0.34507817 0.2728662 0.60082024
0002f0 bc 55 b9 3e 54 95 21 bf a6 50 0a be 69 c1 ad 3b
       0.36198223 -0.6311848 -0.13507327 0.0053025973
000300 53 4e c0 be f0 12 f7 bd b6 87 42 be 76 cb b2 be
       -0.37559757 -0.12064159 -0.18997082 -0.34920853
000310 1c 61 81 3e 3d 8e cf 3d 4b 98 83 b9 f9 6f 88 be
       0.252694 0.10134552 -0.00025099734 -0.26647928
000320 a6 26 f7 be b1 ec 7c 3b d1 3b e9 b8 c0 2d f2 3e
       -0.48271674 0.0038593228 -0.000111214475 0.4730053
000330 5f 0d be 3e e9 e1 9e 3e 5d 81 74 bd ec 19 77 3e
       0.37119576 0.3103173 -0.059693683 0.24130982
000340 7d 9e f6 3e 6a 6d c0 bb e2 f0 f6 3d ea fd d4 be
       0.48167792 -0.005872418 0.120576635 -0.4159997
000350 37 ad 95 3b 73 65 2a be d7 54 b9 be b7 0c a5 3d
       0.004567768 -0.16640262 -0.3619754 0.08059066
000360 0f 00 16 b8 59 2f da 3e 8a 86 55 3e 3c 51 f7 3d
       -3.576284e-05 0.42614248 0.20852104 0.12076041
000370 f8 91 ea ba 73 1c 77 3e 33 86 85 be 2e 72 b9 3e
       -0.0017896285 0.24131946 -0.26078948 0.36219925
000380 49 eb b9 3e 5a 03 25 3e 53 c8 3a be 8b 31 f7 3d
       0.3631232 0.1611456 -0.1824048 0.120699964
000390 cb 2b 58 bf a9 74 ec 3c 3a 89 9f 3e 8a 3d 77 be
       -0.8444182 0.028864222 0.31159383 -0.24144569
0003a0 c3 40 19 3f 3f e9 eb be 68 ec 44 be d2 3b 54 3e
       0.59864444 -0.4607639 -0.19230807 0.20725945
0003b0 f2 79 96 3e 37 ef 8a 37 bc 50 cc bd 21 24 f8 3d
       0.29389912 1.6562275e-05 -0.09976336 0.12116266
0003c0 97 5c 66 be 85 28 ba be 9b 0b 5b 3e e0 9d f5 be
       -0.22496258 -0.3635904 0.21391146 -0.47972012
0003d0 7b 47 82 be d7 39 e7 be 16 86 2f 3e 96 05 df bc
       -0.2544516 -0.45161316 0.17140993 -0.027224343
0003e0 ab 55 b9 3e 02 39 a7 be 11 67 22 bb 3e c1 ba 3e
       0.36198172 -0.3266068 -0.002478067 0.36475557
0003f0 b7 24 03 3d a0 15 a7 be 21 37 98 3d dc aa fa bc
       0.032017436 -0.32633686 0.0743239 -0.03059905

fcl.weight f4 [27, 64]
000000 31 32 8c 3e 7b 17 fa be 5a 23 b1 bf f9 87 bb 3d
       0.27382043 -0.4884604 -1.3838913 0.09156794
000010 b6 16 e8 be 27 f4 1b 3f 4d fd 48 bf 72 41 5d 3e
       -0.45329827 0.6091942 -0.78511506 0.21606997
000020 43 dc 95 be c0 5d d0 be 8f 1e 5f bf 69 e2 55 3e
       -0.2926961 -0.40696526 -0.87156004 0.2088715
000030 58 5c d0 3e 06 5d e7 bd 63 bc fa be 56 0c 22 bf
       0.40695453 -0.1129704 -0.48971853 -0.63300073
000040 4b cb c8 3e cd 37 0d bf e3 57 d0 3e 5b 09 b2 be
       0.392176 -0.5516327 0.40692052 -0.34772763
000050 b7 e7 4f bf 16 cf 9a bb 42 f1 a2 bf 40 26 f8 be
       -0.81212944 -0.0047243936 -1.2729876 -0.48466682
000060 e7 40 1c bf dc a8 50 3e f3 3a f4 3d af 29 00 bf
       -0.61036533 0.20376915 0.11925306 -0.50063604
000070 b5 52 27 bf b9 ee d1 3e f4 e4 22 bf 5d 6c b5 bf
       -0.65360576 0.41002443 -0.63630605 -1.4173695
000080 2c 14 45 3f 58 64 23 be 3d ec ae be 7e 3d 28 bf
       0.76983905 -0.15956247 -0.3416461 -0.6571883
000090 fe 18 a5 bf 5a 6d 51 bf 8a 19 36 be 63 4f 3a bf
       -1.2898252 -0.8180748 -0.1778318 -0.72777385
0000a0 24 56 1c bf 66 59 82 bf 4c d2 d7 3e 70 02 6f 3e
       -0.6106894 -1.0183532 0.4215263 0.23340774
0000b0 65 a1 50 3e 12 d3 b2 be fc 18 19 bf f6 bd c5 bd
       0.20374067 -0.3492666 -0.5980375 -0.09655373
0000c0 9a f5 b1 3c 1e 29 cd 3e 9a e3 fa be 88 ea 12 bd
       0.021723557 0.40070432 -0.4900177 -0.035868198
0000d0 8d 6a ef be af 4d 50 3e b3 e5 cb bd 3f 72 02 be
       -0.4676098 0.20342134 -0.09955921 -0.12738894
0000e0 b4 12 fb bd f4 da c9 be d9 43 9b 3e 1e 2a 1c bf
       -0.12259427 -0.3942486 0.303252 -0.61001766
0000f0 18 7e 7c bf cd f2 27 bd 94 fc 07 3f 3c 4a 1e be
       -0.98629904 -0.041003037 0.5311978 -0.15458006
000100 68 45 9c bf 4c 5b 50 be 7c 5f 1b bf 43 0f e7 35
       -1.2208681 -0.20347327 -0.6069257 1.7215283e-06
000110 48 90 50 bf 02 59 50 bf 4a 59 50 be 94 51 57 be
       -0.81470156 -0.81385815 -0.20346561 -0.21027213
000120 2d 67 15 bf e3 f3 f5 bb bb ef 22 be 52 a9 7c 3f
       -0.5836056 -0.00750588 -0.15911762 0.9869586
000130 9a 5b 50 3e ab 5b 50 bf 79 a6 2f 3f 7a d0 35 3f
       0.20347443 -0.81389874 0.6861339 0.71021235
000140 07 a1 5b 3e c2 9c 8b bb c0 91 9b 3e c9 0d 9a b7
       0.21448146 -0.0042606303 0.30384636 -1.836465e-05
000150 59 65 50 be d1 61 71 3f 8f 45 1c bf 43 5c 50 3e
       -0.20351161 0.9428988 -0.6104364 0.20347695
000160 e0 5f d0 3e 6c 52 6d be ab 84 1d bf 89 97 b7 3b
       0.40698147 -0.23175973 -0.6153056 0.005602781
000170 de 15 f0 bc a3 5b 50 3f 17 18 0a bf 23 1b 3c bf
       -0.029307302 0.81389827 -0.5394301 -0.7347891
000180 01 0b 01 3e 4f f3 3b bf a6 48 1c bf 10 17 2e bf
       0.12601854 -0.73418134 -0.6104835 -0.6800394
000190 b1 43 4c be c4 fe 81 be 55 eb 4e 3e 07 92 52 be
       -0.19947697 -0.25389683 0.2020696 -0.20563518
0001a0 82 44 1c 3f cf f8 7a be 13 60 c1 be 60 05 07 bf
       0.61042035 -0.24508975 -0.3776861 -0.52742577
0001b0 e0 07 47 bf f9 ac 0b bf 56 80 50 be b2 4d 5b bf
       -0.7774639 -0.5456081 -0.20361456 -0.8566543
0001c0 8a 6a e3 bd 6a 3f 4e be 70 d9 68 3e f2 db 97 bb
       -0.11104305 -0.20141378 0.22739196 -0.004634374
0001d0 dc 4e fc 3d 1c 2c 52 3e 8f 05 13 3e 3b 1e 5a be
       0.12319729 0.20524639 0.14357589 -0.21300595
0001e0 f9 04 51 be 25 6e d0 be 8d c1 3d 3f f5 75 69 be
       -0.20412053 -0.40709034 0.7412346 -0.22798903
0001f0 c0 5d 50 3f 76 74 02 bd f5 cb 82 3d 04 a5 bb 35
       0.8139305 -0.031849347 0.06386558 1.3980612e-06
000200 7f 5d 50 3e 9e 78 90 3f c2 04 ad be fd 6f 50 3e
       0.20348166 1.128681 -0.33792692 0.2035522
000210 da f6 bb b5 05 20 8c be 75 2d 58 bd cf 3c 1c 3f
       -1.4004429e-06 -0.2736818 -0.052777726 0.61030287
000220 70 43 2f be cd 99 5e bc c1 a8 83 bf 35 93 bf be
       -0.17115569 -0.013586474 -1.0285875 -0.37416998
000230 23 05 6a b6 4f 09 ac be 0a 6d d0 be 33 b3 cf be
       -3.4871707e-06 -0.33600852 -0.4070819 -0.40566406
000240 41 99 61 be 2f 0f 86 be 5c 2e 82 3f 42 f7 4f 3e
       -0.22031118 -0.2618346 1.0170398 0.20309165
000250 9d 86 50 be 39 36 09 be df 5a d0 3e 8c 5c d0 3e
       -0.20363851 -0.1339959 0.4069433 0.40695608
000260 49 3c 56 be ae 69 a7 be 8e 6c 50 bf e7 5b d0 be
       -0.20921434 -0.32697815 -0.8141564 -0.40695116
000270 cc 5b 50 3f a1 1e 20 bf ab 5b 50 bf 6c 5f d0 be
       0.8139007 -0.62546736 -0.81389874 -0.406978
000280 e8 fe 5b be 50 55 d0 3e 8e 98 08 ba 0b 63 51 bf
       -0.21483958 0.40690088 -0.00052107207 -0.8179175
000290 17 09 c8 39 2f 17 ec be 94 5d 50 be 50 94 1c bf
       0.00038153745 -0.46111438 -0.20348197 -0.61163807
0002a0 db b2 07 3e 73 e9 40 be 80 5e 50 be a8 51 50 be
       0.13251822 -0.18839054 -0.20348549 -0.2034365
0002b0 7e 33 a6 3e 58 1d 70 be df 7f 99 b6 06 f1 f0 37
       0.3246116 -0.23448694 -4.5746415e-06 2.8722465e-05
0002c0 35 62 d0 3e a0 36 f2 3e 39 ca 65 be 26 5c 50 be
       0.40699926 0.473073 -0.22440423 -0.20347652
0002d0 47 3e 50 be 8d 59 50 be 77 74 0b bf 52 69 5c 3e
       -0.20336257 -0.20346661 -0.54474586 0.21524552
0002e0 d2 d7 46 be 80 5b 50 be 21 5b d0 3e b9 6d 50 3f
       -0.19418266 -0.20347404 0.40694526 0.81417423
0002f0 d6 9b f7 be 81 31 4e be 96 12 84 3e c7 5f f0 3d
       -0.4836108 -0.20136072 0.2579543 0.11737018
000300 23 26 4f be 3f ef 92 be 7c 85 d4 be 78 c8 f9 be
       -0.20229392 -0.28698155 -0.4150809 -0.48785758
000310 fe 87 50 3e 16 5b d0 be 3e 45 1c 3f 72 f8 d2 be
       0.20364377 -0.40694493 0.61043155 -0.41205174
000320 7f 5c 50 bf 7b d0 50 3f f4 06 d1 35 97 a4 d7 be
       -0.8139114 0.81568116 1.5573737e-06 -0.4211776
000330 b0 64 59 3e f5 34 92 36 09 43 1c bf 80 1d bd be
       0.21229815 4.357304e-06 -0.6103979 -0.3693657
000340 6e 4e 1c bf 11 78 5d bf fc cc 55 be 84 5c d0 3e
       -0.61057174 -0.8651133 -0.20878977 0.40695584
000350 ec 57 f4 3a fb 6a d9 be 73 59 50 be fc 35 86 3d
       0.0018641925 -0.42464432 -0.20346622 0.065532655
000360 b4 dc a6 be 6b 14 5c be dd 44 1c 3f b2 44 9c 3f
       -0.32590258 -0.21492164 0.6104258 1.2208464
000370 e3 44 1c 3f 16 30 94 be fa 5f 50 3e 26 5b d0 be
       0.6104261 -0.28942937 0.20349112 -0.4069454
000380 61 15 7d be 36 0c d0 be 90 bf 3a bf da 90 70 b7
       -0.24715187 -0.40634316 -0.7294855 -1.4338841e-05
000390 5c 4c ef be ce db 93 be b3 1f 48 3e fc 2a 1c bf
       -0.46737945 -0.28878635 0.19543342 -0.6100309
0003a0 cb ca 19 3f 84 45 1c bf 42 ea 05 3a 3b f8 19 3e
       0.6007506 -0.6104357 0.00051084545 0.15036099
0003b0 a7 48 45 be 04 6c 09 bf f7 81 50 bf 34 5c d0 be
       -0.19265996 -0.53680444 -0.8144831 -0.40695345
0003c0 ee b2 a4 be bd 32 cd 3a e6 41 c5 be 81 4a c3 be
       -0.32167763 0.001565538 -0.3852684 -0.3814278
0003d0 25 aa a5 3e 9d 43 ff 3d d6 46 1c bf d0 b7 50 3e
       0.32356372 0.12464068 -0.6104559 0.20382619
0003e0 b2 78 47 3e 00 97 55 3d e7 16 cf 3e bb 47 ba b5
       0.19479635 0.052145958 0.4044716 -1.3878956e-06
0003f0 a3 ea 97 3e 08 bc 37 be 9b 90 63 be 76 cd e0 bd
       0.296712 -0.17942822 -0.22223131 -0.109766886
