modeldata/octav__CNNMNIST_Aug_BitMnist_4bitsym_width96_64_0_epochs60.pth (torch, 137291 bytes, 6 tensors)

model.0.weight f4 [64, 1, 3, 3]
00000000: 8500 bc3d ecd1 963d 9434 763e 75e7 4dbd
00000010: f86e 363c 52ce 0dbf bac0 f3be 0db7 d3be
00000020: fffd 5cbe 98b9 32bd 5568 113e a7d3 193d
00000030: db61 96be c262 6e3d 3d03 993e 6667 8bbe
00000040: 504c c7be f520 c9bd db42 29be d98c b53e
00000050: 208e 41be 7767 0b3e b36c 5c3d fec2 83be
00000060: d6d7 f33c dcc9 863d fe6a 8ebd 5e17 0c3f
00000070: 0375 c93e 1ca6 f53d 304b 083f 3eec 4bbe
00000080: d417 08be 1f5d 763c 52ce 2fbe ecd8 e23d
00000090: 5195 0cbf ba4b 713d 6399 323e 0dcf abbe
000000a0: 692c f33d 2ae1 8dbe 66a9 5d3e 1b0b 4a3e
000000b0: 7f3d a0bd 64fd 19bf b0aa ab3d a504 6a3e
000000c0: f949 21be eca7 f9be c02b b3be 0213 b9bc
000000d0: fbce f23d c8b3 3abe 4151 52bc f11b 56bc
000000e0: 3f2c b23b bcba 6e3e dad0 0bbe b407 77be
000000f0: 7652 893e ea94 383d eb1c 37bd 3abe 963e
00000100: 6fd1 fb3d 2a07 8abc 9c22 72bc a60b b13d
00000110: d5db 00be 5be1 8b3e 5df2 193e e829 5e3e
00000120: 4164 ddbb 2353 d5bd 09ea 35be 098a 2a3e
00000130: 2a83 c5bc 1f01 3abd e673 6e3e 294f e1bc
00000140: da74 1fbe d55a b83e 9f78 553d 7988 b1be
00000150: 3988 0a3e 505f e0bd 8abb 9fbd 704f b13d
00000160: e601 b0bb f789 b7bd 3512 f83d e579 02bf
00000170: 0b17 1bbe f4ab 8f3e c242 bbbe bea5 7bbd
00000180: fab4 813e 196f 643e 0eb7 19bc 5b02 e73e
00000190: a14d d43e fb2f eebe 1272 b23b e21b 5d3c
000001a0: 5b52 02be 3a02 e3bd 4d1a 993d 608d 66be
000001b0: 19be 0abf f479 1ebe 6443 07bf 6188 fcbe
000001c0: 8a61 403e 8c11 bebe 6700 513e fc76 873e
000001d0: 6633 b63c 7d32 333e 14eb a13e 43e8 4b3e
000001e0: 119d ccbd e3a6 8bbe 0a72 65be af14 9e3c
000001f0: a94b b1bd fea1 883e 20f1 b03d 2cfc 6abe
00000200: d28e f6bc 9508 043e 56ca 76be d6ab 7bbd
00000210: 900f b3be 96f4 debe 89a5 ab3e e51c 49be
00000220: 10c8 c33d 7478 5f3d 92b7 843e 8174 9a3e
00000230: 5d57 a3be 2c72 5abe c72c a9be 6a39 c2be
00000240: dc7a babd 72e6 da3c 3367 4b3e a68b cebd
00000250: 5b27 773e e16f 2ebe 111c a03e ad6f 0abe
00000260: 598d b5ba 4cf2 063f c7b9 39bd f416 5dbe
00000270: ae59 833e a9a1 2c3e b572 bd3d 93a8 93be
00000280: 3552 41be 93a0 e83c 0587 a63b da9e 873e
00000290: 4a03 7b3e cbc3 b83e 0020 523d 254d 9bbe
000002a0: 28fc 13be 9069 83be 0c98 bfbe 7fb0 c0be
000002b0: 667c e3be 2ee3 d03e 4fba 9e3e e47e 953e
000002c0: ff4f b7bc d88a 72be f763 19bd c719 503c
000002d0: 8d2e 753e d7e8 32be 3750 8e3b 824f 673d
000002e0: 3432 67bd c6b7 c43e e68c ec3e ed0c 313e
000002f0: e873 2ebe be1c b83e edd8 0abe 8634 d3be
00000300: 6744 2a3e a2d0 bc3a 5dd6 c7be f95f 22be
00000310: 009e 54be 7bfc 783e efa5 64be 9bb0 583a
00000320: c8bc a9be 7086 46bd b505 9fbe d88c d23e
00000330: 1a05 1abe 74cc a53e 46e9 a8be 9880 153e
00000340: a06b 7dbe d9ae 97be 0e7f df3d 6b7d 163c
00000350: 8a11 d83e 97b4 763d 2b79 dc3d c54e 1cbe
00000360: b46e 6aba 1f08 eb3d 4a3d 2c3e 0755 013e
00000370: fcb6 b83d ec81 b4bd 1126 8c3e be27 aebe
00000380: 39ea 3b3d 15ad cb3d 2bb4 c23e b004 f4be
00000390: 927f af3e 1c65 50be d32a abbe 56c0 f4be
000003a0: c408 c9be 50bb e9bc e107 52be 1104 a4bd
000003b0: 06d7 46be d719 243e 8375 1f3e 741a bc3e
000003c0: f8b2 9c3e 038a 45be f541 283e 5b82 93be
000003d0: 6ac6 06be cc8e 04be 1213 893e c8fb 92bd
000003e0: 4a03 09be 4e7f e03d da25 623e b3a0 523e
000003f0: bff9 45bd 1253 dfbd b4eb 9e3e 81b5 523e
0.091797866 0.07364258 0.24043494 -0.050269563 0.011134855 -0.55392945 -0.47607976 -0.41350594
-0.21581267 -0.043634027 0.14199956 0.037555363 -0.29371533 0.05819965 0.29885283 -0.27227324
-0.3892541 -0.09820739 -0.1652941 0.3545902 -0.18901873 0.13613687 0.0538146 -0.25734705
0.029766005 0.0658147 -0.06954001 0.54723155 0.39347085 0.119945735 0.5323973 -0.19914338
-0.1329034 0.01503685 -0.17168549 0.11076531 -0.5491534 0.05891011 0.17441325 -0.33556405
0.11873705 -0.2771085 0.21646652 0.19730799 -0.078242294 -0.6015227 0.083821654 0.22853334
-0.15750875 -0.48760927 -0.34994316 -0.022592071 0.11855885 -0.18232644 -0.012836755 -0.013068185
0.0054374035 0.23313421 -0.1365389 -0.24124032 0.26820725 0.04506389 -0.044705313 0.29442006
0.12295806 -0.01684912 -0.014778759 0.086448 -0.1258386 0.2732037 0.1503386 0.21695673
-0.006756336 -0.10416248 -0.17765059 0.16654219 -0.024110395 -0.045411225 0.23286399 -0.027503567
-0.15571919 0.360068 0.052116986 -0.34674433 0.13528527 -0.109556794 -0.07799442 0.086577296
-0.00537132 -0.089618616 0.12112848 -0.50967246 -0.15145509 0.28060877 -0.3657437 -0.06143736
0.25333387 0.22308005 -0.009382023 0.45118985 0.41465476 -0.4652098 0.005445727 0.013495417
-0.12726729 -0.11084409 0.074757196 -0.22514868 -0.54196316 -0.15476209 -0.52837205 -0.493228
0.18787208 -0.37122762 0.2041031 0.26457965 0.022241306 0.17499729 0.31624663 0.1991282
-0.099908955 -0.27275762 -0.22406784 0.019296972 -0.08657009 0.2668609 0.08639741 -0.22947758
-0.030097399 0.12893899 -0.24100623 -0.061443172 -0.3497281 -0.4354598 0.3352473 -0.19639929
0.09559643 0.054558232 0.25921303 0.3016701 -0.3190259 -0.21332616 -0.33041975 -0.37934428
-0.09105465 0.026721213 0.19863586 -0.100852296 0.24136107 -0.17034866 0.31271413 -0.13519163
-0.0013851329 0.52713466 -0.045343187 -0.21590787 0.25654358 0.16858543 0.09250394 -0.2883955
-0.18879016 0.02839688 0.0050820136 0.26488382 0.24512973 0.36086878 0.05130005 -0.30332294
-0.14451659 -0.25666475 -0.3742069 -0.37634656 -0.44430846 0.40798324 0.31001517 0.29198372
-0.022377012 -0.23685777 -0.03744885 0.012701458 0.23943539 -0.17471634 0.0043430584 0.05647231
-0.05644436 0.38421458 0.46201247 0.17290087 -0.17036402 0.3595943 -0.13559313 -0.4125101
0.16627656 0.0014405439 -0.39030734 -0.15856923 -0.20763397 0.24315064 -0.22328924 0.00082660624
-0.3315184 -0.048468053 -0.31059042 0.4112308 -0.15041009 0.32382548 -0.32990474 0.14599836
-0.24748087 -0.29625586 0.10912906 0.009185175 0.4220088 0.060230818 0.107652985 -0.15264423
-0.00089428877 0.11476158 0.16820255 0.12630092 0.090192765 -0.08813843 0.27372792 -0.34014696
0.04587767 0.09945122 0.38028082 -0.47659826 0.34277016 -0.2035107 -0.3343111 -0.4780299
-0.392645 -0.0285317 -0.20510818 -0.08008588 -0.19417962 0.16025482 0.15572171 0.36738932
0.30605292 -0.19290929 0.1643141 -0.2881039 -0.13161626 -0.12945098 0.26772362 -0.0717693
-0.13380161 0.109617814 0.22084752 0.20569114 -0.04833388 -0.10904516 0.31039202 0.20577051

model.2.weight f4 [64, 1, 3, 3]
00000000: 7716 d2bd 91a2 e4be a091 32bf 3bc6 a23e
00000010: 80b7 993e c653 09bf 6b97 f13d 3022 033d
00000020: 14b7 d4be c07d 0a3e d33c f63d c7c7 b03d
00000030: 7c23 893e 910f 893e 3c50 4d3d b905 11bd
00000040: 3e1e 543c 9a86 963e c4a3 08bf a221 703c
00000050: 4bd4 f23d 3ec6 a2bd 6682 94bc 445c 14be
00000060: 6d6c bc3e 5080 15bf 1ed2 4e3d bf6e a9be
00000070: 98f4 f2bd 57e6 a73e bd88 d3be 5648 45bd
00000080: 38ef 91be f035 433e 129f 3cbf 6ffc 1bbf
00000090: 0ede 1b3e 486e 28bf c7c5 b73d 936c dfbc
000000a0: b4ab 50bf 791f 8d3e 5d2a 8ebe d739 63be
000000b0: 39aa 253e cc73 2ebd 96e2 a9be 3a56 5cbe
000000c0: f12d 903e 2165 5dbd 2148 8fbe bc30 953e
000000d0: 5b45 bf3e 2e4d 1bbb 08d6 2ebe ba2c 863e
000000e0: fb84 31bd ade1 223e aeb0 a23e e0ac 0d3d
000000f0: 4e1a c33e 1098 e23d f714 093e 8645 87bd
00000100: 21ec 3fbe 567b 343e f6e6 7a3d 7ca4 1dbe
00000110: 776e 9b3e 6e1f 0c3e 501d babc a4d6 973e
00000120: 5c76 523e 873b 333e 400b efbc ce8b 843e
00000130: f5b9 883d 3bab dabe bce2 243c 51ad bb3d
00000140: fd05 4a3e e7e0 363d 5452 c93e a434 a83e
00000150: 112c b2bd 22da 633e 5f95 0cbd 82f4 01be
00000160: 766e 9b3d b956 76be e4fe 7bbe c9e1 87be
00000170: fabc acbe f346 e03d ff00 5d3d b2dc f3be
00000180: 9f84 a63c 2ef9 ad3e a296 bbbe 58fe 033e
00000190: b878 643e 1e59 ab3d cf61 4dbe fdcb 313e
000001a0: d04a 26be c8df 61be 8b42 14bf 1e3b 04bf
000001b0: c305 9fbe dad8 cb3e 13b3 50be ab8f 5d3d
000001c0: 9fa1 093e 0da5 89be 24c7 efbd e5d7 ebbd
000001d0: ed98 c9ba 0bed ed3d 6815 3b3e bb75 953e
000001e0: 74e9 6dbe e8c9 0fbe c932 d9be f2c8 20be
000001f0: 6c3f c6bd 0e1e acbc 4801 583b 4837 933d
00000200: aeab 863d 9a66 43be 0fb4 7f3e 04cf c23d
00000210: c7cf 003f f80f 843e 58b5 b93d 0bbe b03d
00000220: b1f9 e83d 301e 4abb fb93 513d a9f4 c53d
00000230: fb20 7e3e f198 583e 7b52 ad3e 91d0 e93e
00000240: 3aef 8e3d 9ef9 95be 0372 343d eadc 77be
00000250: 796d 8c3e 3bd6 543e 8be6 bc3e 247c 46bd
00000260: b6f0 a0bd a743 723e eea0 86be ef9d f5be
00000270: cce6 9c3e 412a 1abf 3098 7d3b 332a 64bd
00000280: df8c 03bf 6244 223b 4f00 04bf a67a 9ebe
00000290: eae5 7ebf fc33 133e c76e 62bd 6fc5 41bf
000002a0: 786d 8b3e 9bb7 18be 8022 abbe 265b 993d
000002b0: 8515 2a3e 6e63 ccbd 2b12 62be 7c0a a53e
000002c0: e2a5 913e e725 f4be 07df 07bf dea8 54be
000002d0: b2cc 52bc 9c75 92be 3168 42be 2bc1 75be
000002e0: c030 96be 9e69 113d 1a5f 583e dfb3 b93e
000002f0: 9830 bc3d 9b83 283e cb99 133e dd85 7a3e
00000300: 1d6d 863e 2532 9b3e 1210 423d 29f9 5c3e
00000310: 4a4e afbd 19d3 e6bb a445 0f3c 8fe1 1f3e
00000320: 1aaa 18bf 27a8 22be 1bc8 dabe f606 b43e
00000330: 2120 a3be f24c ba3e e926 b33e 0ad0 ba3d
00000340: 21a5 cbbe 6bd0 5839 c2d4 83be 7966 a43e
00000350: b082 1f3e 7956 003e e7ba 4a3c 9928 3dbe
00000360: a689 b33e f549 5bbe bccb f63d 543b 3e3e
00000370: b3ef af3b 256a 2fbe 0634 923e ba54 ffbd
00000380: 6acf b13c 1513 6abd d184 a6bd 3421 233e
00000390: d643 09bd 1d20 f4bd 2831 bb3e 06d4 03bf
000003a0: 4a29 89be 539b 6abe 79c7 5c3e b421 823e
000003b0: 86f0 043e b4d8 4d3d ce51 5b3d d4ef 5b3e
000003c0: f9ea bcbe 23b7 bcbe 3836 2bbe a799 33bd
000003d0: f0b9 183e 98f8 1d3e b9bd ad3e e2f7 093e
000003e0: b9f0 19be 328b 383e a78a 2b3e 0fb0 943e
000003f0: a49a 3a3c 02cc 5a3e bbd7 fd3c 94cc f93b
-0.10258191 -0.44655278 -0.69753456 0.31791863 0.30022812 -0.53643453 0.11796459 0.032015026
-0.41545928 0.13524532 0.1202332 0.086318545 0.26784885 0.2676969 0.050125346 -0.03540585
0.012946663 0.29399568 -0.53374887 0.014656456 0.11856898 -0.07947968 -0.018128585 -0.14488322
0.36801472 -0.58398914 0.050493352 -0.33092305 -0.11863059 0.32792923 -0.4131526 -0.048164688
-0.28502822 0.19063544 -0.7368022 -0.6093206 0.15221426 -0.65793276 0.0897327 -0.027273452
-0.81512 0.27563074 -0.27766696 -0.22190033 0.16178216 -0.0425909 -0.33180684 -0.21517268
0.2816005 -0.054051522 -0.27984717 0.29138744 0.37357602 -0.0023697126 -0.17073834 0.26206
-0.04333971 0.15906401 0.3177542 0.034588695 0.38106006 0.1106416 0.13386904 -0.066050574
-0.1874242 0.17625174 0.061255418 -0.15394777 0.30357715 0.13683864 -0.022719055 0.29655945
0.20552963 0.17503177 -0.02918017 0.25887913 0.066760935 -0.42708763 0.010063823 0.09163917
0.19728847 0.044648077 0.39320624 0.32852662 -0.08699811 0.2225118 -0.03432214 -0.12690929
0.07589428 -0.2405652 -0.24608952 -0.26539448 -0.33737928 0.109510325 0.053956028 -0.47629315
0.02032691 0.33979172 -0.3663836 0.12889993 0.22311676 0.08366607 -0.20056842 0.17362972
-0.16239476 -0.22058022 -0.57914037 -0.51652706 -0.31059083 0.39813882 -0.20380811 0.05409209
0.1344056 -0.26883736 -0.11707905 -0.11515788 -0.0015380658 0.11617478 0.18269885 0.29191384
-0.23233587 -0.14041865 -0.42421558 -0.15701655 -0.096800655 -0.021010425 0.0032959748 0.071882784
0.06575714 -0.19082108 0.2497103 0.09512141 0.50317043 0.25793433 0.09067792 0.08629998
0.1137575 -0.0030840747 0.051166516 0.09665806 0.24817269 0.21152093 0.3385199 0.45666936
0.069792226 -0.29292005 0.044054043 -0.24205366 0.2742727 0.20784847 0.3689464 -0.048458233
-0.07858412 0.2365862 -0.26294655 -0.47972056 0.30644834 -0.60220724 0.0038695447 -0.055704307
-0.5138683 0.0024759998 -0.5156297 -0.30952948 -0.9956957 0.14375299 -0.055281427 -0.75691885
0.27231956 -0.1491379 -0.3342476 0.07488088 0.16609772 -0.09979902 -0.22077243 0.3223456
0.2844687 -0.47685167 -0.5307469 -0.20767543 -0.012866186 -0.28605354 -0.18985058 -0.23999469
-0.29334068 0.035501115 0.21130028 0.36270043 0.09188956 0.16456454 0.14414136 0.24465127
0.26255122 0.30311695 0.047378607 0.21579422 -0.08559854 -0.007044208 0.008744631 0.15613388
-0.59634554 -0.15884458 -0.42730793 0.3516156 -0.3186045 0.3638683 0.34990624 0.091217116
-0.3977442 0.00020677007 -0.2574826 0.3210943 0.15577197 0.12532987 0.012373663 -0.18472518
0.35065955 -0.21414931 0.12050578 0.1857732 0.0053691505 -0.17130335 0.28555316 -0.12467332
0.021705348 -0.057147104 -0.081308015 0.15930635 -0.03351196 -0.119201876 0.3656094 -0.514954
-0.26789314 -0.22910814 0.21560468 0.25416338 0.12982377 0.050255492 0.053544812 0.21478206
-0.3689802 -0.36858472 -0.16719902 -0.043847706 0.1491468 0.15426862 0.3393381 0.13473466
-0.15033235 0.18021849 0.1675211 0.29040572 0.011389408 0.21366885 0.030986657 0.0076232646

model.5.weight f4 [64, 1, 3, 3]
00000000: 8b3f 24bd 3e49 f63b 1bfc adbd b52d 0b3e
00000010: b964 7dbe d6aa 413c 5fc9 103f b8b6 453e
00000020: 23dc dabd 123b 18bd 7b37 c6be abcd 1dbf
00000030: f4e2 973d 99d0 eabd c01e 5abe d889 a6bd
00000040: a5a7 b63e 0b47 c43e 775c 103f 9829 283e
00000050: 44d7 733b cc4e 8f3e e4e6 643c 6a1a 843e
00000060: 0664 fabb 78db c33d 671c 1d3d 2e2f 0c3f
00000070: ede9 3b3e a27a 1fbe 585e 233e 3bf1 e1bd
00000080: e2fe afbe 349e ae3e 6655 8bbd 7023 813c
00000090: 8990 af3e 9393 b83d 6daa c03b 02f3 6e3e
000000a0: 9474 813d a4fa 923b b6b6 2d3e 3b46 833e
000000b0: 4886 da3c 9aa3 633e 9070 e73e db2f 433e
000000c0: 3adf 6f3e f9ff d53c 1f3a afbe e02a 61be
000000d0: 42e3 79be 14db 04be 7e4e 833d ec74 87bd
000000e0: 0775 b33c 15dc 753d cb24 6fbe d874 eabd
000000f0: 0548 00bf 4d6f 88be 81e8 dd3e c747 b93e
00000100: 5341 e03d e389 e83b 6e38 443d d388 0cbe
00000110: d5e2 80be 7b15 79be 73a2 f2bd 6482 38bd
00000120: 5640 c9be d56e 133e 8513 5f3e 7020 b8be
00000130: 29d2 b73d fe6b ea3d 1f0f 5dbe 7d60 a93d
00000140: 6476 353d dc78 bc3e ec05 20be 84cf 2bbf
00000150: eaca 3b3e 457c 64be 14a0 7abe db59 ecbd
00000160: bea6 73bd b91a 3a3b 1b72 293c 124e 85bb
00000170: ab4e a9bc fb8b 2e3c 4781 623e 140f 153e
00000180: 1f94 843c 1ba2 863e e132 343f 36b1 0fbe
00000190: 3e37 b73d 5b02 993e 8ca3 6abd 6813 fc3d
000001a0: b037 fc3e 2057 02be a3a4 b1bd 033b 703c
000001b0: e106 813e d620 8c3e f341 113f 0f9f 583e
000001c0: 673f 433e 9df3 46be 4378 cd3c 2f0c df3b
000001d0: 56d6 da3d da4b 7e3e a2b0 7b3e 8e88 103f
000001e0: fd99 c43d 3668 29bd d415 00bd c0c2 20bb
000001f0: ccac 073d 54bb 5dbd 72ac 803e cc4a e83d
00000200: 3696 80be d5c5 a63e 59d2 f6bd 6abf f4bd
00000210: d8f2 843b 9515 c7be f9ab 6cbe fe0c 16bd
00000220: d227 b13d bf08 d4be 4830 54be dcd0 5dbe
00000230: 0892 81bd feae 45be d13b 313e 36b4 043f
00000240: 57b6 91bd 97e9 9f3e 1d5a 083e e28c 79be
00000250: be8a 5abe 6428 63be a68d 8ebe 9179 383e
00000260: a187 123e 6112 d13e 3737 313e 8c57 ba3e
00000270: 04b4 033e ddb4 613d 9ab6 733e 6025 793d
00000280: 5ba4 63bb ae4b dcbd f9c3 333f 146f e23e
00000290: 549c 533d 761b ea3e 404f 083e 0dcc 6bbb
000002a0: a4bb 3fbc 26dd 3b3d 9692 e33b 5835 8d3e
000002b0: d954 853e 949d fe3e e333 243e b532 89bd
000002c0: 012f 81be 0414 2abe 5048 68be 3c1f fabd
000002d0: b668 9cbc d15f c53c bfbd 103d d73e 17be
000002e0: 418f fbbd b674 5bbe ca56 873d 3f91 ff3c
000002f0: ea27 d73e 99a8 94bb d0d3 ca3e cc28 703e
00000300: 144b afbd 9f89 50bd b83d 73be 4c48 ed3c
00000310: f31f 0abe dadd fabe e32c 223f ff32 3d3e
00000320: e7d4 69be b33a c1bd 8e56 4bbd 9c54 4fbe
00000330: a102 f7bc db06 63bd b64d ae3b 3e07 123b
00000340: 0d70 993e da20 f83d bf03 dabd 4597 923d
00000350: 0716 b63e 9414 9ebd c204 a63c 5983 7c3e
00000360: 168c 6b3e e841 70bd 2c74 463e 8e5c d13e
00000370: a688 8cbe 792d 29be c9f8 033e 6beb fcbd
00000380: 9d8b 23be 7a38 4bbd 276e 753d 0832 a73c
00000390: f454 b0bc 48cd 17bb ad0d 17bd eb3d dc3e
000003a0: 1961 253f e032 123e 23c0 223c 4668 55bd
000003b0: e1f7 91be 5d86 94bd 101f 4cbe a12c 8dbd
000003c0: 9aaf 62be 89b6 ce3d 7c40 7a3e 8bc9 58be
000003d0: c0f4 11be 7cc3 84bd c6d5 073e 90be 8dbd
000003e0: 50d5 00be 51bf 813e 12e8 1f3d 073c aa3e
000003f0: f559 a7bd b079 153d c662 dc3d dc91 01bd
-0.04009966 0.0075160554 -0.08495351 0.13591655 -0.24745454 0.011820516 0.5655727 0.19307983
-0.10686519 -0.03716571 -0.38714203 -0.6164195 0.07416335 -0.11465568 -0.21300793 -0.0813176
0.35674778 0.3833545 0.5639109 0.16422117 0.0037207166 0.27989805 0.013971064 0.25801402
-0.0076413183 0.09563345 0.038357165 0.5475949 0.18350954 -0.15574124 0.15953958 -0.11032339
-0.34374148 0.34105074 -0.06803398 0.015763968 0.3428996 0.090125225 0.0058796913 0.23334888
0.06321064 0.004485445 0.1696423 0.2563952 0.026675358 0.22230378 0.45203066 0.19061224
0.23424998 0.026123034 -0.3422403 -0.21989012 -0.24403098 -0.12974197 0.064114556 -0.06614098
0.021906389 0.06002434 -0.23353879 -0.114480674 -0.50109893 -0.26647416 0.4334145 0.36187574
0.109499596 0.0070965155 0.047905378 -0.1372407 -0.2517306 -0.243246 -0.11847391 -0.045046225
-0.39306897 0.14397748 0.2178479 -0.35962248 0.08975632 0.11446379 -0.215878 0.08270357
0.04430236 0.36810958 -0.15627259 -0.6711352 0.18339124 -0.2231303 -0.24475127 -0.11540576
-0.05948519 0.0028397276 0.010342146 -0.0040681446 -0.020667395 0.010653491 0.22119628 0.14556533
0.01618391 0.26295552 0.70390135 -0.14032444 0.089460835 0.2988461 -0.057284877 0.12308389
0.49261236 -0.12728548 -0.0867398 0.014662507 0.2520056 0.27368802 0.56741256 0.21154426
0.19067155 -0.19428869 0.02508176 0.0068068723 0.106854126 0.24833623 0.24579099 0.56458366
0.095996834 -0.04135915 -0.031270817 -0.0024530143 0.033123776 -0.05413373 0.25131565 0.11342391
-0.25114602 0.3257281 -0.120518394 -0.11950572 0.0040572695 -0.38883653 -0.23112477 -0.036633484
0.08650173 -0.41412923 -0.20721543 -0.21661705 -0.063266814 -0.19305035 0.17307974 0.5183748
-0.07114857 0.31232902 0.13315625 -0.24370149 -0.21341988 -0.22183377 -0.27842444 0.18015124
0.14309551 0.40834334 0.17306219 0.36394918 0.1286164 0.055104125 0.23800126 0.06082666
-0.0034735415 -0.10756622 0.70220906 0.4422537 0.051662758 0.45724076 0.13311481 -0.0035979778
-0.011702452 0.0458652 0.0069449646 0.2757976 0.26041296 0.49729598 0.16035418 -0.06699125
-0.25231174 -0.16609198 -0.22683835 -0.12212989 -0.019092899 0.02409354 0.035337206 -0.14770065
-0.12283183 -0.2143124 0.066083506 0.031197188 0.4202264 -0.0045367 0.39614725 0.23453063
-0.08559242 -0.050912496 -0.23754013 0.028965138 -0.1348875 -0.48997384 0.6334974 0.18476485
-0.22835122 -0.09435024 -0.04964309 -0.2024712 -0.03015262 -0.05542646 0.0053193225 0.0022282149
0.299683 0.12115641 -0.10645246 0.071577586 0.3556368 -0.07718769 0.02026594 0.2465948
0.23002657 -0.058656603 0.19380254 0.40890926 -0.27448004 -0.16521253 0.12887873 -0.1234959
-0.15971227 -0.049614407 0.059919503 0.020409599 -0.021524884 -0.0023163129 -0.036878277 0.4301599
0.64601284 0.1427722 0.009933504 -0.052101396 -0.2850943 -0.0725219 -0.19933724 -0.06893278
-0.22137299 0.100934096 0.24438661 -0.21170633 -0.14253521 -0.06482598 0.13265142 -0.069211125
-0.12581372 0.25341275 0.03903968 0.33248922 -0.08171455 0.036493003 0.10761027 -0.031633243

model.9.weight f4 [96, 256]
00000000: c09c 0ebd 8f6a f13b 8491 b83c b89e 8cba
00000010: 4070 69bd e8a3 3fbd 8ab9 89bd 49e3 9cbc
00000020: d4ae fdbc 83ac 543c 9bf3 893c 68f7 98bd
00000030: 5a9e 543c c3ed 1dbd 0fc2 cbbd 2f0b c2bd
00000040: 8af1 b63c 0af3 e53c bf6b 0a3b b396 78bb
00000050: 503f 16bd 15f8 103c eedd 883c 9711 033d
00000060: 40a5 33bb 7c0e e63c 304f 4ebd 4f4a 8bbd
00000070: 8821 0b3d f8fb c2bd c0e7 8d3c 0444 afbc
00000080: a42b 5fbd 7da9 c4bc 2546 113d 7d94 72bd
00000090: 3b54 fa3c 293d 393d 680d 313d f16a a4bc
000000a0: fb6b 143c 61e1 88bc 8492 3fbd c127 a9bc
000000b0: 977f 873c ca6d 6cbc d779 71bd b788 a3bd
000000c0: 7dd4 5a3c 327b 9cbd c063 cd3c 67f8 94ba
000000d0: 7bd7 12bc 7e80 9cbd c1f5 e9ba fa9b a2bd
000000e0: c1c8 0e3a e10c cfbc e666 88bb 7f32 533d
000000f0: a851 dabc 5704 83bd f155 4fbd c131 f73c
00000100: 5be3 96bd 6bf2 b93b 53ad 71bc 25fb 8abc
00000110: 4f46 a6bd aacb 46bd a9ac 61bd 468f 3a3c
00000120: 1cad 49b9 96d8 b83b 258e 5bbd ce95 3e3d
00000130: 3542 baba b889 87bb 8d07 a4bd b74b c7ba
00000140: 41dd 99bd d64b efbb 1314 0abd e43e 79bd
00000150: 098b c5bc 4ae3 b5bd 6b90 38bd 55e5 853c
00000160: a0cc c2bc 5c83 ab39 8575 cebb 45eb ebbc
00000170: d2c5 2abb 45ae f53c 6d2f 3cbd 8e0d a93c
00000180: b3f7 203b 6c9b 283d 457d cdbc 9bc5 85bd
00000190: adbd 93bc 198f bcbd c9a9 763c 031e 86bc
000001a0: ac06 ebbc 2649 8ebd c91b b8bc 9f2b b23b
000001b0: d3cb 1f3d e773 213b 7da7 00bd 33c8 983c
000001c0: 22e9 b9bc 7ada 7b3d db3f 773d 129f c7bc
000001d0: 391a 8cbd 53d6 88bd 66d9 36bd 86db 4cbd
000001e0: 1ea1 2d3b dcd6 c1bb 850a 92bd 3449 86bd
000001f0: d746 f8ba df06 dabb d9b2 a13b a7ce 79bd
00000200: 97ff 603b 49f9 80bd 3f1f f8bc 5590 dd3c
00000210: f096 8fbd cd91 82bd ff69 ebbd 57f4 3dbd
00000220: 8fce 0a3d 279c 50bc 14ec 86bd c791 77bc
00000230: d828 603a 8224 b7bd 588b 26bd 34d4 bcbd
00000240: 7674 aebd e1ca 96bd 73bd 81bc 1393 8b3c
00000250: 3125 0abc 90e6 ef3c 50c4 ec3c 8e6c 63bc
00000260: bfa1 9fbd 8edd 3abc abdc 10bd 5161 07bd
00000270: eee6 48bd 3319 b13a b230 21b9 8cd9 83bc
00000280: 4ed3 a1bc 1ace b43c e02d 3dbd f6a4 7ebd
00000290: 1a63 1abd fef9 cc3c ee08 29bd 1a36 6abb
000002a0: 6b6c 8d3a f151 383b bcc8 7fbd d361 bdbd
000002b0: e968 c1bc 2933 753b 3c47 683c 187c 883c
000002c0: aa13 e5bc b76d 91bd 38dd 42bd 9937 36bd
000002d0: ee29 5bbd 0f76 673c ee24 2bbc 9dd9 8fbc
000002e0: 0e61 2cbb 62f7 89bd 499c 82bc bd80 4cbd
000002f0: d8f1 b63c 46be ebba 99ba 43bd 563a 863b
00000300: 0b4c c63c a090 93bd 8672 86bc d41f a1bb
00000310: b346 5ebd 3543 93bd 3e23 a3bc 4017 72bd
00000320: 3c46 98bd 7db9 76bd cf1a 30bd 5368 d73c
00000330: 1df6 343c acab a3bd 121d 79bd 1623 67bd
00000340: 1847 10bd 7517 fbbc 7b5a 023c 1e49 063a
00000350: 379e 5b3c c664 ce3c 4ba7 69bd ff47 02bd
00000360: 96f8 37bd 9c9e 963b b37e 96bb 8c05 1fbd
00000370: 2132 823c 4544 f63c bdc8 91bd 0cf6 e1bc
00000380: 3a2f 6abc 5c62 47bd abcf eb3c 7a9a 41bd
00000390: a93a c03b 007b bdbc a628 64bd 6f51 21bd
000003a0: 7ccb 0b3c fc85 69bd ae50 95bd dfc4 a6bd
000003b0: 3e0a b4bd 8f05 0a3c b397 0ebd 0d05 903c
000003c0: 9e26 b1bc 8332 4abd 4cd0 e43c 10f4 83bd
000003d0: 7ffb 48bd 04ab 8cbd 4355 2d3c 3e06 eabc
000003e0: 2b34 b0bc 3f76 6dbc 2811 7dbc e38a 64bd
000003f0: 0347 bcbd ab48 dbbc 0774 75bc 5239 9bbd
-0.034817457 0.007367439 0.022530325 -0.0010728454 -0.056991816 -0.046787173 -0.06724842 -0.019151347
-0.030967154 0.012980583 0.016839793 -0.07469064 0.012977207 -0.038556825 -0.09949123 -0.09474789
0.022331972 0.028069992 0.002112135 -0.003793162 -0.036681473 0.00884821 0.016707387 0.031999197
-0.002741173 0.028083079 -0.050368488 -0.068012826 0.033967525 -0.095207155 0.017322421 -0.021394737
-0.05448498 -0.0240066 0.035467286 -0.05922364 0.030557742 0.045224342 0.043225676 -0.020070525
0.009058948 -0.016709032 -0.046770588 -0.020648839 0.016540332 -0.014430473 -0.058954086 -0.07985061
0.013356325 -0.07640685 0.025071979 -0.0011365534 -0.008962507 -0.076416954 -0.001784973 -0.079399064
0.0005446785 -0.025274696 -0.004162657 0.05156183 -0.026650265 -0.06397312 -0.05061907 0.030175092
-0.07367583 0.0056746504 -0.014750796 -0.016965458 -0.08118879 -0.048534073 -0.055096302 0.011386698
-0.00019233342 0.0056410534 -0.053602356 0.046529584 -0.0014210405 -0.0041362904 -0.08009253 -0.001520506
-0.07512904 -0.0073027415 -0.03371055 -0.060850993 -0.024114149 -0.088812426 -0.045059603 0.016344706
-0.023779213 0.00032713532 -0.0063006305 -0.028798709 -0.0026057852 0.029990325 -0.045943666 0.020636346
0.0024561703 0.041163847 -0.025084147 -0.06531831 -0.01803478 -0.09206981 0.015055128 -0.016371733
-0.028689705 -0.06947546 -0.022474186 0.005437329 0.03901274 0.0024635734 -0.03140973 0.01865015
-0.022694174 0.061487652 0.06036363 -0.024367843 -0.06840939 -0.06681504 -0.04464092 -0.05001404
0.0026493738 -0.005915506 -0.07130913 -0.06556931 -0.001894201 -0.006653651 0.0049346504 -0.060988095
0.003433203 -0.06297547 -0.030288337 0.027046362 -0.07011211 -0.063754655 -0.114948265 -0.0463756
0.033888396 -0.012732542 -0.06587997 -0.01511044 0.0008551008 -0.0894251 -0.040660232 -0.09220162
-0.08518307 -0.07362915 -0.015837407 0.017037904 -0.008431719 0.029284745 0.028902203 -0.013880862
-0.077945225 -0.011405362 -0.035366695 -0.033051793 -0.049048357 0.0013511538 -0.00015372297 -0.016094945
-0.019754078 0.022070933 -0.046186328 -0.062169038 -0.037692167 0.02502155 -0.04126828 -0.0035737813
0.0010789757 0.0028125013 -0.062447295 -0.09247174 -0.023609595 0.0037414527 0.01417714 0.016660735
-0.027963478 -0.071010046 -0.047574252 -0.044486616 -0.053506784 0.014127268 -0.010445816 -0.01755982
-0.0026302966 -0.06736638 -0.015943663 -0.049927462 0.022332117 -0.0017985783 -0.047785375 0.0040963097
0.024206182 -0.072053194 -0.01641203 -0.0049171243 -0.054266643 -0.07190553 -0.019914266 -0.059104204
-0.07435271 -0.06023549 -0.042994317 0.026294863 0.011045006 -0.07991728 -0.06081874 -0.056429945
-0.03522405 -0.030650834 0.007956143 0.00051225896 0.013404421 0.025194537 -0.05704431 -0.031806942
-0.044914804 0.0045965444 -0.0045927404 -0.03882365 0.015893044 0.03006185 -0.07118366 -0.027583145
-0.014293486 -0.048677787 0.028785547 -0.04726646 0.005866368 -0.02312994 -0.055702828 -0.0393843
0.008532401 -0.057012543 -0.07290779 -0.08143019 -0.08791016 0.008424177 -0.03481264 0.017580533
-0.02162486 -0.049364578 0.027931355 -0.064430356 -0.04906797 -0.06868556 0.01057941 -0.02856743
-0.02150925 -0.014493524 -0.015445985 -0.055796515 -0.09193232 -0.02676805 -0.014981276 -0.07579292

model.11.weight f4 [64, 96]
00000000: f6b8 82bc 9538 233f 5176 b3be af7a 88be
00000010: c33b 74bd eeb6 2bbd 4d72 3abd 9a3a 3fbe
00000020: 67d6 553d 958b 223d 7cca 10be 0e37 cebe
00000030: fef0 253e ecfe 533d 8f98 38be bc6d cd3d
00000040: edc1 c43d 9f6a 20be b9bb f83d 5d62 dbbd
00000050: efe8 f63d 6908 53bd 354d 7cbe 20dc 1e3e
00000060: 486c 963d 3332 7e3d 0995 febd 409f 0abd
00000070: 520f 76bc be52 463e 34f0 6c3e 8b62 89be
00000080: 0a22 0bbd 7958 ebbd ff77 0d3d 77d5 c3bc
00000090: d171 123d 842f bc3e 2ab0 9cbd 2e8b 683e
000000a0: e93c b4bd 24f6 8fbe c986 94bd 2b13 b03d
000000b0: 720a adbe ede1 39be 6220 a8bd f4b6 243d
000000c0: 1cbc ea3d e0be cabd f988 eebd 58d5 9b3d
000000d0: 309b 67be 9864 393c 66a4 46be 8040 1c3e
000000e0: 64ef 43bc db00 8e3e 966d 93be 1229 8ebe
000000f0: 4e91 d3be cb47 9a3d 9d87 e13c b648 ec3d
00000100: 2417 a93d d0ad 063d d55c b33a 41ad 913d
00000110: e275 073e 1d28 f7bd 988c 8b3d 6321 b2bc
00000120: 781f 7f3d 71eb 283e 3eb2 693c 8349 0ebe
00000130: 7fa1 9bbe d864 3fbe b0b8 933d d769 71bd
00000140: 5a17 f13d 2ea0 50bd f2d1 68bd 55c7 afbb
00000150: bc9f 24be 4680 99be 0f5c 81bd d9e3 37be
00000160: a494 37bd 6ef2 9a3d 9291 42be 35ac 6bbe
00000170: 5804 6a3d 7745 b63d 2bbe 4fbe b5c7 ad3c
00000180: 393d 3cbd 2a8b 1c3d 7776 e7bd a2b3 6abd
00000190: c5e9 cdbc aa6b 5c3d 5f90 ac3c 7b46 a9bc
000001a0: e644 963c c14f a63d d644 88be 371a f0bd
000001b0: 4e8a 02be 57b9 4fbc 7eec eabd 9006 e6bb
000001c0: 21bc 1dbc c44e 16be b86b 643e 4feb 033b
000001d0: 6f90 36bd c574 273e 63f6 84be 36ac 303e
000001e0: 56e4 ef3e fe8d 66bd ec34 30bc 163c 193e
000001f0: 0563 4dbe e4cb 5d38 1302 2a3e af4a 313d
00000200: a6c3 91bc 0569 c1bd 9c0d cb3c 07d1 9ebe
00000210: f0b6 9bbd f734 9fbd 0c48 93bd 1d63 70bd
00000220: d04e 05bd 6841 04bd 3ad4 6c3c acbd 863c
00000230: b364 e73d 7540 823e ebe7 9b3e 6bd3 9dbd
00000240: 6eed 043e ee19 59bd 964f 59bd 828a 863d
00000250: 6f29 11be a82f 863d d3e0 83bd 5db7 41be
00000260: 32ea 17bd c658 acbd ef69 96bd 51f9 4cbe
00000270: 512b 9abe 4989 d4bd 5e2d 383c 36ff 643e
00000280: 67a6 4d3e 0852 e83c 37cf 36bb 0f9d dfbd
00000290: 927c e73d 5cda 30bd 9074 983b 96c2 023e
000002a0: 8367 a53d b669 a3be 28da 51be 2f37 e9bd
000002b0: 0552 6cbd cef3 23bd b1e9 893e 3cbb ccbd
000002c0: 0fb4 f23d ea85 97be a6f0 23be 7254 533d
000002d0: 7715 0d3d de2f 9ebe 0a69 d63d 83c6 2fbc
000002e0: 5bcb 033d bf4d 843e ac51 af3d d3fb 81bb
000002f0: 63e2 04be 007b f539 85dd 873e 92bc 84be
00000300: 7683 a33d 64e0 293e 80f5 26be 526b 7bbe
00000310: 0e55 e73d b7f4 733a 61d5 6cbd 7a52 cc3d
00000320: 1699 31bc 3b66 45be 5ea4 9abe 5f14 05bd
00000330: 4810 dd3d dcd9 95bd a2fd 7abe b4f3 8cbd
00000340: 3ed7 b4bd 984e 7cbd 36f6 eabd c61a 963e
00000350: 8987 b6bd 9831 853d e30f f7bd 4b2c 13be
00000360: 4353 923d e346 15bd 3145 fcbd 177a 883e
00000370: b29e 73be 03f3 103e c425 38be 6441 81be
00000380: e348 8d3d d575 90be 05ce ba3d 248f 51be
00000390: ecdc 02be deb9 9fbe 997d 95be e7e1 843e
000003a0: 82c9 643d 1018 35be 9875 88bd 386b 89bb
000003b0: 860c 5e3e 59c6 f2ba aebb e93d eedc 883c
000003c0: de2a 9a3e f48a ad3d eeec e3bd 4bc2 7d3c
000003d0: e693 0fbe 3ba6 86bd d454 8bbd b13c 3cbf
000003e0: 251f e7bd 4464 3dbc f410 a7bd 1207 7cbe
000003f0: d60a 87bd 46c1 943d 0580 72bc f041 6b3c
-0.015957337 0.6375821 -0.35051206 -0.266561 -0.059627306 -0.041922502 -0.045519162 -0.18674698
0.052206423 0.039683897 -0.14139742 -0.40276378 0.16205212 0.051756784 -0.18026946 0.10030696
0.09607301 -0.15665673 0.1214518 -0.10712121 0.12056147 -0.051521692 -0.24638827 0.15513659
0.07344872 0.062059592 -0.1243077 -0.03384328 -0.015018301 0.19367501 0.23138505 -0.26832995
-0.03396801 -0.11491484 0.034538265 -0.023905499 0.035753075 0.36755002 -0.07650788 0.22709343
-0.0880068 -0.28117478 -0.07252271 0.08597406 -0.33797032 -0.1815259 -0.082093015 0.04021354
0.1146166 -0.09899688 -0.11647219 0.076090515 -0.22617793 0.011315487 -0.1939865 0.1525898
-0.011958931 0.27735028 -0.28794545 -0.2776571 -0.41321796 0.07533225 0.027530486 0.11537306
0.08256367 0.032880604 0.0013684282 0.07113124 0.13228562 -0.12068198 0.068139255 -0.021744436
0.06228587 0.16496064 0.014263688 -0.1389523 -0.3039665 -0.18690813 0.07212961 -0.058938827
0.11772032 -0.05093401 -0.056840844 -0.0053643384 -0.16076559 -0.29980677 -0.06316387 -0.1795801
-0.04481949 0.07565771 -0.19000843 -0.2301491 0.05713305 0.08899968 -0.20287387 0.021213392
-0.045956824 0.038218655 -0.11301892 -0.057300217 -0.025135884 0.053813614 0.021064935 -0.02066349
0.0183434 0.081206806 -0.26615018 -0.1172375 -0.12748072 -0.012678466 -0.114708886 -0.0070198253
-0.009627373 -0.14678484 0.22306716 0.0020129269 -0.044571336 0.16353138 -0.25969228 0.17253193
0.46853894 -0.056287758 -0.010754805 0.14964327 -0.20057304 5.2880394e-05 0.16602354 0.043284114
-0.017793488 -0.09443859 0.024786763 -0.3101885 -0.07603252 -0.07773774 -0.07191476 -0.05868827
-0.032545865 -0.03228894 0.014454896 0.016447864 0.11298504 0.25439802 0.30450377 -0.077063404
0.12981197 -0.053003244 -0.053054415 0.06569387 -0.14175962 0.065520585 -0.06439366 -0.18917604
-0.03708858 -0.0841537 -0.07344424 -0.20016982 -0.30111173 -0.103777476 0.011241285 0.2236298
0.20083009 0.028359428 -0.0027894506 -0.109186284 0.11303057 -0.043176994 0.004652567 0.12769541
0.08076384 -0.3191659 -0.20493376 -0.113874786 -0.057695407 -0.040027432 0.26936105 -0.099966496
0.1185075 -0.29594356 -0.16009769 0.051594205 0.0344443 -0.30895895 0.10469253 -0.010728481
0.032176357 0.25840566 0.085604995 -0.0039667874 -0.12976985 0.00046821684 0.26536193 -0.25925118
0.079840586 0.16589504 -0.16304588 -0.24552658 0.1129552 0.00093061797 -0.05782068 0.09976669
-0.010839721 -0.19277279 -0.30203527 -0.03249013 0.10794121 -0.07316944 -0.24510816 -0.0688242
-0.08830117 -0.06159839 -0.11472742 0.29317302 -0.0891257 0.065036 -0.12063577 -0.14372365
0.07144787 -0.036444556 -0.12317885 0.26655647 -0.23791006 0.14155202 -0.17983156 -0.25245202
0.06898668 -0.282149 0.09121326 -0.2046476 -0.12779588 -0.31196493 -0.29197386 0.259536
0.055856235 -0.1768496 -0.06663054 -0.0041936897 0.21684465 -0.0018522247 0.1141275 0.01670691
0.3011083 0.08473769 -0.11129175 0.015488218 -0.14021263 -0.06574675 -0.06803289 -0.7353011
-0.11285237 -0.01155955 -0.081575304 -0.24612072 -0.06593864 0.072634265 -0.01480103 0.014358982

classifier.weight f4 [10, 64]
00000000: bfa2 e3bd a926 16bf 46c5 c7be f5dd f1bd
00000010: 427a 17bd 5e37 fdbe 932f f53e f859 63bd
00000020: 2d6f 89be f606 3dbf fbc5 40bd fd19 1bbf
00000030: 1b1d 833e 928a 673b 7038 6bbe 7704 fbbe
00000040: ed6b 8fbe 3179 7bbd 2260 d6be 770e f6be
00000050: 18dd e5be 2ac1 fe3e 098c 21bf ed4e 0bbe
00000060: 8aca fb3e f2a6 81be 1c9f ccbd fa33 01be
00000070: 1d94 913e f217 71be 5dfb 0e3e a388 7dbe
00000080: 3c52 88be 1d25 7abe 112f fd3e cc96 f53d
00000090: 9194 a63d b533 6cbe 096a ac3e 4d42 33be
000000a0: 0e5f 5fbd 3f38 0e3f 7962 0dbe a34f f73e
000000b0: 3f25 f53d 4031 f4be 450b fdbe 8326 b8be
000000c0: eaeb aabe c406 03be d662 48be b119 14bc
000000d0: 78d9 b53d c76e 04bf 82e7 d4bd 1cd8 a23e
000000e0: 77bd 13be 1d8e f0be 7f17 f4bd 8af5 9abe
000000f0: 3693 27bd e6e4 e33d fa0e ca3e d609 0bbf
00000100: 7b02 a8be 6a77 2b3e e9b5 50bf e0cc 87be
00000110: ea23 e2bb 606e b33e bb94 133f 7d91 d8bd
00000120: 3dde bd3e 9d37 92bd cc6f b53e 8fb3 25be
00000130: 8eee 05bf 0485 dcbe 2abc 323e fa27 6bbe
00000140: fb9b 73be 36ac 01bf 776a acbe 4410 0fbe
00000150: 486a a63e b584 883e 8fd6 65be 3473 f1be
00000160: ba92 0abe d7b6 21be 99fd fb3d 674d acba
00000170: 8519 d53e 9095 f4bd a524 003d f108 cfbe
00000180: db79 84be ed62 27bf 3784 3bbf 2ae3 3cbf
00000190: a50f 37bf beea 163e 8d1b 5bbf 2c58 1cbf
000001a0: a84d b9be 4034 0ebf a5f5 b33e 0832 26bf
000001b0: f5ea 11bf 3c57 c5be 1317 71be 5ec4 bdbe
000001c0: 03cf ce3c 8dd4 973e 838c f7be 7d14 e43e
000001d0: 4e4c 3fbf 1369 f7be 5e08 4cbd 8662 b13e
000001e0: b856 1fbd 0bf1 c53e d288 51be 28ff 76be
000001f0: 0a06 58be a9cb 093f fb66 4dbf c62b 76be
00000200: 6cca a9be b227 a7be 1264 d6bd 1806 2f3f
00000210: 623a b4bb c63a 033f 7220 88be 7431 2abe
00000220: 90fd 17bf dc22 f3be 9902 87be 13f5 f63d
00000230: 967b 04be 179b 02bd ba94 abbe 58e6 f63e
00000240: 8913 393e 3fd4 4bbe 0420 31bf c7ff 11bf
00000250: 048a f43d a9e2 b6be fe74 3d3e 34d0 81be
00000260: 6a55 f5be 0f00 043e 4948 98be f060 263e
00000270: 5c8a 8cbb be6c 8f3e 2a49 a3be 6a11 aabd
00000280: 1e7f f6be d45a 8d38 4a31 313d 1324 a0be
00000290: 10ed c53c 8c7d b93e fb25 c5be daf9 76be
000002a0: 2cb6 b1be 85d3 c6be ac85 11bf 8c9d 5ebe
000002b0: 4d4b 123f 12b4 da3e dfdd f5be 0263 01bf
000002c0: 7607 4ebe 5c0f 2ebe de70 aabe 48f8 413e
000002d0: 2d8a f63e 19fc a9be dc14 e9be 8656 ba3e
000002e0: f26f 503d 64f3 c7be 3a0b a3be 6958 a53e
000002f0: 53e8 66be 1390 01bf f38b 77be fa36 dfbd
00000300: 5194 a5ba 07b0 1abf da70 0e3d 16d1 b9be
00000310: 1315 7fbd 2be0 f1be 0efa 25be d781 dcbc
00000320: 458d e33b 5be4 a0be 3259 913e 7bcc 68be
00000330: 0571 a6bd 5b9d aebe df85 553e 8114 dabe
00000340: 7af5 a23e 02c8 ee3d 1919 99be b5fb b8bd
00000350: c15c ad3e 05f8 e3be 8c5e aebe 682c b93e
00000360: 7b47 74be 9ccc 9fbe df96 443f b6b8 4cbc
00000370: 5690 0ebf d437 f7be 34e0 0abf 4c48 ba3e
00000380: 7e70 3e3e 3eee a8be 9a9a f7be 337a 51be
00000390: 07c0 853e 6496 733e cc31 f2be ec93 133f
000003a0: be71 f6bd e986 583d 1acc efbe 5347 22be
000003b0: 1260 a4bb 70e5 633e 8b29 be3d 6793 fdbd
000003c0: 2774 43be 4412 02bf a48f 70be 93b5 a8be
000003d0: c83b 9dbe 6540 e2bf edc5 0bbe ee47 b4be
000003e0: 7365 96b7 cf05 d0be c9c6 01bf f439 ab3e
000003f0: 5e79 773e 8b4b a43d 8381 7bbe eabc 573e
-0.11115026 -0.5865274 -0.39017695 -0.11809913 -0.03698183 -0.49456304 0.4788786 -0.055505723
-0.26842633 -0.73838747 -0.04706381 -0.6058653 0.25608143 0.0035330397 -0.22970748 -0.49026844
-0.28012028 -0.061394874 -0.4187022 -0.4805791 -0.44895244 0.49756747 -0.631043 -0.13604327
0.49177963 -0.25322682 -0.09991285 -0.12617484 0.28433314 -0.2354429 0.13963075 -0.24759154
-0.2662524 -0.2442822 0.4944997 0.11991653 0.081338055 -0.230666 0.33674648 -0.1750576
-0.05453401 0.55554575 -0.13807096 0.48302945 0.11969995 -0.47693825 -0.4942266 -0.35966882
-0.33383113 -0.1279555 -0.19568953 -0.009039328 0.088793695 -0.5173153 -0.10395719 0.31805503
-0.14427744 -0.46983424 -0.11918544 -0.30265456 -0.040911876 0.11127643 0.3946455 -0.54311883
-0.32814392 0.16744772 -0.8152757 -0.26523495 -0.006901254 0.35045147 0.5764882 -0.10574625
0.37083617 -0.07139514 0.35436857 -0.16181777 -0.5231713 -0.43070233 0.17454591 -0.22964469
-0.2378997 -0.506534 -0.33674976 -0.13971049 0.3250296 0.26663747 -0.22445129 -0.47158206
-0.13532534 -0.15792404 0.12304229 -0.0013145626 0.41621032 -0.11942589 0.031284947 -0.4043651
-0.25874218 -0.65385324 -0.7324862 -0.73784125 -0.71508247 0.14737985 -0.85588914 -0.6107204
-0.3619206 -0.5554848 0.3514835 -0.6492009 -0.5699914 -0.38543117 -0.23543958 -0.3706388
0.025245195 0.2965435 -0.4834939 0.4454688 -0.74725807 -0.48322353 -0.049812667 0.3464548
-0.03890106 0.38660464 -0.20462349 -0.24120772 -0.21096054 0.53826386 -0.8023526 -0.24040136
-0.33162248 -0.32647473 -0.10468306 0.68368673 -0.005500124 0.51261556 -0.26587254 -0.16620427
-0.5937128 -0.47487533 -0.2636917 0.12058463 -0.1293777 -0.031886186 -0.33511907 0.48222613
0.18073858 -0.19905184 -0.69189477 -0.5703091 0.11940387 -0.35719803 0.1850166 -0.2535416
-0.47916728 0.12890647 -0.2974265 0.16247916 -0.0042889547 0.2801265 -0.31891757 -0.08304103
-0.48143858 6.740322e-05 0.043259896 -0.31277522 0.024160892 0.36228597 -0.3850554 -0.24118748
-0.347093 -0.38833252 -0.5684459 -0.21739787 0.5714615 0.42715508 -0.48020837 -0.505417
-0.20120034 -0.16998047 -0.33289236 0.18942368 0.48152295 -0.33200148 -0.45523727 0.36394137
0.05088801 -0.3905288 -0.31844503 0.32294014 -0.22549562 -0.50610465 -0.2417448 -0.10899158
-0.0012632703 -0.60424846 0.034775592 -0.36292332 -0.062275957 -0.4724134 -0.1620867 -0.026917381
0.006944331 -0.3142422 0.28388363 -0.22734253 -0.081270255 -0.34104428 0.20851849 -0.42593768
0.3182791 0.11659242 -0.2990196 -0.09032384 0.33859828 -0.4452516 -0.3405651 0.36166692
-0.23855393 -0.31210792 0.7679271 -0.01249521 -0.5568899 -0.4828478 -0.54248357 0.36383283
0.185976 -0.32994264 -0.4836014 -0.20456772 0.26123068 0.23787838 -0.47303617 0.57647586
-0.12033413 0.052863035 -0.46835405 -0.1584752 -0.0050163353 0.22255492 0.092852674 -0.123816304
-0.19087277 -0.5080912 -0.23492295 -0.3295103 -0.30709672 -1.7675902 -0.13649721 -0.35211128
-1.7928634e-05 -0.40629432 -0.5069395 0.33442652 0.24167392 0.08022221 -0.24561124 0.21068159
