modeldata/octav_FCMNIST_Aug_BitMnist_4bitsym_width64_64_64_epochs60.pth (torch, 104984 bytes, 4 tensors)

model.1.weight f4 [64, 256]
00000000: b73e 90bc a1ba 8d3d bb7d 3d3d fd87 0abd
00000010: 924e 30bc 80e2 1dbd 3ec5 073d 66f3 7fbc
00000020: be77 723d 3a22 7b3d a273 e33d 9dae fb3d
00000030: 4ef5 c93c 42ed 62bc 6560 183d 62c6 903d
00000040: 78cd 2f3a eefd e2bc a2e3 d43b 4394 603d
00000050: 9315 c53d 5507 2e3c a276 453d f439 e03d
00000060: 634b 5f3c c79d fa3d d34d ff3d 10e9 a73c
00000070: 699c 213d a450 bd3c ef2a 353d f218 59bd
00000080: b9bf 903d d372 653c 7b5b 893d 7c1c a93d
00000090: bcb5 373d ac7a 173d 706c f6bc 017d 95bc
000000a0: 7f5e 383d 9e5b be3d 3091 4e3e 8c24 0b3e
000000b0: d1a8 513d 8c53 223c 17e3 1ebd 1347 533d
000000c0: 60e4 9ebc cb7a 8c3d 33a1 913d 63e7 f53d
000000d0: 5d14 a63d c32b 89bb 9094 debd 5717 6cbd
000000e0: ccfb e63d a08a c83d a7e4 c03d 120b 943d
000000f0: ef04 26bb b209 a0bd a2df 02be cb2b c4bc
00000100: 4ff7 3dbc 7c6d c73d adce 9e3c d6cf 613e
00000110: f66e 2c3e c637 083e 8647 11ba 6ee4 0cbc
00000120: 416b c63c bef1 dc3d c9fc 31bb ea81 893c
00000130: 49bf b53d d989 323d ee7c e0bc b22f 243c
00000140: 7f81 04bc e065 f33b 0ac0 323e bd56 553e
00000150: d8e2 973e 3435 a43e ad51 433e 746e 423e
00000160: 128d da3d b5c7 2a3d 0417 7fbd beaa 473d
00000170: 19e3 26bc df06 eabd 197f 873d 99e0 4d3b
00000180: e918 9c3d e4ac a9bc fd1b 67bb 7534 f83b
00000190: 0ca1 543e 6e6f 913e 49d2 d83d 15ff 503d
000001a0: f705 4b3e 4720 f83d 9dac 853d 2131 b2b8
000001b0: c4d9 c8bd a281 cdbc ad04 c43d 0044 86bb
000001c0: 1d6f cbbb 5783 3fb9 c65c c1bd c730 9abd
000001d0: 2fc3 e93d cdba 523e c07f 0fbd 3ff1 29bc
000001e0: 1b26 cd3d a8f3 9abb 46d7 4dbd a401 89be
000001f0: 424f 01bf 104d 96be d4c5 81bd 6c82 98bb
00000200: ed01 c0ba e504 2e3d 06bc c13a e231 ff3c
00000210: a1fe 93bc d3ec 95be 992f b5be 2de6 02be
00000220: 917d 7e3d aab3 193d f899 a03c c033 07bf
00000230: a1d9 13bf 938b 5abe 4f42 bdbd 5fff c9bd
00000240: 6345 ecbb 1557 a73d 85d0 be3d 8f7c e63d
00000250: b467 ce3d 8963 233c f899 1bbe e697 57be
00000260: 98ad f13c 6808 4e3d bfab 77be c2bd 79bf
00000270: fb7c 04bf 71c1 4bbe 12eb 3abe e03e 23bd
00000280: 1de1 1dbd a180 c9bc 6192 c53c 1722 8d3d
00000290: 19ed 363e 0fac 8c3e 1679 723d 2bb8 23be
000002a0: ac27 113a b761 0cbe fa74 00bf d93f 22bf
000002b0: 4a30 8ebe b743 3bbe d77d 06be 5eb1 dfbc
000002c0: f287 f0bc 22ce 31bd 0da7 9dbc 222d eabd
000002d0: 667a 1fbb 85fe bebc 1218 2bbe 101b f03c
000002e0: 8afe e23d 96c7 d2bd aed5 b9be 7894 83be
000002f0: 99d3 74be 4669 45be 08d1 6cbd d6f7 61bd
00000300: e893 6e3d bd11 ec3c d7cf 3ebd 5e90 81be
00000310: 3c8c d8bd 63b1 82be 75f2 39be 9d4c f0bb
00000320: 66db 2d3d eb52 c2bd 9b93 f3bd 713e 2abe
00000330: fdb5 cfbd 472d 0cbe c3f9 e4bd ec5f ca3c
00000340: 8022 4d3d 5d78 bc3c 786d e4bd 4c31 03be
00000350: b197 22be 559a f2bd bd71 64bc c593 a13c
00000360: acae 40bd 6889 83bc 301f 943d 57ca 90bd
00000370: d472 37be 55ee 2abe 95d5 d7bd 4f39 443d
00000380: 3d42 c1ba e165 63bd f47d f6bc e32e 5c3d
00000390: d642 b73c 9b52 9f3d 59f5 2c3e 47ec dc3d
000003a0: 73b5 27bd 57d7 c33d 1d0d 133e 44ef aebc
000003b0: 43d4 f2bd b74b 53bd 4256 f4bb 70e4 8e3c
000003c0: 39e3 8c3d 9fb2 d6bc e8c1 a4bc 599e 7b3d
000003d0: 64ef f33d 9085 d93d fa5f a43d db7c 0d3a
000003e0: 06f8 393b d2ef b43d 9607 4b3d 5bb0 533d
000003f0: 7e52 7ebd 7d76 19bd 2a6a a6bc bd62 82bc
-0.01760803 0.06920362 0.046262484 -0.033821095 -0.01076092 -0.038546085 0.03314709 -0.015621996
0.059196226 0.061311938 0.111060396 0.12289164 0.024653103 -0.013850512 0.037201304 0.070690885
0.00067063374 -0.027708974 0.0064968625 0.054828893 0.096232556 0.010621865 0.04820884 0.10948554
0.013628813 0.12237125 0.12466016 0.020496875 0.039455805 0.023109742 0.044230398 -0.053002305
0.07067818 0.014004427 0.06706902 0.08257386 0.04485105 0.036982223 -0.030081004 -0.018248083
0.045011993 0.09294818 0.20172572 0.1358816 0.051186386 0.009907614 -0.03879079 0.051581454
-0.019396007 0.068593584 0.071108244 0.12007024 0.08109353 -0.004186125 -0.1086818 -0.057639446
0.11278495 0.097920656 0.09418612 0.07228674 -0.002533253 -0.07814349 -0.12780622 -0.023946663
-0.0115946075 0.09737679 0.01938566 0.2205194 0.16839203 0.13302526 -0.0005541969 -0.008599384
0.024221065 0.10788296 -0.0027158728 0.01678558 0.088743754 0.043588493 -0.027403321 0.010021137
-0.008087515 0.007427916 0.1745607 0.2083387 0.29665256 0.3207184 0.19074126 0.18987447
0.10671438 0.04169436 -0.06227781 0.048746817 -0.01018598 -0.11427092 0.06616039 0.0031414388
0.07621939 -0.020712323 -0.0035264485 0.0075746127 0.2076456 0.28405327 0.10586984 0.051024515
0.19826494 0.121155314 0.06527064 -8.4968524e-05 -0.098071605 -0.025086228 0.09571204 -0.0040974617
-0.006208314 -0.00018264107 -0.09441523 -0.07528835 0.114141814 0.20579071 -0.03503394 -0.010372459
0.10017034 -0.004728753 -0.05025413 -0.26759064 -0.5051156 -0.2935567 -0.06336561 -0.0046542194
-0.0014649011 0.042485137 0.0014780767 0.031151716 -0.018065752 -0.29282245 -0.35387877 -0.12783118
0.06213147 0.037524857 0.019604668 -0.5281334 -0.5775395 -0.21342306 -0.09241163 -0.09863161
-0.00721042 0.081709065 0.09317116 0.112542264 0.100783736 0.0099724615 -0.15195453 -0.21054038
0.029501721 0.050300986 -0.2418661 -0.9755517 -0.51753205 -0.19898011 -0.18253735 -0.039854884
-0.038544763 -0.024597468 0.02411765 0.06891268 0.17863883 0.2747502 0.059197508 -0.15988223
0.00055372226 -0.1370915 -0.5017849 -0.63378674 -0.27771217 -0.1828755 -0.13133942 -0.027306255
-0.029361699 -0.043409474 -0.019244695 -0.1143439 -0.002433443 -0.023314724 -0.16708401 0.02930978
0.11083706 -0.10291974 -0.36295837 -0.2569921 -0.23908843 -0.1927844 -0.057816535 -0.055167995
0.058246523 0.028817052 -0.04658493 -0.25305456 -0.105736226 -0.2552596 -0.18158896 -0.0073333518
0.042445563 -0.094884716 -0.11893388 -0.16625382 -0.101421334 -0.13689147 -0.11180451 0.024703942
0.05008173 0.023006612 -0.11153692 -0.12811774 -0.15878178 -0.11845843 -0.013943133 0.019723782
-0.04704158 -0.016056731 0.07232511 -0.07069843 -0.17914897 -0.16692479 -0.105387844 0.047906216
-0.0014744472 -0.05551708 -0.030089356 0.053755652 0.022370737 0.077794276 0.16890468 0.10787254
-0.040944528 0.09562557 0.14360471 -0.021354325 -0.11856892 -0.05158588 -0.007456572 0.017442912
0.06879277 -0.02620822 -0.020111993 0.06143031 0.119108945 0.10621178 0.080261186 0.0005397328
0.0028376593 0.088348046 0.04956778 0.051681858 -0.06209039 -0.037466515 -0.020314295 -0.015916223

model.3.weight f4 [64, 64]
00000000: f319 8abe 6201 54bd 71a3 9bbd e54f 82b9
00000010: 4521 af3d 958a abbe ea04 aebd 6356 163e
00000020: a8f0 6bbe 07f5 ad3d 7bc5 033d 0f78 90be
00000030: d667 09be 7bf6 663e 5619 303e 03b3 d73d
00000040: 2bcc 3cbd 2f2f 69be 920b ae3d 7502 c9bd
00000050: 6407 a93d 0b11 11be 54f1 bbbd f0fb 81be
00000060: 1fbd 813e 41dc b13e e2b0 abbe a64c af3d
00000070: 67a2 b63d 53e0 83be daea c3bd 6af9 06b8
00000080: d2c1 123e babd 043e 048b 823e fdf7 f5ba
00000090: cf99 2d3e 7a22 7bbe c85f 4fbb fe09 2e3e
000000a0: d910 b73e 31c8 003d a5bb a6bd 3018 a83e
000000b0: 8075 6439 f14a 873e 5a50 03bb 3fe5 47be
000000c0: 5336 493e 867b 67be 2d14 60bd fa07 ce3c
000000d0: cdf3 3bbe dd61 73bf 92a0 983e d8c8 e0be
000000e0: 735c 0ebe 2708 e83b 25e8 f33d ae7e 873c
000000f0: 355e e03d a02c ef3d 96d4 04be 886b 59be
00000100: 15c6 b4bd fedc 1ebe 7899 bebe 2060 09ba
00000110: c56f c53b ca38 0dbd d9af 813e a0d9 953d
00000120: f1a9 b0bd a67d 763e 1293 823e 3b56 383e
00000130: 40aa cbbd f9ae 063e a046 aebd 9e38 c13e
00000140: 6fe7 62bd 8c77 c83d 1924 7d3e 7445 a0be
00000150: 9560 d538 823b 263e 249b 06be 0642 c2bc
00000160: 1890 7ebe a8f5 adbe aa2d 73be 1931 a7bd
00000170: 6c00 5c3e 091c 3abd 8c32 5dbe 632d f4bd
00000180: 736e 493e 4dc2 76be 8e1e 0dbe dc89 01b9
00000190: f699 a7bd c109 2e3e 82d2 0bbe 0fda 903d
000001a0: 9dc7 91be a3de f33d fe28 fd3d 41c2 dcbe
000001b0: d0d5 a8bd 842f 84b9 d259 93b9 6d09 31be
000001c0: 0507 903d 84a7 82bc 90c5 9a3d 8f62 d33e
000001d0: 61fd c73b 30a4 87be 1e3b 97be 5d6c 82be
000001e0: 4ae5 42ba de7a dbbd 3cc2 863e 2427 043e
000001f0: f4c4 bfbe 21b8 adbe 339e 75be fd83 82be
00000200: 2ffe 4e3d e212 30be 1514 043e 4967 9c3c
00000210: a972 2cbe fedf a7be 3be0 a83e 5dc7 243e
00000220: f0d8 21be b201 2e3e 494a a8be ea07 aebd
00000230: 4746 993d c88b a0be 08b8 84be cb9c 51be
00000240: 0791 9bba ca7e 083e ca9a 10bd 1584 823e
00000250: 94e1 b1be f56e 1c3d 0e8f 823e 404e b73d
00000260: 174f d23d ffdb ad3d b1ad 283e 930c aebd
00000270: d21e e4be 3be3 a43e 5adb 02bd b95b 2e3e
00000280: be24 0e3c bd67 6c3e 576d 783e e778 43bd
00000290: 2c57 43bc 29ca bebe 3322 a6bd 7e9d ad3d
000002a0: 96dc c8bd 1bbf 513e 0dc9 4cbc 0f5e d7bd
000002b0: 1d29 84be c0c9 7b3e 5f9a bfbd 88c0 cd3d
000002c0: 97c4 a03e d395 073e f4f8 913a abd2 953d
000002d0: 26bd d33c ce0c e3bc 3a87 2fbe 3635 c03d
000002e0: 3f99 413e 24e6 143e f2f6 5a3c 1edc 37bf
000002f0: acf6 29be b860 073e b97b 3f3e e173 5c3e
00000300: c000 973e c12a 27bc 0042 df3b e0d9 a239
00000310: 64eb 00be 7bec a6bd 4819 1dbe 267d 0bbf
00000320: c428 efbe e1f3 2ebe 259c ec3c 12fa 533e
00000330: 4304 2bbf 814e ac3d 8bab 82be 01bc 83be
00000340: 151e b53d e2a3 0fbe 54cf 01bf 4ce6 863e
00000350: 7d00 a33d da28 e83d 5852 acbd 101f 873e
00000360: f116 a83e 178d acbe 6da0 303e d598 9cbc
00000370: f552 273e fac5 1cbe 4255 863e c001 883e
00000380: 6aff 993e 992f 833e a6c1 deb8 7986 86bd
00000390: 6348 b03d f80c 093e 02f8 a6bd 9bea e4be
000003a0: 78e9 263d cc15 c038 1496 2f3e 64d6 823c
000003b0: 79db 6c3d c3b5 29be b650 2c3e 75d6 a5bb
000003c0: 5111 0f3c 6e7e 293e e2f8 a0bc 4cda 013d
000003d0: 2acb 2a3e f7ee d43e c5ad f83c c706 a53d
000003e0: 4813 ae3d 8418 27be 71d4 91ba d028 e13d
000003f0: b662 0e3c d8db 023b 4bb7 eb3d a7b4 253e
-0.26972923 -0.05175913 -0.07599533 -0.00024855058 0.085512675 -0.33504167 -0.08497031 0.14681391
-0.23041022 0.08494001 0.032170754 -0.28216597 -0.13418517 0.22554962 0.17197165 0.10532191
-0.046093147 -0.22771905 0.084983006 -0.09814922 0.08253363 -0.14166658 -0.09176889 -0.25387526
0.253396 0.34738353 -0.33533388 0.085595414 0.089176945 -0.25757083 -0.09566279 -3.2180375e-05
0.14331749 0.12963 0.25496686 -0.0018765923 0.16953205 -0.2452487 -0.0031642783 0.16995999
0.3575504 0.031440917 -0.08141259 0.32830954 0.00021787547 0.26424363 -0.0020036907 -0.19521044
0.1964963 -0.22605714 -0.05470674 0.025150288 -0.18354721 -0.950712 0.29810005 -0.43903232
-0.13902454 0.00708105 0.119095124 0.016539898 0.109554686 0.116784334 -0.1297172 -0.21232426
-0.08826844 -0.1551399 -0.37226462 -0.0005240459 0.006025287 -0.034477986 0.25329474 0.07316899
-0.08626164 0.24071369 0.2550283 0.18001644 -0.09944582 0.13152684 -0.085095644 0.37738508
-0.055396494 0.09788427 0.24720801 -0.3130299 0.00010174621 0.16233638 -0.13145119 -0.023713123
-0.24859655 -0.33976483 -0.23747888 -0.081636615 0.21484536 -0.045436893 -0.21601313 -0.11922719
0.1967104 -0.24097557 -0.13781187 -0.00012353755 -0.081836626 0.16995908 -0.13654521 0.070728414
-0.28472605 0.11907699 0.12361334 -0.43116954 -0.082439065 -0.00025212404 -0.00028104946 -0.17288752
0.07032589 -0.015949018 0.07557213 0.41286132 0.006103203 -0.26492453 -0.2953729 -0.254733
-0.00074346794 -0.107167944 0.26320064 0.12905556 -0.3745495 -0.33929542 -0.2398613 -0.25491324
0.050535377 -0.17194703 0.12898286 0.019092219 -0.16840614 -0.3278808 0.32983574 0.16091676
-0.15805411 0.16992834 -0.32869175 -0.08497603 0.074841075 -0.31356645 -0.25921655 -0.20469968
-0.0011868783 0.13329616 -0.03530387 0.25491396 -0.34742415 0.038191754 0.25499767 0.08950472
0.102689914 0.084892265 0.16472508 -0.08498492 -0.44554764 0.32204613 -0.03194747 0.17027177
0.008675752 0.23086448 0.2426046 -0.047722723 -0.011922639 -0.3726361 -0.08111992 0.08477305
-0.098076984 0.20483057 -0.012499106 -0.10515987 -0.25812617 0.2458868 -0.09355616 0.10046488
0.31399986 0.13240747 0.0011136816 0.07315572 0.025847029 -0.027716067 -0.17141429 0.09385149
0.18906115 0.14540917 0.01336454 -0.7182025 -0.16598004 0.13220489 0.1869954 0.2152858
0.2949276 -0.010203064 0.0068132877 0.00031061377 -0.12589794 -0.08150574 -0.15341675 -0.54487836
-0.4671079 -0.1708522 0.02888305 0.20700863 -0.6680338 0.08413411 -0.25521502 -0.25729373
0.08843628 -0.1402736 -0.5070698 0.26347578 0.079590775 0.11335917 -0.08414143 0.26390886
0.32830003 -0.33701393 0.17248698 -0.019115845 0.1634024 -0.15309897 0.26236922 0.26563835
0.30077678 0.25622252 -0.00010621855 -0.065686174 0.08607557 0.13383853 -0.081527725 -0.4471024
0.040749997 9.1593334e-05 0.17147094 0.01597137 0.057826493 -0.16573243 0.16827664 -0.0050609657
0.008732156 0.16552135 -0.019649927 0.031702325 0.16679063 0.41588566 0.030356297 0.08057933
0.08499771 -0.16317946 -0.0011125935 0.109941125 0.008690527 0.0019967463 0.1150957 0.16182195

model.fc3.weight f4 [64, 64]
00000000: babd 673e 2c38 2abe 9328 c6be 3a66 593e
00000010: e2e8 403e 4b2f 49be 0515 6dbe 7855 d43e
00000020: 65a4 5fbd 99db 3d3c 82fd a5be 0167 3f3e
00000030: 3547 883e 7a77 b6bd 1814 683e 267b 99be
00000040: 7f07 df3d 49d1 40be 90ba 413e ed61 a63d
00000050: 308f d4bc fa67 2dbc 1d07 86ba f266 99bd
00000060: 2e21 3abe 24fe 653e a8ff 44be 3722 48be
00000070: 4a93 e5bc 0fc0 8e3e 1cb8 9dbe b68b 21be
00000080: 1ffd 4d3e 146a b0be e691 853c 8d91 0d3e
00000090: 63e9 1ebe 5328 a8b9 ad4c 1d3e 02aa 683e
000000a0: a241 3f3e b164 903d ec6e ad3d ee2a ce3d
000000b0: c928 693b 8406 4cbe 06a5 c1be a2d0 c5bb
000000c0: 6738 673c a975 72bd 5e4a fbbc 32f2 d6bd
000000d0: e041 23bc 117a 46bd 2549 99be 9089 243d
000000e0: 0905 c53b 36f7 b3ba 69bf e93d 708c bebd
000000f0: 5eb5 6a3e ec90 3fbe f1b7 a3bd a4bb dbbb
00000100: eaf3 06bd deb4 bfbe 332c 653e 985f 583e
00000110: a514 e5bd abd4 043a 24a8 0fbe 3ef5 1bbe
00000120: 678e 55be efe6 63bd a912 03be 3e0e 03be
00000130: 7a93 9dbe 7555 2c3e b992 f93d 3770 423e
00000140: 862c 3cbd 087a d23d 117c a83d 16fd 8dbe
00000150: 5d2f 31be e03f 54be 2432 a4be 4edb 8abe
00000160: a7c5 373e bac9 0ebe 866b aebd c06c 0ebe
00000170: 0e47 243e 256c 093e 7cc2 123e 33ce 10bd
00000180: 5230 70be d3ff 0dbe 1dfc 02be 8077 0bbe
00000190: 4933 06bd 0dba c73d 2e5e c6bd bfaa 023e
000001a0: fc22 bbbd 18d8 5e3e e615 6fbe 097a 57be
000001b0: 64fb 853e dc75 0b3e 1672 6a3e fc22 933d
000001c0: d041 0a3e 076b d73d 2359 81bc fee1 cd3d
000001d0: 1b7f 5a3d cea5 97be 6e1b eb3d 7c12 5dbe
000001e0: 0c07 6bbd f5ab 083d 87be 68be a046 c53e
000001f0: 7729 3bbe b7df f23a 4adb fabd eb69 1abe
00000200: affd 47bd e5a6 9b3d e3d1 bcbe 3e95 ec3d
00000210: f73e 85be 39fc d73d 051e e4bd 2b71 c33d
00000220: 3a28 413e d53c 673e c6b4 7abe 848e 023d
00000230: b48a 59be 0621 d4be e224 1e3e 851e 23be
00000240: 240e 013d 4c35 94be 7c5c 92be e027 9c3d
00000250: b346 3bbe 2e46 803c 89b8 08bf 686a f7bd
00000260: 1135 41bd 2dda 1c3e 7e3e bbbb 2886 1cbe
00000270: cfad 30be 5adc b53c 5d07 65be 3e0f b83e
00000280: b520 f93d f2ef 14be f986 88be 8663 b93d
00000290: 7dc1 953e b470 9b3d 23b8 163e 4a1a 79bd
000002a0: f114 ac3d b2e6 a4be fa9b 8ebd 1f6c 233d
000002b0: d93c 6bbe ada3 bebd fef1 9c3d 5ac9 503e
000002c0: 19aa a53d 397a 29be fc2f 6ebe 04f1 bebd
000002d0: 9a0e 693e 925d 0d3e 0d05 f73d 6c98 0ebf
000002e0: 8941 233d 9cae 2bbc d9af 98bd 4a4e 9cbe
000002f0: d4cb 313e f1f6 af3e a5bd a8bd 7e9f 13be
00000300: ad57 adbc 12e8 24bc a1ba 6abe d020 383e
00000310: af98 253e 42ae d6bd 684b 123e ecb6 96bd
00000320: 6e4b 17be 567b 043e 5ce8 843d a2b4 19bd
00000330: 9ba9 a0be 4b51 1d3e b6d7 833d 3a00 2dbd
00000340: 1127 353e b773 323e fcf9 153e b594 2ebe
00000350: 3495 99be ae70 95be a0fb 71be 0f2c 083d
00000360: ef9f 85bd 8b61 413e 4aa5 5e3d 717b 5ebe
00000370: e34c 1c3e 6dd3 61be 10d5 3abd 548a 203e
00000380: 7575 37be e294 913d 9f07 193e 7fee e63e
00000390: 1887 81bc bb51 95be e85a 9cbd 1c15 453d
000003a0: ed31 2d3d e8de 6e3e 4bc9 f7be 5dda 9d3d
000003b0: a121 de3d 9733 cabc b977 613d 05c4 7c3d
000003c0: 408b 88bd 5578 ba3d 3852 a3be 95ff 1bbe
000003d0: 6c1a a0bc 2aff 5b3e 682b 77bd bfcd 1b3e
000003e0: bd23 7bbb bc9e 043e deb5 203d 8b3e 6b3e
000003f0: 8ce2 19bd 7dcd 98be e15e b73d 8a20 8abe
0.22630969 -0.1662299 -0.3870283 0.21230403 0.18838838 -0.19646947 -0.2315255 0.41471457
-0.05460014 0.011588001 -0.32419974 0.18691637 0.26616827 -0.08909507 0.22663915 -0.29976767
0.10890102 -0.18829836 0.18918824 0.081241466 -0.025947183 -0.010583872 -0.0010225509 -0.074903384
-0.1817672 0.22460228 -0.1923815 -0.19544302 -0.028024334 0.27880904 -0.30804527 -0.15775952
0.2011609 -0.3445593 0.016304921 0.13825054 -0.15518717 -0.000320735 0.1536128 0.22721103
0.1867738 0.07050455 0.08468422 0.10066782 0.0035577288 -0.1992436 -0.37821215 -0.006036834
0.014112568 -0.05919424 -0.03067511 -0.10495414 -0.009964436 -0.048456255 -0.29938617 0.040170252
0.006012563 -0.0013730291 0.11413462 -0.0930413 0.22920749 -0.18707627 -0.079940684 -0.006705718
-0.03294746 -0.37442678 0.22380142 0.21130216 -0.11185578 0.00050670904 -0.14028984 -0.15230271
-0.20855103 -0.055640157 -0.12800087 -0.12798402 -0.30776578 0.16829474 0.12186188 0.18988119
-0.0459409 0.10277182 0.08226789 -0.27732152 -0.17303224 -0.20727491 -0.32069504 -0.2712044
0.17946492 -0.1394414 -0.08516602 -0.13908672 0.1604273 0.1342016 0.14332002 -0.035352897
-0.23455933 -0.1386712 -0.12791486 -0.13619804 -0.032763753 0.09752283 -0.09685932 0.12760447
-0.09137532 0.2176212 -0.23348197 -0.21042646 0.26168358 0.13619179 0.22895083 0.07184407
0.13501668 0.10518461 -0.015789574 0.1005287 0.053343873 -0.29618686 0.11479841 -0.21589082
-0.057379767 0.033367116 -0.2272893 0.38530445 -0.18277536 0.0018529807 -0.12248857 -0.15079467
-0.048825916 0.07600192 -0.3687888 0.11551903 -0.260246 0.105461545 -0.11138538 0.095430695
0.18863001 0.225818 -0.24483022 0.031874195 -0.21244317 -0.41431445 0.15443757 -0.15929611
0.031507626 -0.28946912 -0.28586185 0.07624793 -0.18288688 0.015658464 -0.5340658 -0.12080842
-0.04716975 0.15317602 -0.0057142368 -0.15285552 -0.17253803 0.022199798 -0.2236609 0.3594913
0.121644415 -0.14544657 -0.26665476 0.09052186 0.29249182 0.07589856 0.1471868 -0.060816087
0.08402432 -0.32207257 -0.06963344 0.039898034 -0.2297243 -0.093085624 0.07663344 0.2038931
0.08089084 -0.1655053 -0.23260492 -0.09323314 0.22759476 0.13805225 0.1206151 -0.5570133
0.03985742 -0.010478642 -0.07455415 -0.3052848 0.1736291 0.3436809 -0.08239297 -0.1441631
-0.021159971 -0.0100650955 -0.22922756 0.17981267 0.16171525 -0.10482456 0.14286578 -0.07359108
-0.14774868 0.12937674 0.064896315 -0.03752578 -0.313794 0.15363042 0.06437628 -0.042236544
0.17690684 0.17426954 0.14646143 -0.17048915 -0.29996645 -0.2918753 -0.23631144 0.033245143
-0.065246455 0.18884866 0.05435685 -0.21726777 0.15263705 -0.22053309 -0.04561335 0.15677768
-0.179159 0.07108475 0.14944313 0.45103833 -0.015811488 -0.29163918 -0.076345265 0.048115835
0.04228394 0.2332722 -0.48395762 0.07707665 0.10846258 -0.024682803 0.055045817 0.061710376
-0.06667185 0.09104983 -0.31898665 -0.15234216 -0.019543849 0.21484056 -0.06034413 0.15215205
-0.0038320862 0.12951177 0.039235942 0.22973077 -0.037569568 -0.29844275 0.089536436 -0.2697795

classifier.weight f4 [10, 64]
00000000: 4e75 013f 0754 40be b59e 503e 349b c13d
00000010: 3c44 f23e c307 953d 0cd3 5c3e 2145 0cbf
00000020: 5b08 edbe 81b2 5c3e ab95 023e b9cd 793d
00000030: b45c d5bd 9bbd 08bf 3302 92be a6e3 bf3d
00000040: 5f7e 5f3e ac67 93bc 38a7 ebbe 5318 a73e
00000050: d5e9 823d 4020 013f 3058 2abf d3b9 02bf
00000060: 085f e4be 948c a7be 2d0a ad3e 12b5 8dbe
00000070: e147 82be f6e4 f63e b7f3 f0be 0971 36be
00000080: 07ac eb3d 590e 863e ff1e 51be 0eb4 03bf
00000090: ef6e e73e 2a45 28bf 0916 f2be ce06 e0bd
000000a0: 08c7 2e3d 7787 0dbf 20cf 0f3e 135d 6fbf
000000b0: 8de6 e3bc b4b3 d3be e71f fdbe 277c e9be
000000c0: 2aa2 57bf 2dbc 563e 7a2c 9d3d 775b 47bf
000000d0: bbbd 3abd 3f5b c63d 09a5 403d 9aa3 38bf
000000e0: 957a 25be e19c 593e 717a b83e c1f4 113f
000000f0: 2f42 9c3d 134b 963e 9016 d1be 70c6 9f3e
00000100: ab57 e5be 0354 1cbf a298 a8be f890 1ebf
00000110: 89a9 0e3f dc01 0abf f97c 6cbf a690 6e3e
00000120: ba8a 0cbe a97f cbbe 1ef4 3d3e 5581 e4be
00000130: dc93 283f c820 acbd acc3 a7be 3007 7fbe
00000140: 2c7b a1be e321 b5bf a0b2 093f d91b 05bf
00000150: ff6b 8e3d b6dc 043d 2781 d43e 80c6 463f
00000160: 4cd2 eb3e 15d9 c0be e7d1 9e3e 663a bc3e
00000170: 6786 9c3e 6f98 d43e ce4a 80be efd6 343d
00000180: 98b8 b9be 1b5b a23e 389b 08be 5bbf 913d
00000190: 7d11 27bd 6c03 e3be cefd 87bd 6d47 2bbf
000001a0: 52e8 81bd c9ca a5be 6f26 173e 64dd c53d
000001b0: 30d2 96bd 9bb4 a83e 1772 5ebe d8f8 32be
000001c0: 70ba 673e 7f62 a3be 7ec8 a93e 16ee 013f
000001d0: d2a5 2fbf 840c fdbe bb8d 13bf 46e0 e6be
000001e0: 8666 08bf 17b8 e63e 13df fcbe 6b6f 28bf
000001f0: 8ae6 063e 6ad7 fbbc 19a3 193e e4a8 87be
00000200: 063b 52bd 6464 edbd b349 e6bd 41a0 5e3e
00000210: 1557 12bf ec6d 0a3f 6d70 51be f682 6abc
00000220: efa9 fe3d 749e 943e 0eb5 e7be c9cd debd
00000230: 9769 a5be 9e6e 18bf bbf5 03bf d68f 01bf
00000240: 2efb b3be e785 703e f346 5c3e 89d7 dfbd
00000250: c4fa 9d3e d0ea a63e 0061 003e ae7e 87be
00000260: 2c4e 193e 349f a5be a188 8ebe fac8 603e
00000270: a2af 0bbf 96da 4c3e 0a8c 273e 3125 133c
00000280: 98de 21bf 86f9 9d3e a879 0cbf 0b99 07bf
00000290: 453c 09bf 5737 e9be 98dd ffbd b0dc b03e
000002a0: edc6 953d 6735 b23e 92a4 a1be abc8 5cbe
000002b0: 10d8 cbbd 9e7a 273f 3c2c 2f3f 1344 a8be
000002c0: 263e 5dbe c612 f7be bbdc 4e3d b406 25bf
000002d0: 165a 85be 7705 e43e ee31 b0bc 17f6 57be
000002e0: 5a1f 64ba e7c5 c03c 8f6c e6be 59b7 97be
000002f0: 7715 a93e 1b7e 0abd 9adf cebe b7ce e03d
00000300: 8c8b a73e 85b6 65bd 37c7 e0bd 3343 e0bd
00000310: 420d 13bd 6240 b1be 3b6a a0b9 6f7d 013f
00000320: dac4 e0bd 7842 923c 55fc 12bf 52b2 053f
00000330: cc06 15be 292e e83e 022a ce3e d2d9 ecbe
00000340: f84d e0be d41a 07bf 3489 04bf 88a8 bcbc
00000350: e176 4c3d 0171 603e 2f52 e3bd f668 e13d
00000360: c01a 793d fc65 bc3d aac8 e1be 130b 413e
00000370: 1f3c fbbe 5857 a4be 4315 e1bd d7cc 6f3e
00000380: 4865 07bf 65cb aabe 121f 4d3f 51c3 0cbf
00000390: c33f b7be 69c8 e03e d3c1 1fbe 9cf8 2a3e
000003a0: 642a 13bd 93a2 dfbd 3ae9 b7be ee32 093f
000003b0: 756c 8fbd b5da 87bd 7f3d 8abb eb24 70be
000003c0: b66e d1be 5db8 08bf 9dcb e03d 4e23 57be
000003d0: 93ca a7be f166 ebbe 2953 e2bd 5277 a43e
000003e0: 8956 1bbb 88d6 e9bd 727c e03d 9abd cfbe
000003f0: e24e 6abe 5899 51be 0d18 1abe b803 a13a
0.5056962 -0.18782054 0.20373042 0.09453431 0.47317684 0.07276871 0.21564883 -0.5479298
-0.46295437 0.21552469 0.12752406 0.060987208 -0.10418072 -0.53414315 -0.28517303 0.09369592
0.2182555 -0.01799377 -0.46026015 0.32635745 0.06392256 0.50439835 -0.66540813 -0.51064795
-0.44603753 -0.3272444 0.33796826 -0.27677208 -0.25445464 0.48221558 -0.4706094 -0.17816557
0.11507421 0.2618282 -0.2042198 -0.51446617 0.45201823 -0.65730536 -0.47282436 -0.10938798
0.04267028 -0.5528483 0.14043856 -0.93501395 -0.027819896 -0.4134804 -0.49438402 -0.45602533
-0.8423182 0.20970221 0.07674499 -0.7787394 -0.045591097 0.096853726 0.04703239 -0.72124636
-0.16160043 0.21251251 0.36030915 0.5701409 0.07629811 0.29354152 -0.40837526 0.31206083
-0.44793448 -0.6106569 -0.3292895 -0.61939955 0.5572744 -0.5390909 -0.92378193 0.23297366
-0.13724795 -0.39745834 0.18550155 -0.44629923 0.65850616 -0.0840469 -0.32766473 -0.24905086
-0.31539285 -1.4150966 0.53788185 -0.5199562 0.06954192 0.03243705 0.41504785 0.77646637
0.4605888 -0.3766562 0.31019518 0.36763304 0.3057129 0.41522548 -0.2505707 0.04415029
-0.36273646 0.31710133 -0.13340461 0.07116576 -0.040788162 -0.44338548 -0.06640206 -0.6690586
-0.0634314 -0.32381275 0.14760755 0.096613675 -0.07364309 0.3295029 -0.2172321 -0.17477739
0.22629714 -0.31911084 0.33160776 0.50753915 -0.68612397 -0.4942361 -0.5763814 -0.45092982
-0.5328144 0.45062324 -0.49388942 -0.6579501 0.13173881 -0.030742366 0.15003623 -0.2649604
-0.05132582 -0.115914136 -0.11244526 0.2174082 -0.57164127 0.5407398 -0.20453043 -0.01431345
0.12434756 0.2902714 -0.4525532 -0.10879094 -0.3230712 -0.5954379 -0.5154683 -0.506101
-0.35152572 0.2348858 0.2151144 -0.10929782 0.3085538 0.32601023 0.12537003 -0.26463836
0.14971226 -0.32348025 -0.27838615 0.21951666 -0.5456487 0.20005259 0.16362014 0.008981035
-0.63230276 0.30854434 -0.5487313 -0.529679 -0.5360759 -0.45550033 -0.124934375 0.3454337
0.07313333 0.34806368 -0.3157087 -0.21560924 -0.0995332 0.65421474 0.6842687 -0.32864437
-0.21605739 -0.4825651 0.050503474 -0.64463353 -0.26045293 0.4453542 -0.021508183 -0.2108997
-0.00087021815 0.023531867 -0.450047 -0.2963207 0.3302419 -0.03381167 -0.4040497 0.10976928
0.32723653 -0.056082267 -0.10975497 -0.10950317 -0.035901316 -0.34619433 -0.00030596726 0.5058202
-0.109750465 0.01785396 -0.5741628 0.5222522 -0.14553374 0.45347717 0.40266424 -0.46259934
-0.43809485 -0.5277531 -0.51771855 -0.02302958 0.04991806 0.21918108 -0.1109966 0.11006348
0.060816526 0.091991395 -0.44098407 0.1885188 -0.49069306 -0.32097888 -0.109903835 0.23417984
-0.5288892 -0.33358303 0.80125535 -0.5498553 -0.35790834 0.439029 -0.15601282 0.166964
-0.0359291 -0.109196804 -0.35920125 0.5359334 -0.070031084 -0.06633512 -0.0042187567 -0.23451583
-0.40904778 -0.53406316 0.10976336 -0.21009561 -0.3277174 -0.45976976 -0.11051018 0.32122284
-0.0023702702 -0.11417872 0.10961236 -0.40574342 -0.22881654 -0.20468652 -0.15048237 0.0012284433
