modeldata/octav_Cosine_lr0.001_Aug_BitMnist_PerTensor_4bitsym_RMS_width64_64_64_bs128_epochs60.pth (torch, 104977 bytes, 4 tensors)

fc1.weight f4 [64, 256]
0	0xbe02bdb1	-0.12767674
1	0xbe3b7149	-0.18304934
2	0xbdf52fa8	-0.1197198
3	0xbe5b2e20	-0.21404314
4	0xbe0ef51e	-0.13960692
5	0xbdaccbad	-0.084372856
6	0xbdac2a9c	-0.084065646
7	0x3d4f8537	0.050664153
8	0x3d82e2bd	0.06390903
9	0x3d989a50	0.07451308
10	0x3d9e9c02	0.077446
11	0x3e020efb	0.12701027
12	0x3b3b6a96	0.0028597466
13	0xbc5e6d73	-0.013575899
14	0xbe2cb413	-0.16865568
15	0xbe42877f	-0.18997
16	0xbdfd3298	-0.123631656
17	0xbe1f17e3	-0.15536456
18	0xbe568455	-0.20948918
19	0xbdfe1779	-0.12406821
20	0x3d1090a0	0.035294175
21	0x3e103a37	0.14084707
22	0x3e1e8499	0.1548027
23	0x3e716132	0.23572233
24	0x3e3662a3	0.17811064
25	0x3e344922	0.17606023
26	0x3e352f32	0.17693785
27	0x3e2ab905	0.16672142
28	0x3e882a6e	0.2659487
29	0x3d91a0a8	0.07110721
30	0xbdb213cf	-0.086951844
31	0xbd82fd4a	-0.06395967
32	0xbe3298d3	-0.1744111
33	0xbe1e2a7d	-0.15445895
34	0xbda42311	-0.08014501
35	0x3e14307e	0.14471623
36	0x3e513654	0.20430881
37	0x3e6e8b93	0.23295431
38	0x3eadaafe	0.3391952
39	0x3e9cbe80	0.3061409
40	0x3e86f26f	0.26356837
41	0x3e9b1fc7	0.30297682
42	0x3e410f9e	0.18853614
43	0x3e2a0e27	0.16606961
44	0x3e817103	0.25281534
45	0x3e26501d	0.16241498
46	0x3bc0f06f	0.005888037
47	0xbd7924bc	-0.06082605
48	0xbddc89f8	-0.10768503
49	0xbda56c06	-0.080772445
50	0x3d7717d1	0.060325447
51	0x3e323975	0.1740473
52	0x3e86e960	0.26349926
53	0x3ec91e28	0.3928082
54	0x3eeb41bf	0.45948598
55	0x3eff7f4f	0.49901816
56	0x3ec28b0c	0.3799671
57	0x3ead3d33	0.33835754
58	0x3de5965d	0.1121032
59	0xbe31a315	-0.17347367
60	0xbd9aba92	-0.07555117
61	0x3c07e1a2	0.008293541
62	0x3ca0d210	0.019631416
63	0xbdde0a75	-0.10841838
64	0xbddcb9d5	-0.10777632
65	0x3d88da15	0.06682221
66	0x3e31c35b	0.17359678
67	0x3e7e86db	0.24856131
68	0x3ed43787	0.41448614
69	0x3f0700c5	0.5273555
70	0x3eb362af	0.35036227
71	0x3db3bec1	0.08776618
72	0xbe6537e6	-0.22384605
73	0xbe88d97b	-0.26728424
74	0xbe6b22c2	-0.22962478
75	0xbe76d489	-0.24104513
76	0xbe385f3b	-0.18005078
77	0xbe8b658e	-0.27225918
78	0xbdce2810	-0.10066235
79	0xbdfec138	-0.12439197
80	0x3bb37f55	0.0054778256
81	0x3e8b7571	0.27238038
82	0x3eae5605	0.34050003
83	0x3ece47cb	0.4028915
84	0x3ed915d1	0.42399457
85	0x3e9f7514	0.3114401
86	0xbe2eaddb	-0.17058508
87	0xbf12dd3a	-0.57368815
88	0xbeba14a1	-0.36343864
89	0xbdface7c	-0.12246415
90	0x3b29e001	0.002592087
91	0xbd6eeb90	-0.05833012
92	0xbe2c357e	-0.1681728
93	0xbe04cf6d	-0.12969752
94	0xbddacbb6	-0.10683386
95	0xbe09f8a6	-0.13473758
96	0xbd261089	-0.040543113
97	0x3e8122e5	0.25221935
98	0x3e87e07c	0.26538455
99	0x3ea84e2c	0.3287214
100	0x3cbc687f	0.022999046
101	0xbde746c7	-0.112927966
102	0xbee45b57	-0.44600937
103	0xbea71c62	-0.32638842
104	0xbd778e09	-0.06043819
105	0x3dff7dc6	0.12475161
106	0x3db40491	0.087899335
107	0xbd472ae0	-0.048624873
108	0xbab2b18a	-0.0013633233
109	0xbe11ba49	-0.14231218
110	0xbe2c2357	-0.16810356
111	0xbdf7a33b	-0.120916806
112	0xbcebbcb5	-0.028776506
113	0x3e32c8e0	0.1745944
114	0x3cb0ecdd	0.02159732
115	0xbd6f26e2	-0.05838669
116	0xbdf426ed	-0.11921487
117	0xbe8b5910	-0.27216387
118	0xbe34458f	-0.1760466
119	0xbd6ee7e7	-0.058326628
120	0xbd914273	-0.07092752
121	0x3dad8bc2	0.08473922
122	0xbca8a572	-0.020586703
123	0x3db30519	0.08741207
124	0xbd24d11c	-0.040238485
125	0xbe22a2d5	-0.15882428
126	0xbe29b2a9	-0.1657206
127	0xbe6e2856	-0.23257574
128	0xbc678d0f	-0.014132752
129	0x3ccf469f	0.02530223
130	0x3d5481ef	0.051881727
131	0xbd15ecf4	-0.03660293
132	0x37ce2955	2.457636e-05
133	0xbd33cb69	-0.04389516
134	0xbb4e307d	-0.0031462007
135	0x3b91a67d	0.004444896
136	0x3d25c020	0.040466428
137	0x3d902d83	0.07039931
138	0x3a498b61	0.00076883106
139	0x3d8bf129	0.06833107
140	0xbd98257d	-0.07429025
141	0xbc77973f	-0.0151117435
142	0xbe1fd9e7	-0.15610467
143	0xbe34ed03	-0.17668538
144	0xbc43298a	-0.011911759
145	0x3cbfd72e	0.023418035
146	0x3db1ea28	0.0868724
147	0xbd9853f9	-0.074378915
148	0xbd35d58d	-0.04439311
149	0x3c541368	0.01294408
150	0x3cdb1486	0.026743185
151	0x3c1d066b	0.00958405
152	0x3d3a660f	0.045507487
153	0xbc994b38	-0.018712625
154	0xbdb5973a	-0.08866735
155	0x3d386469	0.045017634
156	0xbc9535d9	-0.018214153
157	0x3bb06e9e	0.0053842803
158	0xbb54f756	-0.0032496057
159	0xbddbc630	-0.10731161
160	0xbdba8adc	-0.091085166
161	0xbca50903	-0.020145899
162	0x3d59e873	0.053200196
163	0x3c81185b	0.015758684
164	0xbc4201c5	-0.011841242
165	0xbc0be500	-0.008538485
166	0xbd13a89b	-0.036049467
167	0xbbd1e3cf	-0.0064053307
168	0xbdcb3fb0	-0.09924257
169	0x3a729336	0.00092535035
170	0xbd4375dd	-0.047719825
171	0x3e174da6	0.14775714
172	0xbd0be08d	-0.034149695
173	0x3dedbeee	0.116086826
174	0x3c8c9f18	0.017165706
175	0xbcfeafbd	-0.031089658
176	0xbe1b440d	-0.15162678
177	0x3d3768c8	0.04477766
178	0x3b857c3a	0.004073647
179	0xbd1af5ac	-0.037831947
180	0x3d12d031	0.035843078
181	0x3d1f79c4	0.038934484
182	0x3b180af4	0.0023199888
183	0x3d8c1fb2	0.06841983
184	0x3d62323d	0.055223692
185	0x3dbec799	0.09315414
186	0xbba610fc	-0.0050679427
187	0x3d959c6d	0.073052265
188	0x3ad5862f	0.00162906
189	0x3e083682	0.13302043
190	0x3d09bc1f	0.033626672
191	0xbc1d8b92	-0.009615796
192	0xbd986c04	-0.07442477
193	0xbd8a137f	-0.06742
194	0xbd67909d	-0.0565344
195	0xbd8352c5	-0.064122714
196	0xbd24c60e	-0.040227942
197	0x3a8b7134	0.0010638596
198	0xbc26d6c0	-0.010183036
199	0x3d86aca0	0.06575894
200	0x3d8b1cc7	0.06792598
201	0xbdaec436	-0.08533518
202	0x3d2b7ea1	0.04186881
203	0xbcc906ec	-0.024539433
204	0xbc034e90	-0.008014336
205	0x3e223a0a	0.15842453
206	0x3dbac4fc	0.09119603
207	0xbe098a28	-0.13431609
208	0xbe0b1479	-0.13582028
209	0xbe05c78e	-0.13064405
210	0x3b86d5c2	0.0041148374
211	0xb9069b63	-0.00012837122
212	0xba18a284	-0.00058225566
213	0xbd39f49c	-0.045399293
214	0xbe32d5a3	-0.17464308
215	0xbe3f3588	-0.18672764
216	0xbe113ec0	-0.14184093
217	0xbd52531c	-0.05134879
218	0x3c32f521	0.010922701
219	0x3ced5275	0.028969983
220	0xbde0cbf4	-0.10976401
221	0xbd239e2e	-0.039945774
222	0xbdb0cc7c	-0.08632752
223	0xbe47ae31	-0.19500042
224	0xbe307565	-0.17232282
225	0xbdaba308	-0.08380705
226	0xbd13f5fc	-0.03612326
227	0xbd8c653e	-0.06855248
228	0xbb03f7fe	-0.0020136829
229	0x3dfe6e3f	0.124233715
230	0xbda9895d	-0.08278153
231	0xbd67a808	-0.05655673
232	0xbdcf1bda	-0.10112734
233	0xbd50a447	-0.050937917
234	0x3db2c26b	0.087284885
235	0x3e2e2113	0.17004804
236	0xbda0fbf4	-0.07860556
237	0xbd0f12e8	-0.03493014
238	0xbda1e7ef	-0.07905566
239	0xbdc8d15e	-0.098055586
240	0xbe5921c9	-0.21204294
241	0xbe2ee17d	-0.17078204
242	0xbdabfa6b	-0.08397373
243	0xbd6599be	-0.056054823
244	0xbdf3a2e0	-0.118963
245	0xbcc82925	-0.024433682
246	0xbd8e68a4	-0.06953552
247	0xbd948881	-0.072525986
248	0xbd43a83f	-0.047767874
249	0xbd5cd715	-0.053916056
250	0xbd811c4d	-0.06304226
251	0xbb679526	-0.0035336702
252	0xbdde8904	-0.108659774
253	0xbe407fda	-0.18798772
254	0xbe2719fd	-0.16318507
255	0xbdcefea5	-0.10107163

fc2.weight f4 [64, 64]
0	0xbdb3149e	-0.08744167
1	0xbde3f37c	-0.11130425
2	0x3dff7493	0.12473407
3	0x3de2eb5b	0.11080047
4	0xbc878daa	-0.016547043
5	0xbe8ed978	-0.2790029
6	0x3e15bbe0	0.1462245
7	0x3e005653	0.1253293
8	0xbeb10365	-0.34572902
9	0xba35f41b	-0.00069409766
10	0x3e106242	0.14099982
11	0xbd88cbe6	-0.066795155
12	0x3ed0630a	0.4070056
13	0x3d078976	0.033090077
14	0x3e53dcd6	0.20689711
15	0xbe0b8987	-0.13626681
16	0xbdd79b5f	-0.105276816
17	0x3dcc107c	0.09964082
18	0xbe369ced	-0.178333
19	0x3e8bfcd2	0.27341324
20	0xbe90dc32	-0.28292996
21	0x3e72304f	0.23651241
22	0xbdf4b1d1	-0.11947978
23	0xbe3a537d	-0.18195911
24	0x3bb20eda	0.0054338994
25	0x3d8df2a8	0.06931049
26	0xbbb1ad33	-0.0054222583
27	0x3da3987e	0.0798807
28	0x3c0a36e4	0.0084359385
29	0x3d5d4399	0.054019544
30	0xbe88876f	-0.26665828
31	0xbe3890d0	-0.18023992
32	0xbe0b46ef	-0.13601278
33	0xbe3fde16	-0.18737063
34	0x3c9dcb41	0.019261958
35	0xbde28895	-0.11061207
36	0x3da43ac2	0.0801902
37	0x3ddc06b3	0.10743465
38	0x3e3580a2	0.17724851
39	0xbd91f096	-0.07125966
40	0x3cae1ab0	0.02125296
41	0xbea8e817	-0.3298957
42	0x3d8a46dd	0.06751797
43	0xbed1706c	-0.40906084
44	0xb8f6f817	-0.000117764044
45	0x3d967f10	0.07348454
46	0xbf218c40	-0.6310463
47	0x3e0a021f	0.13477372
48	0xbdd1a4eb	-0.10236534
49	0xbe551f2a	-0.2081267
50	0xbeb555cc	-0.3541702
51	0x3e87083f	0.2637348
52	0x3e559f7f	0.20861624
53	0x3bf1c064	0.007377671
54	0x3e51a8ba	0.2047452
55	0xbd803f92	-0.06262125
56	0x3b483ce3	0.003055387
57	0x3e73641c	0.23768657
58	0xbf0cd026	-0.5500511
59	0xbe8e9893	-0.2785078
60	0xbe541098	-0.20709455
61	0xb982864f	-0.000248956
62	0xbecc8603	-0.39945993
63	0x3e1440a7	0.14477788
64	0xbf063797	-0.52428573
65	0xbd7910a1	-0.060806874
66	0x3d4cab0f	0.04996782
67	0x3eaddbe5	0.3395683
68	0xbd93823e	-0.07202576
69	0xbd29bc51	-0.04143936
70	0xbd82c755	-0.06385676
71	0x3e415215	0.18878968
72	0x3dfa3886	0.12217812
73	0x3e0d6e44	0.13811594
74	0xbd931e22	-0.07183482
75	0xbe5430f8	-0.20721805
76	0xbd872c0e	-0.066002
77	0x3d23a783	0.039954673
78	0xbe5ae177	-0.2137507
79	0x3cbcede9	0.023062663
80	0x3ea1495f	0.3150129
81	0xbdb1a8f1	-0.08674801
82	0xbd5caec2	-0.0538776
83	0x3dbd2c5b	0.09236976
84	0x3e26d607	0.16292582
85	0xbd469f95	-0.048492033
86	0xbc9d1dbb	-0.019179216
87	0xbd8a645d	-0.06757424
88	0xbe1c2787	-0.15249453
89	0xbc6efb47	-0.014586276
90	0x3c8f940f	0.017526655
91	0x3e145c5b	0.14488356
92	0xbd0a5982	-0.033776768
93	0x3dd787d5	0.10523955
94	0x3ea55b0f	0.32296035
95	0x3e0d4fac	0.13799924
96	0x3d27e532	0.040990062
97	0xbe02cc10	-0.12773156
98	0x3e8af82d	0.27142468
99	0x3e6e5a0e	0.2327654
100	0x3e039d51	0.1285298
101	0x3d82fb07	0.06395536
102	0x3d9eb064	0.077484876
103	0xbeb9f401	-0.36318973
104	0x3dce9ef6	0.10088913
105	0x3cb4e22a	0.0220805
106	0x3d45bc23	0.048275124
107	0xbea8a887	-0.32941076
108	0x3ddfece1	0.10933853
109	0x3df504ee	0.11963831
110	0xbed2711c	-0.4110192
111	0xbd8110b0	-0.06302011
112	0x3a63a6fb	0.0008684245
113	0x3e16d460	0.14729452
114	0x3e1f3669	0.155481
115	0x3d99eea8	0.07516223
116	0xbecd6ee1	-0.40123656
117	0x3d908672	0.070568934
118	0xbebdbd0a	-0.37058288
119	0xbd8879da	-0.06663866
120	0x3eb2d06f	0.34924647
121	0xbe510fda	-0.20416203
122	0x3e32c865	0.17459257
123	0xb9dc038c	-0.00041964313
124	0xbd51cd93	-0.05122144
125	0x3e51a669	0.20473637
126	0x3e47573a	0.19466868
127	0xbe924151	-0.28565457
128	0x3d872077	0.06597989
129	0x3e287672	0.16451433
130	0x3b6ac64b	0.0035823758
131	0x3e0d7c35	0.13816912
132	0xbe8dcc19	-0.27694777
133	0xbd2384cc	-0.039921567
134	0x3dd14ef7	0.102201395
135	0xbe140767	-0.14455949
136	0xbe86f8c6	-0.26361674
137	0xbd1fccb8	-0.039013594
138	0x3db9a9b3	0.09065571
139	0x3e54088b	0.20706384
140	0x3dfa66a5	0.12226609
141	0x3d3ff415	0.046863634
142	0x3e8f1433	0.27945098
143	0xbe068ce3	-0.13139682
144	0x3e0693f9	0.13142385
145	0xbd5d7040	-0.054062128
146	0xbe8b77df	-0.27239892
147	0x3e0c51d7	0.13703094
148	0x3e3c588c	0.18393153
149	0x3dd59f23	0.104307435
150	0x3e510a17	0.20414005
151	0xbd55e374	-0.05221887
152	0x3df538bf	0.11973714
153	0xbd87e84d	-0.06636105
154	0x3d8dce9a	0.06924172
155	0xbdaf62b7	-0.0856375
156	0xbdaa2097	-0.08306997
157	0xbd8d56e8	-0.06901342
158	0x3dda3f0d	0.10656557
159	0x3ec73cb7	0.3891351
160	0xbda0fbfc	-0.07860562
161	0xbe28fdba	-0.16503039
162	0x3cde793c	0.027157418
163	0xbea8be59	-0.32957724
164	0xbe97f62e	-0.29680008
165	0xbebb68aa	-0.3660329
166	0xbd6acf31	-0.0573265
167	0xbd02b5ee	-0.031911783
168	0xbbade415	-0.0053067305
169	0x3cc8e276	0.024522047
170	0x3e0d7dc1	0.13817503
171	0x3e0efcd8	0.1396364
172	0x3dca0318	0.09863871
173	0x3e0d478c	0.13796824
174	0x3ea47221	0.32118323
175	0x3e0d43e5	0.13795431
176	0xbda44e88	-0.08022791
177	0x3dadde90	0.08489716
178	0xbdf38062	-0.118897215
179	0x3e02397c	0.12717241
180	0xbeb2956f	-0.34879634
181	0x3d3c83fd	0.04602431
182	0xbe829333	-0.2550293
183	0x3e0024ce	0.1251404
184	0x3e24ef92	0.16107014
185	0x3ec2ad9b	0.38023075
186	0xbd93c817	-0.072158985
187	0xbd23b74b	-0.039969724
188	0xbe8ea8a4	-0.27863038
189	0xbda432a2	-0.0801747
190	0xbe54056f	-0.20705198
191	0xbdcea324	-0.1008971
192	0x3d8dfd2c	0.06933054
193	0xbda5b324	-0.08090809
194	0xbd326955	-0.043557484
195	0xbe849943	-0.2589818
196	0xbe4765ec	-0.19472474
197	0xbce7e5c7	-0.028307809
198	0x3d8d7fd3	0.06909146
199	0x3c32a6f5	0.0109040635
200	0x3e251e1f	0.16124772
201	0xbcf2c0df	-0.029632984
202	0xbdcfc3b6	-0.10144751
203	0x3da167fc	0.078811616
204	0xbd8e065f	-0.06934809
205	0xbe026222	-0.12732747
206	0xbe20e50c	-0.15712374
207	0x3e2c4aaf	0.16825365
208	0xbe51a524	-0.20473152
209	0xbe4fa1e0	-0.20276594
210	0x3e576667	0.21035157
211	0xbda92234	-0.08258477
212	0x3e0d755e	0.13814303
213	0xb8a93715	-8.068808e-05
214	0x3e4e88e4	0.20169407
215	0xbd3611d1	-0.044450585
216	0xbe925022	-0.2857676
217	0xbf2eca4e	-0.6827744
218	0x3d859a20	0.06523538
219	0x3dd9be0d	0.106319524
220	0x3eae32e6	0.34023207
221	0x3d16bbb0	0.036800086
222	0xbe8d6319	-0.27614668
223	0x3e33b9b9	0.17551316
224	0x3cc93fe0	0.02456659
225	0x3dc5c6c3	0.096570514
226	0xbdfe0c2d	-0.12404666
227	0xbd88e65b	-0.06684562
228	0xbe0400c6	-0.1289092
229	0xbe2e271a	-0.17007104
230	0xbd91801a	-0.071045116
231	0xb8b07c1a	-8.41545e-05
232	0x3e1aedef	0.15129827
233	0x3e8fb0e6	0.2806465
234	0xbcb089a8	-0.021550015
235	0xbe1a418d	-0.15064068
236	0x3e08a462	0.13343957
237	0x3de5f644	0.11228612
238	0xbd8e6061	-0.069519766
239	0xbe8ea74a	-0.27862006
240	0xbc9c7fde	-0.01910394
241	0xbdfd2f23	-0.12362506
242	0x3eaf12da	0.3419407
243	0xbe802f49	-0.25036076
244	0xbde46737	-0.11152499
245	0x3e559c21	0.2086034
246	0x3e8d46be	0.27593035
247	0x3e45add8	0.19304597
248	0xbef84234	-0.4848801
249	0xbd8ee403	-0.069770835
250	0x3e80b2c6	0.25136393
251	0x3e7005e8	0.23439753
252	0x3e0d799e	0.13815925
253	0x3e912c8d	0.28354302
254	0x3ef9f7a5	0.4882175
255	0x3cd2c5a6	0.025729012

fc3.weight f4 [64, 64]
0	0xbd14b9f6	-0.03631016
1	0xbe60ddd9	-0.21959628
2	0xbe733f29	-0.23754562
3	0x3d752642	0.05985094
4	0x3dcc7022	0.09982325
5	0xbe3353eb	-0.17512481
6	0xbeeea41d	-0.46609583
7	0x3b937a3a	0.0045006545
8	0x3e3d777c	0.18502611
9	0xbe9d6098	-0.30737758
10	0x3ead2879	0.3381994
11	0x3df58631	0.119884856
12	0xbe97eacb	-0.2967132
13	0xbebbc2ec	-0.3667215
14	0x3bc63c04	0.006049635
15	0x3d6479ff	0.055780407
16	0x3d7e08fd	0.06202029
17	0xbd96774a	-0.07346971
18	0xbebd2354	-0.36941016
19	0x3dea14f6	0.11429779
20	0xbd90eda6	-0.07076578
21	0xbe8727eb	-0.26397642
22	0x3e1793bb	0.14802448
23	0x3de1be3a	0.11022611
24	0xbd87a9de	-0.066241965
25	0x3e24b9c7	0.16086493
26	0x3e91cc8e	0.28476375
27	0xbdd76461	-0.10517193
28	0x3e32a152	0.17444351
29	0x3e595b9a	0.2122635
30	0x3caf371a	0.02138858
31	0x3c178a5c	0.009249296
32	0xbd866c24	-0.06563595
33	0x3e8e64ab	0.2781118
34	0xbe0427ec	-0.12905854
35	0xbec26a19	-0.3797157
36	0x3daeb124	0.08529881
37	0x3df32fac	0.11874327
38	0x3dc2f576	0.09519474
39	0xbe6be581	-0.23036768
40	0x3e98e35d	0.29860964
41	0xbd791fd7	-0.06082138
42	0xbc418459	-0.011811339
43	0xbe19bb3f	-0.15012835
44	0xbe8f78b6	-0.28021783
45	0xbb15c4e1	-0.0022852945
46	0xbf2573e3	-0.64629954
47	0xbdf01f5f	-0.117247336
48	0x3e8d44a9	0.27591446
49	0xbf52dfd8	-0.8237281
50	0x3e40e188	0.18836033
51	0xbb4ecc4c	-0.0031554876
52	0xbd81a274	-0.063298136
53	0x3e2d8221	0.16944171
54	0x3caabd0d	0.0208421
55	0xbe587b57	-0.211408
56	0xbe3cbb35	-0.18430789
57	0x3e323c6b	0.1740586
58	0xbe590db8	-0.2119664
59	0xbd0853b1	-0.03328294
60	0xbd988ba0	-0.07448506
61	0x3e76460d	0.2405016
62	0x3e0e6ba6	0.13908252
63	0x3d448d16	0.047986113
64	0xbdf2c771	-0.11854447
65	0x3e450199	0.1923889
66	0xbe22a916	-0.15884814
67	0xbe75a320	-0.23988008
68	0xbe745791	-0.23861529
69	0x3d833107	0.064058356
70	0xbd755504	-0.05989553
71	0x3d8a1272	0.067417994
72	0x3e23f17a	0.16010085
73	0xbdc36569	-0.09540827
74	0xbe7ac700	-0.24489975
75	0x3cef818b	0.029236576
76	0xbe726ede	-0.23675105
77	0xbbe91957	-0.0071136164
78	0xbed91cc7	-0.42404768
79	0xbdf4812d	-0.11938701
80	0x3db68310	0.08911717
81	0xbde0b7a4	-0.10972527
82	0x3ccb22e3	0.024796909
83	0xbd049ad1	-0.032374207
84	0x3e42fd7f	0.19042014
85	0x3ce7d5c2	0.02830017
86	0xbe81ef25	-0.25377765
87	0xbd440182	-0.047853
88	0x3e761667	0.24031983
89	0xbee026d5	-0.43779626
90	0xbed73474	-0.42032206
91	0xbd092c52	-0.033489533
92	0xbe9efa1a	-0.31050187
93	0x3c774e4d	0.015094352
94	0x3cf9d6a0	0.030497849
95	0x3d9c66ef	0.076368205
96	0xbc12a1e0	-0.008949727
97	0xbec7d6a9	-0.3903096
98	0x3d9eb11b	0.07748624
99	0x3de96619	0.11396427
100	0xbe8d62ba	-0.27614385
101	0xbe0b513f	-0.13605212
102	0x3ddd1b9c	0.10796282
103	0x3e9fb2a5	0.31190982
104	0x3dfe44d0	0.12415469
105	0xbb40d5f4	-0.00294244
106	0x3e9dd434	0.3082596
107	0xbe30b022	-0.1725469
108	0x3d8b599c	0.06804201
109	0xbe93aa1b	-0.28840718
110	0x3ac7d9bf	0.0015247389
111	0xbe69093e	-0.22757432
112	0xbe7da3fb	-0.24769585
113	0xbd12f2a9	-0.03587595
114	0xbe017e6a	-0.1264588
115	0x3d019b9a	0.031642534
116	0x3e01ef02	0.1268883
117	0xbe1c2eb5	-0.15252192
118	0xbe0d076d	-0.13772364
119	0x3e74183c	0.2383737
120	0xbec74be5	-0.3892509
121	0xbea20265	-0.31642452
122	0x3b9adf54	0.00472633
123	0x3d763dca	0.06011752
124	0xbd3d6d50	-0.046246827
125	0xbda320f9	-0.079652734
126	0xbe7caf92	-0.2467635
127	0x3c9ad84c	0.018901967
128	0x3e3ca814	0.18423492
129	0xbd6b09fe	-0.057382576
130	0xbea68bf4	-0.3252865
131	0x3e572e07	0.21013652
132	0xbebbd426	-0.36685294
133	0x3e46933d	0.19392104
134	0x3df63fe8	0.12023908
135	0x3c9b8902	0.018986229
136	0xbe00c059	-0.12573375
137	0xbd9ad70f	-0.075605504
138	0x3c5539bd	0.013014254
139	0xbd773509	-0.060353313
140	0xbe24e749	-0.16103853
141	0x3d9314db	0.07181712
142	0x3ea53344	0.32265675
143	0x3cbf8ebb	0.023383489
144	0x3e997beb	0.29977354
145	0xbb993165	-0.0046750777
146	0xbd26bcdf	-0.040707465
147	0xbeac975f	-0.33709237
148	0xbe4234a9	-0.18965401
149	0x3e03a264	0.12854916
150	0xbf057cd7	-0.52143615
151	0xbd571ae6	-0.052515887
152	0x3e79f2cc	0.24409026
153	0x3ea7e835	0.32794347
154	0x3df037c1	0.11729384
155	0xbe385ed5	-0.18004926
156	0x3e82d1f9	0.2555082
157	0x3e11f032	0.14251783
158	0xbd3c4e53	-0.045973133
159	0xbe369e58	-0.17833841
160	0xbd9c0ef7	-0.07620042
161	0xbe83ca39	-0.2574022
162	0xbeb8e174	-0.36109507
163	0x3d714f47	0.058913495
164	0x3ec0d764	0.3766433
165	0x3eaece0f	0.34141585
166	0x3c5ae667	0.013360596
167	0xbdbe5b08	-0.092947066
168	0xbc9abb6b	-0.018888196
169	0x3e0394c6	0.12849721
170	0x3d639cd4	0.055569485
171	0xbdf1fddf	-0.11816
172	0xbd3b9a1a	-0.04580126
173	0xbe330b7d	-0.17484851
174	0xbe5feb94	-0.2186721
175	0xbe26a60a	-0.16274276
176	0xbe3e7866	-0.18600616
177	0xbe4aabbc	-0.19792074
178	0xbd61d8b1	-0.055138294
179	0xbd03dfed	-0.032195974
180	0xbe8c3f46	-0.27392024
181	0x3e568719	0.20949973
182	0xbd9d4d6d	-0.076807834
183	0x3e32f9f0	0.17478156
184	0xbe5e2cc9	-0.21696772
185	0x3e6d576b	0.23177879
186	0xbd9b2a9a	-0.07576485
187	0x3cea25e8	0.028582528
188	0x3e26e829	0.162995
189	0xbdfb9f2c	-0.12286219
190	0x3ebf8a7f	0.37410352
191	0xbd95990b	-0.07304581
192	0x3df1fcb7	0.1181578
193	0x3dd171f7	0.10226815
194	0x3e10bca6	0.14134464
195	0xbca1bfc6	-0.019744765
196	0xbe90f224	-0.2830974
197	0xbea5669a	-0.3230484
198	0x3bfc051b	0.0076910383
199	0xbe2118f6	-0.15732178
200	0xbe2a101d	-0.16607709
201	0x3d5dbe45	0.054136533
202	0x3ecc2683	0.39873132
203	0xbe54714d	-0.20746346
204	0xbe9646ce	-0.29350895
205	0x3e754ceb	0.23955123
206	0x3d88186c	0.06645283
207	0xbd43ae4a	-0.047773637
208	0x3c2c51c2	0.010517539
209	0xbe7f7322	-0.24946263
210	0xbd63ad4f	-0.0555852
211	0xbdf60cda	-0.1201417
212	0x3c473676	0.012158981
213	0x3e396f1d	0.18108793
214	0xbe6b234c	-0.22962683
215	0x3eb78188	0.35841012
216	0xbe199901	-0.14999773
217	0xbef08761	-0.46978286
218	0xbe688d3e	-0.2271013
219	0xbd992e69	-0.07479555
220	0xbe48a2de	-0.19593379
221	0xbde19a52	-0.110157624
222	0xbd7600f7	-0.060059514
223	0x3ded8043	0.115967296
224	0xbe0ecc95	-0.1394523
225	0xbb763cc6	-0.0037572845
226	0xbcb200e7	-0.021728946
227	0xbd6cb129	-0.05778614
228	0x3e59d8c2	0.21274093
229	0xbdc0c8f1	-0.094133265
230	0xbe608f4e	-0.21929666
231	0xbdeb65ae	-0.11494003
232	0xbe64d6d7	-0.2234758
233	0xbd89127a	-0.06692977
234	0xbe101ad8	-0.1407274
235	0xbde3176c	-0.11088452
236	0x3e4cf736	0.20016178
237	0xbd03a529	-0.03213993
238	0xbdec2703	-0.115308784
239	0xbe446974	-0.19180852
240	0x3d0c6768	0.034278303
241	0xbd037ed5	-0.03210338
242	0x3dfcb2dd	0.12338803
243	0x3ed2db7a	0.41183072
244	0x3e81ec3e	0.2537555
245	0x3e08746b	0.1332566
246	0xbe6eb79d	-0.2331223
247	0xbd9b7fbc	-0.07592723
248	0xbcbc2239	-0.022965537
249	0x3e815fcd	0.25268403
250	0xbe5a200c	-0.21301287
251	0xbd0530af	-0.03251713
252	0x3df2dcb6	0.118585035
253	0x3d2578a6	0.040398262
254	0x3d34dcff	0.04415607
255	0xbe932424	-0.2873851

fcl.weight f4 [10, 64]
0	0xbe63a0b4	-0.22229272
1	0x3f251eb2	0.6449996
2	0xbe6c7314	-0.23090774
3	0xbed38df1	-0.4131923
4	0xbf045f81	-0.5170823
5	0xbecf450a	-0.4048236
6	0xbf4e8b12	-0.80680954
7	0xbeccbd92	-0.3998838
8	0x3e7d4622	0.24733785
9	0xbef8b79b	-0.4857758
10	0xbdf33e6f	-0.11877143
11	0xbd6fdf2d	-0.058562446
12	0xbf21a404	-0.63140893
13	0xbd8b5096	-0.0680248
14	0xbf539fc8	-0.8266568
15	0xbeb40d29	-0.3516629
16	0x3e6758a6	0.2259241
17	0xbdb2e4ba	-0.087350324
18	0xbe46f9e7	-0.19431268
19	0x3dd4998f	0.103808515
20	0xbee68fa7	-0.45031473
21	0xbdd6dda9	-0.10491497
22	0xbf5b4671	-0.8565436
23	0x3e49a8e1	0.19693328
24	0xbf08ce71	-0.53440005
25	0xbe43a5a8	-0.19106162
26	0xbf05e559	-0.5230308
27	0xbad3a43f	-0.0016146972
28	0xbf069a5a	-0.5257927
29	0xbf22c9c4	-0.6358912
30	0x3ee617f1	0.4494014
31	0xbf0c2864	-0.5474913
32	0xbec2f39b	-0.3807648
33	0xbcb66b15	-0.022267858
34	0x3cae5569	0.021280961
35	0x3ea18ba5	0.31551853
36	0xbddc09e4	-0.10744074
37	0xbee5ad26	-0.44858664
38	0xbe9f71f0	-0.31141615
39	0x3e5b297d	0.21402545
40	0xbe89d5b9	-0.2692087
41	0xbee122df	-0.43971917
42	0xbe6a86c5	-0.22902973
43	0x3f10519f	0.56374544
44	0x3dcc41dd	0.099735
45	0x371338b3	8.775084e-06
46	0xbeccdda8	-0.4001286
47	0xbf092954	-0.53578687
48	0x3f03508c	0.5129478
49	0xbcbbd391	-0.022928031
50	0xbd927383	-0.07150938
51	0x3d0ff6a0	0.03514731
52	0x3df090ee	0.11746393
53	0xbebed745	-0.37273613
54	0x3edc0854	0.42975104
55	0x3eb7f235	0.35926977
56	0x3e7dd90e	0.24789831
57	0xbf21bfd1	-0.63183314
58	0xbe9defc9	-0.30847004
59	0x3e98478e	0.29742092
60	0xbd4e36b5	-0.05034514
61	0x3eb44630	0.352098
62	0xbf1bf377	-0.6091837
63	0x3e12b3f4	0.14326459
64	0xbf48de9c	-0.78464675
65	0xbe89a707	-0.26885244
66	0xbed9d65b	-0.42546353
67	0xbe85ba3d	-0.2611865
68	0xbf20429f	-0.62601656
69	0xbe5c3dfc	-0.2150802
70	0xbe2b743d	-0.1674356
71	0xbe997b90	-0.29977083
72	0x3b8083e2	0.0039219717
73	0x3eb3e514	0.3513571
74	0x3ea5193a	0.3224581
75	0xbd54a78c	-0.051917598
76	0x3f03b9f7	0.51455635
77	0xbeba9472	-0.3644138
78	0xbeabcaed	-0.33553258
79	0x3ee9dd3d	0.45676604
80	0xbf38e113	-0.72218436
81	0x3c1799b4	0.009252954
82	0xbe96ee46	-0.29478663
83	0x3ee9e793	0.4568449
84	0xbd4df385	-0.050281066
85	0xbd2af802	-0.041740425
86	0xbd25ea59	-0.040506694
87	0x3dcedf1a	0.10101147
88	0x3ec1084c	0.37701643
89	0xbec1ce88	-0.37852883
90	0x3ddaee1a	0.106899455
91	0xbf226d20	-0.6344776
92	0x3e356804	0.1771546
93	0xbee51fc2	-0.44750792
94	0xbf5389be	-0.8263205
95	0xbeecc7e2	-0.46246248
96	0xbf098953	-0.53725165
97	0xbe985333	-0.29750976
98	0x3d66b886	0.05632832
99	0xbf0ac1f7	-0.54202217
100	0xbef42f55	-0.4769236
101	0x3ea7eebb	0.32799324
102	0xbe815dde	-0.25266927
103	0x3ea71333	0.32631835
104	0xbf3d1322	-0.7385732
105	0x3e0e3e87	0.1389104
106	0x3f20d00b	0.6281745
107	0x3ecae2ba	0.39626104
108	0xbf82cf63	-1.0219539
109	0x3dc6be43	0.09704258
110	0x3dc218bf	0.09477376
111	0x3f0d7af5	0.5526574
112	0xbb1e87d1	-0.002418984
113	0x3c42afdb	0.0118827475
114	0xbebe47ca	-0.37164146
115	0xbdc08a12	-0.09401335
116	0xbf1ddcba	-0.61664927
117	0xbd28e8ab	-0.041237514
118	0x3db74a78	0.08949751
119	0x3f14c3ce	0.58111274
120	0x3e7b04ce	0.24513552
121	0xbef6819d	-0.48145762
122	0xbde538b1	-0.11192454
123	0xbf09173e	-0.5355109
124	0x3e8e0da0	0.2774477
125	0xbebd69ef	-0.36994883
126	0xbed642ce	-0.41847843
127	0xbe9eaee5	-0.3099281
128	0xbb77acd7	-0.003779223
129	0xbeec5f08	-0.46166253
130	0xbed8b225	-0.42323413
131	0x3f250d32	0.6447326
132	0xbeb0f954	-0.34565222
133	0xbea4ea97	-0.32210228
134	0xbddc8718	-0.107679546
135	0x3f136e2c	0.57589984
136	0xbe8ca9ee	-0.27473396
137	0xbd8054bf	-0.06266164
138	0x3edc16be	0.429861
139	0xbe603042	-0.21893409
140	0x3e9e2a15	0.3089148
141	0x3d8361ef	0.06415164
142	0xbf21abf2	-0.6315299
143	0xbf09f13e	-0.5388373
144	0xbe192659	-0.14956035
145	0x3e5aedc4	0.21379763
146	0xbea6cd58	-0.3257854
147	0x3e543920	0.20724916
148	0x3f0978be	0.5369986
149	0xbe7f44a5	-0.2492853
150	0xbedae004	-0.42749035
151	0x3ecb4c7a	0.39706784
152	0xbecb22ed	-0.39675084
153	0xbf1d350c	-0.6140907
154	0xbebb231f	-0.36550233
155	0xbeb7f01d	-0.3592538
156	0x3ef25e2a	0.47337466
157	0xbedadc52	-0.42746216
158	0xbe5c19ff	-0.21494292
159	0x3ea9faae	0.33199066
160	0x3e5afe54	0.21386081
161	0xbe1dc488	-0.15407002
162	0xbddbfe8c	-0.1074191
163	0x3ea17947	0.3153784
164	0xbea50748	-0.32232118
165	0xbf464c6b	-0.77460355
166	0x3ea87ed8	0.32909274
167	0x3b44f8e8	0.0030055586
168	0xbf1532aa	-0.5828043
169	0xbf09048b	-0.5352256
170	0xbe4a7d0e	-0.19774267
171	0xbf1384c4	-0.5762446
172	0x3e5d3613	0.21602659
173	0xbcb073eb	-0.021539649
174	0xbec9a193	-0.39381084
175	0x3e122b1f	0.14274262
176	0xbde8b8c9	-0.1136337
177	0xbe07f069	-0.13275303
178	0xbee8bd16	-0.4545676
179	0x3d642756	0.055701576
180	0x3ed595ea	0.41715938
181	0x3e8caca4	0.27475464
182	0x3e80cc53	0.25155887
183	0xbde2eab5	-0.11079923
184	0xbed99812	-0.42498833
185	0x3d2fbe97	0.04290637
186	0x3cd5fe17	0.026122136
187	0xbde5032d	-0.11182246
188	0xbddbf775	-0.10740558
189	0xbecf8915	-0.40534273
190	0x3e5bf18c	0.21478862
191	0xbde36b22	-0.11104418
192	0xbe92c34c	-0.28664625
193	0xbe37039a	-0.17872468
194	0xbddc05f6	-0.107433245
195	0x3d983c6f	0.07433402
196	0x3efc7650	0.49309015
197	0x3f20eaa6	0.62858045
198	0xbee1795e	-0.44037908
199	0x3c5988bf	0.013277232
200	0xbf1dd86d	-0.61658365
201	0xbe8832b8	-0.26601195
202	0x3ccef95a	0.025265384
203	0xba7949ab	-0.00095095736
204	0xbe6f9e53	-0.2340024
205	0x3edc07da	0.4297474
206	0x3e70f84c	0.23532218
207	0xbed81216	-0.42201298
208	0x3ce4165e	0.027842697
209	0x3ea4fcd2	0.32224137
210	0x3f302c91	0.68818
211	0xbd14ab0b	-0.03629593
212	0xbeb15f44	-0.34642994
213	0x3e79ccce	0.24394533
214	0x3ec8bb12	0.39205223
215	0x3ddca407	0.10773473
216	0xbf248d12	-0.64277756
217	0x3ec36336	0.3816163
218	0xbe3be245	-0.18348034
219	0xbf176738	-0.59141874
220	0xbe8dff17	-0.2773368
221	0xbc3f6bf6	-0.011683455
222	0xbf2092ea	-0.62724173
223	0x3e5c0639	0.21486749
224	0x3f2479ff	0.6424865
225	0xbecd887e	-0.40143198
226	0xbe880e9c	-0.26573646
227	0xbdf85db8	-0.121272504
228	0xbea5793e	-0.32319063
229	0x3d8c4e44	0.068508655
230	0xbeabc808	-0.3355105
231	0x3d9fdea8	0.0780614
232	0xbf3b7df8	-0.7323909
233	0x3e8737e4	0.2640983
234	0xbed57d0a	-0.4169696
235	0x3e6d81b8	0.23194015
236	0xbea502f4	-0.32228816
237	0x3ec3fb4d	0.38277665
238	0xbe3d83c2	-0.18507293
239	0x3ea07eeb	0.3134683
240	0xbea90ac4	-0.33016026
241	0x3c77ea4f	0.015131547
242	0xbe590d12	-0.21196392
243	0x3d70085c	0.058601722
244	0xbda99859	-0.08281011
245	0xbdcb4bdb	-0.09926578
246	0xbef77d94	-0.48337996
247	0xbdae2e42	-0.08504917
248	0xbf0d08b7	-0.5509142
249	0xbe25eacb	-0.16202848
250	0x3f06eca8	0.5270486
251	0x3cb2ed1b	0.021841576
252	0x3e6b21d7	0.22962128
253	0xba4f4164	-0.00079061673
254	0xbd2517fb	-0.040306073
255	0x3d115b1c	0.03548728
