modeldata/octav__CNNMNIST_Aug_BitMnist_4bitsym_width96_64_0_epochs60.pth (torch, 137291 bytes, 6 tensors)

model.0.weight f4 [64, 1, 3, 3]
000000 0c aa 2f be db 67 bb bd 7e 39 14 be 00 f8 cf bd
       -0.17154711 -0.09150668 -0.14475057 -0.10154724
000010 7e 1d b8 be f3 c2 d8 be 95 90 8a be 3c 83 89 be
       -0.3596 -0.42336234 -0.27063432 -0.26857936
000020 26 4b 90 be 04 34 32 be 7f b1 73 be 2c 36 38 3d
       -0.28182334 -0.17402655 -0.23798178 0.044973537
000030 44 0e 3d be 07 ed e2 3e a6 0f db 3d 12 30 7e 3c
       -0.18462473 0.44321463 0.10696344 0.015514391
000040 7f 5d 07 3f fd cf 20 be 68 58 20 bd ed 05 6a 3e
       0.5287704 -0.15704341 -0.03914681 0.22853823
000050 05 11 33 3e b3 3d aa be 4a 2c 82 be 52 70 a3 be
       0.17486961 -0.33250198 -0.25424415 -0.3192163
000060 5b a4 07 3e 2f 91 06 bb 21 c8 b5 3d f7 90 74 be
       0.1324629 -0.0020533314 0.08876062 -0.23883425
000070 76 f5 a3 bd 0a d5 df 3c 18 3f 6b 3d 6b d4 e1 bd
       -0.08005802 0.027323265 0.057433218 -0.11026844
000080 fe 04 5a be 4b e4 16 3e c9 ae 33 3e f6 61 73 3e
       -0.21290967 0.14735524 0.17547144 0.23767838
000090 80 dd b6 be 3b 07 18 be 62 51 27 3b 06 d4 c5 be
       -0.35715866 -0.14846508 0.0025530686 -0.38638324
0000a0 ac 25 73 3e f0 3f 8e be 0b 42 53 be 04 76 12 3e
       0.2374484 -0.27783155 -0.20630662 0.14302832
0000b0 8d 90 20 3d 05 7b cb be b1 a5 25 3e 51 21 7f 3e
       0.039200354 -0.39742294 0.16176488 0.24915053
0000c0 7a 88 c4 be 04 b9 08 3e a7 20 f3 3d b7 b8 04 bf
       -0.38385373 0.13351828 0.11871462 -0.5184435
0000d0 d2 6c ef be 25 4b 45 be 52 60 be 3e 7e 31 84 be
       -0.4676271 -0.19266947 0.37182862 -0.2581901
0000e0 e8 94 33 3d d4 e7 39 3e 07 26 9d 3e 45 05 a6 bd
       0.04384318 0.18154842 0.30693075 -0.08106474
0000f0 7b 8b bf be f5 3f 99 3b b3 c6 3b 3e d0 3d 36 bd
       -0.37411103 0.0046768137 0.18337516 -0.044492543
000100 56 f2 b8 be d6 ec 46 3e d8 5c 1f bf 7c da b3 be
       -0.36122388 0.19426283 -0.62251043 -0.35127628
000110 00 1e 5e 3e 69 c0 95 3d 51 49 a1 3e 6a 61 ca 3d
       0.21691132 0.0731209 0.31501248 0.098818615
000120 9a 3f 96 bd c0 72 b8 3e 69 fb 6a be 34 1a bc 3e
       -0.0733635 0.36025047 -0.22947468 0.3673874
000130 0c 38 cd 3e e0 5f ab 3d fd b5 3d 3d 49 a5 97 be
       0.40081823 0.08367896 0.046316136 -0.2961829
000140 d1 55 a0 be 6d c7 83 bc 06 f4 a6 3e a1 22 2e be
       -0.31315473 -0.016086305 0.3260805 -0.17005397
000150 ea 20 0f 3e 78 49 c7 3e 7d 31 05 bf 85 4b 86 3e
       0.139774 0.3892324 -0.5202864 0.26229492
000160 c9 db 9c 3d 9d 11 45 be 07 64 01 3e a1 43 0e 3c
       0.07659108 -0.19245 0.12635814 0.008683116
000170 34 bd 91 3e d5 7d 1c 3e e8 62 ce bd 69 e3 05 be
       0.28464663 0.15282376 -0.100774586 -0.13075031
000180 29 f7 2f 3e 68 30 4a bc 90 82 9b bd 6e d5 43 bd
       0.17184128 -0.0123406425 -0.07593262 -0.047810964
000190 8f e9 dd bd 80 58 57 bc 8b 69 b2 be 6b 13 8c 3d
       -0.108355634 -0.013143659 -0.34846148 0.06839641
0001a0 3a 7e 72 bd 4a bb a8 be 51 00 86 3c 6b 58 e6 3e
       -0.05920241 -0.3295539 0.016357573 0.44989333
0001b0 91 cf eb bd a4 03 7f 3d b7 ce 9e 3e 69 53 a3 be
       -0.115141995 0.06225933 0.31017086 -0.31899574
0001c0 c6 09 ce be 04 69 c2 be 89 7f 87 3e c0 62 86 3e
       -0.40241832 -0.37970746 0.2646449 0.26247215
0001d0 69 b8 17 be 96 d7 07 bf eb 6b e5 be d3 3c 33 bd
       -0.1481644 -0.53063333 -0.44808897 -0.04375918
0001e0 35 33 9a 3b c2 45 86 3e 94 90 42 3e cf 06 99 3e
       0.0047058114 0.26225096 0.19000465 0.29888007
0001f0 ce b8 44 3e a9 a8 44 3d 43 76 9f 3d 56 ed 81 bc
       0.19211122 0.04801241 0.077862285 -0.01586024
000200 54 12 72 be 1c 67 6b 3e 4f 0b 11 3e 84 07 a4 3b
       -0.23639804 0.22988552 0.1416447 0.0050057787
000210 b6 e4 b5 3d 28 09 a9 3d a3 6c b0 3e 59 a3 cd 3c
       0.08881514 0.082536995 0.34457883 0.025102304
000220 11 20 14 3e d3 a0 a8 bd 3c 01 d7 3d b9 9e ad be
       0.14465357 -0.082338 0.10498282 -0.33910158
000230 e5 d1 c5 be 1e 5f 78 3e 35 60 41 3e 1d a9 71 be
       -0.386367 0.24255034 0.18884356 -0.23599668
000240 bd f7 aa 3e be 4e 37 be 87 07 e9 bd 47 8d 11 3e
       0.33392134 -0.17901132 -0.11378389 0.1421405
000250 c4 b0 be be a9 ea db 3d ec e6 2d 3d 00 c8 47 bd
       -0.37244236 0.10738117 0.042456552 -0.04877472
000260 54 33 44 3d e4 c7 d1 bd b4 b8 9f bd 89 b6 35 3e
       0.047900513 -0.10243204 -0.07798901 0.17745413
000270 78 1d 2e be fa d0 23 3e f5 79 22 3e c0 0e d2 be
       -0.17003429 0.15997687 0.15866835 -0.41026878
000280 fb 7f 4d bd fe 80 bf 3e 92 9c 6d 3e ec a6 27 3e
       -0.05017088 0.374031 0.23204258 0.1637227
000290 98 01 bc be 89 ee c6 be 9e c3 1f bf d0 de 9b be
       -0.36719966 -0.38853863 -0.62407863 -0.3044343
0002a0 52 6e c4 3d 93 86 52 3d 85 f5 ee be 57 1c 99 3e
       0.095913544 0.05139787 -0.46671692 0.29904434
0002b0 ad c4 05 3e 38 fd b2 be ad 0d 10 be 8b 0c ad 3e
       0.13063307 -0.34958816 -0.14067717 0.33798632
0002c0 0e db ac 3e 08 71 18 be c0 53 ad 3d 05 bb 03 3f
       0.33760875 -0.14886868 0.0846324 0.51457244
0002d0 56 03 f0 3e 36 28 9c 3e d7 08 3e 3e 82 50 13 be
       0.46877545 0.3049943 0.1855806 -0.1438618
0002e0 28 4d 46 bf 31 0b 73 3d d9 cc d2 be 0c c1 cb be
       -0.7746148 0.059336845 -0.4117191 -0.3979572
0002f0 64 13 d8 bb 49 eb 8c 3e 41 c9 83 3d 5e 4a 95 be
       -0.0065941084 0.27523258 0.064348705 -0.291583
000300 6f 1b 81 3e b4 ad df bd 26 32 3f be f1 4e 28 3e
       0.25216243 -0.10921803 -0.18671474 0.16436364
000310 27 65 bd bc 1f 60 42 3d b8 b9 a8 be 63 91 8f be
       -0.023119522 0.04745495 -0.32954192 -0.2804061
000320 da 4c 81 3e 4b 70 c4 3e 23 07 f3 be 63 b1 81 be
       0.25253946 0.38366923 -0.47466382 -0.25330648
000330 e2 d7 17 3e ce 2d 0b 3d e6 70 9d be db e3 26 3e
       0.14828447 0.03397923 -0.30750197 0.16297857
000340 d8 8f 3b 3e f5 15 d1 3e 3b 7f e2 bc ea 51 b2 bd
       0.18316591 0.40837064 -0.027648559 -0.0870703
000350 43 38 2f be 28 ec 31 3d e6 cd 54 be cb 94 d0 be
       -0.17111306 0.043438107 -0.20781669 -0.4073852
000360 23 4c 52 3e ba 7b 21 3e f7 84 8d 3e a5 b3 e5 3d
       0.20536856 0.15769854 0.27640507 0.11215905
000370 11 bf 31 bd 25 16 5c bc 45 bf 64 3d 18 d5 0e be
       -0.043395106 -0.013433014 0.05584647 -0.13948476
000380 20 bd 0e bf be b5 de 3e 29 dd b8 3e 0b 4c 93 be
       -0.5575733 0.43498033 0.36106232 -0.28768954
000390 24 fc 8b 3e 17 0e c8 bc 4a c7 d5 bd f3 36 2f be
       0.27340806 -0.024420781 -0.10438402 -0.17110805
0003a0 20 c0 c0 3e 97 11 cf bd 6a e1 c7 3e 99 98 76 be
       0.3764658 -0.10110777 0.39039165 -0.24081649
0003b0 a7 1c 01 bd f1 e2 58 be ca c8 e3 3e 3e 4e db bd
       -0.031521466 -0.21180321 0.44489127 -0.10708283
0003c0 39 64 a2 3d 04 1a 6c 3e 02 c6 d3 be 5a 97 6b 3e
       0.07929272 0.23056799 -0.41362005 0.23006955
0003d0 2f 3a 14 be 0d ea c9 3d 5d 11 c5 bd 13 9c 82 3e
       -0.1447532 0.09859095 -0.096224524 0.255097
0003e0 d2 d1 4f be 87 cc 5a 3e a9 58 b8 bc 46 af a6 3e
       -0.20294884 0.21367083 -0.022503214 0.32555598
0003f0 ea 63 c8 3e a3 ab 67 bd 52 98 b2 bd 9a b8 f9 bd
       0.39138728 -0.05656017 -0.08720459 -0.12193413

model.2.weight f4 [64, 1, 3, 3]
000000 65 1b e3 3d e2 cc 1f 3c d1 b6 b9 be 96 1d 8f 3e
       0.110892095 0.009753438 -0.3627229 0.2795226
000010 0b 64 41 3e 04 b2 a4 be 8b c1 57 3e 1d 1f 4c 3d
       0.1888582 -0.32167065 0.21069925 0.04983436
000020 27 0e bf be 83 50 2e 3e d5 3f b1 3d a0 a9 07 bf
       -0.37315485 0.170229 0.08654753 -0.529932
000030 34 4d 31 3d ad 02 60 be 8f 51 2b be 02 03 32 bf
       0.043286517 -0.2187602 -0.16730331 -0.6953584
000040 70 06 9b be dc bb 80 3d a9 a1 11 be dd 14 df be
       -0.3027835 0.06285831 -0.14221825 -0.43570605
000050 cf 24 00 bf 09 bf b2 bd 72 5d f1 3d 5b ca 04 3e
       -0.50056165 -0.08727843 0.117854014 0.12967817
000060 54 ac 5b 3e 31 a8 61 3e 47 d0 ea 3d 9d 12 9d be
       0.21452457 0.22036816 0.11465507 -0.30678263
000070 2c 65 6d be ef 96 63 be cc 17 82 3d 11 80 f3 ba
       -0.23183125 -0.22225545 0.06352195 -0.0018577595
000080 49 ab d6 be 6c 10 a3 3e c4 bd 3a 3e 4f 89 50 3e
       -0.41927555 0.31848466 0.18236452 0.20364879
000090 17 37 b8 3a 10 4d 94 3e a7 d3 08 3f 8f 23 c2 3e
       0.0014054504 0.28965044 0.53447956 0.37917754
0000a0 61 29 ac 3e df df 9b 3e f5 eb 63 bd 5f 0d 93 3e
       0.3362532 0.30444238 -0.055644948 0.2872114
0000b0 69 87 9f 3c 91 04 27 be 01 9d 54 3d 8e 48 57 3d
       0.019473748 -0.16310336 0.051907543 0.052559428
0000c0 3f be c1 3e 96 63 61 3e 22 a7 c4 3d 54 44 bb be
       0.3784046 0.22010645 0.096021906 -0.36575568
0000d0 5b 4b 19 be 29 49 85 be 00 2a b6 3e 48 e4 83 3e
       -0.14970152 -0.2603238 0.35578918 0.25760102
0000e0 1b 6e 47 3e ef 2d be 3d 9b 22 b4 3b ab 88 02 bc
       0.19475596 0.09286105 0.0054972894 -0.0079671545
0000f0 62 a0 48 be 96 26 cb bd 49 7c c3 bb 80 47 af be
       -0.19592431 -0.09919469 -0.0059657437 -0.34234238
000100 2d 2c ce be ff f2 01 bf 54 43 80 3e d9 2f 2e 3e
       -0.40268078 -0.5076141 0.25051367 0.1701044
000110 c5 43 08 bf 3f 66 46 3e 98 d1 cc 3d 8f 0f f1 be
       -0.5322841 0.19374941 0.10000914 -0.47082183
000120 86 0f c6 be f1 43 4f be c5 bd 55 3e 7b 47 ba be
       -0.38683718 -0.20240761 0.20873173 -0.3638266
000130 92 5c 63 bd 1a 95 9a 3e 34 7c 79 be d6 12 52 3e
       -0.055508204 0.3019188 -0.24363786 0.20514998
000140 44 86 5b 3d 68 4c 8f be 24 e8 57 bf dd eb c6 be
       0.053594843 -0.2798798 -0.84338593 -0.38851824
000150 b0 26 52 bd b9 f8 c6 be e1 ec 74 bd 94 bd 09 be
       -0.051306427 -0.38861635 -0.059796218 -0.13451225
000160 f8 fc e4 3d ba a7 b1 3e 2e 85 8a 3d 27 76 50 bb
       0.111810625 0.34698278 0.06763683 -0.0031808706
000170 07 08 80 be 4e 52 83 3e de 08 c9 bd 0e 05 34 3e
       -0.25006124 0.2564873 -0.098161444 0.17580053
000180 ec 8d 88 3e 43 9e 9e 3d a1 4d 9a 3d 63 d4 27 bf
       0.26670778 0.0774503 0.07534338 -0.6555845
000190 49 2f 00 bf cc 8b eb be 0c b6 a9 3d c4 f4 a7 3e
       -0.5007215 -0.46005094 0.08286676 0.3280393
0001a0 93 90 99 be 24 bd c9 3d eb c8 8f 3e f8 5e 77 3e
       -0.29993114 0.09850529 0.28082976 0.24157321
0001b0 b6 ec f0 bc 1b ff 87 be f6 ec 5d be 8c 2f a1 3e
       -0.029409748 -0.26561818 -0.21672425 0.31481588
0001c0 35 6e 4a 3e c7 1f ae 3c 4f 34 58 3e 21 40 85 3e
       0.19768603 0.021255387 0.21113704 0.2602549
0001d0 3b d2 9a 3e da 38 5b ba 28 d0 4f 3e e3 10 ac 3e
       0.30238518 -0.00083626586 0.20294249 0.33606634
0001e0 88 c6 3c bc 53 02 9e be 22 d4 48 3e 82 ea 32 bd
       -0.011521943 -0.30861148 0.19612172 -0.043680675
0001f0 77 3d 6b 3e 83 c8 f2 3e f4 dd 94 be e8 b5 8b 3e
       0.22972666 0.47418603 -0.29075587 0.2728722
000200 ab 93 92 3e e3 08 36 3d 23 c1 26 bd 1d 73 74 bc
       0.28628287 0.04444207 -0.040711533 -0.014920023
000210 bf 8e 88 3e 2a f6 04 3d 11 3f 63 3d 09 66 c8 3d
       0.26671407 0.032461323 0.055480067 0.09785087
000220 56 02 9f 3c b6 65 82 bd 15 9b ec bc 2c 1a ca 3e
       0.019410294 -0.06367056 -0.028882543 0.39473093
000230 05 fe 0f 3e 7a 6a 62 be 89 b3 db be 55 e5 d2 be
       0.14061745 -0.2211093 -0.42910412 -0.4119059
000240 ce b5 7b 3e 33 45 b1 3e 55 cf d2 bd 9e 79 31 3e
       0.24581072 0.34623107 -0.10293452 0.1733155
000250 ce 8d 7a be 92 0e 44 3e 08 3c a6 3e c6 eb ed be
       -0.24468157 0.19146183 0.32467675 -0.46468943
000260 ba 55 91 3c b3 d5 3b be 48 c9 e3 3d 32 e6 6d bd
       0.017741073 -0.18343239 0.11122376 -0.05808086
000270 03 f3 4f 3e 5b 91 93 3a 00 f0 17 3e 3f 6e 92 3e
       0.20307545 0.0011258529 0.14837646 0.28599736
000280 7d 02 7d be c4 eb c2 3e 44 4c ed bd cb 7b 4a be
       -0.2470798 0.380705 -0.11586812 -0.19773786
000290 13 8e 0b bf 71 50 d6 3d f0 40 b9 3e 2d 07 41 3e
       -0.54513663 0.10464562 0.36182356 0.18850394
0002a0 03 78 f0 3c 97 81 0f 3c 8f 74 4c 3d 86 79 ef 3c
       0.029354101 0.008758924 0.049915846 0.029232752
0002b0 2e 2d 38 bf da b1 a5 be e3 2e a1 3e 98 59 25 be
       -0.7194394 -0.32362252 0.31481084 -0.16147459
0002c0 9f 43 db bd 9b 83 0f 3e 9a 90 49 be 76 ad fd be
       -0.10706257 0.14015047 -0.19684067 -0.49546403
0002d0 2c 2b 1d bf 87 c8 8e 3d af de c7 3d e4 72 ea be
       -0.61394 0.06971841 0.097592704 -0.4579078
0002e0 56 e8 7f 3e c5 62 8d 3d 06 fb a2 be cb 4b 84 be
       0.24990973 0.069036044 -0.3183214 -0.25839075
0002f0 b9 11 bc be 73 75 ae 3e 83 10 ea bc 89 f8 9d bd
       -0.3673227 0.34073982 -0.028572327 -0.0771342
000300 20 b8 0d 3e b3 8b 7e be 33 0e 88 3e 5f 6e 8b 3e
       0.1383977 -0.24857979 0.26573333 0.27232644
000310 aa e4 dd 3d 40 ac 7f 3d e7 e4 9d 3d 40 b0 03 bd
       0.1083463 0.06242013 0.07709675 -0.032150507
000320 26 23 92 be b3 82 c9 3e 23 a2 55 3e 42 99 9c 3e
       -0.2854244 0.39357528 0.20862631 0.30585676
000330 1c 44 8b 3c 59 ce 9a 3e c6 e3 92 3e 4a 91 a9 bd
       0.01700025 0.30235556 0.28689402 -0.08279665
000340 23 06 fc 3d 6b bd 60 bd c3 40 36 3e f3 d0 73 3e
       0.12305858 -0.054868143 0.17798142 0.23810177
000350 49 a4 8a be a6 bd 23 be 20 c4 7d 3e 4f 3e c2 3e
       -0.27078465 -0.15990314 0.24781847 0.37938163
000360 b3 4b b4 be 33 02 a2 be a6 0a b1 be f7 3c 5d 3e
       -0.35214004 -0.31642303 -0.34578437 0.21605287
000370 ce b8 8e 3d 83 6c 1e be da 06 f4 3d 81 85 cc 3d
       0.069688424 -0.15471081 0.11915369 0.09986401
000380 c1 70 56 3e 4b ab b6 3c 8d 48 f8 be 05 70 9e be
       0.2094145 0.022298476 -0.48492852 -0.3094484
000390 7f 6d 5e bf 5d cc 3b be 78 04 80 3e 8a d3 56 3b
       -0.8688583 -0.18339677 0.2500341 0.0032779896
0003a0 33 fc 40 3e 4e 07 b3 bd 73 aa 53 be ce 90 bb bd
       0.18846206 -0.08741628 -0.2067049 -0.09158479
0003b0 fd 44 65 3e 0a a5 b5 be 8d 62 1d be 29 53 32 3e
       0.22389598 -0.35477477 -0.15369625 0.17414536
0003c0 29 86 0e be 0e f9 c7 3d 73 ff 4c 3e 9e fb 84 3d
       -0.13918366 0.097643 0.20019321 0.06493305
0003d0 b9 80 41 3e 70 aa 99 be 57 58 25 be b9 a4 7d 3d
       0.1889676 -0.30012846 -0.1614698 0.06192467
0003e0 b7 57 2f 3e 05 9f 9e 3e 66 cc 23 3e 61 3a 35 3e
       0.17123304 0.30980697 0.1599594 0.17698051
0003f0 20 ed c9 3e 95 a9 c5 be fc a5 5d be bb da 66 be
       0.39438725 -0.38605943 -0.2164535 -0.22544377

model.5.weight f4 [64, 1, 3, 3]
000000 14 6c a8 bd e1 34 47 be c6 9e 90 3e 88 88 9a 3c
       -0.08223739 -0.19453765 0.28246135 0.018863931
000010 96 07 84 be c3 b4 ca bd b7 7e e5 3d d9 1f c7 3e
       -0.25787038 -0.09897759 0.112058096 0.38891485
000020 3b 5f ef 3e 42 de e9 3c b7 56 64 bd 6b 51 6f bc
       0.46752343 0.028548364 -0.05574676 -0.014606814
000030 2f 91 10 bd bf bf 22 3d 9b d9 9a 3e 98 dc 10 3e
       -0.035294708 0.039733645 0.30244145 0.1414665
000040 39 b1 d8 3e 44 a6 62 3e d4 76 94 3e 7f 3a b2 3e
       0.4232271 0.22133738 0.2899691 0.34810254
000050 52 17 6e 3e fd ad ca 3d f4 e8 b7 3c cd a1 36 3d
       0.23251083 0.09896467 0.022449948 0.0445879
000060 5a 3e 3f 3e 44 e9 cc 3d fd d5 7c 3e 2d e7 15 3e
       0.18676129 0.100054294 0.24691005 0.14638968
000070 ac 71 81 bc db 77 7a bd 81 66 96 3e 0b 36 08 3e
       -0.015801273 -0.06114946 0.2937508 0.13301866
000080 93 7c 23 3e 86 10 88 3d aa 41 e4 3c 08 a6 c1 3e
       0.1596549 0.066437766 0.027863342 0.37821984
000090 3b 4f 6d 3e 0e 98 41 be ee 22 d3 be 09 70 b3 3e
       0.23174755 -0.1890566 -0.41237587 0.35046414
0000a0 a1 92 1e be a5 46 0c bf 15 94 9f bd c5 92 9f bd
       -0.15485622 -0.54795295 -0.07791916 -0.07791666
0000b0 4a af 2f 3e 7e d0 38 3e bf 00 11 bd 8f f9 2a bc
       0.17156711 0.18048283 -0.035401102 -0.010435476
0000c0 da 29 75 3e 77 20 3f bb 98 e4 1a bc e3 91 b1 3e
       0.23941746 -0.0029163638 -0.009453915 0.34681615
0000d0 a7 85 18 3f 92 cd 13 3e 19 04 81 3e 4a 89 52 3e
       0.5957894 0.14433888 0.2519844 0.20560184
0000e0 c3 9f 57 3e ca 5c f6 bb 83 93 46 be 35 54 eb bd
       0.21057038 -0.0075183855 -0.19392209 -0.114906706
0000f0 d8 a5 e0 be c7 30 a8 bc dd 51 87 3c 61 a3 20 bb
       -0.4387653 -0.020531071 0.016518528 -0.0024511444
000100 b5 35 73 bc 5e 70 a7 3c 59 41 10 3e 4d f8 49 3e
       -0.014844348 0.020439323 0.14087428 0.19723625
000110 bd f2 29 be 62 6b d1 3d 80 25 15 3f 84 a4 56 3e
       -0.16596504 0.1022556 0.58260345 0.20961195
000120 26 2d 60 be 3d 72 0f bf 2c a0 dc be 86 ea b2 bd
       -0.21892223 -0.5603369 -0.4309095 -0.08736138
000130 69 6b 8f bb 18 2c 9e bd 5b 62 1d 3e 7c 70 61 3e
       -0.004376818 -0.07723254 0.15369551 0.22015566
000140 21 d9 29 3e 95 92 ba bb ab 3f 77 be f8 1d d0 be
       0.16586734 -0.0056937435 -0.24145381 -0.40647864
000150 8c fe 23 be e1 f5 20 bd fe c8 39 3c 41 db 0d 3f
       -0.1601507 -0.03929699 0.011339424 0.5541268
000160 c0 7f 90 3e 9e 20 ae bd 95 c3 a5 3e 0b b4 95 3e
       0.28222466 -0.08502315 0.3237578 0.29238924
000170 50 98 2e be a0 6f 97 3c 9e 33 1b 3e ca ae 91 be
       -0.1705029 0.018485844 0.15156409 -0.28453666
000180 aa bd c3 3c a9 51 b0 bd bb 62 46 be 23 de 02 3e
       0.02389415 -0.086093254 -0.193736 0.12780051
000190 8f 9a 9a be 05 d0 e4 bc fe 67 fe 3e b6 f5 93 3e
       -0.30196044 -0.027931223 0.49688715 0.288984
0001a0 1e 7e 9c 3d c4 c0 de 3d 89 7c 20 3e e4 90 71 bd
       0.076412424 0.10876611 0.15672506 -0.05897607
0001b0 c8 79 5d be ec 11 5f bd 03 29 40 be 7a 7a 59 3d
       -0.21628487 -0.05446045 -0.18765645 0.05309532
0001c0 58 e7 1d bd b3 7c 3f be 6a 40 6e 3e 98 45 ac 3e
       -0.038550705 -0.18699913 0.2326676 0.33646846
0001d0 e0 ef 4a 3e 51 79 84 3d 0e ce 84 be b9 86 2f bf
       0.19818068 0.06468452 -0.25938457 -0.68564945
0001e0 f9 06 93 bd 89 08 e0 bd 58 99 58 ba dc ce ff 3c
       -0.07179064 -0.10939128 -0.0008262596 0.031226568
0001f0 b0 e4 02 3e 2a 14 b0 3e b1 12 ae bd ab ec a5 3e
       0.1278255 0.34390384 -0.08499659 0.32407126
000200 88 dd e9 3b ea af 70 3e 01 57 86 3d 45 37 5c be
       0.0071370043 0.23504606 0.065595634 -0.21505459
000210 15 c6 55 be 50 78 84 be f4 6e cc bd ff 15 23 3d
       -0.20876344 -0.2587304 -0.099821 0.0398159
000220 08 74 b1 3e d7 78 8f 3e f7 2c 09 3e 5f 4f af 3e
       0.34658837 0.2802188 0.13396059 0.34240243
000230 f4 e8 02 3f 77 85 fd 3d ee 81 3a 3e bd 63 f7 bd
       0.5113671 0.12378972 0.18213627 -0.120795704
000240 8f b1 ef 3e c0 fd a4 3e f2 09 a5 3d 16 6c 97 3e
       0.46815154 0.32224846 0.080585375 0.2957465
000250 d0 56 73 bd c0 4c 56 bc c1 a9 08 bd 9a d4 eb bd
       -0.059408963 -0.013079822 -0.033365015 -0.1151516
000260 5e e6 c0 bd c3 be 1f bd 53 44 eb 3d 5a a0 65 3d
       -0.09418939 -0.039000284 0.11487641 0.056061126
000270 97 2b 37 be e8 e2 43 bc ea 47 4c 3e bb 0c b2 be
       -0.17887722 -0.011955954 0.19949308 -0.34775338
000280 c4 3c 9b 3e 2a 42 04 3e 12 a8 26 be ea 1b 96 3d
       0.30319798 0.12915865 -0.16275051 0.07329543
000290 ea 15 23 3f ab 03 e5 bd e4 9a 5c bd 08 3e b4 bd
       0.63705313 -0.1118234 -0.053858653 -0.08800894
0002a0 d7 1e 25 bd 46 91 c0 3c 8f 57 e6 3e 38 35 ed be
       -0.040312614 0.023506772 0.44988677 -0.46329665
0002b0 55 f5 ca bd 94 21 8f bd 9b e2 02 bf 39 ab f3 3c
       -0.099100746 -0.069888264 -0.5112702 0.029744731
0002c0 d9 09 ea 3e 09 de 87 be c0 01 55 be 77 42 ad 3d
       0.45710638 -0.26536587 -0.20801449 0.08459943
0002d0 0c 24 f6 3d 7c 50 25 3e 76 9a 42 3e 66 0d 77 3e
       0.12018594 0.16143984 0.19004235 0.24126205
0002e0 c5 bd 06 3f b4 39 ac 3e 80 0b 82 3f 8a 78 1d 3f
       0.52633315 0.33637774 1.015976 0.61512053
0002f0 b6 fa 5c 3e e0 ce f0 3e ae bb ac be e1 52 e7 bd
       0.21580014 0.47032833 -0.33736938 -0.11295105
000300 fa 05 23 3e 5a ed 81 be 30 f8 4f ba d2 2c cc 3d
       0.15920249 -0.25376397 -0.0007933406 0.09969486
000310 55 e0 18 be bf ed a0 3d 6f 30 1e be 92 bd 46 3e
       -0.14929326 0.078578465 -0.15448163 0.19408253
000320 85 83 e3 3e 08 2c 95 bd 3b 1c 14 3d 56 98 bd 3c
       0.4443628 -0.07283789 0.036159735 0.023143928
000330 b1 2b 28 be b0 45 8c be 4d 41 77 be 4b e7 ea 3d
       -0.16422917 -0.27396917 -0.24146004 0.11469897
000340 29 5c 89 3e 10 60 81 3e 53 b0 77 3c 85 7d 7e be
       0.26828125 0.25268602 0.015117723 -0.2485257
000350 c8 c3 31 be 7b d6 07 38 d5 72 8b bd d1 f5 e2 be
       -0.17359841 3.238626e-05 -0.06809012 -0.44328168
000360 ae 87 15 be 2d 32 93 be 9c 5c 8c be 41 77 73 bd
       -0.14602539 -0.2874922 -0.27414405 -0.0594399
000370 2c c6 a5 bd 97 15 2f bd c9 24 86 3e e5 34 8f 3d
       -0.08094439 -0.0427452 0.2619994 0.06992511
000380 ab 0c d3 3e 10 8e ab 3e cf 37 f8 3e 3d 55 53 bc
       0.41220602 0.33506823 0.4848008 -0.01289874
000390 47 31 93 3e 23 52 28 be de 50 37 be bf 70 fc be
       0.28748533 -0.16437583 -0.17901942 -0.49304768
0003a0 9d 11 d1 bd e3 ed b8 bc 7f 8e e7 3c 81 11 44 bd
       -0.102084376 -0.02257437 0.02826619 -0.047868256
0003b0 94 e1 9f 3e bd 09 32 3e 57 03 f1 3c 5d ca 86 3e
       0.3122679 0.17386527 0.029420538 0.26326266
0003c0 a2 21 4e be c1 4c 7f be f9 85 88 be 7f 05 c4 bc
       -0.20130017 -0.24931623 -0.26664713 -0.023928402
0003d0 dd 5e a3 bd e3 15 46 be 3c de 97 bd 29 2b 52 bd
       -0.07977078 -0.19344287 -0.07415435 -0.051310692
0003e0 35 fe 99 bc 8b b6 63 3e ca 56 74 3e 81 52 9a 3e
       -0.018797973 0.22237603 0.23861232 0.3014107
0003f0 b8 25 20 3e 2a 7f 62 bd 64 ac 05 3f a3 81 5a be
       0.15639389 -0.055297054 0.5221617 -0.21338515

model.9.weight f4 [96, 256]
000000 74 0e 2e 3e ea 11 9c bc 61 2e c6 3b 91 89 dc 3d
       0.16997701 -0.01905151 0.0060480093 0.10768426
000010 d7 43 e9 bd 72 b0 b6 3a ec 5d b7 bd c5 ce 88 bc
       -0.113898925 0.0013938083 -0.08953461 -0.016700158
000020 36 20 36 be 45 5e 64 bc 8c 10 c3 bc fc 8d 78 3d
       -0.17785725 -0.013938491 -0.023811601 0.06068228
000030 67 f9 11 be 7f cf bd 3d a9 7a a9 be b8 ac 4d bd
       -0.14255296 0.09268092 -0.33101395 -0.050213546
000040 45 e7 51 3e eb 34 de bd c5 3b 42 3e 0b 2c de 3e
       0.20498379 -0.10849937 0.18968113 0.43392977
000050 bf 39 2a 3d c6 ac 34 3e 25 ce 59 be 23 19 ee bc
       0.041558977 0.17644033 -0.21270044 -0.02906472
000060 75 fb a5 be 66 3f 12 be 60 5f 3d be 13 55 6a bd
       -0.3241841 -0.14281997 -0.18493414 -0.05721004
000070 64 e4 03 3b 62 9c d1 be da 43 3e 3e 1c ed d5 3d
       0.0020125145 -0.40939623 0.18580571 0.10445616
000080 85 9b 8f bb 97 bc 42 b8 5a a3 3b be c5 72 03 be
       -0.004382553 -4.6428842e-05 -0.18324032 -0.1283675
000090 37 c7 11 be 45 51 a2 bd 61 44 b7 bd 81 a8 3a be
       -0.1423615 -0.07925657 -0.08948589 -0.18228342
0000a0 0c be 10 bf f6 e4 73 3d 64 fe 00 be fa 8b 05 b9
       -0.5653999 0.059544526 -0.12597042 -0.00012736014
0000b0 b4 49 52 be 98 3a 93 3c f7 38 09 be 22 99 ff 3d
       -0.20535928 0.017972276 -0.13400637 0.1248038
0000c0 ab 27 40 be 33 d6 41 bd 71 f5 4a be 79 2a 86 3d
       -0.18765132 -0.047323417 -0.19820191 0.0655107
0000d0 66 90 26 3e 56 82 35 3e 9e 36 ad bb b6 c7 19 3d
       0.16266021 0.177255 -0.005286052 0.037543975
0000e0 4d 99 04 be cf ef b8 3c 3a 06 13 be af e9 b7 bb
       -0.12949105 0.022575287 -0.14357844 -0.005612574
0000f0 16 75 72 be 2c 0c 7b 3c ee 75 89 be 40 3e 31 be
       -0.23677477 0.015322726 -0.26847786 -0.17308903
000100 02 f6 03 3e f0 a7 20 bd c1 dc 87 bb 5e e4 de bb
       0.12886813 -0.039222658 -0.004146189 -0.006802126
000110 52 53 52 3e 8f 64 de 3d 18 9e dc 3d d8 ea 58 3e
       0.20539597 0.10859024 0.107723415 0.21183336
000120 ce b9 b9 3c eb a4 77 3d 32 0c 40 3d cc 32 22 3e
       0.022671606 0.060460012 0.04688663 0.1583969
000130 92 29 49 3e 7e 72 25 3e 23 9a 3a bc 76 68 35 3e
       0.19644764 0.16156957 -0.011389288 0.1771563
000140 9b 38 09 bf 37 6c 88 bc 7d 3b 9c bc 41 e1 02 be
       -0.53602 -0.016653163 -0.019071335 -0.1278124
000150 33 c9 9d 3e 7c fd a8 3e fe 51 1e bc 55 8c b7 3d
       0.30817565 0.33005893 -0.009663103 0.08962313
000160 54 cc 0d 3e 65 86 f8 3d e9 e9 5d bd 39 91 0a 3d
       0.13847476 0.12135009 -0.054178152 0.0338299
000170 de 3d 38 bf 62 b8 8d bd 8e 33 08 be c8 ca 1f be
       -0.719694 -0.06919934 -0.13300917 -0.15604699
000180 de 0a a8 bc c9 31 1e 3e b9 70 a6 bd 3d b6 89 3c
       -0.020512994 0.15448679 -0.08126969 0.01681053
000190 ef 0a 7c bf 8a 32 13 bf 87 a0 a9 be 17 5d 37 3c
       -0.98454183 -0.5749899 -0.33130285 0.011191628
0001a0 cf 8e 46 3a 2b 7f 0d be 31 17 04 ba b2 06 56 bd
       0.0007574381 -0.13818042 -0.0005038856 -0.05225248
0001b0 4b b3 10 3d 42 1b 31 3e 9a b0 3c 3e 19 22 6a 3e
       0.035327237 0.17295554 0.18426743 0.2286457
0001c0 07 85 b5 be 45 34 12 3d cb c1 c9 bd 08 4a 67 be
       -0.35453054 0.03569438 -0.09851416 -0.22586834
0001d0 a9 00 cf bb 9d 1b 8e be 1d 6c b6 3b 19 cd dd 3d
       -0.0063172174 -0.27755442 0.0055670873 0.10830135
0001e0 eb f9 1c 3d 23 8e b4 3e 28 0d 1b 3d 6b 6f e6 ba
       0.038324278 0.35264692 0.037854344 -0.0017580813
0001f0 f8 28 d3 be 99 aa 3e be a0 6c 64 bb 2e b2 dc 3d
       -0.41242194 -0.18619765 -0.0034854785 0.107761726
000200 31 a0 42 bd f6 75 61 3d dd 02 aa 3d f3 f9 d3 3d
       -0.04751605 0.055044137 0.083013274 0.103504084
000210 a7 62 48 be b3 b5 f8 3d fb ec fa be b2 1c 83 3e
       -0.19568883 0.121440314 -0.49008927 0.2560783
000220 e4 f1 b1 3e b0 af 3b 3e 6b 4c 46 3d 1d fb 3d 3e
       0.3475486 0.18328738 0.04841272 0.18552823
000230 ad fd 3a be 35 e8 41 3d ec fb 61 be 41 ef 16 3e
       -0.18260832 0.04734059 -0.22068757 0.14739706
000240 b8 9e 00 be 8d 5c 1f 3d aa 8d d3 3c dd a3 31 bd
       -0.12560546 0.038906623 0.025824387 -0.043369163
000250 6f ae ec ba 19 a6 72 bc 53 17 3c bd 42 68 28 be
       -0.0018057356 -0.014810109 -0.04592068 -0.16446021
000260 a2 49 12 bf 12 a3 b6 be 7b fd b2 be be 58 a8 bd
       -0.57143605 -0.35671288 -0.34959015 -0.08220051
000270 8c f9 bb bc 50 fc e6 bd 98 5b 41 3a d4 04 8e 3e
       -0.022946142 -0.112785935 0.0007376014 0.2773806
000280 3b aa 5f 3e 27 4d fd 3c 64 68 ab 3d 2f a6 4d 3c
       0.21842282 0.030920578 0.0836952 0.012551828
000290 ff bf 84 3e 1f 94 95 3e b0 5e 36 be 00 b8 46 3e
       0.2592773 0.2921457 -0.17809558 0.19406128
0002a0 25 22 ba be 1f ea 58 be 74 b5 76 be 81 a9 b2 be
       -0.36354175 -0.2118306 -0.24092656 -0.34894946
0002b0 f2 cd 4f 3e b9 5b 8b bd e0 1e 36 3a c6 b0 98 3d
       0.20293406 -0.06804604 0.000694735 0.07455592
0002c0 c3 f4 4b 3e f7 3c b0 3d 67 bb 3b be 94 04 20 bd
       0.19917588 0.08605378 -0.18333207 -0.039066866
0002d0 07 10 55 3e 4d de 3d 3c 78 3a 56 3d 09 a5 26 bd
       0.20806895 0.011588645 0.052301854 -0.040684734
0002e0 4b b6 92 3e 8c 0f 75 3d ae d0 33 3e 86 3b 6a 3d
       0.28654703 0.05982928 0.17560074 0.057185672
0002f0 93 c0 39 3e 96 86 8a bc e1 46 5e 3e 7e f0 bb 3e
       0.18139867 -0.016909879 0.21706726 0.36706918
000300 50 ab 4f be 9f c4 21 3e 40 e2 eb bd d4 0b aa bd
       -0.20280194 0.15797661 -0.11517763 -0.08303037
000310 37 9e 19 be 13 10 3c be 04 16 1b be 0c 06 32 be
       -0.1500176 -0.18365507 -0.15145117 -0.17385119
000320 11 4f 3a 3e ad 83 15 3d ea a6 e4 3e dc e2 76 3c
       0.18194224 0.03650253 0.44658595 0.015068736
000330 6a e5 c7 3e 5c ef b1 be 02 e4 d2 3c 2b c5 6b 3e
       0.39042217 -0.3475293 0.025743488 0.23024432
000340 50 9e ec bd 79 06 6b be 40 89 22 3d 04 e3 e6 bd
       -0.11553633 -0.22951688 0.039681673 -0.112737685
000350 30 a0 bb bd 90 02 35 bd 60 0f 3a be b7 20 86 3d
       -0.09161413 -0.044191897 -0.18169928 0.065492086
000360 69 68 11 be fa 50 2d 3d 76 2a d3 bc e3 06 35 bc
       -0.14199986 0.042313553 -0.025777083 -0.011049005
000370 6a 0d dc bd 29 96 41 bc bc cc dd bc 78 6c c3 3e
       -0.10744746 -0.011815586 -0.027075164 0.38168693
000380 03 7b 3b 3e ff fb 26 3e c1 e2 9f 3e c2 26 9f 3e
       0.18308644 0.16307066 0.31227687 0.31084257
000390 1f f2 17 bd dd 82 28 3e d3 27 5e 3e 65 44 7e 3e
       -0.03709614 0.1645617 0.21694879 0.24830778
0003a0 05 52 b6 be 6a 2e 2c be d9 a1 b8 3d 6f b8 4d 3e
       -0.3560945 -0.1681458 0.09015245 0.20089887
0003b0 61 bc 94 be 4d 6b 5c be 89 3c b0 be 77 ca ca 3c
       -0.29049972 -0.21525307 -0.34421185 0.024754746
0003c0 5a 05 9c be 37 78 97 be 9f 1e a7 be 7e 32 2b be
       -0.30472833 -0.29583904 -0.3264055 -0.1671848
0003d0 08 17 3c bd da e3 ba be 64 aa b0 bd 61 ad 69 be
       -0.0459204 -0.36501962 -0.086262494 -0.22820045
0003e0 41 66 bf 3e 9c 28 c8 bc 40 4b 7a bd d4 30 2d be
       0.373827 -0.024433427 -0.06110692 -0.16913158
0003f0 c7 c2 13 bf 05 f9 aa bd 25 ef 42 be 88 7c 0f be
       -0.5771908 -0.08348278 -0.19036539 -0.14012349

model.11.weight f4 [64, 96]
000000 3f e6 ee be 94 65 cf bd 4c 5d 58 bd 33 0e 47 3c
       -0.4666004 -0.10126796 -0.05282335 0.012149381
000010 68 96 85 3d a2 a9 80 bd 89 b6 17 be 18 5c c2 bd
       0.06522828 -0.06282355 -0.14815725 -0.09490222
000020 0d e7 03 3e ad 8f ca bd 15 29 22 bc 7b 68 24 3e
       0.12881108 -0.09890685 -0.00989749 0.16055481
000030 b4 35 be 3c d6 b7 ae 3d 05 e5 92 3d 6a 25 d6 3c
       0.023218967 0.08531158 0.07172588 0.026140887
000040 da a8 09 3c cb 28 5e 3e a3 0d ab 3d 7a 7d 25 3d
       0.008402074 0.21695249 0.083522104 0.040402867
000050 66 db 20 3d 04 4d 82 be c8 a4 92 bc cf 7c 5c be
       0.039271735 -0.25449383 -0.01790084 -0.21531986
000060 ae 50 d1 bd fe db 48 3e 33 26 75 3e bb 3b 3b 3e
       -0.102204666 0.1961517 0.23940353 0.18284504
000070 c6 18 84 3d c0 e6 42 bd 38 55 4b 3e 36 fc 1a 3d
       0.06450038 -0.04758334 0.19856727 0.037838183
000080 69 ad a4 bd 99 69 51 be df f4 9f be 84 b9 b9 bd
       -0.08040888 -0.20450439 -0.3124151 -0.090685874
000090 98 8e 76 3c 40 0e 8c 3d 0e 5c 1d be bb 1b 9c bd
       0.015048645 0.068386555 -0.15367147 -0.07622477
0000a0 db cc b3 3c 26 76 0b 3e ec 3e 0e bc 60 51 30 3c
       0.021948269 0.13619289 -0.008681994 0.010761589
0000b0 52 13 d2 3d bf 01 cc 3d 22 93 b4 3d 96 13 0c be
       0.10257591 0.099612705 0.08817126 -0.13679346
0000c0 44 bc ee bd 62 6a bc 3c 66 c8 4f 3e 09 32 f5 3c
       -0.116570026 0.022999946 0.2029129 0.029931085
0000d0 ed b9 74 3e a3 e2 54 3e 8a fc c8 3c 58 e3 c8 3d
       0.2389905 0.2078958 0.024534483 0.098089874
0000e0 88 9e 18 be f6 09 02 be 1e d0 9c 3d 1d b5 d2 3d
       -0.14904225 -0.12699112 0.07656883 0.10288451
0000f0 f7 ef 26 3e cd 03 16 3e 75 a3 be bc 77 fb 80 3c
       0.16302477 0.14649887 -0.023271302 0.015744908
000100 28 8b 0d 3d 04 b3 9b bc 90 23 ce bd a7 11 37 3d
       0.034556538 -0.01900626 -0.10065377 0.04469457
000110 d1 46 b2 be f8 cf 6c 3d ea f3 a5 bd 40 a6 3b 3e
       -0.34819654 0.057815522 -0.081031635 0.18325138
000120 b0 c9 9f 3d 95 94 eb 3d 76 8c ce 3d 41 6a 3c 3e
       0.07802141 0.11502949 0.100853845 0.18399908
000130 63 bf e9 3d f8 98 2d bd 07 42 91 be 9f c9 e4 3d
       0.11413457 -0.04238221 -0.28370687 0.11171269
000140 93 4b d9 3d 43 cb 38 3d e4 b7 b6 bc 7e ae 6e bd
       0.10610118 0.04511572 -0.022304483 -0.058271877
000150 88 b9 1a 3e 02 30 15 3e 2c 93 c0 3c ed 07 c2 bd
       0.15109837 0.14569095 0.023507677 -0.09474168
000160 1b 0e 0a ba 85 79 9b bd 74 cb cb 3d 76 87 1a be
       -0.0005266384 -0.075915374 0.09950915 -0.15090737
000170 b2 2a 44 bd 43 72 f6 3d ad ee 8a be 00 2f a5 3d
       -0.04789228 0.120335124 -0.2713522 0.08065605
000180 45 09 0d bd a5 76 27 be b0 dc 6e 3c 32 ee 86 3c
       -0.03443267 -0.16353853 0.014578983 0.016471002
000190 bd c0 bd bc 98 93 2e 3d 1e 86 59 bb ca a9 89 3c
       -0.023163194 0.042621225 -0.0033191512 0.016804595
0001a0 e6 6e 34 be 00 f4 56 3a 80 1a 27 3d e6 d7 0d 3e
       -0.1762043 0.0008199811 0.040796757 0.1385189
0001b0 7b ba 07 3e 2f ce 77 bd 1c 42 08 bd 01 58 67 bd
       0.1325473 -0.060499366 -0.03326617 -0.05648041
0001c0 54 e2 cc 3d 9a c9 82 bd 25 6a 15 be 53 a6 2f be
       0.10004106 -0.06386109 -0.14591272 -0.17153291
0001d0 7c 9c fd 3c fe ed db bd ae de 66 bc 99 f7 12 be
       0.030958407 -0.10738753 -0.014091177 -0.14352264
0001e0 d9 d9 b1 3c b7 cf c7 3d 31 17 37 3d 7c 58 00 be
       0.021710323 0.09756415 0.04469985 -0.12533754
0001f0 2a 8d 0e be 9f f5 d2 bc f6 7c de bd 3c fb 86 bd
       -0.13921037 -0.025751887 -0.10863678 -0.06590888
000200 d6 10 83 bc bc 8f 5d bd f9 4d 73 3e 96 df e0 3c
       -0.015999239 -0.054092154 0.23760213 0.027450364
000210 c1 68 9b bc 41 3e 26 3c cb 6b 4a 3e c2 c4 da bd
       -0.018970849 0.010146678 0.19767682 -0.1068206
000220 5c e7 30 be df 2f 98 3e 2a 8b 89 bd aa c7 b3 3d
       -0.17275757 0.29724023 -0.067159966 0.08778317
000230 10 a3 35 3e 4e 16 c5 3d f9 cc 41 3e b5 e6 9b bd
       0.17737985 0.09623395 0.18925847 -0.07612363
000240 36 25 87 3d f5 bc 43 bd cf 2d 1c be b1 25 ac 3d
       0.06598894 -0.047787625 -0.1525185 0.084056266
000250 85 01 03 bf 91 2b 4f 3e ae 45 98 3d be 0f 74 bd
       -0.51174194 0.20231463 0.07435165 -0.059585325
000260 82 0d 21 bd 12 cd 10 be 12 44 04 be c0 84 46 3c
       -0.039319523 -0.14140728 -0.12916592 0.012116611
000270 c7 4b 4f bd 59 72 ee bd 46 f7 d0 3d d0 db ed 3d
       -0.050609376 -0.11642904 0.10203414 0.116141915
000280 54 b7 16 be fb ad 2f 3d 3f 83 02 3e 4d 97 9d bd
       -0.14718372 0.04289053 0.12745379 -0.07694874
000290 4a 38 4c 3d 76 bb a1 3c 66 b0 13 bd 64 6a 00 be
       0.04985837 0.019742709 -0.0360569 -0.12540585
0002a0 69 d2 7a be 43 c5 ea bc d7 87 aa bd 01 4f 3b bd
       -0.24494328 -0.028658515 -0.08326691 -0.04572964
0002b0 44 7b 68 bb d8 27 07 bd 09 eb 48 3d cb 5d 0c 3e
       -0.0035473863 -0.032996982 0.049052272 0.13707654
0002c0 ba 48 f5 bd ae 91 74 3c 74 5c c3 3d 77 e0 eb 3d
       -0.11976762 0.014927311 0.095391184 0.11517423
0002d0 26 47 8e be d1 c6 88 bd cd 3d 50 bc 2d e3 b1 bd
       -0.27788657 -0.06678546 -0.012710047 -0.086859085
0002e0 03 d6 98 3e 40 7b 98 be 75 0c 2a 3d ca 4f 38 bd
       0.29850778 -0.29781532 0.041515786 -0.044997968
0002f0 d0 b6 50 3d ea da e5 bd bb b6 32 be ce 67 3c be
       0.050955594 -0.11223395 -0.17452519 -0.18398973
000300 a7 10 a4 3d a0 8c 1f 3d 6d b7 8a bd 83 d5 98 be
       0.08010989 0.03895247 -0.06773267 -0.29850397
000310 59 de 97 bd 53 9c 57 bd 04 d8 4f bd 1a 61 aa bb
       -0.07415456 -0.052639317 -0.050743118 -0.0051995637
000320 27 56 0e 3e 5c e5 ef bd 3d 8c 27 bc 57 cb 57 3e
       0.13900052 -0.11713669 -0.0102263065 0.21073662
000330 76 aa 81 3d 73 5c 0e bd c3 dd 47 3c 1b de 3e bd
       0.06331341 -0.034756135 0.012198868 -0.046598535
000340 e4 84 93 bd 2a fc ae bc 1b cd a8 bd fd 3a 47 3c
       -0.07203081 -0.021360476 -0.08242246 0.01216006
000350 7d 9e 97 be a1 88 be 3d 95 d5 3e 3d 14 dd a6 bd
       -0.29613104 0.09303404 0.046590406 -0.08147636
000360 a3 41 27 bd ee 2e ea bd 64 db bd ba cb 17 4b be
       -0.04083408 -0.114347324 -0.0014484939 -0.19833295
000370 3c 11 bd 3d a9 3a b9 3c 3e 65 2d 3d c4 48 c7 3d
       0.09231803 0.02261098 0.04233288 0.09730676
000380 b5 69 ef 3d e4 e4 9e bd 3a d1 be bd 53 89 78 3e
       0.11690084 -0.07758501 -0.093172505 0.24271135
000390 b8 0d 9c bc a7 ab dc 3c 39 6d 49 3e d8 e5 04 bd
       -0.01904951 0.026937319 0.19670571 -0.03244576
0003a0 f6 77 54 3d 22 0b a0 bd 38 79 96 3c 9e 98 2f 3d
       0.051872216 -0.078146234 0.018368348 0.042870156
0003b0 22 ea cd bd 24 25 78 3d 45 08 5b 3d 9e 94 cf 3e
       -0.10054423 0.060582295 0.053474683 0.40543073
0003c0 cc e8 f2 3c e7 ad 80 3d af a2 be 3d e8 07 35 3d
       0.029652022 0.06283169 0.09308373 0.044196993
0003d0 80 36 92 3d 63 1a a9 bd 67 53 a3 bd 40 81 8f 3c
       0.07139301 -0.08256986 -0.07974892 0.017517686
0003e0 8d 71 28 3e de 80 19 be 0f 9a 4b 3d c1 91 a2 bc
       0.16449566 -0.14990565 0.04970747 -0.019844892
0003f0 00 85 2a 3e 32 55 fd 3c a2 90 ef bd 38 fd 7e bd
       0.16652298 0.030924413 -0.116975084 -0.062253207

classifier.weight f4 [10, 64]
000000 6d d8 be 3d 27 b5 4d be 6b 29 95 be 2c 5e 4e bd
       0.09318624 -0.20088635 -0.29133162 -0.050382778
000010 db 51 c9 be 25 4e 70 be 52 d1 be bd 39 7f cd 3d
       -0.39320263 -0.2346731 -0.093172684 0.100340314
000020 31 7e 2c 3e c3 fa fd be 21 68 f2 be 00 40 2b be
       0.16845013 -0.49605379 -0.4734507 -0.16723633
000030 21 ad b9 3e c1 82 2a bf c0 b2 1c be f4 e0 97 be
       0.362649 -0.66605765 -0.15302563 -0.29663813
000040 1e 48 89 3e 5c c0 c4 be 83 b2 94 3c 3e 32 8f 3e
       0.26812834 -0.3842801 0.018151527 0.2796802
000050 61 17 8e 3e 98 62 9a be cd 4d 94 bc d8 32 d5 be
       0.27752212 -0.30153346 -0.018103505 -0.41640353
000060 78 4b a1 3e 11 ba fe 3e 42 25 b7 3e ea 12 3c bf
       0.3150289 0.49751332 0.35770613 -0.7346636
000070 e4 aa 0a 3f 0f e4 bd bc e3 31 16 bf 2f 3f 9d bb
       0.5416701 -0.023180036 -0.5866987 -0.004798792
000080 8b 9d e4 bd 4e a6 3b 3e 51 30 af be 66 5b cd 3e
       -0.111628614 0.18325159 -0.3421655 0.40108794
000090 68 53 0e bf 16 97 52 3e df 90 42 bf ff a0 ec be
       -0.5559602 0.20565447 -0.76002306 -0.4621658
0000a0 b9 f4 12 bf 81 5f 0a bf a0 62 f7 bc 8b 55 ab be
       -0.5740467 -0.5405198 -0.030198395 -0.33463702
0000b0 a1 25 55 bf 5e 36 c7 3d a3 b1 07 3f 1f a3 35 be
       -0.8326054 0.097271666 0.5300543 -0.17738007
0000c0 4f e1 ba be bd b7 75 be cf 3b 22 bf f8 e1 a6 3e
       -0.36500022 -0.23995872 -0.6337251 0.32594275
0000d0 b9 ec ad 3e cd bf 4c 3e 0e 48 97 be 07 90 ba be
       0.33969668 0.19995041 -0.2954716 -0.3643801
0000e0 3a 6a 10 bf 0f b7 b6 be c1 23 23 bf c7 79 c7 be
       -0.5641209 -0.35686538 -0.6372643 -0.38960096
0000f0 d0 94 3e bd 64 71 41 3e 47 b7 33 bf 8d 6a b9 3c
       -0.046528637 0.18890911 -0.70201534 0.022633815
000100 9c c8 bb be cd 32 81 be d2 d9 cf 3d 4a 89 c0 bd
       -0.3667649 -0.2523407 0.10148968 -0.09401186
000110 7b ca b7 bd 3f 6f 92 bf 88 96 ec be 2e 98 5f be
       -0.08974167 -1.14402 -0.46208596 -0.21835396
000120 5d 97 da be 1e 63 83 be 96 3a 04 3f 96 ef 85 bd
       -0.42693606 -0.25661558 0.51651895 -0.06539838
000130 29 a9 b0 be 45 2b c1 3e 09 2f fb be 04 90 0a 3e
       -0.3450406 0.37728325 -0.49059322 0.135315
000140 44 1c e8 bd 52 d2 7c be 43 51 e6 be ff 58 1b 3e
       -0.11333516 -0.24689606 -0.44983873 0.15170668
000150 1d 96 17 bf c7 27 71 be 99 7c 69 3c 66 11 d1 bd
       -0.5921343 -0.2355033 0.014250898 -0.102083966
000160 42 20 13 bf 35 c5 33 3d e9 a1 81 bc 32 ab d0 bb
       -0.57471097 0.043889243 -0.015824275 -0.0063680643
000170 e8 b9 45 bf 3e 62 9c bd 76 a6 3a 3e fe 84 6b bd
       -0.77236795 -0.07635926 0.18227562 -0.057499878
000180 a3 53 93 be 5b db b2 3e 5b d9 6d 3d 77 53 26 3f
       -0.28774747 0.3493298 0.058068614 0.6497111
000190 c3 46 e8 be 4f 52 e7 3e 63 28 e0 be af ca 0a be
       -0.45366487 0.45179984 -0.43780813 -0.1355388
0001a0 08 7d ba 3d 1f 17 92 3e c0 e2 66 be ed 6e a5 be
       0.09105879 0.28533265 -0.22547436 -0.32311192
0001b0 27 74 e8 3e bd 0a aa be 04 57 0e 3e b5 3f b2 be
       0.45401117 -0.33211318 0.13900381 -0.3481423
0001c0 55 6c a6 be 39 93 85 be 0d 23 41 3e 5a 38 b6 be
       -0.32504526 -0.26088884 0.18861027 -0.35589868
0001d0 95 9d e8 3e 8f 0c 82 be c4 90 15 bf 16 df 9d be
       0.45432726 -0.25400206 -0.5842402 -0.30834264
0001e0 79 e4 18 3d 0c e0 55 bf df fb 8c 3d 11 50 0d 3f
       0.037327264 -0.83544993 0.06883978 0.55200297
0001f0 6e 9b fe be 18 61 ef 3e 25 45 88 bd fc 24 9e be
       -0.49727958 0.46753764 -0.06653813 -0.30887592
000200 fa 2c d1 3e 4d 07 63 be 4d d8 06 3e 26 fb 2f bf
       0.40854627 -0.22170754 0.1316845 -0.687426
000210 cc f6 dc 3e 01 a8 88 be 14 7f 92 be 51 4e 93 3e
       0.4315704 -0.26690677 -0.28612578 0.28770688
000220 e4 d1 41 be 10 06 3b bf 17 1d cc 3e 9a 23 18 be
       -0.18927723 -0.73056126 0.39865944 -0.14857331
000230 74 c8 3b be d8 1e e3 3c d7 54 54 3d b7 e2 b6 be
       -0.18338186 0.027724668 0.051838722 -0.35719845
000240 d6 1d c4 bd 12 d6 7e 3e 01 fa 29 bd 2d 2e e3 3e
       -0.09576003 0.24886349 -0.041498188 0.44371167
000250 32 cf 37 bf e6 b0 d6 be f8 87 0a 3e 3f b6 82 bd
       -0.7180053 -0.41931838 0.1352843 -0.06382417
000260 86 ef 5a be ec 54 e6 be 23 88 ff bd be 37 2b be
       -0.21380433 -0.44986665 -0.12477138 -0.16720483
000270 c8 03 ee 3d 4c be 16 bf 22 80 f4 be b1 ce da 3e
       0.11621815 -0.5888412 -0.47754008 0.42735818
000280 85 50 d9 3e e9 68 72 be 0d e9 95 be b8 2f 82 be
       0.42444244 -0.23672833 -0.29279366 -0.25427032
000290 00 d1 fe be 6e df 60 3e 02 c5 9d be 2e f6 84 be
       -0.4976883 0.21960232 -0.30814368 -0.2596907
0002a0 a6 9f 02 3f 15 63 80 be 5e be 8a be 69 d9 3a 3e
       0.51024854 -0.25075594 -0.27098364 0.18246998
0002b0 54 43 c1 bd 9c fa ff bc cd 17 2f bf d9 d9 b5 3e
       -0.0943667 -0.03124743 -0.6839569 0.35517767
0002c0 87 8f 30 3e e6 14 3e be 86 a2 ec bc ad af 8e be
       0.17242251 -0.1856266 -0.028886091 -0.27868405
0002d0 5f 5e 2f be 8a 38 cf 3e 9e 23 bd bd 08 b7 c0 be
       -0.17125843 0.40472823 -0.09235309 -0.37639642
0002e0 12 5e d2 3e 43 b8 ee be 9a 49 16 bf 6e 7a fe be
       0.41087395 -0.46624956 -0.5870606 -0.4970278
0002f0 5f 1e 0a 3e 32 0d b2 be 16 a1 8d be 45 86 f3 3d
       0.13488148 -0.34775692 -0.2766196 0.11890844
000300 95 6a b2 be b1 2f e5 3e 91 00 ad be b0 46 4d 3e
       -0.3484694 0.44762948 -0.33789495 0.20046496
000310 3b 55 ea 3e 7e 35 79 be 86 b5 d2 3e fc 1c 20 be
       0.4576815 -0.24336812 0.41154116 -0.15636057
000320 58 a7 89 3e 7c 8f d9 bd 9a 04 94 be 01 64 9e bd
       0.26885486 -0.106230706 -0.2890976 -0.07733918
000330 6d c0 bb 3d 3b 4f e4 be aa 51 52 be 99 74 d3 3e
       0.09167562 -0.44591698 -0.20538965 0.41299894
000340 fd db 37 3e 40 5e 84 be 9a ee 9b 3e fa e2 8c be
       0.17955013 -0.25853157 0.30455476 -0.2751692
000350 97 4c 30 3d 89 b0 19 bf 22 d9 be 3e f5 ae 82 be
       0.04304179 -0.60034996 0.37275034 -0.25524107
000360 36 40 8c be 33 24 1c bf b1 7a c4 be 82 31 d4 be
       -0.2739274 -0.60992736 -0.38374856 -0.4144402
000370 1c 62 bf 3d 3f db 54 be 32 e4 cd be 43 e8 a2 bd
       0.09344885 -0.20786761 -0.40213162 -0.07954457
000380 78 38 c1 be a5 de f0 be 06 b1 e9 be db 53 e2 be
       -0.37738395 -0.47044864 -0.4564287 -0.44204602
000390 53 b3 c0 be 66 bc 10 be a1 54 75 3e 5f 3a db 3e
       -0.37636814 -0.14134368 0.23958065 0.4281797
0003a0 7c 40 62 be f0 ba d1 3e dc 06 36 be 7a d8 ad bd
       -0.22094911 0.40962934 -0.17776054 -0.08488555
0003b0 45 47 3e be e0 90 b1 bd e7 a5 08 bf 12 2f 80 3e
       -0.18581875 -0.08670211 -0.53378147 0.25035912
0003c0 43 b5 5a be 52 be 46 be 1a 8b 9e bd a3 68 38 bf
       -0.21358208 -0.19408539 -0.07741375 -0.7203466
0003d0 0e 4d 0f bf 8b d3 3e be 0e 11 0c bf 67 97 c5 bd
       -0.5597695 -0.18635385 -0.54713523 -0.09648018
0003e0 57 a9 a6 3e f4 aa c4 be 29 b7 80 3e b1 6c a7 be
       0.3255107 -0.38411677 0.2513974 -0.32700112
0003f0 ac bc da bd 24 d7 5e be 0c b5 4b be 5e c0 b1 3e
       -0.106805176 -0.21761757 -0.19893283 0.34717077
