modeldata/opt_Cosine_lr0.001_Aug_BitMnist_PerTensor_None_RMS_width64_64_64_bs128_epochs60.pth (torch, 103375 bytes, 4 tensors)

fc1.weight f4 [64, 256]
00000000: d88b 20bd 90be 973b b2c1 f13c 4637 40bd
00000010: a539 483d 9eb0 c8bc 3021 c8bc caab 483d
00000020: 5b4c ef3d 9fe0 ea3d 21a6 9a3d 98c9 763c
00000030: 5be9 a0bc a9bb f1bc f88b 8dbc 9b34 8cbc
00000040: 6f87 473c 4573 15bd deef 073d 4323 1ebd
00000050: 2309 54bc e6d5 cb3d f861 ca3d 2d7a ac3d
00000060: 038c 9cbc a36a 153e 5966 df3c 63bb 2fbd
00000070: 9615 aabd d1bf d8bd 07a1 9fbc 3cd5 8fbd
00000080: d090 ef3c 80db 2ebd ed4c 533c f6bd a1bc
00000090: f62c 473d 0ca6 c23d 59fb 3a3d 9327 03bd
000000a0: 7cb1 60bd 243a 263e aab9 fdbb 8881 9cbd
000000b0: 7833 44be 721e edbd ba78 67bc 18cf 46bd
000000c0: 61f9 493d 3722 c73c 5ce2 89bc 6aeb cb3c
000000d0: 911e c93c dafa 6d3c 2f41 44bd d8aa b0bc
000000e0: 41c6 0b3c 7702 a83a 0f84 15bd 8c9f 86bd
000000f0: 262b f63c 6634 62bc 69ba 9cbd bfa4 b53c
00000100: c4a5 4dbd 6e08 803d e456 233c 7e16 ffbc
00000110: d0a0 b1bc 1262 3fbd 33ab cf3c e5cf f1bc
00000120: 5304 a93b 6889 6abc bd56 45bd 2675 25be
00000130: 2687 2ebe 1c59 553d cc48 94bb e629 a8bd
00000140: ea59 ab3b fdb1 8dbc 8d61 0abd 4bb7 4abd
00000150: 65bf a4bc 45f0 a9bb 45cb de3c 226e aebc
00000160: e794 9abc 1f55 c23b 7e8e adbd a463 09bc
00000170: 5e31 1b3d 3f12 cc3d 2ba4 193e f006 9b3d
00000180: 76d8 d13c 2b7b 1dbd 78c7 1bbc f486 28be
00000190: f484 e1bb f60e 57bc 91d7 b7bb ee0d 7a3d
000001a0: ec3e 8bbe fb63 3dbe e2c0 e9bc 90c7 c43d
000001b0: 6268 4b3e 848b 923e 6205 663e b037 4f3d
000001c0: 94c6 4dbd 6be0 3c3d 4dbf 1a3d 5b77 ab3c
000001d0: 820f ff3c 717b b03c 530f 8f3c d247 e73c
000001e0: 3dcf 14be b901 9d3d 48eb 2d3e 159b 173e
000001f0: a847 863e ee60 743e ab85 633e 820f 913d
00000200: 74f3 733c c9f8 c53b c641 093e 8d3b 0b3e
00000210: 4c01 dc3d cecd 1a3e 4f18 1c3e 5442 25be
00000220: 8673 cfbc dbd9 393e 15e7 d83d 3d94 5b3e
00000230: 9f51 943d 86e5 f43c 1c29 d0bd 7adf 8d3d
00000240: 5d68 bdbd 4440 d5bd c61a be3c 50ad a7bb
00000250: 630a 89bd ad5d 01be ab22 e3be 33d5 0bbf
00000260: d2aa 443e 0af1 673e 8263 a53d b91b 853d
00000270: 26b4 9cbc 3294 0bbe 5ea6 bfbd 4b9b 5cbd
00000280: 6de3 0fbe 11ab 67be 9c7e 26be 7fec 9bbe
00000290: 4cd1 9dbe 8ba3 b1be a4f9 07bf d44a 9bbe
000002a0: 8392 fc3e 4e4b c53e 8a95 ec3d ce0b 403d
000002b0: c93b e13c 064e 5abd 0910 683b 7eea 8bbd
000002c0: 3262 0abe e3ae 5fbe 24ed 9bbe e022 70be
000002d0: 1409 55be 35ca 09be 101a 19be bc54 2fbe
000002e0: 73bc 703e bb6f 213e 8b4d 003e eb75 513e
000002f0: 13a4 393e 06ba a83d 6748 083e 3db0 873d
00000300: 0271 8cbd a901 3dbe 7d14 6bbe 257c 85bd
00000310: 7338 153d 007e 28bd 9777 d9bd 2d03 08be
00000320: 56e3 2e3d 76ed 52bc dd82 ad3d 887e 903d
00000330: c69b d43d 3539 103e 3174 103e c1b0 723c
00000340: b7a6 71bd 86e9 20be d7cc 26bd 71de 4e3d
00000350: 4465 7b3d 3b36 593d 3ea9 fcbd 59ac a1bd
00000360: fca4 4a3d ef89 21bd c7a3 e4bc d7aa 763d
00000370: 299a 0c3e 5031 ce3d 3e20 743c e819 edbc
00000380: 9c8a 0cbc 67e3 73bd e1d7 d9bc 58bb 263c
00000390: 9dd3 e63d 3326 c03d 9a69 78bc 9be7 81bd
000003a0: 5050 423d 5d38 6bbd cd16 fe3d 93e8 d6bc
000003b0: fafc 4b3d 82d4 ee3b e6b7 363d b896 543c
000003c0: 3f70 483c 485d 8bbd 61ed dbba e9e6 f53c
000003d0: d899 a63d 292c 8d3d 0268 d33c 1d69 993d
000003e0: 9326 db3d 0336 ef3c b086 9cbc cc87 c8bc
000003f0: 9851 c5bd e16a 163c 83c1 d2bc aee1 01bd
-0.039195865 0.004630871 0.029511306 -0.046927713 0.0488831 -0.02449828 -0.024429888 0.048991956
0.116844855 0.11468624 0.07551218 0.015062712 -0.019642523 -0.029508429 -0.017278656 -0.017114928
0.012178286 -0.036486883 0.03318774 -0.038607847 -0.0129416315 0.09952907 0.09881967 0.08421741
-0.019109732 0.1459146 0.027270483 -0.042903315 -0.083048984 -0.10583461 -0.019485964 -0.07023093
0.029243857 -0.0426898 0.0128967585 -0.0197439 0.048626862 0.09504327 0.04564986 -0.032020163
-0.054856762 0.16233116 -0.00774308 -0.076418936 -0.19160259 -0.115780726 -0.014127905 -0.048537344
0.049310092 0.024308307 -0.01683157 0.024892528 0.024550708 0.01452514 -0.047913726 -0.02156584
0.008531154 0.0012818117 -0.036502894 -0.065734 0.030049872 -0.013806438 -0.076527424 0.022173284
-0.050206915 0.06251608 0.009969447 -0.031138655 -0.021683127 -0.046724387 0.025350189 -0.029518077
0.005157986 -0.014314987 -0.048178423 -0.1615797 -0.17043743 0.052086934 -0.0045252796 -0.082111165
0.0052292245 -0.017296785 -0.033784438 -0.049491208 -0.020110795 -0.005186113 0.027196536 -0.02129275
-0.01886983 0.0059305574 -0.08474444 -0.008385573 0.037888877 0.09964418 0.15004031 0.075696826
0.025615912 -0.03844754 -0.009508006 -0.1645773 -0.0068823043 -0.013126126 -0.0056104143 0.06104844
-0.27196443 -0.18495171 -0.028534357 0.09608376 0.19864038 0.28622067 0.22462991 0.050590217
-0.050238207 0.04611246 0.037780095 0.020930937 0.031135324 0.021543236 0.017463362 0.028232489
-0.1453218 0.07666344 0.16984284 0.14805253 0.26226544 0.238651 0.22218959 0.07083036
0.014889587 0.0060416204 0.13403997 0.13596936 0.10742435 0.15117571 0.15243648 -0.16138583
-0.02532364 0.18149512 0.105909504 0.21443267 0.072421305 0.029894602 -0.10164091 0.069273904
-0.09248421 -0.10412648 0.023206126 -0.005117096 -0.06691434 -0.1263339 -0.44362387 -0.5462219
0.19205788 0.22650543 0.0807562 0.06499428 -0.01912887 -0.13630751 -0.09357904 -0.053859036
-0.140516 -0.2262385 -0.16259235 -0.3045387 -0.30823743 -0.34695086 -0.53115296 -0.30330527
0.4933053 0.38534015 0.1155196 0.046886258 0.027494328 -0.053297065 0.0035409948 -0.06831835
-0.13514021 -0.21844058 -0.3045436 -0.23450804 -0.20804244 -0.13456042 -0.14951348 -0.17122167
0.23509388 0.15765278 0.1252958 0.20455138 0.18128996 0.08238606 0.1330887 0.06625412
-0.06857492 -0.18457665 -0.22957034 -0.06517819 0.036430787 -0.041135788 -0.10618513 -0.13282461
0.042697273 -0.012873998 0.08472226 0.07055384 0.10381274 0.14084323 0.14106824 0.014812649
-0.058996882 -0.15714082 -0.040722694 0.050505105 0.06137587 0.053030234 -0.12336968 -0.07894201
0.049473748 -0.039438184 -0.027910126 0.06022152 0.13730682 0.10067999 0.014900265 -0.028943017
-0.008577969 -0.05954304 -0.026592197 0.010176502 0.11270831 0.09382286 -0.015161896 -0.06343003
0.047439873 -0.0574268 0.12406693 -0.026233947 0.049801804 0.0072885165 0.044608973 0.012975387
0.012233793 -0.06804901 -0.0016779118 0.030017333 0.08134812 0.068931885 0.02580643 0.07490752
0.10700717 0.02920056 -0.019107193 -0.024478815 -0.096347034 0.009180755 -0.02572704 -0.031709366

fc2.weight f4 [64, 64]
00000000: 1587 813e 1c97 9fbd 7276 7fbe 8f43 ccbd
00000010: d0c9 b2be 96d1 ea3d cca8 e3be 33d9 113e
00000020: 2d15 41bd fe18 c4bc 96c5 ea3d 9fbc 203c
00000030: 415b aebe 85df 17be 67d2 16be 8778 06bd
00000040: 596d 7e3b 1b01 e83d 8144 4b3d 6e5c 42be
00000050: 1fa1 023e 59d9 dabd 8e30 ea3d d45a 50bd
00000060: 65bb e63d b4ba 65be af50 953e 3bfc 043e
00000070: f365 d2bd f4ad 6dbd c7f0 da3b 57dc a03d
00000080: e31c 783e 6e05 9abd 958c cb3d c08f f6bd
00000090: 3f8a d5be 14b8 9a3b 51e7 803c ff06 a5bd
000000a0: 7024 b9bd 7030 13be 50b8 353d a15d 17bd
000000b0: f236 803d 023a 573e 3f0f fcbe fc13 d4bd
000000c0: c110 66be 0d5f 10bc 9bdc 3e3e 63d9 adbe
000000d0: 04fd 3d3e 434f 033e b127 833a 53f0 aebe
000000e0: f796 8b3d e899 a53d b614 183c 5c80 cf3d
000000f0: ba6f f63d 0af3 813e 1fdb 81be cf5d 82be
00000100: 48e4 9a3e 4024 e5bd 56a7 0a3e 4064 653e
00000110: 13a7 063e e39e b8bc 6fce 103e 7cd8 b73d
00000120: c158 2cbd 762c 1d3e b583 883e 7adf 4a3c
00000130: f2c5 cf3d c16e 333d 4244 bfbd 90a2 1c3e
00000140: ffc6 c9bd 1d93 8fbd 84f8 72be ba8c 003e
00000150: 752b e63d dc50 17be 091b 213e 4c07 073c
00000160: 84b6 943d 9d59 01be d9c2 a2bc b2ca c2be
00000170: 9716 793d 7742 073f cdfd c23e 4616 ecbd
00000180: ab55 b53c eece a03c 75f3 b8bd 66dc 0abe
00000190: 3607 cbbd 62a0 883d eff7 02be c3ed 91bc
000001a0: 13e4 5f3e 6a88 3fbc 4a49 0bbd 64e3 27be
000001b0: 01a2 fc3d 65c5 abbc 5a85 0bbe e1ec 24bb
000001c0: 1e54 fbbe 603e ee3d fe86 993d f75d fa3c
000001d0: a10a e0bd 7ec4 153e 00ea 403e f259 503d
000001e0: 670f 2d3d ee90 59bf 8919 10be 5aea 8ebd
000001f0: 5166 67be 2b4c 5bbd c72e e13c 915a e5bd
00000200: 930f 123e 735c 253d 04b5 58be a17f 023c
00000210: 0ff0 cebd 15c6 2e3c 079e a1bd 77e0 90bd
00000220: 8e02 a33c 34e7 0f3b 83d2 cfbe 32b1 dbbd
00000230: 739e d93e ec56 093e b4be e43c 8f91 a43e
00000240: 1323 f73d 3928 333e 9196 283e e9e7 a6bd
00000250: b70d 5a3e 6c68 b03c a17d a7be 858b 82bd
00000260: 17b9 b73e 183c 45bd 9ea4 f2bd 94f6 9d3d
00000270: 9e77 d33b 8255 10bf d235 5fbe 7986 503e
00000280: 86f0 23bd eccd be3c cf7f d63c fded 26bd
00000290: c047 403e c4ea 37bc 7925 64bd 43c9 343d
000002a0: 8f06 e33d 52f4 1dbe 4e4a edbc b1ad 703e
000002b0: e434 21be 1324 313d 97e0 3a3e 7e36 aebd
000002c0: fe5c 703e db4d 04be c4f8 cd3d 3fe1 b43d
000002d0: e97f 913e 525e 113d 22fd ab3e 1a46 863d
000002e0: 8dc2 c5bd d756 8bbb f313 543e 39ef 3a3e
000002f0: 5efe 69bc 1b07 ebbc 1da4 a4bd 8602 60bd
00000300: e4ca e73c 886f 183e 28ab 34be 3300 343e
00000310: a683 023e dd9e d1bd 6b84 70bd 30ea 383e
00000320: 4b85 30bd d87d 053e c70b 363e d495 b3bd
00000330: 1544 07bc 8fcb 8e3d 1c6c 6abb e30a bd3d
00000340: b11d 2b3e 015b aa3e b008 70be 29ee cb3e
00000350: 3ff5 b83d fd5b 32be 803d 643e f00b eabd
00000360: 2c5c 303d 58e4 16be 59f1 e8bd 5b39 003e
00000370: 6bcb 853e 8f23 e03d f416 84be 16d4 4b3e
00000380: b9e1 a23d 7552 6a3e 89b0 6abd 4b91 0abe
00000390: dd0d 623e 4c9e da3d 8d88 143e 581d f73d
000003a0: 15b3 1d3e 0ac4 043e ce43 663e f1ba 693c
000003b0: d62f 02bc 97a5 16be 90f3 6c3d fee7 153e
000003c0: 64eb 81be 04f6 083d 8390 96be b102 7bbe
000003d0: c3d6 49be b6f1 5d3e 353f f7bd 306a b4bd
000003e0: 4e06 69be 492d ce3d 6bf2 6abd 8824 d5bd
000003f0: d432 0fbb ac2c 343e 0e3e ddbd 8315 d93d
0.25298372 -0.07792494 -0.24947527 -0.09973823 -0.34919596 0.114657566 -0.4446472 0.14243011
-0.047139335 -0.023937698 0.11463468 0.009810596 -0.34053996 -0.1483136 -0.147287 -0.032829788
0.00388225 0.11328336 0.049625877 -0.18980572 0.12756775 -0.10685987 0.11435042 -0.05086787
0.112662114 -0.22434503 0.2916312 0.12986843 -0.102733515 -0.058027223 0.006681535 0.078545265
0.2422977 -0.07520567 0.09938923 -0.12039137 -0.41707036 0.004721651 0.0157353 -0.08057975
-0.09040153 -0.14373946 0.044365227 -0.036954526 0.0626048 0.21018222 -0.49230382 -0.10355374
-0.22467329 -0.008811724 0.18638842 -0.33954915 0.18553549 0.12823205 0.0010006336 -0.34167728
0.06815904 0.08085996 0.009282282 0.101319045 0.12033029 0.25380737 -0.2536249 -0.25462195
0.3025229 -0.11188555 0.13540396 0.22401524 0.13149671 -0.0225367 0.14141248 0.08976838
-0.04207683 0.15348992 0.26662984 0.0123823825 0.10145177 0.043806795 -0.09339191 0.15296388
-0.098524086 -0.070104815 -0.23727614 0.12553683 0.112387575 -0.14776939 0.1573297 0.008241486
0.072613746 -0.12631841 -0.019868301 -0.3804527 0.06081256 0.5283579 0.3808426 -0.11527686
0.022135576 0.019629922 -0.09030811 -0.13560638 -0.09913485 0.066712156 -0.12789892 -0.017813569
0.21864347 -0.0116902385 -0.03400544 -0.16395336 0.12335587 -0.020968148 -0.13625088 -0.0025165605
-0.49087614 0.11632991 0.07496451 0.030562384 -0.10939527 0.14625737 0.18839264 0.05086703
0.042251017 -0.8498677 -0.14072241 -0.06978293 -0.22597624 -0.053539436 0.027488125 -0.11198915
0.14263754 0.04037137 -0.21162802 0.007964999 -0.10104381 0.010667344 -0.078914694 -0.07074063
0.01989868 0.0021957876 -0.40590295 -0.10727157 0.425037 0.13412064 0.027922966 0.32142302
0.12067237 0.17495812 0.16463687 -0.08149702 0.21294294 0.021534167 -0.32713035 -0.063742675
0.358834 -0.048153013 -0.118478045 0.07713047 0.0064534685 -0.56380475 -0.21797875 0.20363797
-0.040024303 0.02329155 0.02618399 -0.040754307 0.1877737 -0.011225406 -0.0556998 0.04413725
0.11085235 -0.15425232 -0.028966095 0.23503758 -0.15742832 0.043247294 0.18249737 -0.08506487
0.23472974 -0.12920325 0.10057214 0.08832025 0.284179 0.03549034 0.33591563 0.065563396
-0.09656248 -0.0042522955 0.20710735 0.18255319 -0.014281837 -0.028689912 -0.080391146 -0.054689907
0.028294988 0.14886296 -0.17643416 0.17578201 0.12745532 -0.10235379 -0.058720034 0.18058085
-0.043095868 0.13036287 0.1777793 -0.08768812 -0.008255978 0.069724195 -0.0035770005 0.09230592
0.16710545 0.33272555 -0.23440814 0.3983014 0.09031152 -0.17417903 0.22289085 -0.11428058
0.043056652 -0.14735544 -0.113741584 0.1252188 0.26131758 0.10944282 -0.25798762 0.19905123
0.079532094 0.22883017 -0.057297263 -0.13531987 0.22075601 0.10674724 0.14505215 0.12066144
0.15400346 0.12965408 0.22486803 0.014265762 -0.007945975 -0.14711605 0.057849467 0.14639279
-0.253749 0.033437744 -0.2940713 -0.24512745 -0.19710831 0.21674237 -0.12072603 -0.08809316
-0.22756311 0.10067231 -0.057360094 -0.104073584 -0.0021850364 0.17595166 -0.108028516 0.10599806

fc3.weight f4 [64, 64]
00000000: 2173 d53c d07f 9a3d 2e8c 5fbe ce38 69be
00000010: ab3d b3be d240 5abe 0321 133e 9a69 a13d
00000020: 4526 2fbb 3e35 313e be23 ba3c 792f 0f3d
00000030: 7af9 503e 2145 ab3c 9288 d93d b8b7 91be
00000040: 3f05 973c ac01 f73d e0cc 84be 5098 363e
00000050: fe57 ffbd 7fa5 e3be 54fe 863d ec8f 70be
00000060: 54cf f3be ac5b 133e 5ee4 033e 3326 4bbc
00000070: b2ec 1abe 1329 b23e 1ef1 11be a5d6 0c3e
00000080: 3ac3 68bd c412 97bd 70da 58bd adff 2f3d
00000090: c0e1 933e 837a 56be 3a15 fabd f80a 1abe
000000a0: 74ff 3dbd 8074 a7be a302 f03d 5125 3abd
000000b0: 93ed 383e 3e9a 0abd a505 703e fd8b 4e3e
000000c0: 18d1 03be 8565 6fbe d1e9 5e3d c679 5dbe
000000d0: f403 98bd ddde 9a3d 7016 233e 5671 84be
000000e0: 436b 0ebd d038 1e3d df7f 073c 5774 22be
000000f0: 83a0 833b 80b8 bfbd d4a2 973c eaad cb3e
00000100: e1c3 82bd 636b d1bc 9d3b 3e3e 4ade 4abe
00000110: 8e01 1fbd 9770 28be 3af7 a7be 0538 343e
00000120: 9859 a93d afce 40be 12ba 1abe 7cdd 8f3b
00000130: d924 183e b959 83be 6eaf 7a3d b8e9 103e
00000140: 9610 bcbc a5a7 263e 2f0d 9d3e 31b1 0c3e
00000150: b0e6 773d 4848 f53d ff74 cfbe 86bc 1bbd
00000160: e3b1 11be 7f9a c1be 0442 b038 72c5 563c
00000170: 1c92 523d 50cc 95be 00ec df3b 6c89 9ebe
00000180: 27ff 383e 962f b7bd fb88 063d db40 7f3e
00000190: 9a3c 99bd 2650 35be be60 2cbe f670 0b3e
000001a0: d254 b63d 5a68 7a3e 64e0 043e a1f4 8cbe
000001b0: 0f4d cdbd 80a4 6ebe b660 c5be 4847 8abd
000001c0: 8725 97bd 119c f2bd 0d9c 15bc 18d8 6a3e
000001d0: 2512 533e 14ff 473e 790b 0b3d a26b 613d
000001e0: 8662 f7bc 1220 fb3d 3df0 0cbc 6c33 ddbd
000001f0: f90e 10be 5912 8dbd 4186 8cbe eb4b c9bd
00000200: c795 74bc e643 233c ebc8 63be b7ce de3d
00000210: 0f47 12be 0207 2cbd e3e4 3f3d 06b6 b5bd
00000220: 5c24 bebd 2813 d43c ab86 22be 66eb fe3c
00000230: 9a0b afbe 4c58 7dbd ec74 9a3d e6a6 b4bd
00000240: 8b9b 973d ac4d 81bd a27e 95be 5d0c b7bd
00000250: f32c c83c e95e b83d d1ce 833c 6533 433e
00000260: dd2e 373d d371 d0bd 7859 07bd 8aa5 f53d
00000270: 3a94 c1bb 7298 cf3d e9c0 953d f1f4 92bd
00000280: 92b0 03be c74a 6a3c 794d 253e 79ab 24be
00000290: 0b09 ac3d da89 c73d fd39 93bd d205 823b
000002a0: 8743 00bd 32d3 3ebe 85c3 243e ae8a 95be
000002b0: 5e72 f33d fa34 6e3d f388 293e 83b9 9dbd
000002c0: faa6 f63c b2fd 4dbe 641f fb3d 2b5f 813e
000002d0: 62a4 b0be aded a63c a0fe 9e3d a986 fc3d
000002e0: 109c b33e 484b 9a3e c5ff 3dbe 787d fabc
000002f0: 9d68 ab3d 1cb2 9cbd 9636 d9bd 859b 573d
00000300: 1cf9 10be b4fc 67be 44b3 333e 8e0a 46bd
00000310: c16e c03d dec8 cc3d d56e 9dbe 0cb2 443e
00000320: 3319 07bd e815 cd3d 6a6f 0bbe e0ea fd3c
00000330: 41f3 3dbe 8ca4 b9bd 07ba b43d 2fd3 1c3d
00000340: 9ba0 d13c dd5a 243e 224b 003e cf76 973d
00000350: b73e 7abe 9f12 f1bd df95 5a3d 0604 97be
00000360: 586a 3a3e a352 ea3d 02d8 1b3c efef a4bc
00000370: 177a 6f3e f897 ffbe a89f 8ebe 4b5a 1b3e
00000380: f451 98bc 88ea a8bd f18c 7d3e 1298 c93d
00000390: 2f11 02be 8d0f 063e 0319 d4be 4954 3bbe
000003a0: 8966 f83d 0e72 d83d f19a 18be 9cff d23d
000003b0: b87b 99be b65a 1bbe 4bc4 00bf 44ae 92bd
000003c0: 4d89 f4bd 0b11 23be 7765 43be 069d 0f3e
000003d0: a523 4fbd 41d4 a23d b5db b4bd ca9f 123d
000003e0: 04fa 5bbd 0109 6bbd 281f d73d fd87 033e
000003f0: 9a9f 3c3e 8402 afbd 9c53 183d 51ea 91be
0.026055874 0.075439095 -0.21830818 -0.22775576 -0.35007986 -0.2131379 0.14368062 0.0788147
-0.0026725691 0.17305467 0.022722121 0.034957383 0.20407668 0.020906987 0.10621752 -0.2846048
0.018435119 0.12060866 -0.25937557 0.1783154 -0.12467955 -0.444622 0.06591478 -0.23492402
-0.47619116 0.14390439 0.12880084 -0.012399244 -0.15129355 0.34796962 -0.14252135 0.13753755
-0.056826808 -0.07376626 -0.052942693 0.04296844 0.2888317 -0.20945172 -0.1221108 -0.15043247
-0.046386197 -0.3270607 0.11719253 -0.045445744 0.18059377 -0.033838503 0.23439653 0.20170589
-0.12872732 -0.2337857 0.054422203 -0.21628484 -0.07422629 0.07562039 0.15926528 -0.25867718
-0.03477026 0.0386284 0.008270233 -0.15864693 0.004016937 -0.093613625 0.01851026 0.39781123
-0.06385017 -0.025563901 0.18577428 -0.19811359 -0.038819842 -0.164492 -0.32805806 0.17599495
0.08269042 -0.18828844 -0.15110043 0.0043904167 0.14857806 -0.2565439 0.06120246 0.14151657
-0.022957128 0.16274889 0.3067412 0.13739468 0.060522735 0.11976677 -0.40518948 -0.038021587
-0.14228015 -0.37813184 8.40463e-05 0.013108598 0.051408872 -0.2925744 0.0068335533 -0.3096422
0.18066083 -0.08944623 0.03284548 0.24927084 -0.07482262 -0.17706355 -0.16833779 0.1361731
0.08902897 0.2445387 0.12976223 -0.27530387 -0.100244634 -0.2330494 -0.38550347 -0.06751877
-0.07380205 -0.118461736 -0.009131444 0.22933996 0.2061239 0.19530898 0.033946488 0.055034287
-0.030198347 0.12261976 -0.008602199 -0.108008236 -0.14068212 -0.06888265 -0.27446178 -0.09828933
-0.014928288 0.009964919 -0.22244613 0.108792715 -0.14284919 -0.04199887 0.046849143 -0.08872609
-0.09284279 0.02588804 -0.15871684 0.031118106 -0.3418854 -0.061851785 0.07541832 -0.08820896
0.07402714 -0.06313643 -0.29198176 -0.08937905 0.024435496 0.09002478 0.016089829 0.19062574
0.044722427 -0.1017796 -0.03304431 0.11994465 -0.0059075626 0.101364985 0.07312185 -0.07175625
-0.12860325 0.014300055 0.16142835 -0.16081037 0.08400162 0.0974309 -0.07188795 0.003967979
-0.0313144 -0.18635252 0.1609021 -0.29207367 0.11887048 0.05815599 0.16556148 -0.07701399
0.030108918 -0.20116308 0.12261847 0.2526792 -0.34500414 0.020377005 0.077634096 0.12330372
0.35080004 0.3013556 -0.185546 -0.030577406 0.08369563 -0.07651159 -0.106061146 0.05263855
-0.14157528 -0.22654992 0.17548853 -0.04834991 0.09396125 0.0999925 -0.3074862 0.19208544
-0.032983016 0.10013944 -0.1361672 0.030995786 -0.18549825 -0.09064588 0.088245444 0.038287338
0.025589278 0.16050287 0.12528661 0.07395708 -0.24437986 -0.1177113 0.053365584 -0.29495257
0.1820463 0.11441543 0.0095119495 -0.02013394 0.23386417 -0.4992063 -0.27856183 0.15171163
-0.018593766 -0.08247858 0.24760796 0.09843458 -0.12701868 0.1309187 -0.41425332 -0.18293871
0.12128932 0.10568629 -0.14902855 0.1030266 -0.29977202 -0.15171322 -0.5029952 -0.07162145
-0.119402505 -0.1592447 -0.19081675 0.14024743 -0.050571103 0.079506405 -0.08830968 0.035796918
-0.05370523 -0.057381634 0.105039895 0.12844844 0.18420258 -0.08545402 0.03718911 -0.28499082

fcl.weight f4 [10, 64]
00000000: 0059 0dbe 33f4 abbe 03e9 58be 017d c6be
00000010: 2884 463e 3d6f 843e 5133 86be 9ede 52be
00000020: 7b73 acbe c9d9 a8bd c82a 00bf 1947 94be
00000030: 92f7 0bbf 6f0f 4a3e 56db 4d3e 3a56 be3d
00000040: 9bd7 a0be e3e9 9dbd 88eb 32bf 8f12 c73e
00000050: a501 28be 9999 143a 27d7 af3e 8635 febe
00000060: 908b 9c3e b759 9d3e 8f4c 363e 2ea7 c3be
00000070: 2ae2 e4bd 01ea f73e f614 bd3e 0886 25bf
00000080: 94fc 0b3c d8e0 b7be bf20 253e c683 dcbd
00000090: cd3b 5dbf 1d4d c0be 564c 913e d98e 80bd
000000a0: cb6c 07bf 3475 2ebe 3c52 a8be a301 153f
000000b0: 4961 62bf ff98 07bf 0a34 37bf f226 2cbf
000000c0: bd10 babe 57fd 2bbe abb0 f3be e898 02bf
000000d0: efba 1dbf 2c5c e4bd fb7e e43e 1a32 25bf
000000e0: 57fa 04bf 30a1 393f 5934 3cbe 5a86 02be
000000f0: e473 96be 8441 393e f942 913e 318c debd
00000100: 0968 bf3e 7107 343f a633 64be aebe 39bf
00000110: de5d 2dbf 5e92 06bf 42a5 4fbe eb62 d1be
00000120: 1d78 acbd 5d8b bbbd 4d5c a63e 2db6 9dbd
00000130: 914e 48be fc19 19bf 6edd 26be 76d0 a8be
00000140: 0d73 07bf 9e92 9cbe 0680 15bf 580a 03bf
00000150: 1db1 36be 55c8 aa3e 63df 3b3e ef00 81be
00000160: 483f 92bd 932e 27bf a5ab d1bc a330 023e
00000170: 99d2 27bf 1c55 2ebf 79c9 cabd 648c 4bbe
00000180: cb4e 80be be5a 873e 8420 c93e aeac 3fbd
00000190: 4d60 033f 8ab4 4abe a618 c43e 6162 03be
000001a0: 0d9a e9be 9beb 6fbd 6237 fcbe 35d3 b1be
000001b0: ffd0 5a3e 79f5 88be 8bca 5bbe 9777 f73e
000001c0: 8c45 88bb fda0 c4be 489b 5d3f 5e94 043f
000001d0: eae4 bb3c 6058 87bd 9373 ebbe 57c5 91be
000001e0: 6138 a03e 39ff 0dbf 387f fd3e f676 02bf
000001f0: fcca 82be 0ca8 c4be fc3b fbbe efe8 f4be
00000200: 5c05 183f 477a 52be f37f 383e 203c 57be
00000210: 7436 9a3c 6c50 d2bd b109 8ebe 0bfa a6be
00000220: 4b86 31bf 9765 b53e 82fa 933e decc fabe
00000230: a80a 40bf 354d 17be dd6d 703e b61c 823e
00000240: 83a2 73be a6d6 353e a2a8 d8bc d311 babe
00000250: 4e83 1abd 6a37 f5be 8fd4 d73e 31b5 9ebd
00000260: a4b7 d83e 8d38 38be 36ed 9dbe 896c c2be
00000270: 82ac b6be b370 5f3e e89b 2d3e a17c a9bb
00000280: 199d 8b3d c6cf c5be 3b39 bbbe c8b3 9d3e
00000290: 0f28 4bbe 446d 16be 884c a0be 7105 01bd
000002a0: c8dd 42be 9bc2 423f 1740 863e b47a bbbe
000002b0: a3be aabe dfb9 b03e 614d 023e ba28 aabc
000002c0: 1192 70be 405b 25bf a313 91be 01c6 07be
000002d0: 09cd 1a3e d5b6 4abd 41d5 01bf ad0c b7be
000002e0: 4fdd d8be a746 9cbe 2d2a a13c 2def e8bd
000002f0: 52a1 ec3e fbfe d83e 450b 57bf fcbf 7e3c
00000300: 3cec 8fbe c9ac 0f3e 639b 9d3e 40ef 093e
00000310: c02a bbbe 1959 dcbe cafe 56be de36 8d3d
00000320: 51c8 df3e 5714 a9be b2ea 213e 16ac 8cbd
00000330: 3f15 92bc 2d02 253f 9d55 c0be f4b5 5dbe
00000340: 3b8a 0c3b d266 a43e 0cd0 d3be 2635 773e
00000350: 5864 0dbf 2533 8fbe 8c23 64be 901c 993e
00000360: 3406 50be 5da6 e3be b372 d1be d9c7 0bbf
00000370: 8d7e 08bf d00c 7f3d daa1 d9be 899b 9bbe
00000380: e3ab efbe 1663 8f3d 61b6 77bd 2a87 ba3e
00000390: 60a4 523e 62b4 03bf b07e 36be 5679 1f3d
000003a0: 783c dcbe fb9a 04bf d188 af3e 38c5 02bf
000003b0: 1b10 e13e 0a23 a63d 64c9 ccbd ae41 ccbd
000003c0: fba7 5f3c a268 573e e901 c5be 461f 41bf
000003d0: 3714 c53e e2da 35bd 4758 acbd 326d 273f
000003e0: 2ed2 e5be abfa f8bd b621 bd3e 2193 823d
000003f0: 7e40 cbbe e154 883d 7bcf 26be d980 3d3f
-0.13803482 -0.33584747 -0.21182637 -0.38767245 0.19386351 0.25866118 -0.26211026 -0.20592734
-0.33681855 -0.08244664 -0.5006528 -0.28960493 -0.5467464 0.1973245 0.20103201 0.0929379
-0.31414494 -0.07710626 -0.6989064 0.38881347 -0.16406877 0.000566864 0.34343836 -0.4965021
0.30575228 0.3073251 0.17802642 -0.38213485 -0.1117595 0.48420718 0.36930054 -0.6465764
0.008544106 -0.3591373 0.16125773 -0.10767321 -0.86419374 -0.37558833 0.28378552 -0.06277246
-0.5290038 -0.17036897 -0.3287524 0.5820562 -0.88429695 -0.5296783 -0.7156378 -0.67246926
-0.36340895 -0.1679586 -0.47595724 -0.51014566 -0.61613363 -0.11150393 0.44628128 -0.64529574
-0.5194449 0.7251158 -0.18379344 -0.12746564 -0.29385293 0.18091398 0.2837141 -0.10866583
0.3738406 0.70323855 -0.22285327 -0.7255658 -0.67721355 -0.5256709 -0.20277885 -0.4089578
-0.08421347 -0.09157441 0.32492295 -0.07700763 -0.1956122 -0.59805274 -0.16295406 -0.32971543
-0.5290993 -0.3058061 -0.58398473 -0.5118766 -0.17841001 0.33355966 0.18346934 -0.25196025
-0.07140976 -0.6530544 -0.025594542 0.12713866 -0.6555572 -0.68098617 -0.09901709 -0.19877774
-0.25060114 0.26436418 0.3928262 -0.04679554 0.5131882 -0.19795433 0.38300055 -0.12830497
-0.45625344 -0.0585743 -0.49261004 -0.3473145 0.21368788 -0.2674978 -0.21463983 0.48333427
-0.0041586813 -0.38404074 0.86565065 0.5178889 0.022936303 -0.06608653 -0.45986614 -0.2847087
0.31293014 -0.55467564 0.49511123 -0.5096277 -0.2554549 -0.3840946 -0.49069202 -0.47833964
0.5938318 -0.20554458 0.18017559 -0.2101903 0.018824793 -0.102692455 -0.2774177 -0.32612643
-0.6934554 0.3542907 0.2890206 -0.48984426 -0.7501626 -0.14775546 0.2347941 0.2541253
-0.23792462 0.17757663 -0.026447598 -0.36341724 -0.03772288 -0.4789384 0.42154357 -0.07749403
0.42327607 -0.17990322 -0.3084504 -0.3797343 -0.35678488 0.21820335 0.16954005 -0.0051723276
0.068170734 -0.3863508 -0.365671 0.30801225 -0.198395 -0.14690119 -0.3130839 -0.03149933
-0.19029915 0.76078194 0.26220772 -0.36617053 -0.3334857 0.34516808 0.1272483 -0.020771373
-0.2349322 -0.6459236 -0.28335294 -0.13259126 0.15117277 -0.04949077 -0.50716025 -0.35751858
-0.42356345 -0.30522653 0.019673431 -0.11373744 0.46216828 0.42382035 -0.8400157 0.015548702
-0.2810992 0.14030756 0.30782613 0.13470173 -0.36556053 -0.43036726 -0.20995632 0.06895231
0.43707517 -0.3302333 0.15812185 -0.0686876 -0.017832397 0.64456445 -0.37565318 -0.21651441
0.0021444696 0.32109696 -0.41369665 0.24141368 -0.5523124 -0.27968708 -0.22279185 0.29904604
-0.20314866 -0.44462863 -0.4090782 -0.5460182 -0.533181 0.06226808 -0.42506295 -0.303921
-0.46810827 0.07001321 -0.060476664 0.36431247 0.20570517 -0.5144712 -0.17821765 0.038934074
-0.43014884 -0.5179898 0.3428407 -0.5108218 0.439576 0.08112152 -0.0999935 -0.09973465
0.0136508895 0.21036008 -0.3847802 -0.75438344 0.38491985 -0.044398196 -0.08415275 0.65400994
-0.44886917 -0.12157186 0.36939782 0.06375719 -0.3969764 0.06656814 -0.16290085 0.7402473
