modeldata/opt_Cosine_lr0.001_BitMnist_PerTensor_4bit_RMS_width64_64_64_bs128_epochs60.pth (torch, 205815 bytes, 8 tensors)

fc1.weight f4 [64, 256]
000000 b0 07 1f 3a b8 15 98 3d b2 07 1f 3a 1f 14 1f 3a
       0.0006066514 0.074260175 0.00060665153 0.0006068367
000010 e2 0f 1f 3a 5e ec 1d 3a f1 ab 4a 3d 23 60 79 3d
       0.00060677354 0.0006024296 0.049480382 0.0608827
000020 e4 c6 8e bd 0d fd 1b 3a 06 ef 1d 3a 2d 06 1f 3a
       -0.06971529 0.0005950488 0.0006024692 0.0006066289
000030 6e 07 1f 3a 81 98 53 3d 0f 66 68 3d b0 07 1f 3a
       0.0006066476 0.05165911 0.056737956 0.0006066514
000040 b0 07 1f 3a e0 e3 1e 3a 3a d4 36 3a f6 86 a2 3d
       0.0006066514 0.00060611777 0.0006974373 0.07935898
000050 af e2 2d 3a 5c 68 9f 3d 33 b2 80 3d f3 9e b0 39
       0.0006633205 0.07783577 0.06283989 0.00033687762
000060 93 05 94 39 d1 33 84 bd c4 9a 59 bd ba af 18 3a
       0.00028232913 -0.06455196 -0.05312611 0.0005824525
000070 3c 7a 15 3a 11 d4 ad 3d 56 b7 25 3a 53 06 1f 3a
       0.0005702113 0.08487714 0.00063215697 0.0006066311
000080 b9 f7 1e 3a f0 f4 1d 3a ce bf 3b 3a 28 0d 49 3a
       0.0006064135 0.0006025573 0.0007162065 0.0007669502
000090 6c 7a ce 39 dc 14 13 3e 3d ec 06 3e da ce 35 3a
       0.00039382593 0.14363426 0.13176055 0.00069354253
0000a0 03 c8 0e 39 e7 ad 34 3a d9 de 83 3a 70 55 f0 b9
       0.00013616685 0.00068923685 0.0010060921 -0.00045840023
0000b0 3f 3b 6f b9 bc a0 8a 3d 47 bc 37 3a d6 76 1e 3a
       -0.00022814887 0.06768939 0.00070089515 0.00060449296
0000c0 ed 41 50 3d de 79 8c 3d 0a 57 e9 3d 42 e5 63 3a
       0.05084412 0.06859182 0.113935545 0.0008693525
0000d0 63 d8 16 be b8 6e 55 be db 5b fc 3d 69 26 6d bd
       -0.14730982 -0.20843017 0.123222075 -0.05789796
0000e0 92 b5 fb bd 69 dd aa bd fd a7 a6 bd 98 4c e4 bd
       -0.12290491 -0.08343012 -0.0813751 -0.111474216
0000f0 b9 89 52 bd 99 93 d4 39 39 f7 0b 3a e1 a1 1e 3a
       -0.051400874 0.0004054576 0.0005339268 0.00060513435
000100 5d e9 8e 3d 57 6f 1f 3a 02 b8 4d 3a ba 9a 02 be
       0.06978104 0.00060819596 0.00078475487 -0.12754336
000110 4b 41 fa bd 91 4f 23 3b 46 02 2b 3b 42 1b 16 3b
       -0.12219485 0.0024919251 0.0026093884 0.002290443
000120 ae c8 36 be 23 dd f2 bd 99 2a 1c be e8 92 0a be
       -0.1784999 -0.11858585 -0.15250625 -0.13532603
000130 bb 11 ce bd 78 2d 40 39 45 1c b0 39 d4 ce 1a 3a
       -0.100619756 0.00018327485 0.00033590398 0.00059054536
000140 17 f2 1e 3a dc 4e 1f 3a de bf 38 3a 41 b7 04 be
       0.0006063296 0.00060771196 0.00070476334 -0.12960531
000150 2b 21 14 be 98 dd 15 be 25 cd c9 3a 76 3a 96 bd
       -0.14465778 -0.14635313 0.0015396221 -0.07335369
000160 c8 df be bd b6 9d c6 3d 0b b1 4c 3d 92 ed 74 ba
       -0.09320027 0.0969805 0.04997353 -0.0009343262
000170 ec 84 92 39 af d7 9b 39 31 11 0f 3a c0 ff a4 bd
       0.00027946325 0.000297246 0.0005457579 -0.08056593
000180 e5 0d 1f 3a b8 a0 87 bd b4 0c be bd de dd d8 39
       0.0006067439 -0.066224515 -0.09279767 0.00041364034
000190 4c 1f 8c bd 10 4c 38 be 4b ec c8 bd d3 cf d7 bd
       -0.06841907 -0.17997766 -0.09810694 -0.10537686
0001a0 55 ea b0 bd f9 26 d0 3d e3 69 3c ba 96 03 eb ba
       -0.08638445 0.101636834 -0.0007187409 -0.0017930146
0001b0 77 c9 ed bd 71 6b 09 ba 9e 9c 40 b8 83 f3 13 3a
       -0.11610692 -0.0005242145 -4.592223e-05 0.0005643891
0001c0 00 bf 38 3d 67 30 87 bd f0 95 5a be 9d b3 82 be
       0.045104027 -0.06601029 -0.21346259 -0.2552766
0001d0 2b 48 31 be 56 ec e4 bd cf 05 2f bb 37 6c f5 3d
       -0.17312686 -0.1117789 -0.0026706343 0.11983531
0001e0 78 75 ca bd ba 37 43 3d 0e 0f ea bd 31 8f 4f b9
       -0.09885687 0.047660567 -0.11428653 -0.00019794401
0001f0 d1 2a a0 3a 1e 9e 9f 3d ed ba 1b 3e da 19 20 3a
       0.0012219792 0.0779383 0.15208025 0.0006107368
000200 32 09 35 3d a1 c7 9a 3d a7 22 16 3a ef b3 ac 3a
       0.044198222 0.075576074 0.00057272095 0.0013176183
000210 0e 04 0f 3e ee 20 2e 3e 7f 10 32 3e 0c 39 1c 3e
       0.1396639 0.17004749 0.17389105 0.15256137
000220 95 bb 2a ba 30 75 8b 3d 9c 89 2f ba 71 b9 91 bd
       -0.0006512937 0.06809461 -0.00066962256 -0.07115448
000230 49 a8 25 3b 40 0d 3a 3e 41 f4 e9 3d 09 f2 e9 39
       0.0025277308 0.18169117 0.11423541 0.00044621553
000240 41 1e 1f 3a 71 e0 1d 3a 43 d5 08 3e c0 a0 f6 3d
       0.0006069877 0.0006022519 0.13362603 0.120423794
000250 13 95 15 3e ef 48 97 3a a2 04 ab 3d 66 c0 5e 3d
       0.14607649 0.0011542122 0.08350493 0.054382704
000260 b3 6a 6f 3d 33 ee 34 3d 4f a1 83 3e 4d 4c ad 3e
       0.058451366 0.044172477 0.25709006 0.33847275
000270 3d 4a 0d 3e 95 0f 34 3e 34 e5 d7 3d 35 79 42 3d
       0.13797851 0.17584069 0.10541764 0.047478873
000280 4f 1c 1f 3a 17 18 cd 3d 24 ad 69 3e 13 05 13 3e
       0.0006069587 0.100143604 0.22819954 0.14357404
000290 31 34 90 3d 56 cc 87 3d 9a d7 e5 3b 3a f1 9f b7
       0.07041205 0.06630771 0.007014227 -1.9066607e-05
0002a0 e4 ae fd 3d eb 34 bb 3d 94 92 f5 3d c1 25 17 3e
       0.12386873 0.09140953 0.11990848 0.14760496
0002b0 af d4 3d 3d 4a 91 88 3d 9c 85 1a 3a 62 d5 56 3d
       0.04634541 0.06668337 0.0005894543 0.05244959
0002c0 57 17 1f 3a a5 d8 1e 3a dd b1 fa 3d b4 c7 2d 3d
       0.00060688466 0.0006059504 0.12240956 0.04242678
0002d0 10 0d 12 3e f8 d9 be 3a ce cf 1b b8 82 7e df 3c
       0.14262795 0.0014560809 -3.7148413e-05 0.027282003
0002e0 ec 9c 13 3e 60 f5 e3 3d ed d3 8d 3d 3f e5 86 3d
       0.1441533 0.11130786 0.06925187 0.06586694
0002f0 6b d9 bb 3a 80 9a 74 3a 5d 46 39 3a ee 3b 21 3a
       0.0014331763 0.00093308836 0.0007067675 0.0006150593
000300 51 10 1f 3a 96 3f 25 3d f5 45 c1 3a ed 7c 5f bc
       0.00060678 0.040343843 0.001474558 -0.0136406245
000310 58 0a 58 36 e7 94 94 ba 58 5c 29 ba 49 32 7f ba
       3.219253e-06 -0.001133588 -0.00064605987 -0.0009734971
000320 bf 34 33 ba b1 94 62 3a 63 39 f8 bd 32 f3 22 bd
       -0.0006836168 0.00086433726 -0.12120321 -0.03978271
000330 80 ca 7a 3b eb b7 0d be 1a a6 89 bd a1 f1 1f 3a
       0.0038267672 -0.1383969 -0.067211345 0.0006101374
000340 c4 07 1f 3a a9 73 72 3a 60 64 0b 3b 57 8b 91 bd
       0.0006066526 0.0009248802 0.0021269545 -0.07106655
000350 4f 61 11 bd c9 c6 f1 3d 1a be 79 37 9a b2 bf bd
       -0.03549319 0.118054934 1.4885818e-05 -0.093602374
000360 bc 6b 14 bd a5 6f d4 bd 7e ba c5 be ee b2 3f be
       -0.036235556 -0.10372857 -0.38618845 -0.187206
000370 c5 c7 e8 bd 70 10 30 be a8 61 3c 3a 80 9b 20 3a
       -0.11366228 -0.1719377 0.0007186183 0.0006126687
000380 40 13 7e 3d 4b 54 5c 3d dd 36 29 3d 14 4e e2 39
       0.062030077 0.053791326 0.041312087 0.00043164252
000390 ad a9 4b be 90 31 5d be ce 52 1c be cb 13 04 be
       -0.19888945 -0.21600938 -0.15265962 -0.12898175
0003a0 a9 68 10 be d4 e8 e0 bd 06 48 21 be 2f bd 06 be
       -0.14102425 -0.109819084 -0.15750131 -0.13158105
0003b0 cd 1b c2 bd 3c 02 38 3a 15 18 1f 3a d7 27 1f 3a
       -0.09477959 0.0007019376 0.0006068957 0.0006071305
0003c0 b0 07 1f 3a b0 07 1f 3a 2a 15 1f 3a 9c f8 1e 3a
       0.0006066514 0.0006066514 0.00060685223 0.00060642674
0003d0 78 5d 13 3a c1 fc 12 3a 8c 59 95 bd 26 45 1c be
       0.0005621533 0.0005607121 -0.0729247 -0.15260753
0003e0 07 b2 ec bd 7c fa 36 3a 97 90 87 bd e7 1d 1f 3a
       -0.115573935 0.0006980074 -0.06619375 0.00060698244
0003f0 ea b3 1e 3a 4f 2b 1f 3a dd 09 1f 3a 0b 09 1f 3a
       0.0006054031 0.0006071822 0.00060668384 0.0006066716

fc1.mask f4 [64, 256]
000000 00 00 00 00 00 00 80 3f 00 00 00 00 00 00 00 00
       0.0 1.0 0.0 0.0
000010 00 00 00 00 00 00 00 00 00 00 80 3f 00 00 80 3f
       0.0 0.0 1.0 1.0
000020 00 00 80 3f 00 00 00 00 00 00 00 00 00 00 00 00
       1.0 0.0 0.0 0.0
000030 00 00 00 00 00 00 80 3f 00 00 80 3f 00 00 00 00
       0.0 1.0 1.0 0.0
000040 00 00 00 00 00 00 00 00 00 00 00 00 00 00 80 3f
       0.0 0.0 0.0 1.0
000050 00 00 00 00 00 00 80 3f 00 00 80 3f 00 00 00 00
       0.0 1.0 1.0 0.0
000060 00 00 00 00 00 00 80 3f 00 00 80 3f 00 00 00 00
       0.0 1.0 1.0 0.0
000070 00 00 00 00 00 00 80 3f 00 00 00 00 00 00 00 00
       0.0 1.0 0.0 0.0
000080 00 00 00 00 00 00 00 00 00 00 00 00 00 00 00 00
       0.0 0.0 0.0 0.0
000090 00 00 00 00 00 00 80 3f 00 00 80 3f 00 00 00 00
       0.0 1.0 1.0 0.0
0000a0 00 00 00 00 00 00 00 00 00 00 00 00 00 00 00 00
       0.0 0.0 0.0 0.0
0000b0 00 00 00 00 00 00 80 3f 00 00 00 00 00 00 00 00
       0.0 1.0 0.0 0.0
0000c0 00 00 80 3f 00 00 80 3f 00 00 80 3f 00 00 00 00
       1.0 1.0 1.0 0.0
0000d0 00 00 80 3f 00 00 80 3f 00 00 80 3f 00 00 80 3f
       1.0 1.0 1.0 1.0
0000e0 00 00 80 3f 00 00 80 3f 00 00 80 3f 00 00 80 3f
       1.0 1.0 1.0 1.0
0000f0 00 00 80 3f 00 00 00 00 00 00 00 00 00 00 00 00
       1.0 0.0 0.0 0.0
000100 00 00 80 3f 00 00 00 00 00 00 00 00 00 00 80 3f
       1.0 0.0 0.0 1.0
000110 00 00 80 3f 00 00 00 00 00 00 00 00 00 00 00 00
       1.0 0.0 0.0 0.0
000120 00 00 80 3f 00 00 80 3f 00 00 80 3f 00 00 80 3f
       1.0 1.0 1.0 1.0
000130 00 00 80 3f 00 00 00 00 00 00 00 00 00 00 00 00
       1.0 0.0 0.0 0.0
000140 00 00 00 00 00 00 00 00 00 00 00 00 00 00 80 3f
       0.0 0.0 0.0 1.0
000150 00 00 80 3f 00 00 80 3f 00 00 00 00 00 00 80 3f
       1.0 1.0 0.0 1.0
000160 00 00 80 3f 00 00 80 3f 00 00 80 3f 00 00 00 00
       1.0 1.0 1.0 0.0
000170 00 00 00 00 00 00 00 00 00 00 00 00 00 00 80 3f
       0.0 0.0 0.0 1.0
000180 00 00 00 00 00 00 80 3f 00 00 80 3f 00 00 00 00
       0.0 1.0 1.0 0.0
000190 00 00 80 3f 00 00 80 3f 00 00 80 3f 00 00 80 3f
       1.0 1.0 1.0 1.0
0001a0 00 00 80 3f 00 00 80 3f 00 00 00 00 00 00 00 00
       1.0 1.0 0.0 0.0
0001b0 00 00 80 3f 00 00 00 00 00 00 00 00 00 00 00 00
       1.0 0.0 0.0 0.0
0001c0 00 00 80 3f 00 00 80 3f 00 00 80 3f 00 00 80 3f
       1.0 1.0 1.0 1.0
0001d0 00 00 80 3f 00 00 80 3f 00 00 00 00 00 00 80 3f
       1.0 1.0 0.0 1.0
0001e0 00 00 80 3f 00 00 80 3f 00 00 80 3f 00 00 00 00
       1.0 1.0 1.0 0.0
0001f0 00 00 00 00 00 00 80 3f 00 00 80 3f 00 00 00 00
       0.0 1.0 1.0 0.0
000200 00 00 80 3f 00 00 80 3f 00 00 00 00 00 00 00 00
       1.0 1.0 0.0 0.0
000210 00 00 80 3f 00 00 80 3f 00 00 80 3f 00 00 80 3f
       1.0 1.0 1.0 1.0
000220 00 00 00 00 00 00 80 3f 00 00 00 00 00 00 80 3f
       0.0 1.0 0.0 1.0
000230 00 00 00 00 00 00 80 3f 00 00 80 3f 00 00 00 00
       0.0 1.0 1.0 0.0
000240 00 00 00 00 00 00 00 00 00 00 80 3f 00 00 80 3f
       0.0 0.0 1.0 1.0
000250 00 00 80 3f 00 00 00 00 00 00 80 3f 00 00 80 3f
       1.0 0.0 1.0 1.0
000260 00 00 80 3f 00 00 80 3f 00 00 80 3f 00 00 80 3f
       1.0 1.0 1.0 1.0
000270 00 00 80 3f 00 00 80 3f 00 00 80 3f 00 00 80 3f
       1.0 1.0 1.0 1.0
000280 00 00 00 00 00 00 80 3f 00 00 80 3f 00 00 80 3f
       0.0 1.0 1.0 1.0
000290 00 00 80 3f 00 00 80 3f 00 00 80 3f 00 00 00 00
       1.0 1.0 1.0 0.0
0002a0 00 00 80 3f 00 00 80 3f 00 00 80 3f 00 00 80 3f
       1.0 1.0 1.0 1.0
0002b0 00 00 80 3f 00 00 80 3f 00 00 00 00 00 00 80 3f
       1.0 1.0 0.0 1.0
0002c0 00 00 00 00 00 00 00 00 00 00 80 3f 00 00 80 3f
       0.0 0.0 1.0 1.0
0002d0 00 00 80 3f 00 00 00 00 00 00 00 00 00 00 80 3f
       1.0 0.0 0.0 1.0
0002e0 00 00 80 3f 00 00 80 3f 00 00 80 3f 00 00 80 3f
       1.0 1.0 1.0 1.0
0002f0 00 00 00 00 00 00 00 00 00 00 00 00 00 00 00 00
       0.0 0.0 0.0 0.0
000300 00 00 00 00 00 00 80 3f 00 00 00 00 00 00 80 3f
       0.0 1.0 0.0 1.0
000310 00 00 00 00 00 00 00 00 00 00 00 00 00 00 00 00
       0.0 0.0 0.0 0.0
000320 00 00 00 00 00 00 00 00 00 00 80 3f 00 00 80 3f
       0.0 0.0 1.0 1.0
000330 00 00 00 00 00 00 80 3f 00 00 80 3f 00 00 00 00
       0.0 1.0 1.0 0.0
000340 00 00 00 00 00 00 00 00 00 00 00 00 00 00 80 3f
       0.0 0.0 0.0 1.0
000350 00 00 80 3f 00 00 80 3f 00 00 00 00 00 00 80 3f
       1.0 1.0 0.0 1.0
000360 00 00 80 3f 00 00 80 3f 00 00 80 3f 00 00 80 3f
       1.0 1.0 1.0 1.0
000370 00 00 80 3f 00 00 80 3f 00 00 00 00 00 00 00 00
       1.0 1.0 0.0 0.0
000380 00 00 80 3f 00 00 80 3f 00 00 80 3f 00 00 00 00
       1.0 1.0 1.0 0.0
000390 00 00 80 3f 00 00 80 3f 00 00 80 3f 00 00 80 3f
       1.0 1.0 1.0 1.0
0003a0 00 00 80 3f 00 00 80 3f 00 00 80 3f 00 00 80 3f
       1.0 1.0 1.0 1.0
0003b0 00 00 80 3f 00 00 00 00 00 00 00 00 00 00 00 00
       1.0 0.0 0.0 0.0
0003c0 00 00 00 00 00 00 00 00 00 00 00 00 00 00 00 00
       0.0 0.0 0.0 0.0
0003d0 00 00 00 00 00 00 00 00 00 00 80 3f 00 00 80 3f
       0.0 0.0 1.0 1.0
0003e0 00 00 80 3f 00 00 00 00 00 00 80 3f 00 00 00 00
       1.0 0.0 1.0 0.0
0003f0 00 00 00 00 00 00 00 00 00 00 00 00 00 00 00 00
       0.0 0.0 0.0 0.0

fc2.weight f4 [64, 64]
000000 76 9a 57 3e d2 d3 e5 3c 16 57 e3 3c 02 a4 3a be
       0.21055016 0.028055105 0.027751487 -0.18226627
000010 3f 9d ac be a7 4d 5b be 5b bf 47 be 42 a2 f5 3c
       -0.3371372 -0.21416341 -0.1950659 0.029984597
000020 4d b2 d2 3d 72 91 95 be 36 b1 62 3e 3f 88 87 3e
       0.102879144 -0.29212528 0.22137913 0.26471135
000030 8f 30 a5 bc 72 38 ad be 57 2e 18 3e b9 9b 79 be
       -0.020164756 -0.33832127 0.14861427 -0.2437581
000040 91 d4 1a bd 20 93 f6 3c f5 01 ab be da 66 bc bd
       -0.037800375 0.030099452 -0.3339993 -0.09199305
000050 7d 40 64 be 86 5d 75 3d 8c f8 f2 bc 2f c3 ee 3c
       -0.22290225 0.059903644 -0.029659532 0.029145805
000060 5b dd b8 be e7 bb 61 3c d6 58 05 3e f2 a2 88 3d
       -0.3610638 0.01377771 0.1302217 0.06671704
000070 fc d7 90 be f8 d1 bf bc 60 ae c4 bd a7 b9 19 3e
       -0.28289783 -0.02341555 -0.09603572 0.15012227
000080 06 c7 18 3e fb e6 be bd 20 30 1a be b0 97 63 3d
       0.14919671 -0.093214 -0.1505742 0.055564582
000090 3f fa b0 be 90 a8 06 3e e6 c0 a7 3d 8e 90 7c be
       -0.34565923 0.13150239 0.08191089 -0.24664518
0000a0 4d 2a 31 3e 04 cf d4 bd 71 17 1a be 22 1c 06 3e
       0.17301293 -0.103910476 -0.15048005 0.1309667
0000b0 14 7d fc 3d 89 40 1a be f1 33 5b 3d 50 c4 b7 bd
       0.12328544 -0.1506368 0.053516332 -0.089729905
0000c0 d5 b4 08 3e e7 5a af 3e 93 7d 69 3e 1c 67 5c be
       0.13350232 0.3424904 0.22801809 -0.21523708
0000d0 46 ea b8 bd e0 06 4b 3e 42 df ba 3d 1f f2 29 bd
       -0.09029059 0.19826841 0.09124614 -0.04149067
0000e0 f5 25 f4 3b 53 1a ce bd b9 f5 de bd 7b 57 5c be
       0.007450814 -0.10063615 -0.108867116 -0.21517746
0000f0 83 32 7e bd 37 aa 25 3e 3c ee ac bc d5 a6 f4 bc
       -0.06205989 0.16178213 -0.021109693 -0.029864708
000100 5c 5b ac 3d 2b 46 0e be db 87 f0 3b bd 0c 84 bd
       0.08415863 -0.13893954 0.007340414 -0.06447742
000110 a1 40 48 3e 89 fc c5 bc ba f0 e1 bd d6 af b6 bd
       0.19555904 -0.02416827 -0.11032243 -0.08920257
000120 d9 64 59 3e 7b 2e 80 bd a7 e2 b8 bd 40 f0 30 be
       0.21229877 -0.062588654 -0.090276055 -0.17279148
000130 8d 6f f6 bc 17 61 4a bd a6 bc 86 be ef da 8e 3d
       -0.030082488 -0.049409 -0.26315802 0.06975352
000140 b2 b5 89 3e 06 13 52 3e f3 08 a6 bd 9e 8c 2e be
       0.26896435 0.2051507 -0.08107176 -0.17045829
000150 69 25 f1 3c fc 77 f6 3c 38 b6 08 bd 32 4e 2b 3d
       0.029436784 0.03008651 -0.033376902 0.04182262
000160 11 51 b5 3d 91 4e 57 be 82 6c 9b bd fa 79 9c 3d
       0.08853353 -0.21026064 -0.075890556 0.07640453
000170 25 41 92 bd 81 a1 74 3d f5 ba 4a bd 8e 73 12 ba
       -0.071413316 0.059724335 -0.049494702 -0.0005586677
000180 4d bb 2f 3b c6 ce 98 bd 71 de de 3d dc e0 01 3e
       0.002681452 -0.07461314 0.10882271 0.12683433
000190 71 70 6d 3e 02 9a 19 3c 58 84 4a bd 92 cc e4 3c
       0.23187424 0.009375097 -0.04944262 0.027929578
0001a0 dd aa 31 3e 67 2d a8 bb 99 90 15 be 4f 67 8a 3d
       0.17350335 -0.0051323655 -0.14605941 0.06757986
0001b0 ac 31 86 3d a4 e9 a8 bd 10 fe b1 bd 36 0a 44 3d
       0.06552443 -0.082476884 -0.08691037 0.0478613
0001c0 25 29 07 be ef 66 46 be dd 3b 28 be d0 63 48 3e
       -0.13199289 -0.19375204 -0.16429086 0.19569325
0001d0 ce c7 5e 3d cf 4c 40 3c 6e 6f c0 bc 4c 47 07 3e
       0.054389767 0.011737063 -0.023490634 0.13210791
0001e0 b7 18 1a 3e 53 a2 5b be bf 83 2c bd 5a 6f 0c bd
       0.1504849 -0.2144864 -0.04211783 -0.03428588
0001f0 de d5 d5 bd 29 45 cf be 58 ab 70 bd 7e ce a8 3d
       -0.104411826 -0.40482453 -0.058757156 0.0824251
000200 94 9a fa 3d 5e df 91 3b 53 69 16 bd 45 bc ad 3d
       0.12236515 0.0044516763 -0.03672154 0.08483175
000210 25 8c 87 3d ea ec ef bd ff 61 1a 3e 4c d4 1e 3e
       0.06618527 -0.1171511 0.15076445 0.15510672
000220 64 11 c2 bd 9e 5f 11 3e 40 5b 5f 3b 72 76 48 3d
       -0.09475973 0.14196631 0.003408149 0.048941083
000230 e4 fa f6 bd 2d 0e f7 bd 45 e7 12 be f6 ab 0b 3d
       -0.12059572 -0.12063251 -0.14346035 0.03409954
000240 18 33 ea bc 55 eb b8 bd 20 8e f6 3c f6 e4 f4 3d
       -0.028588817 -0.09029261 0.030097067 0.11957733
000250 df 96 06 be d3 59 a4 be 37 2a 97 be 94 8a a9 3e
       -0.1314349 -0.3209978 -0.29524395 0.3311354
000260 e9 c0 84 bd 9e 19 8f 3e 90 37 5c 3e c3 cf 3f bd
       -0.06482107 0.27949232 0.2150557 -0.046828996
000270 07 1a 19 3e ca e1 b4 be 3d 1b e1 bd 5d 9e a9 be
       0.14951335 -0.35328513 -0.109915234 -0.33128634
000280 a8 a5 b2 bd 31 eb b8 3d a4 33 bf 3e 31 05 0a 3e
       -0.08723003 0.09029234 0.37344086 0.13478543
000290 ce 5a 90 be 48 61 b8 3d 6d d4 ba be d1 ea 19 be
       -0.28194278 0.0900293 -0.36490193 -0.15030982
0002a0 2f ab 3e be da 5e 3b bd 5a 5f 11 bd fd 60 1b 3e
       -0.18619989 -0.045744754 -0.035491325 0.15173717
0002b0 e9 f3 f5 3c de 6b e9 bd 9c 4d 09 be f8 c4 f8 bb
       0.030023532 -0.11397527 -0.13408512 -0.00759184
0002c0 d4 28 02 be c6 85 a9 3e dd d2 9b bd 9e 49 c9 3c
       -0.12710887 0.33109874 -0.07608578 0.024571236
0002d0 dd 52 f1 3c e7 65 21 be 39 ae f7 3d b3 8e af bd
       0.029458458 -0.15761529 0.12093777 -0.085721396
0002e0 0c 24 cd b9 ef 08 02 be 56 b0 1b 3d ea 13 8a be
       -0.00039127504 -0.1269872 0.038009964 -0.26968318
0002f0 c1 df 96 3d ad 28 38 3c f8 1b 24 be 50 0a a9 be
       0.073668964 0.011240167 -0.16026294 -0.3301568
000300 6e f9 12 be 5a e9 b8 3d b8 ac a5 bd e1 fa a1 bd
       -0.14352962 0.09028883 -0.08089584 -0.079091795
000310 00 d6 b8 3d a8 56 87 bd a5 fa 18 be 96 97 08 be
       0.09025192 -0.06608325 -0.14939363 -0.13339075
000320 5f 21 54 3e e1 26 1a be 26 e5 ae 3d e8 9e 86 3c
       0.20715855 -0.15053894 0.085398 0.016433194
000330 c8 2f f6 3d 4f 9b b7 3d 1e 3d 9b bd 47 dd b9 3d
       0.12020832 0.0896517 -0.075800166 0.090754084
000340 6d 15 b0 ba 80 80 0e 3e f2 84 40 3c 6c 77 04 be
       -0.001343412 0.13916206 0.011750447 -0.12936181
000350 27 57 bc 3d 7a 5a 9a 3d f8 ab 2c be dd 4f 85 3d
       0.091963105 0.07536788 -0.16862476 0.06509373
000360 87 29 6a bd 02 8c 1a bd ad 5b 1e 3d 97 88 0b 3e
       -0.05716851 -0.037731178 0.038661648 0.13626324
000370 5b 3f f6 bc 1c c9 24 3e 74 ca bf be 25 6b f6 3c
       -0.030059507 0.16092342 -0.37459147 0.030080387
000380 74 0d e8 3c d6 fc cb 3d f2 cb 27 be c5 71 a1 bd
       0.028326727 0.09960334 -0.16386393 -0.07883028
000390 6c d3 09 3e 65 3d b9 3d fa d0 8f 3d b2 70 55 3e
       0.13459557 0.09044913 0.07022281 0.20843771
0003a0 70 34 b5 bd e7 a4 d7 bb b0 0c 6f be f0 02 0b bd
       -0.08847892 -0.006580937 -0.23344684 -0.03393835
0003b0 e3 fb e1 bd 1b 86 20 bd 4c 93 fb 3d ac c7 b8 bd
       -0.11034372 -0.039190393 0.12283954 -0.090224594
0003c0 f1 b7 95 bd 95 71 c9 bd 22 47 f6 3d dc 05 1e 3c
       -0.07310475 -0.09836117 0.12025286 0.009644952
0003d0 69 18 34 be 44 86 03 be 42 03 1b 3e 19 6c 3f bd
       -0.17587437 -0.12844187 0.15137962 -0.04673395
0003e0 c0 bc a1 3d f5 ff a1 bd cf 3e b5 3d 75 0d c9 3c
       0.07897329 -0.07910148 0.088498704 0.02454255
0003f0 a2 30 1d 3e ac 7e 44 bd 7a ee fb 3d 9b f8 14 be
       0.15350583 -0.047972366 0.12301345 -0.1454796

fc2.mask f4 [64, 64]
000000 00 00 80 3f 00 00 80 3f 00 00 80 3f 00 00 80 3f
       1.0 1.0 1.0 1.0
000010 00 00 80 3f 00 00 80 3f 00 00 80 3f 00 00 80 3f
       1.0 1.0 1.0 1.0
000020 00 00 80 3f 00 00 80 3f 00 00 80 3f 00 00 80 3f
       1.0 1.0 1.0 1.0
000030 00 00 80 3f 00 00 80 3f 00 00 80 3f 00 00 80 3f
       1.0 1.0 1.0 1.0
000040 00 00 80 3f 00 00 80 3f 00 00 80 3f 00 00 80 3f
       1.0 1.0 1.0 1.0
000050 00 00 80 3f 00 00 80 3f 00 00 80 3f 00 00 80 3f
       1.0 1.0 1.0 1.0
000060 00 00 80 3f 00 00 80 3f 00 00 80 3f 00 00 80 3f
       1.0 1.0 1.0 1.0
000070 00 00 80 3f 00 00 80 3f 00 00 80 3f 00 00 80 3f
       1.0 1.0 1.0 1.0
000080 00 00 80 3f 00 00 80 3f 00 00 80 3f 00 00 80 3f
       1.0 1.0 1.0 1.0
000090 00 00 80 3f 00 00 80 3f 00 00 80 3f 00 00 80 3f
       1.0 1.0 1.0 1.0
0000a0 00 00 80 3f 00 00 80 3f 00 00 80 3f 00 00 80 3f
       1.0 1.0 1.0 1.0
0000b0 00 00 80 3f 00 00 80 3f 00 00 80 3f 00 00 80 3f
       1.0 1.0 1.0 1.0
0000c0 00 00 80 3f 00 00 80 3f 00 00 80 3f 00 00 80 3f
       1.0 1.0 1.0 1.0
0000d0 00 00 80 3f 00 00 80 3f 00 00 80 3f 00 00 80 3f
       1.0 1.0 1.0 1.0
0000e0 00 00 80 3f 00 00 80 3f 00 00 80 3f 00 00 80 3f
       1.0 1.0 1.0 1.0
0000f0 00 00 80 3f 00 00 80 3f 00 00 80 3f 00 00 80 3f
       1.0 1.0 1.0 1.0
000100 00 00 80 3f 00 00 80 3f 00 00 80 3f 00 00 80 3f
       1.0 1.0 1.0 1.0
000110 00 00 80 3f 00 00 80 3f 00 00 80 3f 00 00 80 3f
       1.0 1.0 1.0 1.0
000120 00 00 80 3f 00 00 80 3f 00 00 80 3f 00 00 80 3f
       1.0 1.0 1.0 1.0
000130 00 00 80 3f 00 00 80 3f 00 00 80 3f 00 00 80 3f
       1.0 1.0 1.0 1.0
000140 00 00 80 3f 00 00 80 3f 00 00 80 3f 00 00 80 3f
       1.0 1.0 1.0 1.0
000150 00 00 80 3f 00 00 80 3f 00 00 80 3f 00 00 80 3f
       1.0 1.0 1.0 1.0
000160 00 00 80 3f 00 00 80 3f 00 00 80 3f 00 00 80 3f
       1.0 1.0 1.0 1.0
000170 00 00 80 3f 00 00 80 3f 00 00 80 3f 00 00 80 3f
       1.0 1.0 1.0 1.0
000180 00 00 80 3f 00 00 80 3f 00 00 80 3f 00 00 80 3f
       1.0 1.0 1.0 1.0
000190 00 00 80 3f 00 00 80 3f 00 00 80 3f 00 00 80 3f
       1.0 1.0 1.0 1.0
0001a0 00 00 80 3f 00 00 80 3f 00 00 80 3f 00 00 80 3f
       1.0 1.0 1.0 1.0
0001b0 00 00 80 3f 00 00 80 3f 00 00 80 3f 00 00 80 3f
       1.0 1.0 1.0 1.0
0001c0 00 00 80 3f 00 00 80 3f 00 00 80 3f 00 00 80 3f
       1.0 1.0 1.0 1.0
0001d0 00 00 80 3f 00 00 80 3f 00 00 80 3f 00 00 80 3f
       1.0 1.0 1.0 1.0
0001e0 00 00 80 3f 00 00 80 3f 00 00 80 3f 00 00 80 3f
       1.0 1.0 1.0 1.0
0001f0 00 00 80 3f 00 00 80 3f 00 00 80 3f 00 00 80 3f
       1.0 1.0 1.0 1.0
000200 00 00 80 3f 00 00 80 3f 00 00 80 3f 00 00 80 3f
       1.0 1.0 1.0 1.0
000210 00 00 80 3f 00 00 80 3f 00 00 80 3f 00 00 80 3f
       1.0 1.0 1.0 1.0
000220 00 00 80 3f 00 00 80 3f 00 00 80 3f 00 00 80 3f
       1.0 1.0 1.0 1.0
000230 00 00 80 3f 00 00 80 3f 00 00 80 3f 00 00 80 3f
       1.0 1.0 1.0 1.0
000240 00 00 80 3f 00 00 80 3f 00 00 80 3f 00 00 80 3f
       1.0 1.0 1.0 1.0
000250 00 00 80 3f 00 00 80 3f 00 00 80 3f 00 00 80 3f
       1.0 1.0 1.0 1.0
000260 00 00 80 3f 00 00 80 3f 00 00 80 3f 00 00 80 3f
       1.0 1.0 1.0 1.0
000270 00 00 80 3f 00 00 80 3f 00 00 80 3f 00 00 80 3f
       1.0 1.0 1.0 1.0
000280 00 00 80 3f 00 00 80 3f 00 00 80 3f 00 00 80 3f
       1.0 1.0 1.0 1.0
000290 00 00 80 3f 00 00 80 3f 00 00 80 3f 00 00 80 3f
       1.0 1.0 1.0 1.0
0002a0 00 00 80 3f 00 00 80 3f 00 00 80 3f 00 00 80 3f
       1.0 1.0 1.0 1.0
0002b0 00 00 80 3f 00 00 80 3f 00 00 80 3f 00 00 80 3f
       1.0 1.0 1.0 1.0
0002c0 00 00 80 3f 00 00 80 3f 00 00 80 3f 00 00 80 3f
       1.0 1.0 1.0 1.0
0002d0 00 00 80 3f 00 00 80 3f 00 00 80 3f 00 00 80 3f
       1.0 1.0 1.0 1.0
0002e0 00 00 80 3f 00 00 80 3f 00 00 80 3f 00 00 80 3f
       1.0 1.0 1.0 1.0
0002f0 00 00 80 3f 00 00 80 3f 00 00 80 3f 00 00 80 3f
       1.0 1.0 1.0 1.0
000300 00 00 80 3f 00 00 80 3f 00 00 80 3f 00 00 80 3f
       1.0 1.0 1.0 1.0
000310 00 00 80 3f 00 00 80 3f 00 00 80 3f 00 00 80 3f
       1.0 1.0 1.0 1.0
000320 00 00 80 3f 00 00 80 3f 00 00 80 3f 00 00 80 3f
       1.0 1.0 1.0 1.0
000330 00 00 80 3f 00 00 80 3f 00 00 80 3f 00 00 80 3f
       1.0 1.0 1.0 1.0
000340 00 00 80 3f 00 00 80 3f 00 00 80 3f 00 00 80 3f
       1.0 1.0 1.0 1.0
000350 00 00 80 3f 00 00 80 3f 00 00 80 3f 00 00 80 3f
       1.0 1.0 1.0 1.0
000360 00 00 80 3f 00 00 80 3f 00 00 80 3f 00 00 80 3f
       1.0 1.0 1.0 1.0
000370 00 00 80 3f 00 00 80 3f 00 00 80 3f 00 00 80 3f
       1.0 1.0 1.0 1.0
000380 00 00 80 3f 00 00 80 3f 00 00 80 3f 00 00 80 3f
       1.0 1.0 1.0 1.0
000390 00 00 80 3f 00 00 80 3f 00 00 80 3f 00 00 80 3f
       1.0 1.0 1.0 1.0
0003a0 00 00 80 3f 00 00 80 3f 00 00 80 3f 00 00 80 3f
       1.0 1.0 1.0 1.0
0003b0 00 00 80 3f 00 00 80 3f 00 00 80 3f 00 00 80 3f
       1.0 1.0 1.0 1.0
0003c0 00 00 80 3f 00 00 80 3f 00 00 80 3f 00 00 80 3f
       1.0 1.0 1.0 1.0
0003d0 00 00 80 3f 00 00 80 3f 00 00 80 3f 00 00 80 3f
       1.0 1.0 1.0 1.0
0003e0 00 00 80 3f 00 00 80 3f 00 00 80 3f 00 00 80 3f
       1.0 1.0 1.0 1.0
0003f0 00 00 80 3f 00 00 80 3f 00 00 80 3f 00 00 80 3f
       1.0 1.0 1.0 1.0

fc3.weight f4 [64, 64]
000000 2d e7 8b be b8 c8 43 3e 72 42 0c be 18 a6 06 3e
       -0.2732481 0.19119537 -0.13697222 0.13149297
000010 51 39 76 be 61 e3 aa 3c 3c 78 de bb bd 81 95 bd
       -0.24045302 0.020860376 -0.0067892354 -0.07300136
000020 e9 13 6f be c6 33 24 be 2c f4 87 3d 9b 18 be be
       -0.23347439 -0.16035375 0.06638369 -0.37128147
000030 28 47 23 3c 21 1a 23 be f4 58 31 3e 68 14 03 3d
       0.009965695 -0.15927936 0.17319089 0.032001883
000040 7c b6 f8 3c e9 e0 62 3e 5b 07 b2 bd 38 f7 41 be
       0.030360453 0.22156109 -0.08692809 -0.18941963
000050 6e 2b 1b be 06 a4 a3 be 5a f0 c8 bc 83 6c 09 be
       -0.15153286 -0.31961077 -0.024528671 -0.134203
000060 8a c8 83 be 6b d7 3f 3e a9 bd ad bd 47 ac 6b bb
       -0.25738937 0.18734519 -0.084834404 -0.003596084
000070 58 e5 bc 3c 74 ad c0 3d 4c 12 b5 bc 98 cc 81 be
       0.023058578 0.094080836 -0.022103451 -0.25351405
000080 b8 a7 6d 3d 8f 4f 8b be 72 eb 76 3e e0 6c 84 be
       0.058021277 -0.27209136 0.24113253 -0.25864315
000090 66 87 2b 3e 5d cb e1 3d cd d7 4c be 49 ae 11 3d
       0.16750869 0.110251166 -0.20004196 0.035566602
0000a0 c5 37 b0 3d e9 3c a6 3c 24 d0 1e 3d fd 76 09 3e
       0.08604387 0.020292716 0.038772717 0.13424297
0000b0 5c 9d 7a bd 63 8f dd 3d 09 d9 ce bd 56 3c a0 bd
       -0.061185226 0.108183645 -0.1009999 -0.07824008
0000c0 c0 00 9e 3d 09 3c 05 bd e0 21 b2 3d 4d a5 b8 bd
       0.07714987 -0.032527957 0.086978674 -0.090159036
0000d0 f6 47 5a bd 5c 5c 72 be 00 62 24 be 2f 23 3a 3e
       -0.053291284 -0.23668045 -0.16053009 0.18177484
0000e0 5b 28 17 3d 22 7b aa 3c 1a 21 d0 bd 06 4d 2a 3d
       0.03690372 0.020810667 -0.101625636 0.04157736
0000f0 23 74 99 3d dd 1c 14 3e 0c 5e 2d 3e ed 2d 57 be
       0.074928544 0.14464135 0.16930407 -0.21013613
000100 e8 e1 b3 bd aa c8 4b be 86 95 43 bd 76 d7 86 bd
       -0.087833226 -0.19900766 -0.04775002 -0.06584065
000110 83 b3 b4 be 82 a5 b8 3d c5 83 c5 be 4e 03 e4 3d
       -0.35293207 0.09015943 -0.38577095 0.11133443
000120 ed 5f 44 3d 47 8c 38 3e 98 12 68 3d 9c 11 83 be
       0.047943044 0.18022262 0.056658357 -0.25599372
000130 eb 60 6b 3d 25 4a fd bc 55 f0 b3 bd ff 4f 2e bd
       0.057465475 -0.030919144 -0.08786074 -0.04255676
000140 7c 36 84 be f8 64 be bd 97 bc 1c bf 2b ad e5 3c
       -0.25822818 -0.09296602 -0.61225265 0.028036674
000150 54 8f 86 be b6 60 82 be f6 30 07 3e d0 4e 95 3e
       -0.26281226 -0.2546441 0.13202271 0.29161692
000160 80 eb 52 3e 88 b5 a0 bb 29 68 71 be 8a ef 22 3d
       0.20597649 -0.0049044527 -0.2357489 0.039779224
000170 26 f8 05 3c 20 b8 c8 bd 85 5f f7 3d c7 4d dc 3c
       0.008176839 -0.09800744 0.12078766 0.026892556
000180 d3 b4 d9 bc 8f 4f 86 bc f1 cf 03 3e 51 bc 02 3d
       -0.026575482 -0.016395358 0.12872292 0.031917874
000190 cf a3 3a 3d fd 95 32 3e 80 87 85 3e 98 ad 8f be
       0.045566376 0.17440028 0.2607994 -0.2806213
0001a0 48 f9 8b bd 50 f8 dc 3c ac 6e 9e 3d 4d fe 83 be
       -0.06834656 0.026973873 0.07735953 -0.25779954
0001b0 b9 ae a8 bd e7 f4 3a 3e 19 d0 19 3d a8 19 a4 be
       -0.08236451 0.18257485 0.037551973 -0.32050824
0001c0 a7 4f a5 3d 42 c0 3d be 4b e3 33 bc 3b a0 4d be
       0.08071833 -0.18530372 -0.010979484 -0.20080654
0001d0 e2 72 4b 3e ea cc 78 3e d5 e6 58 3e 3c e7 72 bd
       0.19868043 0.24296919 0.21181805 -0.059302554
0001e0 a4 4a c4 bc 18 81 19 bc f8 0b 52 3e 9a 30 04 3e
       -0.023961373 -0.009369157 0.20512378 0.12909165
0001f0 fd e0 45 bd d6 ed a9 be a6 05 c9 bd 4c 42 56 bd
       -0.04831027 -0.33189267 -0.098155305 -0.05230932
000200 e4 41 18 3e a9 b2 5d bd c7 29 a1 3e f3 41 5f be
       0.14868885 -0.05412546 0.31477186 -0.21802501
000210 5b 86 9c be 6c e0 06 3d 95 15 a3 be 88 73 20 be
       -0.30571255 0.03292887 -0.31852403 -0.15669072
000220 fc 23 88 3e e8 24 29 ba 38 6b 74 3d 1c 8d 13 be
       0.26589954 -0.0006452338 0.059672564 -0.14409298
000230 a2 bf 66 bd 62 00 f0 bc 94 04 1f 3e 04 8b 34 bf
       -0.0563351 -0.029297058 0.1552909 -0.7052462
000240 87 07 01 be ed 49 a3 be dd 45 f9 bc 29 9f 03 be
       -0.12600528 -0.31892338 -0.030428821 -0.12853684
000250 14 7d 56 3e 24 9c 03 3e 1a 99 86 be 6c 48 0a be
       0.20946151 0.12852532 -0.26288682 -0.13504189
000260 7e 3a 88 3d 0a ba 21 be af 6f b5 bd a1 58 3b 3e
       0.066517815 -0.15793625 -0.088591926 0.18295528
000270 76 09 32 3d 3e e4 5f 3e 64 10 e5 be 96 af 2f be
       0.043466054 0.21864411 -0.44739068 -0.17156824
000280 ea 65 14 3e 26 9d 50 3e 49 06 06 be ff 67 e4 bd
       0.14492002 0.20372447 -0.13088335 -0.11152648
000290 d8 6d 47 bd 31 37 06 3e 75 62 ba be b2 31 fa 3c
       -0.04868874 0.13106991 -0.36403242 0.030541275
0002a0 00 46 a2 be a3 54 85 be 40 33 0e 3d 11 65 e2 bd
       -0.3169403 -0.26041135 0.034716845 -0.11054433
0002b0 08 8d 02 3d dd 03 08 be ae 36 56 3d d2 57 d8 3d
       0.03187278 -0.13282724 0.05229824 0.105636254
0002c0 88 bb b6 3d 17 0e c0 3d 7e 2f 02 be 58 ef b9 3b
       0.089224875 0.093776874 -0.1271343 0.005674284
0002d0 f3 79 fd bd af 35 81 be 92 e3 ae bd 0a b5 94 be
       -0.123767756 -0.2523627 -0.08539499 -0.29044372
0002e0 5e dd ca 3d c0 a3 89 bc 71 34 52 3d b1 85 a3 bd
       0.09905504 -0.016801715 0.051319543 -0.07984484
0002f0 94 61 ed bc 64 41 87 be 31 a1 a9 be b0 6b 0e bd
       -0.028977193 -0.26417077 -0.33130792 -0.034770668
000300 06 e4 50 be 4c 2e 43 3e 76 f7 65 3e c0 25 02 3e
       -0.20399484 0.1906063 0.2245768 0.12709713
000310 76 79 97 3d e5 17 76 bd bc 84 88 bd e8 7b b6 bd
       0.07396214 -0.06008138 -0.06665942 -0.08910352
000320 16 a2 85 be 01 5f 87 3d 9f ad 6e be 66 b6 a1 3d
       -0.26100224 0.066099174 -0.23308419 0.07896118
000330 a3 a0 14 be 8a 33 97 bd 41 fa 17 be 8a 53 fd 3d
       -0.14514403 -0.07382877 -0.14841558 0.123694494
000340 c0 73 3e be 94 b2 bb 3d 39 4f 12 3e bd 1c 8f bc
       -0.18598843 0.091649204 0.14288034 -0.017469758
000350 eb 8d d2 bd 78 d6 71 3d d3 b3 aa bc b5 fa 52 3d
       -0.10280975 0.059042424 -0.0208377 0.051508624
000360 50 ad 7c bc a7 dd 12 be 9c 2a 2b bc c3 02 cc bd
       -0.01542218 -0.14342366 -0.010447171 -0.09961464
000370 54 39 82 bd 98 d2 ba bd 51 97 36 be 8e 89 38 bd
       -0.06358591 -0.09122199 -0.1783116 -0.045053057
000380 a1 e8 09 be 26 9d f9 bd 64 3c c9 3c 6f a0 ad 3d
       -0.13467647 -0.12188177 0.02456493 0.08477866
000390 be 06 b2 3d c7 2d 0f be 90 ce b7 bc f2 9a b2 3d
       0.08692692 -0.13982306 -0.022437364 0.0872096
0003a0 38 34 2f 3d f5 c1 45 3e bf 86 04 be f4 48 66 3d
       0.04277441 0.1931227 -0.12942027 0.056221917
0003b0 69 c8 a3 3d f3 56 5e 3c db 5c 4b 3e ea 4f ab 3d
       0.079972096 0.013570535 0.1985964 0.08364852
0003c0 1c ea 3d be 1b 01 85 bd 4c 85 4d be 35 5a 10 be
       -0.18546337 -0.064943515 -0.2007038 -0.14096911
0003d0 7e 1f 0e 3e 5c 0b b2 bd 94 df 36 be 02 8d 0a bd
       0.13879201 -0.08693573 -0.17858726 -0.03382588
0003e0 26 d8 13 3d 46 37 14 3e fb 2e 50 be ee 67 09 be
       0.036094807 0.1447421 -0.20330422 -0.13418552
0003f0 9e 30 cc 3d 91 73 21 bd c1 b3 3f 3e f3 4a 0f 3e
       0.099702105 -0.039416853 0.18720914 0.13993435

fc3.mask f4 [64, 64]
000000 00 00 80 3f 00 00 80 3f 00 00 80 3f 00 00 80 3f
       1.0 1.0 1.0 1.0
000010 00 00 80 3f 00 00 80 3f 00 00 80 3f 00 00 80 3f
       1.0 1.0 1.0 1.0
000020 00 00 80 3f 00 00 80 3f 00 00 80 3f 00 00 80 3f
       1.0 1.0 1.0 1.0
000030 00 00 80 3f 00 00 80 3f 00 00 80 3f 00 00 80 3f
       1.0 1.0 1.0 1.0
000040 00 00 80 3f 00 00 80 3f 00 00 80 3f 00 00 80 3f
       1.0 1.0 1.0 1.0
000050 00 00 80 3f 00 00 80 3f 00 00 80 3f 00 00 80 3f
       1.0 1.0 1.0 1.0
000060 00 00 80 3f 00 00 80 3f 00 00 80 3f 00 00 80 3f
       1.0 1.0 1.0 1.0
000070 00 00 80 3f 00 00 80 3f 00 00 80 3f 00 00 80 3f
       1.0 1.0 1.0 1.0
000080 00 00 80 3f 00 00 80 3f 00 00 80 3f 00 00 80 3f
       1.0 1.0 1.0 1.0
000090 00 00 80 3f 00 00 80 3f 00 00 80 3f 00 00 80 3f
       1.0 1.0 1.0 1.0
0000a0 00 00 80 3f 00 00 80 3f 00 00 80 3f 00 00 80 3f
       1.0 1.0 1.0 1.0
0000b0 00 00 80 3f 00 00 80 3f 00 00 80 3f 00 00 80 3f
       1.0 1.0 1.0 1.0
0000c0 00 00 80 3f 00 00 80 3f 00 00 80 3f 00 00 80 3f
       1.0 1.0 1.0 1.0
0000d0 00 00 80 3f 00 00 80 3f 00 00 80 3f 00 00 80 3f
       1.0 1.0 1.0 1.0
0000e0 00 00 80 3f 00 00 80 3f 00 00 80 3f 00 00 80 3f
       1.0 1.0 1.0 1.0
0000f0 00 00 80 3f 00 00 80 3f 00 00 80 3f 00 00 80 3f
       1.0 1.0 1.0 1.0
000100 00 00 80 3f 00 00 80 3f 00 00 80 3f 00 00 80 3f
       1.0 1.0 1.0 1.0
000110 00 00 80 3f 00 00 80 3f 00 00 80 3f 00 00 80 3f
       1.0 1.0 1.0 1.0
000120 00 00 80 3f 00 00 80 3f 00 00 80 3f 00 00 80 3f
       1.0 1.0 1.0 1.0
000130 00 00 80 3f 00 00 80 3f 00 00 80 3f 00 00 80 3f
       1.0 1.0 1.0 1.0
000140 00 00 80 3f 00 00 80 3f 00 00 80 3f 00 00 80 3f
       1.0 1.0 1.0 1.0
000150 00 00 80 3f 00 00 80 3f 00 00 80 3f 00 00 80 3f
       1.0 1.0 1.0 1.0
000160 00 00 80 3f 00 00 80 3f 00 00 80 3f 00 00 80 3f
       1.0 1.0 1.0 1.0
000170 00 00 80 3f 00 00 80 3f 00 00 80 3f 00 00 80 3f
       1.0 1.0 1.0 1.0
000180 00 00 80 3f 00 00 80 3f 00 00 80 3f 00 00 80 3f
       1.0 1.0 1.0 1.0
000190 00 00 80 3f 00 00 80 3f 00 00 80 3f 00 00 80 3f
       1.0 1.0 1.0 1.0
0001a0 00 00 80 3f 00 00 80 3f 00 00 80 3f 00 00 80 3f
       1.0 1.0 1.0 1.0
0001b0 00 00 80 3f 00 00 80 3f 00 00 80 3f 00 00 80 3f
       1.0 1.0 1.0 1.0
0001c0 00 00 80 3f 00 00 80 3f 00 00 80 3f 00 00 80 3f
       1.0 1.0 1.0 1.0
0001d0 00 00 80 3f 00 00 80 3f 00 00 80 3f 00 00 80 3f
       1.0 1.0 1.0 1.0
0001e0 00 00 80 3f 00 00 80 3f 00 00 80 3f 00 00 80 3f
       1.0 1.0 1.0 1.0
0001f0 00 00 80 3f 00 00 80 3f 00 00 80 3f 00 00 80 3f
       1.0 1.0 1.0 1.0
000200 00 00 80 3f 00 00 80 3f 00 00 80 3f 00 00 80 3f
       1.0 1.0 1.0 1.0
000210 00 00 80 3f 00 00 80 3f 00 00 80 3f 00 00 80 3f
       1.0 1.0 1.0 1.0
000220 00 00 80 3f 00 00 80 3f 00 00 80 3f 00 00 80 3f
       1.0 1.0 1.0 1.0
000230 00 00 80 3f 00 00 80 3f 00 00 80 3f 00 00 80 3f
       1.0 1.0 1.0 1.0
000240 00 00 80 3f 00 00 80 3f 00 00 80 3f 00 00 80 3f
       1.0 1.0 1.0 1.0
000250 00 00 80 3f 00 00 80 3f 00 00 80 3f 00 00 80 3f
       1.0 1.0 1.0 1.0
000260 00 00 80 3f 00 00 80 3f 00 00 80 3f 00 00 80 3f
       1.0 1.0 1.0 1.0
000270 00 00 80 3f 00 00 80 3f 00 00 80 3f 00 00 80 3f
       1.0 1.0 1.0 1.0
000280 00 00 80 3f 00 00 80 3f 00 00 80 3f 00 00 80 3f
       1.0 1.0 1.0 1.0
000290 00 00 80 3f 00 00 80 3f 00 00 80 3f 00 00 80 3f
       1.0 1.0 1.0 1.0
0002a0 00 00 80 3f 00 00 80 3f 00 00 80 3f 00 00 80 3f
       1.0 1.0 1.0 1.0
0002b0 00 00 80 3f 00 00 80 3f 00 00 80 3f 00 00 80 3f
       1.0 1.0 1.0 1.0
0002c0 00 00 80 3f 00 00 80 3f 00 00 80 3f 00 00 80 3f
       1.0 1.0 1.0 1.0
0002d0 00 00 80 3f 00 00 80 3f 00 00 80 3f 00 00 80 3f
       1.0 1.0 1.0 1.0
0002e0 00 00 80 3f 00 00 80 3f 00 00 80 3f 00 00 80 3f
       1.0 1.0 1.0 1.0
0002f0 00 00 80 3f 00 00 80 3f 00 00 80 3f 00 00 80 3f
       1.0 1.0 1.0 1.0
000300 00 00 80 3f 00 00 80 3f 00 00 80 3f 00 00 80 3f
       1.0 1.0 1.0 1.0
000310 00 00 80 3f 00 00 80 3f 00 00 80 3f 00 00 80 3f
       1.0 1.0 1.0 1.0
000320 00 00 80 3f 00 00 80 3f 00 00 80 3f 00 00 80 3f
       1.0 1.0 1.0 1.0
000330 00 00 80 3f 00 00 80 3f 00 00 80 3f 00 00 80 3f
       1.0 1.0 1.0 1.0
000340 00 00 80 3f 00 00 80 3f 00 00 80 3f 00 00 80 3f
       1.0 1.0 1.0 1.0
000350 00 00 80 3f 00 00 80 3f 00 00 80 3f 00 00 80 3f
       1.0 1.0 1.0 1.0
000360 00 00 80 3f 00 00 80 3f 00 00 80 3f 00 00 80 3f
       1.0 1.0 1.0 1.0
000370 00 00 80 3f 00 00 80 3f 00 00 80 3f 00 00 80 3f
       1.0 1.0 1.0 1.0
000380 00 00 80 3f 00 00 80 3f 00 00 80 3f 00 00 80 3f
       1.0 1.0 1.0 1.0
000390 00 00 80 3f 00 00 80 3f 00 00 80 3f 00 00 80 3f
       1.0 1.0 1.0 1.0
0003a0 00 00 80 3f 00 00 80 3f 00 00 80 3f 00 00 80 3f
       1.0 1.0 1.0 1.0
0003b0 00 00 80 3f 00 00 80 3f 00 00 80 3f 00 00 80 3f
       1.0 1.0 1.0 1.0
0003c0 00 00 80 3f 00 00 80 3f 00 00 80 3f 00 00 80 3f
       1.0 1.0 1.0 1.0
0003d0 00 00 80 3f 00 00 80 3f 00 00 80 3f 00 00 80 3f
       1.0 1.0 1.0 1.0
0003e0 00 00 80 3f 00 00 80 3f 00 00 80 3f 00 00 80 3f
       1.0 1.0 1.0 1.0
0003f0 00 00 80 3f 00 00 80 3f 00 00 80 3f 00 00 80 3f
       1.0 1.0 1.0 1.0

fcl.weight f4 [10, 64]
000000 c8 6c 09 bf 28 f0 87 be 4a f7 c5 be c3 25 15 bf
       -0.5368161 -0.26550412 -0.3866523 -0.58260745
000010 c1 61 c8 be 20 a0 ae be 72 5e 10 3e 16 8d dc be
       -0.3913708 -0.3410654 0.14098528 -0.4307639
000020 ea be da be 1e 47 3d 3e 39 53 0c 3f 44 da a0 be
       -0.4272378 0.1848416 0.5481449 -0.31416523
000030 d3 56 71 be 8f ac a0 be 97 45 bc 3e b4 95 ae 3d
       -0.23568277 -0.31381652 0.36771843 0.08524647
000040 21 3a 88 3d c8 de b7 be 4a 1a f1 bd 1d 40 46 3f
       0.06651712 -0.35912156 -0.11772592 0.7744158
000050 4e 8b ba 3e be b4 45 be c8 99 e3 3e b5 ac 85 3e
       0.36434406 -0.19307229 0.44453263 0.26108328
000060 c5 68 cf be 88 77 13 bf 8c ca 1f 3e 0c 58 b5 be
       -0.4050962 -0.57604265 0.15604609 -0.35418737
000070 67 e6 e1 3e ba 2b c8 3e 0f b3 ef be 8d 59 13 bf
       0.44121096 0.3909586 -0.46816298 -0.5755852
000080 84 13 cd be 0d 02 e3 be 30 01 65 be 0f 4c 92 3d
       -0.40053952 -0.44337502 -0.22363734 0.07143413
000090 88 b1 60 be 38 cf cb be fe 7e f9 be 0d 1a ed be
       -0.21942723 -0.39806533 -0.487297 -0.46308938
0000a0 be e1 d9 be f6 1b c3 be 56 56 ac 3e 2c 85 29 bf
       -0.4255504 -0.3810727 0.3365962 -0.6621883
0000b0 3c 88 bd be 59 cf 89 be 13 4f 44 be 18 d7 b9 3e
       -0.37018 -0.26916006 -0.1917079 0.36296916
0000c0 f2 72 e0 be 4a 8a a8 be df b0 39 3e 9a ce 7e be
       -0.43837696 -0.32918006 0.18133877 -0.248835
0000d0 6b 04 02 bf a7 c3 ad be da db a7 bd 45 25 8f 3d
       -0.5078799 -0.33938333 -0.0819623 0.069895305
0000e0 4f 05 fa be 61 e0 a3 be eb 23 d8 be 4a 4a 08 bf
       -0.48832175 -0.32007125 -0.42214903 -0.53238356
0000f0 8e 83 c5 be 6e 24 f1 bd af 40 0f 3f b4 cc b1 bc
       -0.3857693 -0.117745265 0.55958074 -0.021704055
000100 49 6d d4 3e 80 dd 84 3e f5 9e de be b8 a1 60 3d
       0.41489628 0.2595024 -0.4348065 0.054841727
000110 af 4a dc 3e f0 c2 c5 bd 3d dd 2d bf 83 9b 56 be
       0.4302573 -0.09656322 -0.6791571 -0.2095776
000120 8d d6 93 be ca 7d d5 3e 5b 7e ae bf b5 3e 58 3e
       -0.28874627 0.41697532 -1.3632311 0.21117671
000130 dd 72 54 3e 23 d6 40 be fa 10 8b be d7 e3 fc be
       0.20746942 -0.18831687 -0.2716139 -0.49392578
000140 a4 71 cc 3e 4a 8c fe be 50 d6 0a bf b9 ea 35 bf
       0.3993045 -0.49716407 -0.54233265 -0.71061283
000150 67 2c 0c bf 9a 7d 59 3e d3 f9 f7 be 36 6e 5c be
       -0.5475525 0.2123932 -0.48432788 -0.21526417
000160 54 0c b7 be 73 89 dd bd 7e 59 cb be 8e f7 a1 3d
       -0.35751593 -0.10817232 -0.39716715 0.079085454
000170 cc 49 db bc 98 07 3c bc a9 03 bb bd 88 cc 2a be
       -0.026768588 -0.01147642 -0.091315575 -0.16679585
000180 e6 8a 20 bf e5 76 d7 3e 8e 3a 96 3e d0 eb 17 bf
       -0.6271194 0.42082897 0.2934155 -0.59344196
000190 b6 69 c9 3e d6 11 a8 be db 1d 42 bf 78 55 96 be
       0.39338464 -0.32826108 -0.75826806 -0.29362082
0001a0 37 b9 65 bf 85 f7 82 bd 15 33 72 be c3 82 46 be
       -0.8973574 -0.06394867 -0.23652299 -0.19385819
0001b0 02 02 ee be c0 55 9f be 5c f3 91 3e b7 f3 00 bf
       -0.46485907 -0.3112011 0.2850598 -0.5037188
0001c0 b1 16 38 bf b3 90 bb be 18 2e 37 bf 67 69 0b 3f
       -0.71909624 -0.36633834 -0.7155471 0.54457706
0001d0 e0 31 a9 3e 4c 40 c4 3e b7 1b 2a 3f e0 7b d4 be
       0.33045864 0.38330305 0.6644854 -0.4150076
0001e0 97 d4 72 3e 32 ee b4 be 27 05 56 be 23 5d 40 bf
       0.23713909 -0.3533798 -0.20900403 -0.75142115
0001f0 96 92 89 be 30 f7 08 bf a1 c5 e6 bc f7 b3 7a be
       -0.2686965 -0.5350218 -0.028170409 -0.24482714
000200 7b 2c b9 be a6 ee 64 be 4a 4a ce be 54 e3 04 bf
       -0.36166748 -0.22356662 -0.40291053 -0.51909375
000210 3c ad 22 be 6e aa 90 3e ef b5 8a 3e 89 27 86 be
       -0.15886396 0.28255028 0.2709193 -0.26202038
000220 76 ac db 3e 7b 2c e8 be 58 a3 6c bf eb 9a 83 be
       0.42905015 -0.45346436 -0.9243674 -0.2570413
000230 55 96 96 bd f1 d8 db be 31 a5 1b be ce 18 a6 be
       -0.07352892 -0.4293895 -0.15199734 -0.324408
000240 cc 82 04 bf cc e0 06 bf de ed db 3e 3e db 78 be
       -0.5176208 -0.5268676 0.42954916 -0.24302384
000250 44 5b 85 be 58 24 a6 be a4 8b a1 be 05 23 cc bd
       -0.26046193 -0.32449603 -0.3155185 -0.09967617
000260 77 d6 2d 3e c8 da 50 bd ab 65 f4 3d 82 20 51 be
       0.16976343 -0.050989896 0.11933454 -0.20422557
000270 c2 c4 bc 3c 66 b6 3a bd 84 97 0a 3f d0 ce 19 bf
       0.02304304 -0.045584105 0.54137444 -0.60081196
000280 ec 94 88 be 9c 37 43 be 64 02 40 be bd 9f 2d bf
       -0.26676118 -0.19064182 -0.18750912 -0.67821866
000290 1b 62 ac 3d 56 b1 38 3d a9 f4 19 3f 51 87 17 bb
       0.0841715 0.045090996 0.60138947 -0.0023121426
0002a0 7a 8c 0a be 97 27 d8 be 3a 72 3b 3f 4a 17 1c be
       -0.1353015 -0.42217705 0.7322117 -0.15243259
0002b0 be 2f 15 bf 0a 8f 51 bf 44 50 db 3e 93 fb 8c be
       -0.58275974 -0.81858885 0.42834675 -0.27535686
0002c0 4c 74 07 3e 1e 51 e3 bd 4e 09 5e be b5 e1 6b be
       0.13227957 -0.11099456 -0.21683237 -0.23035319
0002d0 31 0f a9 be d4 8b 9e 3e 24 33 06 bf 84 15 8a 3e
       -0.33019403 0.30966055 -0.52421784 0.2696954
0002e0 1e 04 15 3f 0c d4 ce 3d c0 85 00 3e 34 ee 03 bf
       0.5820941 0.100990385 0.12551022 -0.51535344
0002f0 39 31 6c be 6c 73 ef 3d 54 23 0e bf d6 79 dc be
       -0.23065652 0.11691937 -0.55522656 -0.43061703
000300 44 4f 32 3e ee de 07 be 43 a1 f6 be e1 96 b9 3e
       0.1741305 -0.13268635 -0.48169908 0.36247924
000310 b2 3e 44 bf 6d d2 de 3e c3 f1 ea 3d 54 c3 af bd
       -0.76658165 0.43519917 0.11471894 -0.08582178
000320 c1 fc d3 3e fa ad 96 be 4d ea 1c bf 05 6d dc bd
       0.41403773 -0.2942961 -0.61295015 -0.10762981
000330 13 ba 2d 3d 1a 54 99 3e 08 d4 15 bf 7b e6 33 bf
       0.042413782 0.29946977 -0.5852666 -0.7027356
000340 df 7e 2d 3e 1e 77 d1 be 7b 32 e3 be e8 69 c6 be
       0.16942929 -0.40911192 -0.4437445 -0.38752675
000350 ad 96 ca 3d 00 06 03 bf 51 33 c9 be 04 18 d3 3e
       0.098920204 -0.5118103 -0.39296964 0.4122926
000360 10 43 03 3e b8 f1 24 bf bf 1c 0e 3f bc 6f 16 3f
       0.12818551 -0.64431334 0.55512613 0.58764243
000370 cf ea 95 bd 81 f8 2a be 8f 4c 73 3d 76 e8 a7 3e
       -0.07320177 -0.16696359 0.059399184 0.3279454
000380 e7 45 d0 3e e5 c6 8c be 4a 0f 1e be 46 5d e8 be
       0.4067833 -0.27495494 -0.1543552 -0.45383662
000390 07 84 f0 be c7 7f b1 be a5 e6 af 3d e3 e8 ef 3e
       -0.4697573 -0.346678 0.08588914 0.46857366
0003a0 69 83 02 bd 4a 46 2c bf 0d ea 15 bf 4e f0 a3 3b
       -0.031863604 -0.6729475 -0.5856026 0.005003012
0003b0 dc 1e ca bd 65 4c f4 be 36 c1 2d bf a9 f6 19 3f
       -0.09869167 -0.47714534 -0.6787294 0.60142
0003c0 2f a6 7c 3d ef be 83 3e 1d d6 9b bd 10 4a c4 3e
       0.061681923 0.25731608 -0.07609198 0.38337755
0003d0 26 cc 22 bf de 15 53 be e3 f1 0d bf 60 5e 33 bd
       -0.63592756 -0.2061381 -0.55447215 -0.043791175
0003e0 33 52 87 be 63 77 9e be d8 fb c2 3e 0c 3d 1e bf
       -0.264299 -0.3095046 0.38082767 -0.618119
0003f0 d5 82 29 3f 66 71 10 bf f6 2d 0e bf 7d e9 d4 be
       0.6621526 -0.5642303 -0.5553888 -0.41584387

fcl.mask f4 [10, 64]
000000 00 00 80 3f 00 00 80 3f 00 00 80 3f 00 00 80 3f
       1.0 1.0 1.0 1.0
000010 00 00 80 3f 00 00 80 3f 00 00 80 3f 00 00 80 3f
       1.0 1.0 1.0 1.0
000020 00 00 80 3f 00 00 80 3f 00 00 80 3f 00 00 80 3f
       1.0 1.0 1.0 1.0
000030 00 00 80 3f 00 00 80 3f 00 00 80 3f 00 00 80 3f
       1.0 1.0 1.0 1.0
000040 00 00 80 3f 00 00 80 3f 00 00 80 3f 00 00 80 3f
       1.0 1.0 1.0 1.0
000050 00 00 80 3f 00 00 80 3f 00 00 80 3f 00 00 80 3f
       1.0 1.0 1.0 1.0
000060 00 00 80 3f 00 00 80 3f 00 00 80 3f 00 00 80 3f
       1.0 1.0 1.0 1.0
000070 00 00 80 3f 00 00 80 3f 00 00 80 3f 00 00 80 3f
       1.0 1.0 1.0 1.0
000080 00 00 80 3f 00 00 80 3f 00 00 80 3f 00 00 80 3f
       1.0 1.0 1.0 1.0
000090 00 00 80 3f 00 00 80 3f 00 00 80 3f 00 00 80 3f
       1.0 1.0 1.0 1.0
0000a0 00 00 80 3f 00 00 80 3f 00 00 80 3f 00 00 80 3f
       1.0 1.0 1.0 1.0
0000b0 00 00 80 3f 00 00 80 3f 00 00 80 3f 00 00 80 3f
       1.0 1.0 1.0 1.0
0000c0 00 00 80 3f 00 00 80 3f 00 00 80 3f 00 00 80 3f
       1.0 1.0 1.0 1.0
0000d0 00 00 80 3f 00 00 80 3f 00 00 80 3f 00 00 80 3f
       1.0 1.0 1.0 1.0
0000e0 00 00 80 3f 00 00 80 3f 00 00 80 3f 00 00 80 3f
       1.0 1.0 1.0 1.0
0000f0 00 00 80 3f 00 00 80 3f 00 00 80 3f 00 00 80 3f
       1.0 1.0 1.0 1.0
000100 00 00 80 3f 00 00 80 3f 00 00 80 3f 00 00 80 3f
       1.0 1.0 1.0 1.0
000110 00 00 80 3f 00 00 80 3f 00 00 80 3f 00 00 80 3f
       1.0 1.0 1.0 1.0
000120 00 00 80 3f 00 00 80 3f 00 00 80 3f 00 00 80 3f
       1.0 1.0 1.0 1.0
000130 00 00 80 3f 00 00 80 3f 00 00 80 3f 00 00 80 3f
       1.0 1.0 1.0 1.0
000140 00 00 80 3f 00 00 80 3f 00 00 80 3f 00 00 80 3f
       1.0 1.0 1.0 1.0
000150 00 00 80 3f 00 00 80 3f 00 00 80 3f 00 00 80 3f
       1.0 1.0 1.0 1.0
000160 00 00 80 3f 00 00 80 3f 00 00 80 3f 00 00 80 3f
       1.0 1.0 1.0 1.0
000170 00 00 80 3f 00 00 80 3f 00 00 80 3f 00 00 80 3f
       1.0 1.0 1.0 1.0
000180 00 00 80 3f 00 00 80 3f 00 00 80 3f 00 00 80 3f
       1.0 1.0 1.0 1.0
000190 00 00 80 3f 00 00 80 3f 00 00 80 3f 00 00 80 3f
       1.0 1.0 1.0 1.0
0001a0 00 00 80 3f 00 00 80 3f 00 00 80 3f 00 00 80 3f
       1.0 1.0 1.0 1.0
0001b0 00 00 80 3f 00 00 80 3f 00 00 80 3f 00 00 80 3f
       1.0 1.0 1.0 1.0
0001c0 00 00 80 3f 00 00 80 3f 00 00 80 3f 00 00 80 3f
       1.0 1.0 1.0 1.0
0001d0 00 00 80 3f 00 00 80 3f 00 00 80 3f 00 00 80 3f
       1.0 1.0 1.0 1.0
0001e0 00 00 80 3f 00 00 80 3f 00 00 80 3f 00 00 80 3f
       1.0 1.0 1.0 1.0
0001f0 00 00 80 3f 00 00 80 3f 00 00 80 3f 00 00 80 3f
       1.0 1.0 1.0 1.0
000200 00 00 80 3f 00 00 80 3f 00 00 80 3f 00 00 80 3f
       1.0 1.0 1.0 1.0
000210 00 00 80 3f 00 00 80 3f 00 00 80 3f 00 00 80 3f
       1.0 1.0 1.0 1.0
000220 00 00 80 3f 00 00 80 3f 00 00 80 3f 00 00 80 3f
       1.0 1.0 1.0 1.0
000230 00 00 80 3f 00 00 80 3f 00 00 80 3f 00 00 80 3f
       1.0 1.0 1.0 1.0
000240 00 00 80 3f 00 00 80 3f 00 00 80 3f 00 00 80 3f
       1.0 1.0 1.0 1.0
000250 00 00 80 3f 00 00 80 3f 00 00 80 3f 00 00 80 3f
       1.0 1.0 1.0 1.0
000260 00 00 80 3f 00 00 80 3f 00 00 80 3f 00 00 80 3f
       1.0 1.0 1.0 1.0
000270 00 00 80 3f 00 00 80 3f 00 00 80 3f 00 00 80 3f
       1.0 1.0 1.0 1.0
000280 00 00 80 3f 00 00 80 3f 00 00 80 3f 00 00 80 3f
       1.0 1.0 1.0 1.0
000290 00 00 80 3f 00 00 80 3f 00 00 80 3f 00 00 80 3f
       1.0 1.0 1.0 1.0
0002a0 00 00 80 3f 00 00 80 3f 00 00 80 3f 00 00 80 3f
       1.0 1.0 1.0 1.0
0002b0 00 00 80 3f 00 00 80 3f 00 00 80 3f 00 00 80 3f
       1.0 1.0 1.0 1.0
0002c0 00 00 80 3f 00 00 80 3f 00 00 80 3f 00 00 80 3f
       1.0 1.0 1.0 1.0
0002d0 00 00 80 3f 00 00 80 3f 00 00 80 3f 00 00 80 3f
       1.0 1.0 1.0 1.0
0002e0 00 00 80 3f 00 00 80 3f 00 00 80 3f 00 00 80 3f
       1.0 1.0 1.0 1.0
0002f0 00 00 80 3f 00 00 80 3f 00 00 80 3f 00 00 80 3f
       1.0 1.0 1.0 1.0
000300 00 00 80 3f 00 00 80 3f 00 00 80 3f 00 00 80 3f
       1.0 1.0 1.0 1.0
000310 00 00 80 3f 00 00 80 3f 00 00 80 3f 00 00 80 3f
       1.0 1.0 1.0 1.0
000320 00 00 80 3f 00 00 80 3f 00 00 80 3f 00 00 80 3f
       1.0 1.0 1.0 1.0
000330 00 00 80 3f 00 00 80 3f 00 00 80 3f 00 00 80 3f
       1.0 1.0 1.0 1.0
000340 00 00 80 3f 00 00 80 3f 00 00 80 3f 00 00 80 3f
       1.0 1.0 1.0 1.0
000350 00 00 80 3f 00 00 80 3f 00 00 80 3f 00 00 80 3f
       1.0 1.0 1.0 1.0
000360 00 00 80 3f 00 00 80 3f 00 00 80 3f 00 00 80 3f
       1.0 1.0 1.0 1.0
000370 00 00 80 3f 00 00 80 3f 00 00 80 3f 00 00 80 3f
       1.0 1.0 1.0 1.0
000380 00 00 80 3f 00 00 80 3f 00 00 80 3f 00 00 80 3f
       1.0 1.0 1.0 1.0
000390 00 00 80 3f 00 00 80 3f 00 00 80 3f 00 00 80 3f
       1.0 1.0 1.0 1.0
0003a0 00 00 80 3f 00 00 80 3f 00 00 80 3f 00 00 80 3f
       1.0 1.0 1.0 1.0
0003b0 00 00 80 3f 00 00 80 3f 00 00 80 3f 00 00 80 3f
       1.0 1.0 1.0 1.0
0003c0 00 00 80 3f 00 00 80 3f 00 00 80 3f 00 00 80 3f
       1.0 1.0 1.0 1.0
0003d0 00 00 80 3f 00 00 80 3f 00 00 80 3f 00 00 80 3f
       1.0 1.0 1.0 1.0
0003e0 00 00 80 3f 00 00 80 3f 00 00 80 3f 00 00 80 3f
       1.0 1.0 1.0 1.0
0003f0 00 00 80 3f 00 00 80 3f 00 00 80 3f 00 00 80 3f
       1.0 1.0 1.0 1.0
