modeldata/opt_Cosine_lr0.001_Aug_BitMnist_PerTensor_4bit_RMS_width64_64_64_bs128_epochs60.pth (torch, 205855 bytes, 8 tensors)

fc1.weight f4 [64, 256]
0.0005671136 0.0005669209 0.10020552 0.00056867214 0.105822615 0.119306564 0.12611553 0.1024769
0.13294436 0.00047416898 0.00072396663 0.00053732784 0.00041391983 0.00043983964 0.1052915 0.0005654667
0.00056792225 0.00056895154 0.0005662863 0.00057369255 0.00037853912 0.00019150654 -9.3862625e-05 -0.054035865
-0.0005424741 0.0004915574 -0.14653386 0.0014183001 0.00049129257 0.0003684244 0.0005279091 0.0005607423
0.0005577259 0.0005538565 0.0005372947 0.0003396382 -0.07470274 -0.08252927 -0.0011253427 -0.108088724
-0.0008419272 0.00071090454 -0.08329437 -0.17230268 -0.0817993 -0.09015109 0.00059685815 0.0005781152
0.000567944 0.0005642878 -0.0984955 -0.042456955 -0.00077781995 -0.00087503745 -0.092842996 -0.00064353616
-0.0005347279 -0.12409651 -0.099594094 0.0003161524 -0.0968728 -0.09938789 -0.25370237 -0.11724231
0.058214262 0.0005778898 -0.03117384 4.0507282e-05 2.2868893e-05 9.5857715e-05 -0.058106925 -0.00042896857
0.019499157 -0.000810545 -0.0005811609 0.07944528 -0.00026804165 0.00089652673 0.00082802575 0.0006071618
0.07079671 0.00057065435 -0.015412628 -0.0002860038 0.0006700189 -0.059962813 -0.0933353 0.10953974
-0.0012919033 0.16699891 0.21508151 0.1931903 0.19375885 0.00029305377 0.0006813614 0.00040890733
0.0005630256 0.07420764 -0.0008896243 -0.054310773 0.0006902208 -0.0012584619 -0.0017457225 0.053883083
-0.00096137665 -0.0011157489 0.028884614 -0.0012100721 -0.0006118125 0.00017366419 0.0005026268 0.00028562787
0.055975817 0.046310477 -0.001097825 0.07367638 0.12958355 -0.0005041715 -0.0014213402 -0.054379366
-0.101930246 -0.13147575 -0.092154734 -0.00087386253 0.10777067 0.08103645 0.16007134 0.0005268341
0.11539118 0.056484465 0.15865669 0.13075614 -5.2435742e-05 0.056495987 -0.055182077 -0.00089385384
-0.00071173446 -0.00039249114 0.26984748 0.18786386 0.16832128 0.33654246 0.24103424 0.08431274
0.00030081448 -0.00023359968 -0.0011606503 -0.0007936315 0.00043462956 0.0934286 -0.0012916609 0.15015773
0.24800183 0.45841497 0.4711685 0.2884378 0.15227726 0.15222608 0.073020734 0.0972892
-0.06613782 -0.0905356 -4.1943094e-05 0.05819222 0.027655646 0.017163496 0.12672816 0.108573854
0.19103163 0.13883977 0.050569814 -0.0011457851 -0.0013936302 -0.0008875347 -0.08903647 0.00057926174
0.00040925274 -0.061578713 -0.0302579 -0.00035134162 -0.00062838616 -0.00022341374 -0.12658767 -0.11616226
-0.24779826 -0.25442147 -0.47881317 -0.24340574 -0.26668137 -0.27169377 -0.15167964 -0.10363676
0.0005861844 0.0007607407 -0.06624722 -0.00032879194 -0.0005924157 -0.16032614 -0.04972543 -0.10072756
-0.16303293 -0.27198687 -0.19373468 -0.16109528 -0.22729367 -0.24023905 -0.15545362 0.0005637133
0.13149866 0.00055267423 0.00040120108 9.24327e-05 -0.000355781 -0.0573527 0.0010071386 0.0009347927
-2.2539702e-05 -0.090593025 -0.116124526 -0.18055457 -0.13856861 -0.111139886 -0.1484043 0.0005665611
0.092898466 0.00056337414 0.0005059559 0.15755099 0.046716094 0.00015502072 0.058927897 0.0011551814
0.021793408 0.0003285441 0.00010318951 0.000106906205 -0.11393008 0.00056420447 0.0005724587 0.0005674629
0.00056740973 0.0005639945 0.0005560355 0.10081388 0.018407002 0.05172737 0.11184635 0.08752134
0.1061696 0.087460496 0.0012385887 -0.043339726 0.00044603035 0.00059863203 0.0005774677 0.08585507
00000000: 59aa 143a 6b9d 143a 8d38 cd3d f112 153a
00000010: 87b9 d83d 0057 f43d 6e24 013e 69df d13d
00000020: 9122 083e e299 f839 94c8 3d3a 76db 0c3a
00000030: 6103 d939 479a e639 12a3 d73d d43b 143a
00000040: 9ee0 143a b125 153a d572 143a db63 163a
00000050: a976 c639 25cf 4839 1dd8 c4b8 b654 5dbd
00000060: d234 0eba dcdb 003a f90c 16be 41e6 b93a
00000070: 16ca 003a 1629 c139 6163 0a3a c7fe 123a
00000080: 5a34 123a ae30 113a 3dd9 0c3a 7811 b239
00000090: c0fd 98bd 1b05 a9bd 3c80 93ba 9f5d ddbd
000000a0: c7b4 5cba ff5b 3a3a 3d96 aabd 1d70 30be
000000b0: 6486 a7bd 22a1 b8bd 7976 1c3a a88c 173a
000000c0: 14e2 143a b7ec 133a 02b8 c9bd 58e7 2dbd
000000d0: 9de6 4bba c562 65ba 7824 bebd fbb2 28ba
000000e0: fb2c 0cba 5026 febd fdf7 cbbd 42c1 a539
000000f0: 3f65 c6bd e18b cbbd 47e5 81be bc1c f0bd
00000100: 1472 6e3d 877d 173a 4860 ffbc 5de6 2938
00000110: 93d6 bf37 3807 c938 8701 6ebd 30e7 e0b9
00000120: b2bc 9f3c c17a 54ba 0c59 18ba 35b4 a23d
00000130: f187 8cb9 e404 6b3a de0f 593a f029 1f3a
00000140: defd 903d f797 153a 3f85 7cbc c8f2 95b9
00000150: 35a4 2f3a 919b 75bd 9426 bfbd 5f56 e03d
00000160: 1555 a9ba c301 2b3e 543e 5c3e aed3 453e
00000170: b868 463e 03a5 9939 649d 323a 9d62 d639
00000180: 0298 133a 2dfa 973d ad35 69ba f974 5ebd
00000190: efef 343a f9f2 a4ba bad0 e4ba 82b4 5c3d
000001a0: e504 7cba 523e 92ba 6d9f ec3c 489b 9eba
000001b0: 0b62 20ba a019 3639 b7c2 033a 53c0 9539
000001c0: e646 653d 0eb0 3d3d e5e4 8fba a4e3 963d
000001d0: 8db1 043e 602a 04ba 434c baba e6bc 5ebd
000001e0: cec0 d0bd 94a1 06be 9fbb bcbd ec13 65ba
000001f0: deb6 dc3d 70f6 a53d bee9 233e 3d1b 0a3a
00000200: 3652 ec3d 415c 673d e676 223e f0e4 053e
00000210: 73ee 5bb8 5668 673d 9a06 62bd 8451 6aba
00000220: b193 3aba 45c7 cdb9 7329 8a3e 625f 403e
00000230: 6a5c 2c3e 4b4f ac3e aed1 763e 28ac ac3d
00000240: a3b6 9d39 70f2 74b9 f620 98ba b50b 50ba
00000250: fede e339 7e57 bf3d f34c a9ba f3c2 193e
00000260: 31f4 7d3e 5eb5 ea3e ff3c f13e 1fae 933e
00000270: 92ee 1b3e 27e1 1b3e e58b 953d 8f3f c73d
00000280: 4473 87bd bb6a b9bd 0eec 2fb8 f75a 6e3d
00000290: 188e e23c 769a 8c3c 07c5 013e f85b de3d
000002a0: cc9d 433e 032c 0e3e 4b22 4f3d 2b2e 96ba
000002b0: 78aa b6ba 72a9 68ba c158 b6bd 99d9 173a
000002c0: f990 d639 f639 7cbd 6adf f7bc 4634 b8b9
000002d0: 48ba 24ba 2b44 6ab9 33a0 01be 7be6 edbd
000002e0: d4be 7dbe 8843 82be 0027 f5be 5b3f 79be
000002f0: 768a 88be 721b 8bbe e851 1bbe 823f d4bd
00000300: 2baa 193a 726c 473a 9fac 87bd b561 acb9
00000310: 584c 1bba 892c 24be e4ac 4bbd 404a cebd
00000320: 1bf2 26be dd41 8bbe 6262 46be 29f6 24be
00000330: acbf 68be 3a01 76be 3c2f 1fbe 29c6 133a
00000340: 96a7 063e 57e1 103a 4c58 d239 6ed8 c138
00000350: 1e88 bab9 aaea 6abd f701 843a e00c 753a
00000360: a413 bdb7 d688 b9bd b2d2 edbd 4ce3 38be
00000370: eee4 0dbe 4f9d e3bd 4cf7 17be 4685 143a
00000380: 8d41 be3d 66af 133a 20a2 043a 0c55 213e
00000390: 6059 3f3d 0f8d 2239 615e 713d 7569 973a
000003a0: 1788 b23c 7140 ac39 7267 d838 d532 e038
000003b0: 2c54 e9bd 1fe7 133a 0e11 163a cac1 143a
000003c0: 39be 143a 08d9 133a e9c2 113a 8277 ce3d
000003d0: 48ca 963c 14e0 533d b30f e53d 633e b33d
000003e0: 726f d93d 7d1e b33d 2458 a23a ff84 31bd
000003f0: 2ed9 e939 84ed 1c3a 3461 173a c8d4 af3d

fc1.mask f4 [64, 256]
0.0 0.0 1.0 0.0 1.0 1.0 1.0 1.0
1.0 0.0 0.0 0.0 0.0 0.0 1.0 0.0
0.0 0.0 0.0 0.0 0.0 0.0 0.0 1.0
0.0 0.0 1.0 0.0 0.0 0.0 0.0 0.0
0.0 0.0 0.0 0.0 1.0 1.0 0.0 1.0
0.0 0.0 1.0 1.0 1.0 1.0 0.0 0.0
0.0 0.0 1.0 1.0 0.0 0.0 1.0 0.0
0.0 1.0 1.0 0.0 1.0 1.0 1.0 1.0
1.0 0.0 1.0 0.0 0.0 0.0 1.0 0.0
1.0 0.0 0.0 1.0 0.0 0.0 0.0 0.0
1.0 0.0 1.0 0.0 0.0 1.0 1.0 1.0
0.0 1.0 1.0 1.0 1.0 0.0 0.0 0.0
0.0 1.0 0.0 1.0 0.0 0.0 0.0 1.0
0.0 0.0 1.0 0.0 0.0 0.0 0.0 0.0
1.0 1.0 0.0 1.0 1.0 0.0 0.0 1.0
1.0 1.0 1.0 0.0 1.0 1.0 1.0 0.0
1.0 1.0 1.0 1.0 0.0 1.0 1.0 0.0
0.0 0.0 1.0 1.0 1.0 1.0 1.0 1.0
0.0 0.0 0.0 0.0 0.0 1.0 0.0 1.0
1.0 1.0 1.0 1.0 1.0 1.0 1.0 1.0
1.0 1.0 0.0 1.0 1.0 1.0 1.0 1.0
1.0 1.0 1.0 0.0 0.0 0.0 1.0 0.0
0.0 1.0 1.0 0.0 0.0 0.0 1.0 1.0
1.0 1.0 1.0 1.0 1.0 1.0 1.0 1.0
0.0 0.0 1.0 0.0 0.0 1.0 1.0 1.0
1.0 1.0 1.0 1.0 1.0 1.0 1.0 0.0
1.0 0.0 0.0 0.0 0.0 1.0 0.0 0.0
0.0 1.0 1.0 1.0 1.0 1.0 1.0 0.0
1.0 0.0 0.0 1.0 1.0 0.0 1.0 0.0
1.0 0.0 0.0 0.0 1.0 0.0 0.0 0.0
0.0 0.0 0.0 1.0 1.0 1.0 1.0 1.0
1.0 1.0 0.0 1.0 0.0 0.0 0.0 1.0
00000000: 0000 0000 0000 0000 0000 803f 0000 0000
00000010: 0000 803f 0000 803f 0000 803f 0000 803f
00000020: 0000 803f 0000 0000 0000 0000 0000 0000
00000030: 0000 0000 0000 0000 0000 803f 0000 0000
00000040: 0000 0000 0000 0000 0000 0000 0000 0000
00000050: 0000 0000 0000 0000 0000 0000 0000 803f
00000060: 0000 0000 0000 0000 0000 803f 0000 0000
00000070: 0000 0000 0000 0000 0000 0000 0000 0000
00000080: 0000 0000 0000 0000 0000 0000 0000 0000
00000090: 0000 803f 0000 803f 0000 0000 0000 803f
000000a0: 0000 0000 0000 0000 0000 803f 0000 803f
000000b0: 0000 803f 0000 803f 0000 0000 0000 0000
000000c0: 0000 0000 0000 0000 0000 803f 0000 803f
000000d0: 0000 0000 0000 0000 0000 803f 0000 0000
000000e0: 0000 0000 0000 803f 0000 803f 0000 0000
000000f0: 0000 803f 0000 803f 0000 803f 0000 803f
00000100: 0000 803f 0000 0000 0000 803f 0000 0000
00000110: 0000 0000 0000 0000 0000 803f 0000 0000
00000120: 0000 803f 0000 0000 0000 0000 0000 803f
00000130: 0000 0000 0000 0000 0000 0000 0000 0000
00000140: 0000 803f 0000 0000 0000 803f 0000 0000
00000150: 0000 0000 0000 803f 0000 803f 0000 803f
00000160: 0000 0000 0000 803f 0000 803f 0000 803f
00000170: 0000 803f 0000 0000 0000 0000 0000 0000
00000180: 0000 0000 0000 803f 0000 0000 0000 803f
00000190: 0000 0000 0000 0000 0000 0000 0000 803f
000001a0: 0000 0000 0000 0000 0000 803f 0000 0000
000001b0: 0000 0000 0000 0000 0000 0000 0000 0000
000001c0: 0000 803f 0000 803f 0000 0000 0000 803f
000001d0: 0000 803f 0000 0000 0000 0000 0000 803f
000001e0: 0000 803f 0000 803f 0000 803f 0000 0000
000001f0: 0000 803f 0000 803f 0000 803f 0000 0000
00000200: 0000 803f 0000 803f 0000 803f 0000 803f
00000210: 0000 0000 0000 803f 0000 803f 0000 0000
00000220: 0000 0000 0000 0000 0000 803f 0000 803f
00000230: 0000 803f 0000 803f 0000 803f 0000 803f
00000240: 0000 0000 0000 0000 0000 0000 0000 0000
00000250: 0000 0000 0000 803f 0000 0000 0000 803f
00000260: 0000 803f 0000 803f 0000 803f 0000 803f
00000270: 0000 803f 0000 803f 0000 803f 0000 803f
00000280: 0000 803f 0000 803f 0000 0000 0000 803f
00000290: 0000 803f 0000 803f 0000 803f 0000 803f
000002a0: 0000 803f 0000 803f 0000 803f 0000 0000
000002b0: 0000 0000 0000 0000 0000 803f 0000 0000
000002c0: 0000 0000 0000 803f 0000 803f 0000 0000
000002d0: 0000 0000 0000 0000 0000 803f 0000 803f
000002e0: 0000 803f 0000 803f 0000 803f 0000 803f
000002f0: 0000 803f 0000 803f 0000 803f 0000 803f
00000300: 0000 0000 0000 0000 0000 803f 0000 0000
00000310: 0000 0000 0000 803f 0000 803f 0000 803f
00000320: 0000 803f 0000 803f 0000 803f 0000 803f
00000330: 0000 803f 0000 803f 0000 803f 0000 0000
00000340: 0000 803f 0000 0000 0000 0000 0000 0000
00000350: 0000 0000 0000 803f 0000 0000 0000 0000
00000360: 0000 0000 0000 803f 0000 803f 0000 803f
00000370: 0000 803f 0000 803f 0000 803f 0000 0000
00000380: 0000 803f 0000 0000 0000 0000 0000 803f
00000390: 0000 803f 0000 0000 0000 803f 0000 0000
000003a0: 0000 803f 0000 0000 0000 0000 0000 0000
000003b0: 0000 803f 0000 0000 0000 0000 0000 0000
000003c0: 0000 0000 0000 0000 0000 0000 0000 803f
000003d0: 0000 803f 0000 803f 0000 803f 0000 803f
000003e0: 0000 803f 0000 803f 0000 0000 0000 803f
000003f0: 0000 0000 0000 0000 0000 0000 0000 803f

fc2.weight f4 [64, 64]
0.29074684 -0.15443364 0.00048716847 -0.23902373 0.47065976 -0.0006998771 -0.00038111777 -0.00048784344
0.0010908673 -0.0013452893 -0.00061774516 0.0013716711 -0.331982 -0.0061649512 -0.0011470303 -1.1606009e-05
-0.3958982 -0.29408142 0.0005555997 0.0009409621 0.0004739063 0.00020063734 0.268325 0.0002888473
0.26744625 0.00045523798 -0.00071495137 0.0002126128 -0.67999774 -0.0010288653 -0.07306329 -0.43367246
-0.0008616835 0.27775595 0.17665276 0.0015788062 -0.2370971 0.0001351516 0.09175968 0.001957757
0.00282461 0.028256942 0.1985495 -0.26705122 0.0027757708 -0.41591415 -0.09201127 0.0013666854
0.19566254 0.0018187347 0.0005370034 -0.05029794 0.0001457004 0.14114079 0.0006738555 -0.1477906
0.0012082485 0.0010420035 -0.00088595616 -9.877607e-05 -0.0028604476 5.997256e-06 -0.00070229627 0.00018949124
-0.09068935 -0.20705281 -0.00042159043 0.14751965 0.28604195 0.000104773186 -0.2219737 0.0005669487
0.0005688222 0.00273848 -0.000615568 -0.00096011953 0.15563573 -0.14072071 -0.29426667 -0.001343909
-0.0016539244 -0.07994528 -0.22639959 -0.14936242 -0.42097184 0.0037496348 0.2207282 0.17463869
-0.00064898346 -0.24171048 0.09038921 -0.0005480953 -1.6808026e-05 -0.28421244 -8.6460095e-05 0.18568991
-7.2656194e-06 0.3317884 0.17841545 0.0011720408 -0.11504747 0.0890961 -0.054938357 -0.2197989
0.26687172 0.29321784 -0.1744194 0.35306358 -0.00014370558 0.00079459767 0.0007764332 -0.0013378303
0.18012017 -0.118089326 0.0030305958 0.0002813245 0.23553537 0.00088581914 0.18815833 0.24747887
0.22571194 -0.32588506 0.00012512445 0.17442068 0.26464957 0.18617134 -0.0012580203 0.0017996973
0.00108148 -0.00062434934 0.00079127704 -0.20772001 0.34712335 0.18008678 -0.15928136 -0.39544308
0.0003441709 -0.26792374 -0.00083137874 0.27883857 -0.000674913 0.00063988107 0.089434616 -0.15199362
0.39141756 0.0007327379 -0.0006812308 -0.00012648599 0.21229792 -0.00065770093 0.43281084 -0.8517613
-0.00092850206 -0.19919439 -0.0013543853 0.0009056007 -0.20761836 -0.22726643 0.00046051227 -0.24560632
-0.000708725 0.14439695 0.33833006 -0.25102895 -0.0012847974 -0.0006073651 -0.0805192 0.0015145901
-0.25862038 -0.0002653866 0.0014133094 -0.13092858 -0.21717642 0.2704594 0.0004571081 0.25799534
0.20756318 -0.0014681437 0.0021829673 0.09256453 0.14856362 -0.095051676 0.029676149 -0.16601369
0.96673596 -0.00036681944 -0.37175217 -0.14831781 -0.0041880454 -0.46002153 0.20939046 -0.15313746
-0.0015426063 -0.0008978846 -0.0006811035 -0.20762408 -0.0011620122 -0.00047040684 -0.7757224 -0.0013679959
-0.21231517 0.001046731 0.14821708 0.38740608 0.27123055 1.2239896e-06 0.00018465977 -7.0216476e-05
0.25932673 0.17513964 0.097817466 -0.0002935648 -0.0007999386 -0.36771512 0.0018462092 -0.0017924816
-0.0006323631 -0.00011069467 -0.00042912757 -0.0011509337 -0.00016178988 0.18338035 -0.0008549177 -0.0021155623
0.25335106 -0.08714898 -0.4499144 -0.16061147 -0.08351775 -0.11254136 -0.20551321 -0.0021592334
-0.40674058 0.24419865 -0.0013336288 -0.0009070629 -0.00074361736 -0.17572054 0.20764542 -0.20112313
0.00038897665 -0.001954352 -0.002403986 -0.20708029 0.00028440694 0.20770018 -0.2561168 -0.12702955
-0.27760208 -0.002222893 -0.0005753525 -0.00079624326 0.0026864053 -0.09440743 0.0011229926 1.4751517e-05
00000000: c5dc 943e da23 1ebe a56a ff39 a3c2 74be
00000010: 51fa f03e f577 37ba c3d0 c7b9 3dc5 ffb9
00000020: 6ffb 8e3a 6b54 b0ba 2df0 21ba a5c9 b33a
00000030: 8bf9 a9be 5c03 cabb f357 96ba 6eb7 42b7
00000040: 2bb3 cabe d791 96be aaa5 113a e6aa 763a
00000050: a076 f839 2d62 5239 e561 893e 6e70 9739
00000060: b7ee 883e 02ad ee39 936b 3bba d0f0 5e39
00000070: 5514 2ebf feda 86ba 35a2 95bd 510a debe
00000080: 9ae2 61ba 0736 8e3e 76e4 343e f2ef ce3a
00000090: 95c9 72be 7bb7 0d39 80ec bb3d b64d 003b
000000a0: 181d 393b 1a7b e73c 8f50 4b3e f0ba 88be
000000b0: b5e9 353b b3f2 d4be 6870 bcbd 5a22 b33a
000000c0: c35b 483e 9c62 ee3a b0c5 0c3a 3605 4ebd
000000d0: 27c7 1839 3687 103e ada5 303a 6b56 17be
000000e0: 185e 9e3a d693 883a 833f 68ba 0026 cfb8
000000f0: 5976 3bbb 093c c936 4e1a 38ba 2bb2 4639
00000100: 57bb b9bd a705 54be e908 ddb9 640f 173e
00000110: 1774 923e adb9 db38 134d 63be 499f 143a
00000120: 031d 153a 1278 333b 125e 21ba 88b0 7bba
00000130: f95e 1f3e 1719 10be 1faa 96be 1a26 b0ba
00000140: 7ec8 d8ba 5aba a3bd 4bd5 67be 76f2 18be
00000150: 9f89 d7be 6fbc 753b 9306 623e 7cd4 323e
00000160: 8b20 2aba f482 77be fa1d b93d 0eae 0fba
00000170: f6fe 8cb7 4b84 91be e951 b5b8 7f25 3e3e
00000180: 32cb f3b6 2be0 a93e 8ab2 363e 2a9f 993a
00000190: 029e ebbd 0478 b63d 0b07 61bd f612 61be
000001a0: 69a3 883e a620 963e 009b 32be c0c4 b43e
000001b0: acaf 16b9 8c4c 503a 8d89 4b3a 235a afba
000001c0: 6c71 383e d1d8 f1bd f69c 463b bc7e 9339
000001d0: 2f30 713e 5136 683a 94ac 403e 1a6b 7d3e
000001e0: 0821 673e 68da a6be d733 0339 569b 323e
000001f0: 2680 873e b3a3 3e3e 28e4 a4ba d2e3 eb3a
00000200: 72c0 8d3a 60ab 23ba b46d 4f3a 8eb4 54be
00000210: 27ba b13e ab68 383e a71a 23be 8477 cabe
00000220: d671 b439 4d2d 89be e2f0 59ba eec3 8e3e
00000230: a5ec 30ba b1bd 273a 7f29 b73d 37a4 1bbe
00000240: e267 c83e 3515 403a a094 32ba 53a1 04b9
00000250: a064 593e 9069 2cba 6299 dd3e 070d 5abf
00000260: b866 73ba 9df9 4bbe a185 b1ba d665 6d3a
00000270: e899 54be 88b8 68be e970 f139 3980 7bbe
00000280: bbc9 39ba cbdc 133e 9939 ad3e de86 80be
00000290: a666 a8ba 9537 1fba 40e7 a4bd 3685 c63a
000002a0: e469 84be 9623 8bb9 cb3e b93a 2412 06be
000002b0: 7f63 5ebe a879 8a3e 03a8 ef39 f717 843e
000002c0: 718b 543e ba6e c0ba 1d10 0f3b 7992 bd3d
000002d0: 1021 183e 74aa c2bd 651b f33c 7eff 29be
000002e0: 027c 773f ac51 c0b9 4d56 bebe a0e0 17be
000002f0: df3b 89bb f187 ebbe 746a 563e 11d0 1cbe
00000300: 4731 caba 0460 6bba 158c 32ba 689b 54be
00000310: a94e 98ba f0a0 f6b9 be95 46bf 534e b3ba
00000320: 2669 59be 7732 893a 38c6 173e 175a c63e
00000330: bbde 8a3e f647 a435 3ba1 4139 2f41 93b8
00000340: 79c6 843e ce57 333e 8654 c83d 9ae9 99b9
00000350: f9b2 51ba 2845 bcbe 80fc f13a b4f1 eaba
00000360: 2bc5 25ba c024 e8b8 87fc e0b9 edda 96ba
00000370: 24a6 29b9 0fc8 3b3e 8e1c 60ba 3fa5 0abb
00000380: 3bb7 813e 2a7b b2bd 2e5b e6be 5577 24be
00000390: 5b0b abbd 167c e6bd 0e72 52be ed81 0dbb
000003a0: 4d40 d0be 360f 7a3e 28cd aeba f6c7 6dba
000003b0: 51ef 42ba 16f0 33be 00a1 543e 39f3 4dbe
000003c0: 90ef cb39 9614 00bb 318c 1dbb db0c 54be
000003d0: 741c 9539 5baf 543e be21 83be 0914 02be
000003e0: dc21 8ebe f5ad 11bb 41d3 16ba fbba 50ba
000003f0: 670e 303b af58 c1bd 6131 933a 487d 7737

fc2.mask f4 [64, 64]
1.0 1.0 0.0 1.0 1.0 0.0 0.0 0.0
0.0 0.0 0.0 0.0 1.0 1.0 0.0 0.0
1.0 1.0 0.0 0.0 0.0 0.0 1.0 0.0
1.0 0.0 0.0 0.0 1.0 0.0 1.0 1.0
0.0 1.0 1.0 0.0 1.0 0.0 1.0 0.0
0.0 1.0 1.0 1.0 0.0 1.0 1.0 0.0
1.0 0.0 0.0 1.0 0.0 1.0 0.0 1.0
0.0 0.0 0.0 0.0 0.0 0.0 0.0 0.0
1.0 1.0 0.0 1.0 1.0 0.0 1.0 0.0
0.0 0.0 0.0 0.0 1.0 1.0 1.0 0.0
0.0 1.0 1.0 1.0 1.0 0.0 1.0 1.0
0.0 1.0 1.0 0.0 0.0 1.0 0.0 1.0
0.0 1.0 1.0 0.0 1.0 1.0 1.0 1.0
1.0 1.0 1.0 1.0 0.0 0.0 0.0 0.0
1.0 1.0 0.0 0.0 1.0 0.0 1.0 1.0
1.0 1.0 0.0 1.0 1.0 1.0 0.0 0.0
0.0 0.0 0.0 1.0 1.0 1.0 1.0 1.0
0.0 1.0 0.0 1.0 0.0 0.0 1.0 1.0
1.0 0.0 0.0 0.0 1.0 0.0 1.0 1.0
0.0 1.0 0.0 0.0 1.0 1.0 0.0 1.0
0.0 1.0 1.0 1.0 0.0 0.0 1.0 0.0
1.0 0.0 0.0 1.0 1.0 1.0 0.0 1.0
1.0 0.0 0.0 1.0 1.0 1.0 1.0 1.0
1.0 0.0 1.0 1.0 0.0 1.0 1.0 1.0
0.0 0.0 0.0 1.0 0.0 0.0 1.0 0.0
1.0 0.0 1.0 1.0 1.0 0.0 0.0 0.0
1.0 1.0 1.0 0.0 0.0 1.0 0.0 0.0
0.0 0.0 0.0 0.0 0.0 1.0 0.0 0.0
1.0 1.0 1.0 1.0 1.0 1.0 1.0 0.0
1.0 1.0 0.0 0.0 0.0 1.0 1.0 1.0
0.0 0.0 0.0 1.0 0.0 1.0 1.0 1.0
1.0 0.0 0.0 0.0 0.0 1.0 0.0 0.0
00000000: 0000 803f 0000 803f 0000 0000 0000 803f
00000010: 0000 803f 0000 0000 0000 0000 0000 0000
00000020: 0000 0000 0000 0000 0000 0000 0000 0000
00000030: 0000 803f 0000 803f 0000 0000 0000 0000
00000040: 0000 803f 0000 803f 0000 0000 0000 0000
00000050: 0000 0000 0000 0000 0000 803f 0000 0000
00000060: 0000 803f 0000 0000 0000 0000 0000 0000
00000070: 0000 803f 0000 0000 0000 803f 0000 803f
00000080: 0000 0000 0000 803f 0000 803f 0000 0000
00000090: 0000 803f 0000 0000 0000 803f 0000 0000
000000a0: 0000 0000 0000 803f 0000 803f 0000 803f
000000b0: 0000 0000 0000 803f 0000 803f 0000 0000
000000c0: 0000 803f 0000 0000 0000 0000 0000 803f
000000d0: 0000 0000 0000 803f 0000 0000 0000 803f
000000e0: 0000 0000 0000 0000 0000 0000 0000 0000
000000f0: 0000 0000 0000 0000 0000 0000 0000 0000
00000100: 0000 803f 0000 803f 0000 0000 0000 803f
00000110: 0000 803f 0000 0000 0000 803f 0000 0000
00000120: 0000 0000 0000 0000 0000 0000 0000 0000
00000130: 0000 803f 0000 803f 0000 803f 0000 0000
00000140: 0000 0000 0000 803f 0000 803f 0000 803f
00000150: 0000 803f 0000 0000 0000 803f 0000 803f
00000160: 0000 0000 0000 803f 0000 803f 0000 0000
00000170: 0000 0000 0000 803f 0000 0000 0000 803f
00000180: 0000 0000 0000 803f 0000 803f 0000 0000
00000190: 0000 803f 0000 803f 0000 803f 0000 803f
000001a0: 0000 803f 0000 803f 0000 803f 0000 803f
000001b0: 0000 0000 0000 0000 0000 0000 0000 0000
000001c0: 0000 803f 0000 803f 0000 0000 0000 0000
000001d0: 0000 803f 0000 0000 0000 803f 0000 803f
000001e0: 0000 803f 0000 803f 0000 0000 0000 803f
000001f0: 0000 803f 0000 803f 0000 0000 0000 0000
00000200: 0000 0000 0000 0000 0000 0000 0000 803f
00000210: 0000 803f 0000 803f 0000 803f 0000 803f
00000220: 0000 0000 0000 803f 0000 0000 0000 803f
00000230: 0000 0000 0000 0000 0000 803f 0000 803f
00000240: 0000 803f 0000 0000 0000 0000 0000 0000
00000250: 0000 803f 0000 0000 0000 803f 0000 803f
00000260: 0000 0000 0000 803f 0000 0000 0000 0000
00000270: 0000 803f 0000 803f 0000 0000 0000 803f
00000280: 0000 0000 0000 803f 0000 803f 0000 803f
00000290: 0000 0000 0000 0000 0000 803f 0000 0000
000002a0: 0000 803f 0000 0000 0000 0000 0000 803f
000002b0: 0000 803f 0000 803f 0000 0000 0000 803f
000002c0: 0000 803f 0000 0000 0000 0000 0000 803f
000002d0: 0000 803f 0000 803f 0000 803f 0000 803f
000002e0: 0000 803f 0000 0000 0000 803f 0000 803f
000002f0: 0000 0000 0000 803f 0000 803f 0000 803f
00000300: 0000 0000 0000 0000 0000 0000 0000 803f
00000310: 0000 0000 0000 0000 0000 803f 0000 0000
00000320: 0000 803f 0000 0000 0000 803f 0000 803f
00000330: 0000 803f 0000 0000 0000 0000 0000 0000
00000340: 0000 803f 0000 803f 0000 803f 0000 0000
00000350: 0000 0000 0000 803f 0000 0000 0000 0000
00000360: 0000 0000 0000 0000 0000 0000 0000 0000
00000370: 0000 0000 0000 803f 0000 0000 0000 0000
00000380: 0000 803f 0000 803f 0000 803f 0000 803f
00000390: 0000 803f 0000 803f 0000 803f 0000 0000
000003a0: 0000 803f 0000 803f 0000 0000 0000 0000
000003b0: 0000 0000 0000 803f 0000 803f 0000 803f
000003c0: 0000 0000 0000 0000 0000 0000 0000 803f
000003d0: 0000 0000 0000 803f 0000 803f 0000 803f
000003e0: 0000 803f 0000 0000 0000 0000 0000 0000
000003f0: 0000 0000 0000 803f 0000 0000 0000 0000

fc3.weight f4 [64, 64]
0.00016862659 0.0014859784 0.00036129655 -0.2824984 0.00022483188 0.35705325 -0.018792326 0.00034954556
-0.23927362 0.001325215 0.2638619 -0.0004760476 0.24750155 -0.042156216 0.13646759 0.0009093521
-0.17723963 -0.30211264 0.00040763 0.0010566519 0.0011787965 0.002525517 -0.20009585 -0.20050612
0.00078973756 0.0010351422 -0.32291672 0.2986116 0.0005045467 0.00088520825 0.0003159488 -0.043591484
-0.00039555723 -0.0010760891 0.2856594 0.2325365 -0.18103312 -0.00052148063 -0.2883547 0.15567401
-0.00080642523 -0.22391488 -0.000591723 0.2140266 -0.00018630779 -0.0010593951 0.00012716668 0.0006923976
0.13110173 -0.16924751 0.0766411 -0.00025274808 -0.000117065734 0.000591676 -0.132869 0.24677297
-0.20416738 0.0008404396 -0.0021995576 0.01884082 0.00019898031 -0.09770668 0.0010272319 0.00071787776
0.24778584 -0.0008471874 -0.0012337442 -0.0007788822 0.00041748557 -0.0024030874 -0.13346891 0.082111105
-0.00101047 0.00019866617 0.111988716 -0.00040689492 0.00092786417 -0.29236382 -0.18047917 -0.19863859
0.0008209178 0.30440044 0.00016518218 -0.0023883593 0.0022372806 0.048091047 -0.0013061289 -0.0009442151
0.33696592 -0.5640242 -0.00039876412 0.00015509252 -0.00015228172 -0.15992913 -0.16159783 0.12484922
0.13656312 9.895109e-05 0.24994837 -0.088737026 -0.0010622354 0.15801913 -0.13832654 0.0009334915
0.135981 0.2695385 0.00023355383 0.00021066982 -0.015134173 0.07431195 -0.001611955 0.15600483
0.16716696 0.00023549341 -0.2977932 1.0952786e-05 0.19048792 0.0013090663 -0.0005412039 -0.0006529041
-0.0006464478 -0.001585643 -0.00031825743 -0.0008918344 -0.23862398 0.36499283 0.33339608 -0.00022588382
0.0004851994 0.0037967262 -0.33285627 -0.32872963 0.23643704 -0.596863 -0.31446877 -0.2713172
-0.0010355212 0.0049460866 -0.0012646746 -0.00019720565 -0.0755914 0.00078972225 -0.0018218415 0.0006446379
0.000121356534 0.00032968822 -0.18030523 -0.12692055 0.15555324 -0.00063996343 0.25123748 0.11936744
-0.1511727 0.17318338 0.00025134007 -0.3936073 0.19119248 0.19175176 0.0018567987 0.27027616
-0.1693915 0.38758644 0.000102125414 0.0004470687 0.00039689153 0.00025466035 -0.46461865 -0.0007001277
-0.17620037 0.00025486414 0.20097479 0.0013797398 -0.0007861282 0.00086156966 -0.3500273 0.35203597
0.0008142771 0.0007397997 0.0036913578 -0.14455284 -0.18730314 0.26228815 -0.00020673494 0.004512039
-0.01851875 -0.19375826 0.1106107 -0.27837044 -0.20196982 -0.075184 0.0024602846 0.00019398422
0.06899616 -0.0012034917 -0.00061994843 -0.3714903 -0.0008126402 0.63481086 0.19044155 -0.19178239
-0.3910435 -0.0018187842 0.00022582042 -0.1207226 -0.00023142359 0.00010174177 -0.19361572 -0.35437799
0.23844256 0.000690535 0.0001167053 -0.33355802 0.0007772153 0.064229615 -0.001116103 0.13695826
-0.15026365 9.041948e-05 -0.00035214575 -0.22665867 0.000290249 -0.7458682 -0.28769916 -0.32830745
0.0004766769 0.00012018097 -4.389185e-05 0.0006685595 0.23703006 0.3813743 -0.00041301106 0.0003720584
-0.00053375354 0.00034162452 0.001015315 -0.21569425 -0.00029211762 -0.00020379978 -0.2722815 0.25883424
-0.025267197 0.18470691 -0.000579609 -0.20898391 0.22595535 -0.15677835 0.24097905 0.25392678
-4.9025068e-05 0.025099618 0.0005885142 -0.23787676 -0.00064567133 0.00060178677 -0.00069961854 0.00054951536
00000000: 5bd1 3039 29c5 c23a 676c bd39 a1a3 90be
00000010: d9c0 6b39 afcf b63e 5df2 99bc 3643 b739
00000020: 2504 75be d6b2 ad3a e818 873e 0796 f9b9
00000030: 0c71 7d3e ffab 2cbd 29be 0b3e 9661 6e3a
00000040: 4e7e 35be 82ae 9abe 2cb7 d539 5b7f 8a3a
00000050: d981 9a3a 2583 253b ede5 4cbe 7a51 4dbe
00000060: 6406 4f3a 9cad 873a 5755 a5be 9fe3 983e
00000070: 8e43 043a 520d 683a eea5 a539 fc8c 32bd
00000080: cb62 cfb9 8f0b 8dba f341 923e 0c1e 6e3e
00000090: bf60 39be f9b3 08ba 3aa3 93be 0269 1f3e
000000a0: 4866 53ba f149 65be dc1d 1bba ca29 5b3e
000000b0: 9e5b 43b9 67db 8aba 0c58 0539 0482 353a
000000c0: 883f 063e 384f 2dbe 02f6 9c3d 4683 84b9
000000d0: 3081 f5b8 b41a 1b3a d00e 08be 0eb2 7c3e
000000e0: 4111 51be f250 5c3a 7426 10bb 1058 9a3c
000000f0: 5fa5 5039 711a c8bd 2fa4 863a f62f 3c3a
00000100: 92bb 7d3e c915 5eba 96b5 a1ba e62d 4cba
00000110: f7e1 da39 1e7d 1dbb 13ac 08be de29 a83d
00000120: bf71 84ba 0b51 5039 575a e53d 8354 d5b9
00000130: e93b 733a b6b0 95be 88cf 38be ea67 4bbe
00000140: dc32 573a 60da 9b3e c134 2d39 0586 1cbb
00000150: 579f 123b 1efb 443d 6a32 abba 3485 77ba
00000160: cc86 ac3e e463 10bf 3711 d1b9 55a0 2239
00000170: d0ad 1fb9 76c4 23be e779 25be f3b0 ff3d
00000180: 34d7 0b3e f683 cf38 77f2 7f3e c2bb b5bd
00000190: b53a 8bba c4cf 213e 79a5 0dbe 8eb5 743a
000001a0: 9a3e 0b3e f300 8a3e 21e6 7439 40e7 5c39
000001b0: 53f5 77bc dd30 983d 3c48 d3ba bbbf 1f3e
000001c0: d12d 2b3e c8ee 7639 5a78 98be dcc1 3737
000001d0: 440f 433e fa94 ab3a 94df 0dba a727 2bba
000001e0: 6176 29ba 5ad5 cfba cadb a6b9 fec9 69ba
000001f0: d859 74be 57e0 ba3e e4b2 aa3e 3adb 6cb9
00000200: 5c62 fe39 7fd2 783b 236c aabe 404f a8be
00000210: 8d1c 723e 03cc 18bf 0d02 a1be 17ea 8abe
00000220: 53ba 87ba c812 a23b 70c3 a5ba fdc8 4eb9
00000230: aacf 9abd 5d05 4f3a dbca eeba ebfc 283a
00000240: cb80 fe38 01da ac39 efa1 38be 76f7 01be
00000250: 5949 1f3e 38c3 27ba 33a2 803e eb76 f43d
00000260: 04cd 1abe fc56 313e 4bc6 8339 e586 c9be
00000270: f6c7 433e 935a 443e d35f f33a a361 8a3e
00000280: f774 2dbe bb71 c63e 2a2c d638 8c64 ea39
00000290: e115 d039 ef83 8539 7fe2 edbe c688 37ba
000002a0: df6d 34be 499f 8539 56cc 4d3e 63d8 b43a
000002b0: 2c14 4eba f6da 613a c736 b3be 0f3e b43e
000002c0: 3675 553a 1eef 413a b5ea 713b a905 14be
000002d0: 65cc 3fbe a24a 863e fdc6 58b9 bad9 933b
000002e0: a2b4 97bc 9168 46be dd87 e23d 9286 8ebe
000002f0: 2dd1 4ebe 12fa 99bd ba3c 213b 3e68 4b39
00000300: dc4d 8d3d 7bbe 9dba 0984 22ba fa33 bebe
00000310: 5c07 55ba f782 223f 1c03 433e 9a62 44be
00000320: db36 c8be 4564 eeba 35ca 6c39 693d f7bd
00000330: 4caa 72b9 325e d538 3343 46be 0871 b5be
00000340: 492a 743e 0505 353a aebf f438 1ec8 aabe
00000350: 09be 4b3a d18a 833d 344a 92ba c93e 0c3e
00000360: b7de 19be 979f bd38 34a0 b8b9 3619 68be
00000370: 902c 9839 38f1 3ebf 4e4d 93be ea17 a8be
00000380: 7eea f939 ab09 fc38 8418 38b8 4542 2f3a
00000390: 02b8 723e 7e43 c33e 6889 d8b9 d510 c339
000003a0: 98eb 0bba 111c b339 5114 853a f4de 5cbe
000003b0: 5d27 99b9 16b3 55b9 7b68 8bbe ec85 843e
000003c0: 27fd cebc cf23 3d3e e7f0 17ba e1ff 55be
000003d0: d760 673e 818a 20be 36c3 763e b102 823e
000003e0: 44a0 4db8 b79d cd3c 8546 1a3a f795 73be
000003f0: 4542 29ba 3ac1 1d3a 9b66 37ba 5a0d 103a

fc3.mask f4 [64, 64]
0.0 0.0 0.0 1.0 0.0 1.0 1.0 0.0
1.0 0.0 1.0 0.0 1.0 1.0 1.0 0.0
1.0 1.0 0.0 0.0 0.0 0.0 1.0 1.0
0.0 0.0 1.0 1.0 0.0 0.0 0.0 1.0
0.0 0.0 1.0 1.0 1.0 0.0 1.0 1.0
0.0 1.0 0.0 1.0 0.0 0.0 0.0 0.0
1.0 1.0 1.0 0.0 0.0 0.0 1.0 1.0
1.0 0.0 0.0 1.0 0.0 1.0 0.0 0.0
1.0 0.0 0.0 0.0 0.0 0.0 1.0 1.0
0.0 0.0 1.0 0.0 0.0 1.0 1.0 1.0
0.0 1.0 0.0 1.0 0.0 1.0 0.0 0.0
1.0 1.0 0.0 0.0 0.0 1.0 1.0 1.0
1.0 0.0 1.0 1.0 0.0 1.0 1.0 0.0
1.0 1.0 0.0 0.0 1.0 1.0 0.0 1.0
1.0 0.0 1.0 0.0 1.0 0.0 0.0 0.0
0.0 0.0 0.0 0.0 1.0 1.0 1.0 0.0
0.0 0.0 1.0 1.0 1.0 1.0 1.0 1.0
0.0 0.0 0.0 0.0 1.0 0.0 0.0 0.0
0.0 0.0 1.0 1.0 1.0 0.0 1.0 1.0
1.0 1.0 0.0 1.0 1.0 1.0 0.0 1.0
1.0 1.0 0.0 0.0 0.0 0.0 1.0 0.0
1.0 0.0 1.0 0.0 0.0 0.0 1.0 1.0
0.0 0.0 0.0 1.0 1.0 1.0 0.0 0.0
1.0 1.0 1.0 1.0 1.0 1.0 0.0 0.0
1.0 0.0 0.0 1.0 0.0 1.0 1.0 1.0
1.0 0.0 0.0 1.0 0.0 0.0 1.0 1.0
1.0 0.0 0.0 1.0 0.0 1.0 0.0 1.0
1.0 0.0 0.0 1.0 0.0 1.0 1.0 1.0
0.0 0.0 0.0 0.0 1.0 1.0 0.0 0.0
0.0 0.0 0.0 1.0 0.0 0.0 1.0 1.0
1.0 1.0 0.0 1.0 1.0 1.0 1.0 1.0
0.0 1.0 0.0 1.0 0.0 0.0 0.0 0.0
00000000: 0000 0000 0000 0000 0000 0000 0000 803f
00000010: 0000 0000 0000 803f 0000 803f 0000 0000
00000020: 0000 803f 0000 0000 0000 803f 0000 0000
00000030: 0000 803f 0000 803f 0000 803f 0000 0000
00000040: 0000 803f 0000 803f 0000 0000 0000 0000
00000050: 0000 0000 0000 0000 0000 803f 0000 803f
00000060: 0000 0000 0000 0000 0000 803f 0000 803f
00000070: 0000 0000 0000 0000 0000 0000 0000 803f
00000080: 0000 0000 0000 0000 0000 803f 0000 803f
00000090: 0000 803f 0000 0000 0000 803f 0000 803f
000000a0: 0000 0000 0000 803f 0000 0000 0000 803f
000000b0: 0000 0000 0000 0000 0000 0000 0000 0000
000000c0: 0000 803f 0000 803f 0000 803f 0000 0000
000000d0: 0000 0000 0000 0000 0000 803f 0000 803f
000000e0: 0000 803f 0000 0000 0000 0000 0000 803f
000000f0: 0000 0000 0000 803f 0000 0000 0000 0000
00000100: 0000 803f 0000 0000 0000 0000 0000 0000
00000110: 0000 0000 0000 0000 0000 803f 0000 803f
00000120: 0000 0000 0000 0000 0000 803f 0000 0000
00000130: 0000 0000 0000 803f 0000 803f 0000 803f
00000140: 0000 0000 0000 803f 0000 0000 0000 803f
00000150: 0000 0000 0000 803f 0000 0000 0000 0000
00000160: 0000 803f 0000 803f 0000 0000 0000 0000
00000170: 0000 0000 0000 803f 0000 803f 0000 803f
00000180: 0000 803f 0000 0000 0000 803f 0000 803f
00000190: 0000 0000 0000 803f 0000 803f 0000 0000
000001a0: 0000 803f 0000 803f 0000 0000 0000 0000
000001b0: 0000 803f 0000 803f 0000 0000 0000 803f
000001c0: 0000 803f 0000 0000 0000 803f 0000 0000
000001d0: 0000 803f 0000 0000 0000 0000 0000 0000
000001e0: 0000 0000 0000 0000 0000 0000 0000 0000
000001f0: 0000 803f 0000 803f 0000 803f 0000 0000
00000200: 0000 0000 0000 0000 0000 803f 0000 803f
00000210: 0000 803f 0000 803f 0000 803f 0000 803f
00000220: 0000 0000 0000 0000 0000 0000 0000 0000
00000230: 0000 803f 0000 0000 0000 0000 0000 0000
00000240: 0000 0000 0000 0000 0000 803f 0000 803f
00000250: 0000 803f 0000 0000 0000 803f 0000 803f
00000260: 0000 803f 0000 803f 0000 0000 0000 803f
00000270: 0000 803f 0000 803f 0000 0000 0000 803f
00000280: 0000 803f 0000 803f 0000 0000 0000 0000
00000290: 0000 0000 0000 0000 0000 803f 0000 0000
000002a0: 0000 803f 0000 0000 0000 803f 0000 0000
000002b0: 0000 0000 0000 0000 0000 803f 0000 803f
000002c0: 0000 0000 0000 0000 0000 0000 0000 803f
000002d0: 0000 803f 0000 803f 0000 0000 0000 0000
000002e0: 0000 803f 0000 803f 0000 803f 0000 803f
000002f0: 0000 803f 0000 803f 0000 0000 0000 0000
00000300: 0000 803f 0000 0000 0000 0000 0000 803f
00000310: 0000 0000 0000 803f 0000 803f 0000 803f
00000320: 0000 803f 0000 0000 0000 0000 0000 803f
00000330: 0000 0000 0000 0000 0000 803f 0000 803f
00000340: 0000 803f 0000 0000 0000 0000 0000 803f
00000350: 0000 0000 0000 803f 0000 0000 0000 803f
00000360: 0000 803f 0000 0000 0000 0000 0000 803f
00000370: 0000 0000 0000 803f 0000 803f 0000 803f
00000380: 0000 0000 0000 0000 0000 0000 0000 0000
00000390: 0000 803f 0000 803f 0000 0000 0000 0000
000003a0: 0000 0000 0000 0000 0000 0000 0000 803f
000003b0: 0000 0000 0000 0000 0000 803f 0000 803f
000003c0: 0000 803f 0000 803f 0000 0000 0000 803f
000003d0: 0000 803f 0000 803f 0000 803f 0000 803f
000003e0: 0000 0000 0000 803f 0000 0000 0000 803f
000003f0: 0000 0000 0000 0000 0000 0000 0000 0000

fcl.weight f4 [10, 64]
-0.48177686 -0.8629924 0.62834316 -0.48848173 -0.5702131 0.22602306 0.44381735 -0.00018568404
0.7155835 -0.40222064 0.63765746 -0.32082716 0.0002848431 -0.00021545912 0.0005102457 -0.6849434
-0.00025959295 0.00046336252 -0.9348767 0.39362618 0.23377578 0.0014853539 0.0004453952 2.448645e-06
-0.00012468567 -0.00014957173 -0.44351014 -0.590607 -0.41209766 -0.69720775 -0.5243641 2.583531e-05
-0.0006709644 0.00018943478 -0.6168798 -0.00043739242 0.3279506 -0.00070681795 -0.65889555 -0.75068253
0.000575443 -0.56302685 -0.00023580632 -0.8655366 -0.6274776 -0.0006955648 -0.0006232867 -0.47070163
0.6343961 -0.00013308374 -0.6065706 -0.66658187 -0.0014782549 -0.6971273 0.495098 -0.0012535688
-0.84456277 -0.6940286 -0.4555136 0.5690228 0.000275795 0.00080815837 -0.00034404674 -0.00032726396
0.4801036 0.00049268716 -0.00047219286 0.0004155927 0.0016107884 -0.938676 -0.73592937 -0.7624475
0.54414195 -0.39387307 -0.726611 -0.44565582 -0.7604625 -0.4270665 -0.48560846 0.0040118364
0.0019036791 0.0017946723 0.00090532785 0.0020437804 -0.42437175 -0.33259088 -0.5244273 -0.61674184
0.52019227 0.0012636031 0.32401958 0.0024095206 0.38882455 0.0026042855 9.934387e-05 -0.7319063
0.0011398577 0.570385 -0.31434312 -0.44614398 -0.29073086 -0.53886425 0.0014566384 0.37803555
-6.9623646e-05 -0.479428 0.0009855573 0.4241484 -0.4967396 0.0007322821 0.00042182268 0.00041928547
0.520991 0.0042395354 -0.356284 0.0009592892 0.7538902 0.0005448341 -0.9134935 5.1747833e-05
0.0022920347 0.28759065 0.00016076694 -0.5379364 -0.2942288 0.0028789048 0.30558607 -0.49603015
-0.48342004 -0.71697354 -0.24369058 0.31685743 -0.31702745 -0.0010995985 -0.3168224 0.40495688
-0.0009009448 0.0014961491 -0.44647855 -0.0014158925 0.0020480151 0.57026607 -0.00020178237 -0.0015111434
0.680531 -0.0016015156 -0.5210439 -0.0011456108 -0.0005000159 -0.00015592217 -0.4732638 -0.0007161038
0.55885166 -0.00018865112 -0.44452575 -0.729501 -0.001089527 0.20361057 -0.37644023 -0.0023489844
0.37104583 0.5000106 -0.0009779084 -0.00058500795 -0.2666215 -0.0019287381 -0.5823506 -0.56993175
0.001136182 -0.39823067 -0.31826463 0.48253256 -0.539149 -0.0026586899 -0.0014410976 -0.0005419497
0.000836686 -0.0004349529 -0.00018728501 -0.0023139261 -0.5826354 -0.0010485542 0.00020190894 0.36843473
-0.71694434 -0.70643187 -0.001279543 -0.5603094 0.5715438 -0.0018373989 -0.00178804 -0.43193033
-0.47281983 0.00035250184 -0.44351602 -0.00046037138 0.000977417 -0.3713869 -0.6276408 -0.00033199092
-0.00076905143 0.00178334 0.002865895 -0.00037836606 -0.18995588 -0.0017340383 0.0014613206 0.57841814
0.0008073449 0.00039320052 0.33556843 -0.0010489974 -0.6457841 -0.0015315476 0.46278983 0.00058712676
-0.323399 0.0006309569 -0.00064411113 0.3389395 -0.44406894 0.41546148 0.0005895888 -0.0010296366
0.44358757 0.00022346308 0.0011122138 -0.00055893225 -0.00071410526 0.6075029 0.38380972 -0.0012829615
0.0010208038 -0.23568036 -0.57566386 -0.6006429 0.8707503 -0.32036436 -0.59771836 -0.00089259556
2.4604858e-05 -0.45205903 0.0014427066 -0.0012109254 -0.4876463 0.00077615 -0.4919736 0.4203272
-0.0012798905 -0.6083835 -0.6451956 0.00031732098 -0.0011280538 0.6326924 0.0014759663 -0.0036680815
00000000: 75ab f6be 12ed 5cbf 19db 203f 471a fabe
00000010: 7cf9 11bf 9772 673e 073c e33e 2eb4 42b9
00000020: 7b30 373f ddef cdbe 853d 233f 7543 a4be
00000030: fe56 9539 deec 61b9 02c2 053a 7358 2fbf
00000040: fa19 88b9 77ef f239 1454 6fbf 5f89 c93e
00000050: eb62 6f3e 35b0 c23a ef83 e939 6753 2436
00000060: 0ebe 02b9 5bd6 1cb9 c313 e3be 0532 17bf
00000070: 77fe d2be 357c 32bf ba3c 06bf e8b8 d837
00000080: a9e3 2fba 03a3 4639 d6eb 1dbf d151 e5b9
00000090: 24e9 a73e c049 39ba 61ad 28bf bb2c 40bf
000000a0: 53d9 163a 8722 10bf c742 77b9 ce93 5dbf
000000b0: 5fa2 20bf 9056 36ba 1064 23ba ceff f0be
000000c0: c867 223f 658c 0bb9 3648 1bbf 1ca5 2abf
000000d0: 01c2 c1ba ef76 32bf 7c7d fd3e ca4e a4ba
000000e0: 4435 58bf dcab 31bf 1439 e9be 7aab 113f
000000f0: 9498 9039 97da 533a 2c61 b4b9 a094 abb9
00000100: 24d0 f53e ad27 013a a790 f7b9 e8e3 d939
00000110: 1721 d33a 124d 70bf de65 3cbf c22f 43bf
00000120: e34c 0b3f bba9 c9be 2e03 3abf 002d e4be
00000130: acad 42bf 76a8 dabe aca1 f8be b975 833b
00000140: df84 f93a 363b eb3a 8653 6d3a f2f0 053b
00000150: 4147 d9be 5a49 aabe de40 06bf cbe2 1dbf
00000160: 522b 053f 7c9f a53a e5e5 a53e 0ce9 1d3b
00000170: 0314 c73e a9ac 2a3b d656 d038 365e 3bbf
00000180: 4767 953a c004 123f 95f1 a0be fc6c e4be
00000190: adda 94be 02f3 09bf adec be3a e08d c13e
000001a0: e902 92b8 9677 f5be d12d 813a fb29 d93e
000001b0: a754 febe 9ff6 3f3a 1528 dd39 8bd3 db39
000001c0: ab5f 053f cdeb 8a3b db6a b6be cf78 7b3a
000001d0: f3fe 403f 33d3 0e3a b6da 69bf d00b 5938
000001e0: f635 163b 153f 933e 8c93 2839 33b6 09bf
000001f0: 28a5 96be 02ac 3c3b c775 9c3e aaf7 fdbe
00000200: d582 f7be 948b 37bf 068a 79be 233b a23e
00000210: 6c51 a2be 6720 90ba 8c36 a2be 8256 cf3e
00000220: 622d 6cba 6f1a c43a d698 e4be 7895 b9ba
00000230: fe37 063b f5fc 113f 8b95 53b9 8f11 c6ba
00000240: 4837 2e3f f2e9 d1ba 2263 05bf 5228 96ba
00000250: 8013 03ba 0a7f 23b9 a24f f2be eab8 3bba
00000260: e710 0f3f a6d0 45b9 e198 e3be 94c0 3abf
00000270: 76ce 8eba 4a7f 503e c6bc c0be 6bf1 19bb
00000280: b8f9 bd3e b200 003f 292d 80ba 385b 19ba
00000290: 9d82 88be b6cd fcba ee14 15bf 0ce7 11bf
000002a0: f1eb 943a e4e4 cbbe 95f3 a2be 820e f73e
000002b0: ab05 0abf 6a3d 2ebb 36e3 bcba a111 0eba
000002c0: 0c55 5b3a 640a e4b9 f061 44b9 3da5 17bb
000002d0: 9827 15bf a46f 89ba 85b7 5339 7aa3 bc3e
000002e0: aa89 37bf b8d8 34bf 57b6 a7ba 7070 0fbf
000002f0: b250 123f e0d4 f0ba ab5c eaba f925 ddbe
00000300: 7115 f2be ffcf b839 8814 e3be 005e f1b9
00000310: ac1c 803a 6c26 bebe 11ad 20bf 110f aeb9
00000320: 2b9a 49ba f6be e93a bdd1 3b3b 6f5f c6b9
00000330: cb83 42be ac48 e3ba c889 bf3a 3613 143f
00000340: 00a4 533a 7b26 ce39 a0cf ab3e 837e 89ba
00000350: 1b52 25bf 36be c8ba caf2 ec3e 69e9 193a
00000360: 8e94 a5be cd66 253a 91d9 28ba 7a89 ad3e
00000370: 015d e3be 5eb7 d43e a28e 1a3a dff4 86ba
00000380: e91d e33e 6a51 6a39 b4c7 913a 4f85 12ba
00000390: cb32 3bba 4f85 1b3f b582 c43e 0b29 a8ba
000003a0: 7ecc 853a 3156 71be b55e 13bf bcc3 19bf
000003b0: 7ee9 5e3f cc06 a4be 1204 19bf 13fd 69ba
000003c0: 8866 ce37 4874 e7be 3319 bd3a eab7 9eba
000003d0: c7ac f9be 8b76 4b3a f7e3 fbbe 2035 d73e
000003e0: 00c2 a7ba 05bf 1bbf 8a2b 25bf 1a5e a639
000003f0: 34db 93ba 21f8 213f 3675 c13a 3264 70bb

fcl.mask f4 [10, 64]
1.0 1.0 1.0 1.0 1.0 1.0 1.0 0.0
1.0 1.0 1.0 1.0 0.0 0.0 0.0 1.0
0.0 0.0 1.0 1.0 1.0 0.0 0.0 0.0
0.0 0.0 1.0 1.0 1.0 1.0 1.0 0.0
0.0 0.0 1.0 0.0 1.0 0.0 1.0 1.0
0.0 1.0 0.0 1.0 1.0 0.0 0.0 1.0
1.0 0.0 1.0 1.0 0.0 1.0 1.0 0.0
1.0 1.0 1.0 1.0 0.0 0.0 0.0 0.0
1.0 0.0 0.0 0.0 0.0 1.0 1.0 1.0
1.0 1.0 1.0 1.0 1.0 1.0 1.0 0.0
0.0 0.0 0.0 0.0 1.0 1.0 1.0 1.0
1.0 0.0 1.0 0.0 1.0 0.0 0.0 1.0
0.0 1.0 1.0 1.0 1.0 1.0 0.0 1.0
0.0 1.0 0.0 1.0 1.0 0.0 0.0 0.0
1.0 0.0 1.0 0.0 1.0 0.0 1.0 0.0
0.0 1.0 0.0 1.0 1.0 0.0 1.0 1.0
1.0 1.0 1.0 1.0 1.0 0.0 1.0 1.0
0.0 0.0 1.0 0.0 0.0 1.0 0.0 0.0
1.0 0.0 1.0 0.0 0.0 0.0 1.0 0.0
1.0 0.0 1.0 1.0 0.0 1.0 1.0 0.0
1.0 1.0 0.0 0.0 1.0 0.0 1.0 1.0
0.0 1.0 1.0 1.0 1.0 0.0 0.0 0.0
0.0 0.0 0.0 0.0 1.0 0.0 0.0 1.0
1.0 1.0 0.0 1.0 1.0 0.0 0.0 1.0
1.0 0.0 1.0 0.0 0.0 1.0 1.0 0.0
0.0 0.0 0.0 0.0 1.0 0.0 0.0 1.0
0.0 0.0 1.0 0.0 1.0 0.0 1.0 0.0
1.0 0.0 0.0 1.0 1.0 1.0 0.0 0.0
1.0 0.0 0.0 0.0 0.0 1.0 1.0 0.0
0.0 1.0 1.0 1.0 1.0 1.0 1.0 0.0
0.0 1.0 0.0 0.0 1.0 0.0 1.0 1.0
0.0 1.0 1.0 0.0 0.0 1.0 0.0 0.0
00000000: 0000 803f 0000 803f 0000 803f 0000 803f
00000010: 0000 803f 0000 803f 0000 803f 0000 0000
00000020: 0000 803f 0000 803f 0000 803f 0000 803f
00000030: 0000 0000 0000 0000 0000 0000 0000 803f
00000040: 0000 0000 0000 0000 0000 803f 0000 803f
00000050: 0000 803f 0000 0000 0000 0000 0000 0000
00000060: 0000 0000 0000 0000 0000 803f 0000 803f
00000070: 0000 803f 0000 803f 0000 803f 0000 0000
00000080: 0000 0000 0000 0000 0000 803f 0000 0000
00000090: 0000 803f 0000 0000 0000 803f 0000 803f
000000a0: 0000 0000 0000 803f 0000 0000 0000 803f
000000b0: 0000 803f 0000 0000 0000 0000 0000 803f
000000c0: 0000 803f 0000 0000 0000 803f 0000 803f
000000d0: 0000 0000 0000 803f 0000 803f 0000 0000
000000e0: 0000 803f 0000 803f 0000 803f 0000 803f
000000f0: 0000 0000 0000 0000 0000 0000 0000 0000
00000100: 0000 803f 0000 0000 0000 0000 0000 0000
00000110: 0000 0000 0000 803f 0000 803f 0000 803f
00000120: 0000 803f 0000 803f 0000 803f 0000 803f
00000130: 0000 803f 0000 803f 0000 803f 0000 0000
00000140: 0000 0000 0000 0000 0000 0000 0000 0000
00000150: 0000 803f 0000 803f 0000 803f 0000 803f
00000160: 0000 803f 0000 0000 0000 803f 0000 0000
00000170: 0000 803f 0000 0000 0000 0000 0000 803f
00000180: 0000 0000 0000 803f 0000 803f 0000 803f
00000190: 0000 803f 0000 803f 0000 0000 0000 803f
000001a0: 0000 0000 0000 803f 0000 0000 0000 803f
000001b0: 0000 803f 0000 0000 0000 0000 0000 0000
000001c0: 0000 803f 0000 0000 0000 803f 0000 0000
000001d0: 0000 803f 0000 0000 0000 803f 0000 0000
000001e0: 0000 0000 0000 803f 0000 0000 0000 803f
000001f0: 0000 803f 0000 0000 0000 803f 0000 803f
00000200: 0000 803f 0000 803f 0000 803f 0000 803f
00000210: 0000 803f 0000 0000 0000 803f 0000 803f
00000220: 0000 0000 0000 0000 0000 803f 0000 0000
00000230: 0000 0000 0000 803f 0000 0000 0000 0000
00000240: 0000 803f 0000 0000 0000 803f 0000 0000
00000250: 0000 0000 0000 0000 0000 803f 0000 0000
00000260: 0000 803f 0000 0000 0000 803f 0000 803f
00000270: 0000 0000 0000 803f 0000 803f 0000 0000
00000280: 0000 803f 0000 803f 0000 0000 0000 0000
00000290: 0000 803f 0000 0000 0000 803f 0000 803f
000002a0: 0000 0000 0000 803f 0000 803f 0000 803f
000002b0: 0000 803f 0000 0000 0000 0000 0000 0000
000002c0: 0000 0000 0000 0000 0000 0000 0000 0000
000002d0: 0000 803f 0000 0000 0000 0000 0000 803f
000002e0: 0000 803f 0000 803f 0000 0000 0000 803f
000002f0: 0000 803f 0000 0000 0000 0000 0000 803f
00000300: 0000 803f 0000 0000 0000 803f 0000 0000
00000310: 0000 0000 0000 803f 0000 803f 0000 0000
00000320: 0000 0000 0000 0000 0000 0000 0000 0000
00000330: 0000 803f 0000 0000 0000 0000 0000 803f
00000340: 0000 0000 0000 0000 0000 803f 0000 0000
00000350: 0000 803f 0000 0000 0000 803f 0000 0000
00000360: 0000 803f 0000 0000 0000 0000 0000 803f
00000370: 0000 803f 0000 803f 0000 0000 0000 0000
00000380: 0000 803f 0000 0000 0000 0000 0000 0000
00000390: 0000 0000 0000 803f 0000 803f 0000 0000
000003a0: 0000 0000 0000 803f 0000 803f 0000 803f
000003b0: 0000 803f 0000 803f 0000 803f 0000 0000
000003c0: 0000 0000 0000 803f 0000 0000 0000 0000
000003d0: 0000 803f 0000 0000 0000 803f 0000 803f
000003e0: 0000 0000 0000 803f 0000 803f 0000 0000
000003f0: 0000 0000 0000 803f 0000 0000 0000 0000
