modeldata/opt_Cosine_lr0.001_Aug_BitMnist_PerTensor_4bit_RMS_width64_64_64_bs128_epochs60.pth (torch, 103375 bytes, 4 tensors)

fc1.weight f4 [64, 256]
00000000: bb71 a5bd f9d5 c3bd 8a20 9fbd 5d1d 06bd
00000010: e2d8 32bc b2d5 853c faca 1e3d 2cf2 f13d
00000020: 924f c63d 8ae2 763d c39e 3c3d 8873 debc
00000030: d719 adbd f46e 0ebe f94a 12be 7e91 f0bd
00000040: 7d2a f7bd 0fa2 ccbd d199 46bd 37a3 c33c
00000050: 00e9 9b3c 7fb5 94bb 2778 e53d b323 843d
00000060: 5308 b83d aed7 b53c 51d2 b63c f4da d1bc
00000070: 7df7 8cbb a68c 0a3a 7672 85bc 7ede e1bd
00000080: 0b65 bcbd 2231 2fbd d791 04bd 89c8 ecbd
00000090: 7ae3 01be 5fd2 f9bd 5c96 a7bd 712a bb3b
000000a0: a6a2 563c 0f97 f13b 7a44 66bc 45e2 9abd
000000b0: c74a abbd d725 46bd bf45 57bd a9e2 91bd
000000c0: 4b55 e9bd d25b 9dbd 6a1a 273d 819b d33c
000000d0: 7ae2 7fbd 5721 22bd d113 a7bd b267 b6bc
000000e0: d53e 24bd 1fae 9ebd 0ea6 0dbe e373 2ebd
000000f0: d3c7 70bc d9d7 5ebc e623 f8bd faf9 c5bd
00000100: a1e6 c0bd fbb9 3e3d cc46 c13d c18c 063e
00000110: d477 c83b 1822 98bc 79d5 17be 28ed 94bd
00000120: 9f57 bbbc 6433 02be cbb6 2cbe 6e76 c6bc
00000130: 485b d5bd c861 04be 2112 0dbe 8414 0abe
00000140: 82ea 64bd 579f c73c 2cda e23c 7d27 9b3d
00000150: 41d1 ca3d 6394 dc3d dc50 09be 02e5 e7bd
00000160: 4bab 0dbd 3b10 cabc 60c8 853c 3a68 8e3d
00000170: 02cb fa3c 81ec 21bd 688b 64bd c34b f2bd
00000180: 74d9 e0bc a7ab 143e 05e7 923e a5d3 7f3e
00000190: 0c91 663e b9d8 883e 4bd9 be3c 3791 bcbc
000001a0: e81b 32bd 455c 68bd 985a 9e3d c246 49ba
000001b0: 3cf1 2dbd 6a40 053d c2b5 6e3b 35db b9bd
000001c0: 128a 8a3d 4be7 813e f64d a23e 51c5 893e
000001d0: 83d2 8b3e f71d 033f 480c d53e 298a ee3d
000001e0: 5405 14bd ad2e 7bbd 2604 c83c e762 053d
000001f0: fc6a 1b3d 6560 ff3d d37c f73d 37fe 9c3d
00000200: 72d8 9d3c f5dc 143e 2ee1 9c3d 2195 013e
00000210: ba1b 803e 5ffd c23e 0f6f 873e 0c96 303e
00000220: da18 d23d 86a7 6d3d 2a49 2e3e 889f 643e
00000230: 26db 603e bbc8 583e f57c 1a3e f0d6 a03d
00000240: 066e 7fbd 0165 1e3e 9db5 fa3c 883d 7d3d
00000250: a5c6 a53d afa3 6a3c 324e 0cbc 8dcc 643d
00000260: 552b f83d 1b14 3e3e 5ee6 953d 08da 5e3e
00000270: a7d3 6a3e 433d 3e3e 5cab 073e 14cb 8c3d
00000280: bef5 41bd bf72 563d 5e87 273e 2cfd 743d
00000290: 76ad cdbc e62f e6bc af38 a53c f38c 48bd
000002a0: 686e b1bd f765 d03c e090 35bd e484 a3bc
000002b0: e5e0 b43c be0b 9e3d 6757 f03d 0948 7e3d
000002c0: e20c debc 456b 3dbd 83af db3c 80c1 33be
000002d0: 8d16 99bd 3eb5 393c 3661 d13c f61a 5bbb
000002e0: 356f 84bd 7c5f e0bd dd92 ecbd bb54 d9bc
000002f0: 8396 6cbd c771 823d 718e f33d 362d 29bd
00000300: df12 ffbd 6128 f7bd 52fc e5bd 95a4 10be
00000310: 6219 debd 2f61 ffbd 7c95 00be 5a0a 17bd
00000320: a239 61bd 073e dbbc 34c8 61bd 9a31 453b
00000330: 4ff9 bbbc 911e dd3c 876e 1d3d f87c eabd
00000340: 7c4c 13be d704 2abe 526e 07be 4371 0ebe
00000350: ec5e 23be 7968 62bd f123 5ebd ce35 a1bd
00000360: 6e0b 8bba f309 51bd 17fa 39bd 02d5 113d
00000370: a9b9 fbbc 2603 4cbd ea5e 33bd c1ce bdbd
00000380: 47ae d6bd b025 70bd d568 fdbd ed1c 02be
00000390: fd1e 39be 88ed 14be 7589 67bd 1963 4cbe
000003a0: 7ef1 fcbd 45dc 26be c8a0 b2bd 89eb 23be
000003b0: f51a bc3c 7ac4 46bd b307 c8bd 3eab 01be
000003c0: 07aa acbd 2040 abbd 9e0d 13be 4f2d 88bd
000003d0: 9f27 44bd 76b7 ddbd 3ced e8bd b82a 94bd
000003e0: c578 51bc b3bc 1a3d c3a3 d1bd f9f0 eabc
000003f0: 1cbd 63bc 129e 01be dff2 61bd abcd 8ebd
-0.08078333 -0.095622964 -0.07769878 -0.032742847 -0.010915967 0.01633725 0.038767792 0.11813769
0.096831456 0.06027464 0.046049844 -0.027154699 -0.08452194 -0.13909513 -0.14286412 -0.117465004
-0.12068651 -0.09991848 -0.048486535 0.023881538 0.019032001 -0.0045382376 0.11204558 0.064521216
0.08985963 0.02219757 0.022317084 -0.0256171 -0.004301964 0.00052852405 -0.01628993 -0.11028765
-0.0919896 -0.042771466 -0.032365646 -0.115616865 -0.12684432 -0.12198328 -0.08182976 0.0057118465
0.013100302 0.007372744 -0.014054412 -0.07562689 -0.08363872 -0.04837593 -0.05255675 -0.0712331
-0.113932215 -0.07683529 0.040796675 0.025830986 -0.062471844 -0.039582577 -0.081580766 -0.022266243
-0.040098984 -0.07748055 -0.13832876 -0.042590987 -0.014696079 -0.013601267 -0.12116222 -0.0966682
-0.09418989 0.046564084 0.094373316 0.13139631 0.0061178003 -0.018570945 -0.14827527 -0.072717965
-0.02286893 -0.12714916 -0.16866605 -0.024226394 -0.10417801 -0.12927926 -0.13776447 -0.13484389
-0.055887707 0.024367971 0.027691923 0.07575891 0.09903193 0.1077049 -0.13409752 -0.11322977
-0.034587186 -0.024665942 0.016330898 0.069534734 0.03061438 -0.03953219 -0.05579701 -0.11830857
-0.02744744 0.14518605 0.2869188 0.2498308 0.22516268 0.26727846 0.023296973 -0.023018463
-0.043483645 -0.05672862 0.07732123 -0.0007678085 -0.042466387 0.032532133 0.0036424254 -0.090750135
0.06764616 0.25371775 0.31700104 0.26908353 0.27309045 0.512176 0.41610932 0.11647446
-0.036137894 -0.06132381 0.02441604 0.032565024 0.037943825 0.12469558 0.12084355 0.07665675
0.019268248 0.14537413 0.07660137 0.12654544 0.25021154 0.38083932 0.26451918 0.17244738
0.10258646 0.05802109 0.17020097 0.22326481 0.21958598 0.21170323 0.1508673 0.07853496
-0.062360786 0.15468217 0.030604178 0.06182626 0.08094529 0.014321252 -0.008563565 0.055859137
0.1211764 0.18562357 0.0731933 0.2176286 0.22932301 0.18578057 0.13248962 0.068746716
-0.0473535 0.052355524 0.16360232 0.059811756 -0.025107127 -0.028099012 0.02016863 -0.048962545
-0.086636364 0.025439246 -0.044327617 -0.019960828 0.022079894 0.077170834 0.11735421 0.062080417
-0.027105752 -0.04624488 0.026817089 -0.17554283 -0.07475004 0.011334715 0.02555905 -0.0033432818
-0.064665236 -0.10955712 -0.115514494 -0.02652966 -0.057760727 0.063693576 0.11892403 -0.041302882
-0.12454771 -0.120682485 -0.11229767 -0.14125283 -0.10844685 -0.12469708 -0.12557024 -0.036875106
-0.054986604 -0.026762975 -0.05512257 0.003008938 -0.022946028 0.026992114 0.038435485 -0.11449617
-0.14384645 -0.16603409 -0.13225678 -0.13910393 -0.15954179 -0.055275414 -0.054233495 -0.078715906
-0.0010608265 -0.05103488 -0.04540452 0.03560353 -0.030728178 -0.04980769 -0.04379169 -0.09267951
-0.104824595 -0.05862969 -0.12373511 -0.12706347 -0.18078227 -0.14543736 -0.056527574 -0.19959678
-0.123507485 -0.16294964 -0.08722073 -0.16007818 0.022962073 -0.04852722 -0.097670935 -0.1266298
-0.08430868 -0.0836184 -0.14360663 -0.06649267 -0.047889348 -0.10826008 -0.11373374 -0.072347105
-0.012785141 0.037777614 -0.10236313 -0.028679358 -0.013900068 -0.12657955 -0.05516326 -0.06972822

fc2.weight f4 [64, 64]
00000000: 6d93 543e d5de bf3c b70a 183d 19a4 343e
00000010: cf1b 87bd dbd4 fabd 06dd eb3d 7029 88bd
00000020: 745f 0e3e b045 abbe aa40 febd e007 143d
00000030: 8cb5 973e 8bea bb3d 408d 1d3d 8110 833c
00000040: 8d80 a3be 4087 553e 4c93 a6be c0b3 963e
00000050: 20eb 803d 8b15 b4bd 22a2 583d 163e aebc
00000060: e200 d0be e93d 55be be8a 5c3d cd0d 2abd
00000070: 4722 cabe 5836 83be 733a 2a3d ac73 f73d
00000080: fa9c 863e 8a9e 18bf 9405 393e 8d24 5f3d
00000090: e1ce 99bb 537e 6bbd b7b3 fd3e 8e6d ffbd
000000a0: ff94 0a3e 5d84 24bd 5658 383e 68e2 a33e
000000b0: fdd0 f83d 8726 b4bc a8ea 453e 7a65 1dbe
000000c0: 720b 953e b4a1 0d3e 3114 f1bd 5936 e23e
000000d0: cb99 63be 7949 debe 9295 5fbd 3ef1 93be
000000e0: c38d cb3d ccd3 023e daf8 8a3b dfee 0ebe
000000f0: c934 fe3d fa8e f0bd eb9b 53be 2be0 0b3e
00000100: bcad 043e 9da4 4fbd 0b57 2cbe edcc a2be
00000110: 2607 2dbe b7c6 ad3d 4039 70be f2b4 9d3e
00000120: c08d 82be c37c 1c3d 3799 983e 382e 523e
00000130: 64e0 efbd b81d 063e 8494 843d 2c76 dabe
00000140: 9427 313e eacc 873e 9f1e e7be 3ed5 82bd
00000150: 7806 2a3d 8fb8 1d3d 6523 58be 2b6e 4e3e
00000160: 02cd 90bd f8d0 863e 4c85 903e 5efe 843d
00000170: 2f18 333d 631c 00be 755f 88be dcb0 603e
00000180: 8892 ba3d 611a 813e f8f5 67be 86a4 073e
00000190: 226d b53d 52d2 40be 001c be3e 70d5 cabd
000001a0: 2ff2 42be 2717 433e 3e59 b73e 95b4 93be
000001b0: 34d8 76be a431 1fbd aae2 85be ac04 7fbe
000001c0: 3cce cdbc f75b dfbc 77e9 90bd 4f24 6fbe
000001d0: 4bbb 653c 729f 7f3d 0b1e ff3d 5d4a 563e
000001e0: 4e43 0e3e 11b9 c0be b55b 8fbe 6c7c 5bbe
000001f0: 4f66 af3e 59d4 f13c 6d00 d1be f6c9 963e
00000200: 3b01 00be 70f3 7c3e 6fd4 fb3d dd16 ff3d
00000210: 6547 81bc 651a 4a3e 0db7 b7bd 0093 583c
00000220: 3623 efbd c38c 3bbe b920 7a3c 7fa6 0fbe
00000230: 89d1 943e 01ab 213e c9a0 603d f768 023e
00000240: a435 e2be 5c97 0abd 866f 543e 53b0 62be
00000250: c08b 97be a678 253e a06a 443e a19f 9cbe
00000260: 49c3 4e3c 67ce c8be 68d4 6abd 3a0f ff3d
00000270: d86d 4bbd b461 02be b115 a63e f125 8f3d
00000280: c073 533e 5ef5 c9be 449b 98bd eca3 083e
00000290: 4dc8 943e 414d 203e bb8c dbbe e003 23bd
000002a0: 67ea a3be 36ce 193d 7fb8 813e 015e a7bd
000002b0: bd84 b9bd 2788 f6bd 2a9e 7b3e ec02 24bd
000002c0: e55a 32be ccf5 563e a163 3e3c 35cc 1fbd
000002d0: 8516 ffbd 1b71 973e 0e5d a53e 5a89 21be
000002e0: 2098 673e ff2c b7bd 87b7 7c3e 95e8 4e3e
000002f0: d2e0 67bc 209a 4d3e 751b 1a3d 88cd c03d
00000300: 86a3 bebd b829 64be d78f e23d 84f6 81be
00000310: dd49 423e eaae 963d 0583 3f3d 0a1e 5c3d
00000320: 78a6 883d 21e2 9a3d 9180 a03d 8316 1a3e
00000330: 0b85 19bf d44c ca3e 805e dbbc 9ced 0fbe
00000340: 4418 5a3e 89af 913e c919 70be d816 ff3d
00000350: 6e99 1dbe d735 b83d abb3 26be b8a1 06bd
00000360: bd2c 68be 843b ca3d f0b0 2fbe daef 943e
00000370: 8abf 873e 0ff3 533e a87b ed3d 9fae c43e
00000380: c7dc 323e be22 2f3d d0c1 523e ebc8 4b3e
00000390: 3515 96be 7032 9abd b7c8 8dbe c314 ffbd
000003a0: ab76 60be a3ea 3f3e e0f3 acbd b28c 543e
000003b0: d393 fb3d 0f83 983d c5dd 22bd a8a1 bfbc
000003c0: d8f4 05be 9f11 afbd 8cdf acbd 6737 ea3c
000003d0: f097 0a3e b126 ffbd 9985 9ebe 6b45 153e
000003e0: 2027 023e d6b7 7e3c dd5f 893e 05dc e73e
000003f0: b637 543e fb84 83bd e20e 9c3e 989b e23c
0.20759363 0.023421684 0.037119593 0.17640723 -0.06597101 -0.1224763 0.11516766 -0.066485286
0.139036 -0.33451605 -0.124146774 0.036140323 0.29630697 0.09175595 0.038464785 0.01599908
-0.31934014 0.20852375 -0.32534254 0.29434013 0.062948465 -0.087931715 0.052888997 -0.02126984
-0.40625674 -0.20824398 0.053843252 -0.041517068 -0.39479277 -0.25627398 0.041559648 0.120826095
0.2629164 -0.5961691 0.18068534 0.054478217 -0.0046938513 -0.05749352 0.49551174 -0.12472068
0.135334 -0.040165294 0.18002447 0.32008672 0.12149236 -0.021991028 0.19327796 -0.15370741
0.29110295 0.13831216 -0.11771429 0.4418209 -0.22226636 -0.4341543 -0.054586 -0.2889499
0.09939148 0.12776107 0.004241091 -0.1395831 0.12412412 -0.117460206 -0.20664947 0.13659732
0.129569 -0.050694097 -0.1683008 -0.3179697 -0.16897258 0.084851675 -0.23459339 0.30802113
-0.25498772 0.03820492 0.29804394 0.20525444 -0.11712721 0.13097274 0.064736396 -0.42668283
0.17300254 0.26523525 -0.4514055 -0.06388329 0.041510075 0.038506087 -0.21107252 0.20159213
-0.07070352 0.26331306 0.28226697 0.06493829 0.043724235 -0.12510829 -0.26635328 0.21942466
0.0910998 0.25215438 -0.22652423 0.13246354 0.08858706 -0.18830231 0.37130737 -0.09903991
-0.19037698 0.190518 0.35810274 -0.2884871 -0.24105912 -0.0388657 -0.26149493 -0.24904126
-0.025122754 -0.027265532 -0.0707578 -0.23353694 0.014021705 0.06240792 0.12456902 0.20926805
0.13892862 -0.37641194 -0.27999654 -0.21434182 0.34257743 0.0295202 -0.40820637 0.2945096
-0.1250047 0.24702239 0.12296378 0.12455533 -0.015781114 0.19736631 -0.08970461 0.013218641
-0.11676638 -0.18315415 0.015266591 -0.14028357 0.29066113 0.15787889 0.054840837 0.12735353
-0.4418155 -0.033835754 0.20745668 -0.22137575 -0.29598808 0.16159305 0.19181299 -0.30590537
0.012619802 -0.39219972 -0.057331473 0.12454076 -0.049665302 -0.12732583 0.32438424 0.069896586
0.20649624 -0.39445013 -0.074514896 0.13343781 0.29059067 0.1565447 -0.42880806 -0.039798617
-0.32014772 0.037550174 0.25336072 -0.08172227 -0.09058521 -0.12037688 0.24572054 -0.04004185
-0.17417486 0.20992202 0.011620433 -0.039013106 -0.12455467 0.2957848 0.32297558 -0.15775052
0.22616625 -0.08944129 0.24679385 0.2020591 -0.014152722 0.20078325 0.03762384 0.09414202
-0.09308533 -0.2228154 0.110625915 -0.2538339 0.18973489 0.07357581 0.04675581 0.053739585
0.066723764 0.07562662 0.07837022 0.1504765 -0.5996863 0.3951174 -0.02677846 -0.14055485
0.21298319 0.28454235 -0.23447336 0.12455529 -0.1539056 0.08994644 -0.16279475 -0.03286907
-0.22673316 0.09874633 -0.1715734 0.29089242 0.2651332 0.20698188 0.11595851 0.38414475
0.17467032 0.042757742 0.20581746 0.19900863 -0.29313055 -0.075291514 -0.27692196 -0.12455132
-0.21920268 0.1874185 -0.08444953 0.20756796 0.122840546 0.074468724 -0.039762277 -0.023392513
-0.13081682 -0.08548283 -0.08441076 0.028590871 0.13534522 -0.12458552 -0.30961302 0.14577262
0.12710238 0.01554676 0.2683095 0.4528505 0.20724377 -0.064218484 0.30480105 0.027662084

fc3.weight f4 [64, 64]
00000000: 4682 463e fa18 89bd 1e8b 05be 7a80 213d
00000010: 37bc f03d 278b 8cbe 4713 57be 654f 1ebd
00000020: ae4f aebe 5465 67bd a29f 42be af24 87bd
00000030: ecc1 02be 6292 b8be 12c1 82be 0c49 3fbd
00000040: 91a2 44bd 1e9b cf3c 92c1 edbd cec5 563e
00000050: 6d03 973d 54e9 fb3d efb9 d73d 9850 d6be
00000060: 69e6 40be b972 22bd 9b73 19be 5911 863e
00000070: 8bb7 fd3d 4ca0 183e 07c7 e7bc 79c0 36bd
00000080: 5275 4a3b 1179 91bc ac5d 963e f5e7 e23d
00000090: d202 0abd 3768 273e 6776 8b3e cb6e 98bc
000000a0: 260d 8c3e dadf 123e 6dd8 f8bc b579 12bf
000000b0: e23e 493e ca2a b4bd 3547 a5bd a958 963c
000000c0: 88da 753e 30c5 c43e 015b fb3c 589d ee3d
000000d0: ad53 45be 2f08 2dbd 19e3 91bd f12d 043e
000000e0: db71 25bd 896b 6f3e 70c6 ad3e dbd2 87be
000000f0: 8dd8 1bbe b6e9 ddbc a15a bf3d 4181 153c
00000100: 819c ad3b 6304 b3bc 6685 95be 8571 8abc
00000110: 0a3b f5bd 60f1 3d3e 1eda 80be 6e24 f03d
00000120: a43c 503e f18d 453e beab ebbc 1761 55be
00000130: b903 183c 2089 3c3d b68b 4ebe 7b61 02be
00000140: b1f5 4a3e 390c 36bb 5fcf 43be 2f84 1cbd
00000150: bd1b e2bd 760a 183e f9c6 86bd d90d 75be
00000160: 193e 40be 98f5 483e ecb0 e83d 2ee7 b9be
00000170: 1d6a d1be 5f9f 49be dbfb c5bd cd3f 2fbe
00000180: 9569 9b3e 3ea3 b93d 071b e63d 4ddd 153e
00000190: 6382 91be 3e66 1ebe fc63 1d3d 0778 13be
000001a0: a017 643e 689c 3f3e 653a 653e 4247 ffbd
000001b0: 32c3 39bc 3c29 61bc 34c4 803e 2da8 4fbe
000001c0: ec07 313e f709 11be 2eea 013e 6b8c 933d
000001d0: 8b0f 18bd 3eed 11bd eb00 56be 49e4 a2be
000001e0: 8d4e 483e 8c64 91be abb3 48be 1978 e7bb
000001f0: bb2d 2d3d c433 43be be3f 8e3d f5f4 403e
00000200: 0664 edbd 7bdf 91be 41a3 503e 5c54 eabd
00000210: d317 8839 f677 8c3e 7a2d 133e ef2a b6be
00000220: 714b 18bf 8937 033e 9155 f0bd e148 763d
00000230: 4a02 8c3e 5242 8c3e 1161 ccbe 35e6 31be
00000240: 1639 29bd 658a 073e 871e bebe 4e2f f43d
00000250: 23cc 61bd acd7 bdbe 9488 5dbb 9ef3 493e
00000260: b4ae d3be 1795 713d b6cb b4bc 1b4a f03d
00000270: 0342 95bc ae09 233e 9433 44be c784 563e
00000280: 0537 093e fc4b 723d 350e b83d c4df 21bd
00000290: c618 34be fd39 2c3e eb66 483e 7676 e43d
000002a0: 3f51 e5bc c238 623e d242 273e c953 afbe
000002b0: f205 973e 8715 a8be 4b79 9ebf d8a7 23bf
000002c0: e374 9e3d ade0 403e d3cf a2bc 2999 223e
000002d0: 9ffe 323e c46d 003e 2731 4abd 27f5 8ebe
000002e0: 55b5 53bd bbb2 213d 2e1c 483e f349 1abf
000002f0: 5da8 3dbd 2b39 0cbc d4d5 8c3e 55b3 963c
00000300: 9188 0a3e 049f 813d 7bd0 2dbc 74fe 073e
00000310: 58f6 163d 513f 593d 5864 84bd 3532 883d
00000320: aaf6 03bd 0aef 43be 8601 c03e 3160 b4be
00000330: a375 d13d e2ec 9e3c ea9c e8bd 66c2 503e
00000340: a8a2 0c3d 32bc 97be 9f3a 0f3d 37ac 8fbe
00000350: 9deb 4fbe d4eb fd3d 7b78 673e ae09 2c3e
00000360: f684 493e 3fd3 4bbe 57db 6e3d 81cd 02be
00000370: 01eb 843b a91f b83b 85e7 41be 5fe2 fcbd
00000380: d08a b4bd 3fed 6f3d 873e d7bd d27a 923d
00000390: ddf7 213e 7a03 363e 3d49 3cbe d223 533e
000003a0: 8722 153e c75f 1bbe a37a f03d ca1d d6bd
000003b0: 6693 5a3d daaa 193c e621 bcbe de99 00be
000003c0: ef78 07be fd22 91bd 8ede 003e aa9d 48be
000003d0: d6a7 f9bd 99ef 863d ad92 0cbe f68f 03be
000003e0: f2f8 febb 6aa9 f13d c5db ec3e dbee 9cbe
000003f0: dbda 49be 4cd4 f2bd 419b c2be ad27 373e
0.19385633 -0.06694217 -0.1304135 0.039429165 0.11754649 -0.27449915 -0.21003447 -0.038649935
-0.34045166 -0.05649312 -0.19006208 -0.06598794 -0.12769288 -0.3604918 -0.25537926 -0.046700522
-0.048006598 0.02534252 -0.11609186 0.20973894 0.073737 0.12300363 0.10533511 -0.41858363
-0.18837894 -0.03966019 -0.14985506 0.2618511 0.12388524 0.14904898 -0.028293146 -0.04461715
0.0030892682 -0.017757924 0.2936834 0.110793985 -0.033694096 0.16348349 0.2723877 -0.018607518
0.2735378 0.14343205 -0.030376637 -0.5721696 0.19652894 -0.08797224 -0.08070222 0.018352823
0.24009144 0.38431692 0.030683042 0.11651105 -0.19270201 -0.042244133 -0.071233936 0.1290815
-0.040391784 0.23380865 0.33940458 -0.26528057 -0.15219326 -0.027088981 0.09343458 0.009125055
0.0052981977 -0.021852678 -0.29203337 -0.016899833 -0.119741514 0.18549109 -0.2516641 0.117256984
0.20335633 0.19292428 -0.028768416 -0.20837818 0.009278231 0.04602921 -0.20170483 -0.12732498
0.19820286 -0.0027778281 -0.19122075 -0.038211998 -0.11040447 0.1484774 -0.0658092 -0.23931064
-0.18773688 0.19624937 0.1136187 -0.3630919 -0.4090127 -0.19689701 -0.09667178 -0.17114182
0.3035399 0.09064339 0.11235624 0.14635201 -0.2841979 -0.1546869 0.03842543 -0.14401256
0.22274637 0.18712008 0.22385557 -0.12464763 -0.011338042 -0.013742741 0.2514969 -0.20278998
0.17288178 -0.14163958 0.12686989 0.07204517 -0.037124198 -0.035626642 -0.20898788 -0.31814793
0.19561215 -0.28397024 -0.19599788 -0.0070638773 0.04227994 -0.19062716 0.069457516 0.18843444
-0.115913436 -0.28490815 0.20374776 -0.114418715 0.00025957692 0.27435273 0.14372817 -0.3557963
-0.59490114 0.12814154 -0.117350705 0.060128096 0.27345496 0.27394348 -0.39917806 -0.17372973
-0.041314207 0.13236387 -0.37132666 0.11923085 -0.05512632 -0.37078607 -0.003380333 0.19721839
-0.41344225 0.058980074 -0.022069793 0.117328845 -0.018219953 0.15921661 -0.191603 0.20949088
0.13399895 0.059154496 0.08987085 -0.03952004 -0.17587575 0.16818996 0.1957051 0.11155407
-0.027992843 0.22091964 0.16334084 -0.3424361 0.29496723 -0.32828924 -1.2380766 -0.63927984
0.07737138 0.18835707 -0.019874489 0.15878738 0.17479943 0.12541872 -0.04936328 -0.2792141
-0.051686604 0.03947709 0.19542 -0.6026909 -0.04630314 -0.008558552 0.27506888 0.018396059
0.13528658 0.06329158 -0.010608788 0.1328066 0.036856025 0.0530389 -0.064644516 0.06650201
-0.03221766 -0.19134155 0.37501162 -0.35229638 0.102275155 0.019400064 -0.11358054 0.20386657
0.03433481 -0.2963577 0.034968015 -0.28061077 -0.20304723 0.12398496 0.22604553 0.16800568
0.19679627 -0.19904803 0.058314648 -0.12773706 0.004056335 0.0056190086 -0.18935974 -0.12347864
-0.08815539 0.058575865 -0.10509973 0.07152332 0.15817209 0.17774764 -0.18387313 0.20619133
0.14563952 -0.15173255 0.11742141 -0.104549006 0.053363226 0.009379113 -0.36744612 -0.12558696
-0.13229726 -0.070867516 0.12584898 -0.19591394 -0.12190215 0.065886684 -0.13727827 -0.12847885
-0.0077811414 0.11799891 0.4626142 -0.30650982 -0.19712393 -0.11856899 -0.38009074 0.17886229

fcl.weight f4 [10, 64]
00000000: 228c 9cbe 65c9 8fbc 50eb 57bf 4d7f c43e
00000010: be78 c1be 5158 e9be b7ee c53e 62df 32bf
00000020: 3699 ddbe c1cf 30bf 5d7b 9cbd c4b6 d63d
00000030: 96c1 893e f846 08bf 4708 5bbd 98fa a1bd
00000040: 068d 093f 0843 19bf bd8b 9cbd a659 d1bd
00000050: f88c 6bbe b9a0 45bf db17 6d3e 8951 74be
00000060: 22e1 4cbf 41f1 37bf 7f85 1c3f b961 bcbd
00000070: 9cb4 9bbd 3ea5 383d a040 cbbe 1597 edbe
00000080: ed17 fbbe df63 6bbe b48a c0be 53dd 6f3e
00000090: dcea b03d ab48 05be 3f46 1bbd a499 d5be
000000a0: 375c c83e 8342 d8be e071 c7be 4d7b 91be
000000b0: 6077 6e3e 95f9 12bf 9a17 3cbe b698 bf3e
000000c0: cd68 273e 6d61 7abe 233f 293f 7854 e2be
000000d0: 0a01 083f 54e3 eebe 9b81 a3bd f976 b5be
000000e0: ac2b 03bf bf4a c33e 61ea a2be 60d4 a63d
000000f0: 623d 60be 9238 cebe 7c88 75be 892c 0a3f
00000100: 4b10 31bf 9eea eabe 69b3 9ebd a27a fcbe
00000110: 386c 993d a0dd dbbe 5072 f63e 99a5 03bd
00000120: 04c2 0a3f 1eb0 ed3e dfe8 f43e a7e3 67be
00000130: 2b35 45bf f464 6abe e193 753c ed8c 093f
00000140: b883 0dbf 465b 30bf 816c da3c 792f 00bf
00000150: cc65 14bd f329 b13e c1ab 7abe a5c4 54be
00000160: 0582 bb3e 91fb 0ebd 0c46 c7be a7c6 843d
00000170: 5a1e e43d 6f28 9c3d 8b36 2fbb 5980 c4be
00000180: 0686 c33e 8de9 c03e 58cf 71bd dc73 583d
00000190: 1c53 72be 1bdd 47be d5e6 7dbe 5e23 21bf
000001a0: fd64 2cbe 54d1 4f3d 3d3f 06bf bec4 bfbe
000001b0: d67d 0c3f ed35 a3be 1bf7 d4be fbed aabe
000001c0: 52aa aebe cfff d83e 9b6a a93e fa6c cdbd
000001d0: 5dae 253c 230d 76be cc82 a23e bbdf b63e
000001e0: fc73 71be a4a7 17bf 2ddc f43e d920 9d3d
000001f0: 8109 06bf 0583 15bf 7879 c7be b0b7 6b3e
00000200: fa7f c7be 939d 65be 8164 ebbe 182b c6be
00000210: a6d1 8d3d 2aac c4be 1c56 14bf ff3f f7be
00000220: de5f ed3e 8d23 e73e 746d ff3d 1fc6 543e
00000230: 99d8 6abe 0b60 76be afd7 103c 0bcc 483e
00000240: 76a6 cb3e e034 6a3e 3800 80be 8ccf c4be
00000250: fbc3 02bf 4a6a f1be ba33 72be 7a89 8fbe
00000260: 4fbc 09bf f49f 09bf 2de5 0bbf 2d0f 723e
00000270: 63e9 6bbe b5b6 18bf 05ba c6be 88eb cd3d
00000280: 37af c1be aacd 6bbe a761 c43e db9c d13e
00000290: f00c b5bd c9b7 c3be 7003 babd cdce 96bd
000002a0: 4418 e13e c555 9d3d 652e d43e 49ec 593e
000002b0: 0164 da3c 4da6 c8be 4250 9d3e ed2d e73e
000002c0: 3b01 6c3e dd35 60be 663d 6cbe 8589 9d3e
000002d0: 3422 e7be f252 553d 969a 12be ff3b 9cbd
000002e0: 23f4 6b3e 4a9e 3fbd d32c 2c3e 0438 4c3e
000002f0: 4eb0 9e3e 3869 13bf 5f2e 09bf ee09 c9be
00000300: 3e16 afbd cca1 c4be 171c 6cbe 3c6a e2bc
00000310: d6c7 6bbe 70a4 b63e 0a83 a2be 7047 a73e
00000320: 5558 0bbf c19f 823d ef57 babe f24a 68be
00000330: 4a8e 09bf 3648 de3e 81bf 69be 9bcc 6bbe
00000340: abc3 9fbe 58b5 9a3e e321 c23d 58f0 9a3d
00000350: 40d1 a53e fd2e 0abf 472a ae3e 1554 bebe
00000360: db35 9dbd 2f62 ca3e be77 18bf d1c7 6bbe
00000370: d991 9bbd 307b 113f 7545 b4be 738f 5dbe
00000380: 7ef2 6cbe 276b 453e ed02 0abf 135e bbbe
00000390: ed4e 52be b5bc 453f ed9b e6be dbef 63be
000003a0: e4f5 6bbe d65f ff3e fdad c83e cf04 a4bd
000003b0: 7e52 1bbe 52b4 02bf 9404 16be 23d6 69be
000003c0: 9f66 a03e 9b31 ffbe 8e1e 88be 35de 933e
000003d0: 0497 71be ebad 823e fea7 c2be 8345 d2bd
000003e0: 67eb 15be 7f3e 70be a131 a93d 6d0f a7be
000003f0: 7b78 9c3d b941 27bf 88a8 8fbd ac7b 6cbe
-0.30575663 -0.017552087 -0.84343433 0.38378373 -0.3778743 -0.45575193 0.38658687 -0.69872105
-0.43280953 -0.6906701 -0.07640717 0.104840785 0.26905507 -0.5323329 -0.05347469 -0.07909125
0.5373081 -0.59867907 -0.076438405 -0.10222177 -0.23002994 -0.7719837 0.23153631 -0.23859228
-0.80031025 -0.718525 0.611412 -0.091983266 -0.07602808 0.045079462 -0.39697742 -0.4640433
-0.4904169 -0.22987317 -0.37605822 0.23424272 0.08638546 -0.13016002 -0.03790879 -0.4171878
0.39132854 -0.42238244 -0.38954067 -0.28414384 0.23287725 -0.5741208 -0.18368378 0.37421197
0.16348572 -0.24451227 0.66111964 -0.4420507 0.53126585 -0.46657813 -0.07983705 -0.3544233
-0.51238513 0.38142964 -0.31819442 0.08145976 -0.21898416 -0.40277535 -0.23977846 0.53974205
-0.69165486 -0.45882124 -0.077490635 -0.4931231 0.07491344 -0.42942524 0.4813409 -0.032140348
0.54202294 0.4642343 0.47833917 -0.22645436 -0.7703425 -0.22890073 0.01498887 0.5373066
-0.5527911 -0.6888927 0.026663067 -0.5007244 -0.036229894 0.34602317 -0.24479581 -0.20778139
0.36622635 -0.03490788 -0.3892063 0.064832024 0.111386016 0.076248996 -0.002673539 -0.38379171
0.3818819 0.37678185 -0.05903563 0.052844867 -0.23664516 -0.19517939 -0.24795087 -0.6294459
-0.16835399 0.05073674 -0.52440244 -0.3745479 0.5487951 -0.3187708 -0.41594777 -0.3338469
-0.3411432 0.42382666 0.33089146 -0.10030551 0.010112372 -0.24028449 0.31740415 0.35717568
-0.23579401 -0.59240174 0.4782423 0.07672281 -0.5235825 -0.58403045 -0.3895986 0.2301929
-0.38964826 -0.22423391 -0.45975116 -0.38704753 0.06924753 -0.384126 -0.5794389 -0.48291013
0.46362203 0.4514431 0.124720484 0.20778702 -0.22934188 -0.24060075 0.0088404855 0.19609086
0.39775437 0.22871733 -0.25000167 -0.38439596 -0.5108029 -0.47151405 -0.23652545 -0.28034574
-0.5380296 -0.53759694 -0.5464657 0.23638602 -0.23038249 -0.5965379 -0.38813797 0.1005469
-0.3782899 -0.23027673 0.38355753 0.40939984 -0.08840358 -0.38226154 -0.09082687 -0.07363663
0.43963826 0.07682375 0.41441646 0.21281542 0.026659014 -0.39189377 0.30725294 0.45152226
0.23047344 -0.21895547 -0.23070297 0.30768982 -0.45143282 0.052081056 -0.14316782 -0.07628631
0.2304235 -0.046781816 0.16813974 0.19943243 0.30993885 -0.57582426 -0.5358638 -0.39265388
-0.08549164 -0.3840469 -0.2305759 -0.027638547 -0.2302545 0.3567233 -0.317406 0.3267169
-0.5443166 0.06378127 -0.36395213 -0.2268484 -0.5373274 0.43414468 -0.22826959 -0.2302727
-0.3120397 0.3021648 0.0947912 0.07565373 0.32386208 -0.5397795 0.3401663 -0.37173524
-0.07676288 0.39528033 -0.5955771 -0.23025443 -0.075961776 0.56828594 -0.35209242 -0.21636753
-0.23139378 0.19279157 -0.53910714 -0.3659521 -0.2053792 0.7724107 -0.45040837 -0.22259466
-0.23043019 0.49877805 0.39195243 -0.0800873 -0.15168187 -0.51056397 -0.14650184 -0.22835593
0.31328294 -0.49842533 -0.2658581 0.28880468 -0.23592764 0.25523314 -0.38018793 -0.102671646
-0.1464058 -0.2346134 0.08261419 -0.32628956 0.07640167 -0.6533466 -0.07014567 -0.23094052
