modeldata/opt_Cosine_lr0.001_Aug_BitMnist_PerTensor_FP130_RMS_width64_64_64_bs128_epochs60.pth (torch, 103563 bytes, 4 tensors)

fc1.weight f4 [64, 256]
-0.09952908 -0.026011162 -0.05387481 -0.03358762 -0.07269022 -0.092525475 -0.15781514 -0.09121847
-0.103039734 -0.10911518 -0.05800444 -0.0200175 -0.02803243 -0.07889397 0.016039327 -0.07138522
-0.043001037 -0.06154888 -0.01695762 -0.087054305 -0.18568799 -0.13637146 -0.22339356 -0.13571666
-0.1563992 -0.24530523 -0.14224559 -0.040703055 -0.052729223 0.009183729 -0.02099748 -0.051785994
-0.039090905 -0.10261414 -0.11170422 -0.09531786 -0.14979067 -0.24451984 -0.23126036 -0.102932684
-0.1735407 -0.111886635 0.1530608 0.13898857 0.10301058 0.053430833 0.16801351 -0.008929585
-0.027895205 -0.05347077 -0.1782314 0.005021932 -0.10037499 -0.1440351 -0.10868776 -0.0792824
0.042160343 -0.033760704 -0.16833729 0.11438924 0.22353372 0.095301375 0.20495102 0.113100775
0.0077423532 -0.08935681 -0.12834682 -0.023853086 0.036723215 0.05014847 0.045124747 0.16184516
0.07842419 -0.05819276 -0.25696412 -0.21166612 0.25740305 0.42352566 0.34510678 0.16832991
-0.011178502 -0.033180017 -0.11343801 -0.032975283 0.106539264 -0.06890597 0.068440415 0.22910272
-0.031462356 -0.11932195 -0.18166356 -0.18747756 0.19223635 0.45786786 0.45441926 0.26749778
-0.0061777444 -0.099622324 -0.16708165 -0.01635071 0.05469757 -0.12194611 0.01014453 -0.029120859
0.06836324 0.10671476 -0.24576098 -0.536312 0.14672425 0.5081602 0.4079544 0.2531985
-0.04665995 -0.015769431 0.005156947 0.06381581 -0.018240506 -0.12774421 -0.11089528 -0.13619582
0.19523813 0.08744137 -0.7363531 -0.6399713 0.22135073 0.4540872 0.4615438 0.3353362
-0.02573173 -0.04253123 0.103055045 0.113554895 -0.10376134 -0.011685884 -0.05101585 -0.12476856
0.044957813 -0.22118653 -0.50972855 -0.07728483 0.44619158 0.5306174 0.36511075 0.29489213
-0.09864938 -0.0028535747 0.028085476 -0.04213294 -0.02396989 0.04324286 -0.0812974 -0.16226725
-0.07123224 -0.21178567 -0.054272387 0.38119987 0.40368003 0.2634445 0.18313634 0.23458764
-0.053000387 -0.034199346 -0.034642115 -0.1155229 -0.06765223 0.07637929 -0.2175486 -0.12717265
0.07148129 0.10777801 0.17976627 0.2360323 0.21734402 0.13230848 0.029041441 -0.03827404
-0.029443908 -0.066561654 -0.02910359 -0.021258703 0.11476532 0.13998929 -0.011500879 0.077776335
0.071876325 0.026037415 -0.056186385 0.018222928 0.05179225 -0.050645392 0.032554433 0.007946735
-0.08741381 -0.03219358 -0.0011346106 0.052895308 0.22891541 0.19976728 0.021743344 -0.029163055
-0.064201534 -0.07418407 -0.044732917 -0.008497253 -0.06981036 0.043638214 -0.04397063 0.12678
-0.074917205 -0.022491496 -0.06339222 0.070204616 0.08144849 0.083449505 0.05712865 -0.040865242
-0.08786525 -0.007197599 0.02692707 -0.13589628 0.00972576 0.0446013 0.0020292818 0.07424374
-0.06747193 -0.065168574 -0.17115621 -0.11528029 0.12982897 0.12894112 0.15772343 -0.085266545
-0.049986184 -0.077923186 -0.074070334 -0.01375844 0.019316548 0.017806478 0.02092546 0.011055368
-0.025203008 -0.07281326 -0.07784764 -0.028185682 -0.06144804 0.110577226 0.029328525 -0.015540336
0.15645145 0.07784403 0.039756402 0.025174584 0.0627301 0.08474965 0.035962477 -0.038793623
00000000: e7d5 cbbd 5c15 d5bc d5ab 5cbd 2c93 09bd
00000010: 9cde 94bd ff7d bdbd 4b9a 21be c0d0 babd
00000020: 7f06 d3bd c877 dfbd 1096 6dbd bdfb a3bc
00000030: 44a4 e5bc 2993 a1bd e864 833c 6a32 92bd
00000040: db21 30bd ae1a 7cbd b5ea 8abc 8749 b2bd
00000050: fe24 3ebe f6a4 0bbe 48c1 64be 4ff9 0abe
00000060: 1d27 20be 4b31 7bbe d4a8 11be 3fb8 26bd
00000070: 99fa 57bd 5a77 163c e802 acbc 8d1d 54bd
00000080: c91d 20bd 5d27 d2bd 2fc5 e4bd 0336 c3bd
00000090: ba62 19be 6963 7abe 84cf 6cbe 5fce d2bd
000000a0: a7b4 31be d224 e5bd f8bb 1c3e 0553 0e3e
000000b0: 36f7 d23d 4ada 5a3d bc0b 2c3e 654d 12bc
000000c0: 7c84 e4bc 2b04 5bbd 4b82 36be 058f a43b
000000d0: 6791 cdbd f07d 13be b097 debd d05e a2bd
000000e0: 53b0 2c3d aa48 0abd 9c60 2cbe e844 ea3d
000000f0: 06e6 643e 5e2d c33d aede 513e 61a1 e73d
00000100: 91b3 fd3b b400 b7bd 596d 03be 8c67 c3bc
00000110: 156b 163d 7b68 4d3d bad4 383d bdba 253e
00000120: dd9c a03d 885b 6ebd cd90 83be 01bf 58be
00000130: 55ca 833e 5bd8 d83e d6b1 b03e ad5e 2c3e
00000140: 0926 37bc c5e7 07bd 3052 e8bd 1711 07bd
00000150: 4231 da3d 931e 8dbd 7d2a 8c3d e799 6a3e
00000160: acde 00bd 115f f4bd 0306 3abe 1efa 3fbe
00000170: 9bd9 443e a86d ea3e a4a9 e83e 78f5 883e
00000180: ad6e cabb ca06 ccbd 7417 2bbe edf1 85bc
00000190: 8f0a 603d e2be f9bd 3e35 263c de8e eebc
000001a0: 0702 8c3d 458d da3d c4a8 7bbe be4b 09bf
000001b0: e23e 163e c916 023f 66df d03e 3ca3 813e
000001c0: 811e 3fbd e52e 81bc 9bfb a83b ddb1 823d
000001d0: 1d6d 95bc 61cf 02be 111d e3bd eb76 0bbe
000001e0: 81ec 473e 7614 b33d a381 3cbf 29d5 23bf
000001f0: c4a9 623e 1e7e e83e 784f ec3e 30b1 ab3e
00000200: 59cb d2bc 3a35 2ebd 860e d33d 788f e83d
00000210: d380 d4bd 2676 3fbc fff5 50bd a986 ffbd
00000220: af25 383d b97e 62be 927d 02bf 8247 9ebd
00000230: 3973 e43e 8bd6 073f ccef ba3e 1afc 963e
00000240: b008 cabd 0a03 3bbb 8313 e63c 9793 2cbd
00000250: 815c c4bc 6d1f 313d 407f a6bd 6329 26be
00000260: 35e2 91bd 58de 58be b94c 5ebd a12c c33e
00000270: 26af ce3e 33e2 863e 1888 3b3e be37 703e
00000280: ef16 59bd 9d14 0cbd e4e4 0dbd 4597 ecbd
00000290: 418d 8abd bf6c 9c3d 0fc5 5ebe 8c39 02be
000002a0: c864 923d b8ba dc3d a614 383e 74b2 713e
000002b0: 6e8f 5e3e e07b 073e 51e8 ed3c 3dc5 1cbd
000002c0: 5a34 f1bc 7a51 88bd a76a eebc bb26 aebc
000002d0: 150a eb3d 5a59 0f3e 2f6e 3cbc 3349 9f3d
000002e0: e533 933d 6b4c d53c b223 66bd 4048 953c
000002f0: 1c24 543d 8b71 4fbd cc57 053d 0633 023c
00000300: 0306 b3bd 6add 03bd 37b7 94ba c0a8 583d
00000310: cd68 6a3e cb8f 4c3e 191f b23c 5ce7 eebc
00000320: 187c 83bd d1ed 97bd dd39 37bd 1038 0bbc
00000330: bcf8 8ebd fcbd 323d 8c1a 34bd 9ed2 013e
00000340: 316e 99bd 1640 b8bc c8d3 81bd 70c7 8f3d
00000350: 77ce a63d 93e7 aa3d bbff 693d 5062 27bd
00000360: b2f2 b3bd d6d9 ebbb 2996 dc3c 6528 0bbe
00000370: cb58 1f3c daaf 363d b3fd 043b 1a0d 983d
00000380: b92e 8abd 1a77 85bd 9343 2fbe 1318 ecbd
00000390: e3f1 043e 2409 043e 4082 213e 3aa0 aebd
000003a0: 50be 4cbd 3196 9fbd 30b2 97bd 146b 61bc
000003b0: bd3d 9e3c e4de 913c df6b ab3c 9321 353c
000003c0: 8a76 cebc 1e1f 95bd 956e 9fbd a9e5 e6bc
000003d0: f1b0 7bbd 5076 e23d 6042 f03c e59c 7ebc
000003e0: cf34 203e b16c 9f3d 9cd7 223d ee3a ce3c
000003f0: a378 803d 3991 ad3d 644d 133d 10e6 1ebd

fc2.weight f4 [64, 64]
0.11750659 -0.12974627 0.37717387 -0.000113675545 0.19884576 0.24502748 -0.1899363 -0.7141193
0.121579625 -0.13339655 -0.101637706 -0.17255794 0.020393118 0.18838543 -0.09610284 0.04642282
0.20165688 -0.23036909 -0.17778054 -0.26518947 -0.17868166 -0.1991997 -0.09598976 0.016293742
0.10040434 -0.34103373 -0.40557486 -0.16763215 -0.29507953 -0.16446625 -0.123201415 -0.4020212
-0.32811797 0.00046338505 -0.10036407 -0.13698138 -0.5077892 -0.30463907 0.17237814 0.23224658
-0.16060337 0.040495202 0.40315259 -0.24673198 0.085176334 0.26412675 0.19198215 0.12443954
0.20032614 0.24127477 0.10235586 0.25712547 0.11954245 0.182108 0.059617322 0.13521983
0.0068000206 0.2024322 0.10810271 -0.06552501 -0.2708632 -0.2104072 -0.20710555 0.18942589
0.11869504 -0.033044003 0.19696389 -0.40173966 0.21619321 -0.09889415 -0.33737567 0.006512097
0.23077747 -0.21898228 -0.5498406 -0.36099124 -0.3329566 0.15257062 -0.20317487 -0.01303959
0.1107657 -0.04997026 0.09439525 -0.07064968 -0.024990791 -0.8203413 -0.62345713 0.4017442
-0.07181211 -0.24877891 -0.18221039 -0.20066214 0.02116881 0.13689749 -0.15855888 -0.40547144
0.13406034 -0.12589005 0.09264385 -0.24578846 0.19902219 0.19815458 -0.09246828 0.2034221
-0.48193252 -0.40676412 -0.038857855 0.0029312135 -0.0325053 0.072123796 0.18257403 0.015759416
0.35506228 -0.17499883 -0.03958165 0.10068801 0.40318856 0.209984 -0.07047939 0.04096688
0.23466852 -0.11454661 0.0790981 -0.20301087 -0.024896627 0.40345165 -0.80637765 0.104275845
-0.009030456 -0.17833965 -0.6767866 0.06656142 -0.17579505 0.01963608 -0.08557639 0.65604365
0.12433655 -0.33099544 0.20158829 0.20154473 -0.08108602 -0.25342387 0.39988643 -0.20558956
-0.12285504 -0.26028353 0.20539221 0.15726265 -0.101718955 -0.17403999 0.17604037 -0.7639056
0.041544788 -0.19167897 -0.056788217 0.14747475 -0.16226088 0.39585885 0.2642015 0.40369284
-0.4048833 -0.17819157 -0.081739694 -0.16705593 -0.057530142 0.18443343 0.088228986 -0.37522852
-0.08689228 -0.17251351 0.030308347 0.10731813 0.5224905 -0.3463483 0.26724887 0.08643903
-0.20241857 -0.06597619 0.10565179 -0.19192408 0.08224696 0.015428725 -0.20155504 -0.004648545
0.19608006 -0.6557355 -0.46017975 -0.043744702 -0.05183972 0.10600884 -0.08312528 -0.40425774
-0.16898443 -0.19053672 0.2676134 -0.1970073 0.021111922 0.077361144 0.40320063 0.41535276
0.3745229 -0.024116198 -0.19993316 -0.29329944 0.090576656 -0.40103948 -0.37464073 0.40320912
-0.39300177 -0.002824172 0.33560202 0.09365426 0.10057673 0.34942067 0.051133905 0.20460168
-0.20156066 0.098172024 -0.01766472 0.3036785 -0.2013555 0.04777533 0.013444922 -0.27544805
-0.4032201 0.13272348 0.28108725 0.43730915 0.38033715 0.40052986 -0.23179826 0.10289754
0.1970976 -0.0056043672 0.17154616 0.36289823 0.073042534 0.11109325 -0.22934003 -0.20161602
-0.06858309 0.0022209298 -0.24193263 -0.025353473 0.42059344 0.1001462 -0.27753633 -0.204211
0.20527309 -0.4027755 -0.06769964 0.10322051 0.20786348 0.2015929 -0.102072574 0.09581493
00000000: 4ca7 f03d 35dc 04be ef1c c13e 1865 eeb8
00000010: 399e 4b3e 7ce8 7a3e a97e 42be 86d0 36bf
00000020: bdfe f83d 1b99 08be 6e27 d0bd 07b3 30be
00000030: 780f a73c 1ce8 403e 91d1 c4bd db25 3e3d
00000040: 247f 4e3e e0e5 6bbe 1a0c 36be eac6 87be
00000050: 53f8 36be 02fb 4bbe 4796 c4bd 747a 853c
00000060: caa0 cd3d f99b aebe 82a7 cfbe c3a7 2bbe
00000070: aa14 97be d769 28be 0651 fcbd b9d5 cdbe
00000080: 14ff a7be 7df2 f239 ad8b cdbd d944 0cbe
00000090: 79fe 01bf a7f9 9bbe e583 303e 0cd2 6d3e
000000a0: 3675 24be 4cde 253d 046a ce3e 4fa7 7cbe
000000b0: ee70 ae3d 9f3b 873e f896 443e 28da fe3d
000000c0: 4c22 4d3e bc10 773e f39f d13d f3a5 833e
000000d0: acd2 f43d 857a 3a3e 4b31 743d 1177 0a3e
000000e0: b5d2 de3b 634a 4f3e f464 dd3d fa31 86bd
000000f0: 95ae 8abe fc74 57be 7a13 54be dcf8 413e
00000100: 6316 f33d 2659 07bd e7b0 493e d2b0 cdbe
00000110: c161 5d3e 0489 cabd 81bc acbe 6e63 d53b
00000120: ee50 6c3e e43c 60be 5bc2 0cbf d8d3 b8be
00000130: 4a79 aabe 793b 1c3e 130d 50be 01a4 55bc
00000140: 21d9 e23d 9ead 4cbd 4c52 c13d c8b0 90bd
00000150: 7db9 ccbc e301 52bf e39a 1fbf 6ab1 cd3e
00000160: 3a12 93bd e6bf 7ebe 5c95 3abe 607a 4dbe
00000170: 366a ad3c db2e 0c3e 425d 22be f499 cfbe
00000180: 1d47 093e 52e9 00be 0fbc bd3d f8af 7bbe
00000190: 79cc 4b3e 09e9 4a3e 0260 bdbd e24d 503e
000001a0: dcbf f6be 6343 d0be 6a29 1fbd 9a19 403b
000001b0: 4724 05bd a4b5 933d b0f4 3a3e e419 813c
000001c0: b9ca b53e e532 33be 5e20 22bd 8435 ce3d
000001d0: bb6e ce3e 0c06 573e 8057 90bd e3cc 273d
000001e0: f24c 703e 6a97 eabd 2ffe a13d 15e2 4fbe
000001f0: 03f4 cbbc 3791 ce3e c46e 4ebf 938e d53d
00000200: 7af4 13bc ab9e 36be e341 2dbf 5b51 883d
00000210: 9e03 34be d8db a03c ad42 afbd 7af2 273f
00000220: 29a4 fe3d 3c78 a9be 296d 4e3e be61 4e3e
00000230: 6d10 a6bd c6c0 81be eabd cc3e 1286 52be
00000240: 6c9b fbbd e243 85be 5652 523e 7609 213e
00000250: 0752 d0bd 8a37 32be ed43 343e 518f 43bf
00000260: de2a 2a3d 7e47 44be c39a 68bd 9f03 173e
00000270: b727 26be 03ae ca3e 6b45 873e d4b0 ce3e
00000280: dd4c cfbe da77 36be 2467 a7bd b610 2bbe
00000290: baa4 6bbd 1edc 3c3e 66b1 b43d f41d c0be
000002a0: 94f4 b1bd 62a7 30be 3649 f83c 9cc9 db3d
000002b0: f0c1 053f 9054 b1be d8d4 883e f206 b13d
000002c0: d046 4fbe 861e 87bd f75f d83d bf87 44be
000002d0: 1871 a83d c3c8 7c3c 7264 4ebe d252 98bb
000002e0: 36c9 483e 48de 27bf ae9c ebbe a52d 33bd
000002f0: e355 54bd 2a1b d93d 963d aabd dffa cebe
00000300: 410a 2dbe 0f1c 43be a004 893e 48bc 49be
00000310: e9f2 ac3c 856f 9e3d 5070 ce3e 1ea9 d43e
00000320: 77c1 bf3e 558f c5bc 47bb 4cbe 582b 96be
00000330: 4180 b93d 0c55 cdbe e9d0 bfbe 6d71 ce3e
00000340: 8737 c9be be15 39bb 07d4 ab3e cecd bf3d
00000350: 2cfb cd3d 44e7 b23e c971 513d 1a83 513e
00000360: eb65 4ebe 6a0e c93d 9ab5 90bc c07b 9b3e
00000370: 2330 4ebe 10b0 433d 1748 5c3c 8707 8dbe
00000380: dd72 cebe aae8 073e abea 8f3e fce6 df3e
00000390: 8dbb c23e 4012 cd3e 865c 6dbe f2bb d23d
000003a0: f4d3 493e d7a4 b7bb cca9 2f3e cccd b93e
000003b0: 5397 953d dc84 e33d 1dd8 6abe 6e74 4ebe
000003c0: 4b75 8cbd 058d 113b 30bd 77be 16b2 cfbc
000003d0: 0658 d73e 7319 cd3d 3e19 8ebe b01c 51be
000003e0: 1c33 523e 9738 cebe 1ca6 8abd 4665 d33d
000003f0: 2ada 543e 5f6e 4e3e 6d0b d1bd 9e3a c43d

fc3.weight f4 [64, 64]
0.11717641 -0.09410644 0.27247077 -0.041084647 0.34474713 -0.022112854 -0.09617928 0.0013254515
0.25859803 0.124449134 -0.33056867 0.14290221 0.0559484 -0.061753515 -0.2165683 -0.25638312
-0.12944154 -0.08384118 -0.3864672 0.101088844 0.050109956 0.21639346 -0.43101272 -0.035956353
-0.09072285 0.10877959 -0.345683 0.15767807 -0.3440385 -0.024566973 -0.121889226 0.31006068
-0.16077322 -0.6088217 0.23386274 0.0461568 -0.092838526 0.3649034 0.3444928 -0.060598496
-0.060521338 0.46103844 0.23502806 -0.19526325 0.028421177 -0.15302336 0.12944704 0.21219274
0.080999814 -0.103046864 0.15889877 -0.31586844 -0.08015791 0.2315796 0.21302763 -0.047620784
-0.44590786 0.13245425 0.06672897 -0.18279725 0.17121242 0.38342366 0.026473353 -0.30412376
0.2649034 0.16000666 0.25261852 0.083176404 0.24474831 -0.048521385 -0.08531477 0.023227258
0.14281298 -0.056364127 -0.2370786 -0.04247925 -0.13374351 -0.006326697 0.1651955 -0.07339653
0.27094147 0.15381636 -0.3462063 0.17309794 0.09073055 0.28904217 0.09097269 0.08687943
0.1095234 -0.19779553 0.007512684 0.33492902 0.11481547 0.055508103 0.16611914 -0.028327685
0.056089997 -0.24106948 0.1738861 0.1160389 -0.3492916 -0.2323806 0.08638981 0.27768013
0.17255202 -0.3476429 -0.058898132 0.23694839 -0.42513084 -0.048382606 0.17566973 -0.012063262
0.026590396 0.038504947 0.0733083 -0.15245533 0.13366985 -0.06139087 -0.15160842 -0.09390526
-0.27125165 -0.1694624 0.3357986 -0.1655052 0.20061305 0.09784817 0.22169302 -0.11732552
-0.16824922 0.30079046 0.049448416 0.17255375 -0.09342693 0.15693322 0.014860584 0.15361519
-0.28359658 -0.07220425 -0.0143922735 -0.22413692 0.0485759 0.08720107 0.073949315 0.35592452
0.06282686 -0.1851272 0.080110505 0.08880556 0.21520966 0.04467361 -0.03112934 -0.4638667
0.0768648 -0.08646518 0.07291044 -0.092411794 -0.055556122 -0.33741748 0.13308384 -0.35206136
-0.15337093 0.3282422 0.23614113 -0.13128023 0.3163674 -0.040322516 -0.4538392 -0.33430627
0.2791329 -0.09593493 -0.10469266 0.09079539 0.048726074 -0.040300366 -0.09422352 -0.01557407
-0.19157995 -0.08819848 0.14092244 0.12750633 -0.049508147 -0.115260065 -0.08655991 -0.45107728
0.18928789 0.1745054 0.19644652 0.47303003 0.0695878 0.11127203 -0.14197315 -0.16035631
0.033906765 -0.35230055 -0.21266472 -0.6569116 -0.1557336 -0.17235316 0.036979225 -0.06597385
-0.09852474 -0.44492957 0.10618597 0.17973296 0.069944754 -0.12352095 -0.41367385 -0.34725595
-0.013229007 0.17275958 -0.25463945 -0.045445267 -0.4277241 -0.39010787 -0.0886745 -0.03778376
-0.020092124 0.14724159 -0.022539843 0.24965715 -0.24202327 0.18172532 -0.05807945 0.13018726
0.0724834 -0.29607102 -0.6367777 0.20757589 0.25073385 0.16876982 0.11071869 -0.057360876
-0.09069628 -0.1897122 0.16987845 -0.35392475 0.116622224 -0.27025285 0.074815676 0.0019215097
0.04308923 -0.087092936 0.1674199 0.013380327 0.16084169 -0.27548397 0.008709835 0.3453093
0.22111112 -0.3126473 -0.15424782 0.1672048 0.0036741649 -0.30264083 0.02182862 -0.110911384
00000000: 30fa ef3d e1ba c0bd 4a81 8b3e 6048 28bd
00000010: b282 b03e 0426 b5bc a4f9 c4bd c6ba ad3a
00000020: f666 843e 30df fe3d 4c40 a9be f554 123e
00000030: 262a 653d 41f1 7cbd 15c4 5dbe a644 83be
00000040: 538c 04be edb4 abbd 07df c5be ab07 cf3d
00000050: 1940 4d3d 3f96 5d3e b3ad dcbe f846 13bd
00000060: e7cc b9bd d5c7 de3d 5dfd b0be 5c76 213e
00000070: d025 b0be ad40 c9bc 0fa1 f9bd 46c0 9e3e
00000080: bca1 24be bddb 1bbf b779 6f3e ea0e 3d3d
00000090: 2022 bebd 9ed4 ba3e 5c61 b03e 2136 78bd
000000a0: 39e5 77bd 3b0d ec3e 32ab 703e 17f3 47be
000000b0: 87d3 e83c 28b2 1cbe c48d 043e 0e49 593e
000000c0: 3be3 a53d 3c0a d3bd 5cb6 223e 82b9 a1be
000000d0: d529 a4bd 3423 6d3e ea23 5a3e 030e 43bd
000000e0: 094e e4be 16a2 073e 33a9 883d 342f 3bbe
000000f0: 4f52 2f3e 1b50 c43e a5de d83c 1cb6 9bbe
00000100: 6ba1 873e c9d8 233e 3757 813e 6458 aa3d
00000110: 4d9f 7a3e 5cbe 46bd 83b9 aebd 1747 be3c
00000120: 913d 123e 12de 66bd bcc4 72be b9fe 2dbd
00000130: 0ff4 08be 2e50 cfbb 0229 293e eb50 96bd
00000140: d7b8 8a3e 0982 1d3e f441 b1be 9640 313e
00000150: f0d0 b93d 56fd 933e e44f ba3d d8ed b13d
00000160: ce4d e03d e98a 4abe f62c f63b d17b ab3e
00000170: 6024 eb3d 775c 633d 231b 2a3e 760f e8bc
00000180: a0be 653d ebda 76be 330f 323e cea5 ed3d
00000190: 59d6 b2be 2ef5 6dbe 24ed b03d 172c 8e3e
000001a0: 7ab1 303e 40fe b1be 2b3f 71bd 99a2 723e
000001b0: c0aa d9be d72c 46bd c4e2 333e fda4 45bc
000001c0: 1ad4 d93c 5db7 1d3d a922 963d 401d 1cbe
000001d0: c0e0 083e fe74 7bbd 3d3f 1bbe 6751 c0bd
000001e0: 7fe1 8abe 8d87 2dbe cbed ab3e 327a 29be
000001f0: 826d 4d3e 9f64 c83d 7f03 633e 5d48 f0bd
00000200: 8649 2cbe 3501 9a3e 6c8a 4a3d eeb1 303e
00000210: 9e56 bfbd 1ab3 203e cf79 733c 4d4d 1d3e
00000220: 9233 91be d2df 93bd 92cd 6bbc 2684 65be
00000230: 86f7 463d 7996 b23d bd72 973d bd3b b63e
00000240: 5eab 803d fc91 3dbe fa10 a43d b0df b53d
00000250: ec5f 5c3e adfb 363d f502 ffbc f07f edbe
00000260: 4b6b 9d3d a814 b1bd 1252 953d 6542 bdbd
00000270: d18e 63bd fcc1 acbe 2147 083e 6341 b4be
00000280: 450d 1dbe 5d0f a83e fbce 713e 536e 06be
00000290: e8fa a13e 3929 25bd 9d5d e8be 312a abbe
000002a0: 82ea 8e3e 8879 c4bd 1b69 d6bd eff2 b93d
000002b0: fe94 473d ff11 25bd 43f8 c0bd 622a 7fbc
000002c0: 892d 44be 68a1 b4bd f94d 103e 0591 023e
000002d0: 0ec9 4abd 780d ecbd 5246 b1bd 9af3 e6be
000002e0: afd4 413e 8bb1 323e 4729 493e fe30 f23e
000002f0: 0c84 8e3d 97e2 e33d 6961 11be 7234 24be
00000300: d2e1 0a3d bd60 b4be c8c4 59be 5c2b 28bf
00000310: a178 1fbe 597d 30be 8777 173d 4c1d 87bd
00000320: 57c7 c9bd cfcd e3be 0878 d93d eb0b 383e
00000330: 323f 8f3d 8df8 fcbd 0fcd d3be 88cb b1be
00000340: 7abe 58bc e3e7 303e 1a60 82be d124 3abd
00000350: a7fe dabe 38bc c7be fa9a b5bd 25c3 1abd
00000360: 3d98 a4bc 80c6 163e 7aa5 b8bc 20a6 7f3e
00000370: f3d4 77be 3416 3a3e b8e4 6dbd cf4f 053e
00000380: 2d72 943d 9f96 97be dd03 23bf c68e 543e
00000390: 3060 803e ffd1 2c3e 7bc0 e23d 3df3 6abd
000003a0: f9be b9bd ea43 42be 9ef4 2d3e a035 b5be
000003b0: a2d7 ee3d 955e 8abe f638 993d 2bdb fb3a
000003c0: 557e 303d c85d b2bd 1f70 2b3e 2939 5b3c
000003d0: afb3 243e 3c0c 8dbe b2b3 0e3c 61cc b03e
000003e0: f46a 623e 4f13 a0be 24f3 1dbe bc37 2b3e
000003f0: 42ca 703b bdf3 9abe efd1 b23c 8225 e3bd

fcl.weight f4 [10, 64]
0.32399726 -0.511392 -0.26898053 0.4215452 -0.18286787 -0.5971542 -0.5426088 0.42535472
-0.20849913 0.3582475 0.36931518 -0.6741204 -0.28601304 -0.24279062 0.1852677 -0.19643584
-0.100537695 0.30791974 -0.017365504 -0.6671719 -0.39622653 -0.39947227 -0.6276341 0.13483816
-0.12590751 -0.63565826 -0.590459 0.35189188 -0.4887968 0.4330492 -0.19213738 -0.19696563
-0.82995194 0.793522 0.81224996 -0.36865947 -0.6127932 0.5521855 -0.7940229 -0.8023005
0.24887572 -0.7940258 0.39702445 0.25365138 -0.625859 -0.32260618 -0.9683521 -0.49222723
-0.15640022 -0.44145948 -0.66714805 -0.6568294 -0.5376972 -0.19529273 -0.7940867 -0.74607694
-0.18866038 -0.4654167 0.38563693 -0.39701933 0.2993378 0.3878985 0.4804872 -0.23029147
-0.39723712 0.05520403 0.714131 -0.9109766 0.41861373 -0.41796508 -0.39673856 -0.8796468
-1.0132576 -0.4327042 -0.3831893 0.38065064 0.49228916 0.3972296 -0.7910378 0.5252459
0.5791252 -0.39195895 0.38676214 0.36900896 -0.27607894 0.089857206 -0.5196829 -0.29577556
0.3949459 -0.7940201 -0.39452022 0.7940285 -0.24524811 -0.82708704 0.37249178 -0.7982629
0.68519145 0.13901235 0.14146142 -0.5102617 -0.50166243 -1.0240643 -0.8002764 -0.49184585
-0.003002122 -0.79402715 -0.40331945 0.021453882 -1.2309724 0.37067497 -0.4135493 -0.7074982
-0.17702462 0.08235821 0.065480694 -0.4213551 -0.7580197 0.050811637 0.1115525 0.1679953
-0.79305756 0.39758152 -0.2475695 -0.49668276 0.5379186 -0.15921752 -0.2716378 0.62294906
0.39745757 0.3572228 -0.20484461 -0.032925267 -0.59333235 -0.60292584 -0.71886694 -0.44499114
-0.39719325 0.46064833 -0.38994327 -0.5090326 -0.397082 0.3712257 -0.20022379 -0.62683934
-0.3982592 0.39701188 -0.4644772 0.49888766 -0.43546233 0.401152 -0.3866286 0.0072624357
-0.004883972 0.19845787 -0.05933532 -0.20705695 -0.03557708 0.72423214 0.27681598 0.08895329
0.43541262 -0.8027517 -0.39946786 0.08910838 -0.720757 -0.21574324 0.3294101 0.7536387
-0.787117 -0.24669635 -0.41165337 -0.07520823 -0.18454693 -0.036412586 0.18008637 -0.39701423
0.5381204 -0.07614095 0.3970012 0.3713142 -0.42468005 -0.19383769 -0.7677374 0.6060823
-0.37349054 -0.41763794 -0.44379798 0.0969766 -0.18899482 -0.28596705 -0.200288 -0.42288268
0.3495885 -0.19929302 -0.79404634 -0.42240044 -0.6928165 0.3685111 -0.3970918 -0.39599648
0.21270028 -0.10918232 0.03223931 0.40627983 -0.1961466 -0.17327614 -0.7940283 -0.38492408
-0.288115 -0.189993 -0.3968804 0.066300154 -0.34876055 -0.3111361 -0.46459237 -0.3906651
0.3856861 0.083352216 0.28815964 -0.09095769 -0.40057874 -0.3961364 0.62701017 -0.19518223
-0.7945416 -0.010813557 -0.3543906 -0.1997021 0.7209831 -0.7949003 -0.6363811 -0.018243669
-0.76040137 -0.37828332 0.46151417 -0.32278955 -0.4398647 0.27871248 -0.18486847 0.039035317
-0.39704737 0.37611988 0.5624069 0.39566433 0.2712636 -0.5829851 -0.3546651 -0.78524834
0.66736233 0.39701536 -0.15307437 -0.10926271 -0.46718574 0.1840208 -0.34396976 -0.39363563
00000000: f8e2 a53e 96ea 02bf d1b7 89be c6d4 d73e
00000010: b741 3bbe 19df 18bf 69e8 0abf 18c8 d93e
00000020: cc80 55be 376c b73e e116 bd3e 2893 2cbf
00000030: 4d70 92be 1b9e 78be d1b6 3d3e 7a26 49be
00000040: b5e6 cdbd a8a7 9d3e 1a42 8ebc c7cb 2abf
00000050: 34de cabe a187 ccbe a1ac 20bf 0413 0a3e
00000060: e6ed 00be 80ba 22bf 5228 17bf 2c2b b43e
00000070: 9343 fabe a0b8 dd3e a9bf 44be 5cb1 49be
00000080: bb77 54bf 4224 4b3f 9def 4f3f efc0 bcbe
00000090: 04e0 1cbf 075c 0d3f 1645 4bbf 9163 4dbf
000000a0: 47d9 7e3e 4645 4bbf ca46 cb3e 98de 813e
000000b0: 4c38 20bf a32c a5be ece5 77bf 3505 fcbe
000000c0: 6127 20be fa06 e2be 37ca 2abf f925 28bf
000000d0: 86a6 09bf d1fa 47be 4449 4bbf e6fe 3ebf
000000e0: 3030 41be 194b eebe 3472 c53e 1e46 cbbe
000000f0: ce42 993e a29a c63e 6b02 f63e 87d1 6bbe
00000100: aa62 cbbe 9f1d 623d 4ad1 363f c335 69bf
00000110: 8a54 d63e 85ff d5be 5121 cbbe 8830 61bf
00000120: 6db2 81bf 688b ddbe 6331 c4be a4e4 c23e
00000130: 530d fc3e ae61 cb3e 7481 4abf 8476 063f
00000140: 8d41 143f d8ae c8be b005 c63e beee bc3e
00000150: 385a 8dbe 0e07 b83d f009 05bf e56f 97be
00000160: 5936 ca3e e744 4bbf 8efe c9be 7445 4b3f
00000170: 5222 7bbe fabb 53bf 3eb7 be3e f55a 4cbf
00000180: b568 2f3f 4159 0e3e 43db 103e 83a0 02bf
00000190: f36c 00bf 8a14 83bf eade 4cbf 38d3 fbbe
000001a0: 40bf 44bb 5d45 4bbf e37f cebe 0dc0 af3c
000001b0: 8190 9dbf 1cc9 bd3e bcbc d3be 9a1e 35bf
000001c0: f145 35be 6cab a83d be1a 863d dbbb d7be
000001d0: 940d 42bf dd1f 503d a375 e43d f606 2c3e
000001e0: d205 4bbf ce8f cb3e dc82 7dbe 344d febe
000001f0: 09b5 093f eb09 23be 1c14 8bbe 9779 1f3f
00000200: 8f7f cb3e e8e5 b63e c9c2 51be a5dc 06bd
00000210: a1e4 17bf 5959 1abf aa07 38bf e1d5 e3be
00000220: ea5c cbbe 19da eb3e a5a6 c7be f64f 02bf
00000230: 554e cbbe 4c11 be3e 7707 4dbe 8b78 20bf
00000240: a1e8 cbbe 2445 cb3e f5cf edbe 346e ff3e
00000250: ebf4 debe cc63 cd3e 2ff4 c5be baf9 ed3b
00000260: ba09 a0bb 8a38 4b3e 9809 73bd bd06 54be
00000270: 46b9 11bd 4767 393f d3ba 8d3e 242d b63d
00000280: 67ee de3e 2381 4dbf 0d87 ccbe 747e b63d
00000290: 8883 38bf cceb 5cbe 71a8 a83e 77ee 403f
000002a0: 8080 49bf f89d 7cbe 3bc4 d2be c606 9abd
000002b0: dff9 3cbe 5d25 15bd 9068 383e 7345 cbbe
000002c0: 42c2 093f c9ef 9bbd be43 cb3e e51c be3e
000002d0: aa6f d9be 637d 46be 708a 44bf 3628 1b3f
000002e0: 273a bfbe a4d4 d5be 7d39 e3be ab9b c63d
000002f0: dc87 41be 466a 92be 4c18 4dbe 1484 d8be
00000300: 44fd b23e 7813 4cbe 9f46 4bbf df44 d8be
00000310: 6c5c 31bf 7dad bc3e 9e4f cbbe 0dc0 cabe
00000320: 1ace 593e fb9a dfbd 5e0d 043d e903 d03e
00000330: a8da 48be 4d6f 31be 7045 4bbf c514 c5be
00000340: cf83 93be 868d 42be e833 cbbe 60c8 873d
00000350: be90 b2be 3b4d 9fbe 0ddf edbe 4205 c8be
00000360: a678 c53e 91b4 aa3d a989 933e 0648 babd
00000370: a818 cdbe 64d2 cabe bd83 203f dadd 47be
00000380: 1467 4bbf 582b 31bc af72 b5be b57e 4cbe
00000390: 5992 383f 967e 4bbf dfe9 22bf bf73 95bc
000003a0: aaa9 42bf 5aae c1be 964b ec3e ac44 a5be
000003b0: f235 e1be 67b3 8e3e 294e 3dbe 7fe3 1f3d
000003c0: cb49 cbbe c992 c03e e6f9 0f3f 8494 ca3e
000003d0: 10e3 8a3e 833e 15bf aa96 b5be 0906 49bf
000003e0: 42d8 2a3f 9945 cb3e 87bf 1cbe 21c5 dfbd
000003f0: f832 efbe f36f 3c3e ce1c b0be 9c8a c9be
