modeldata/opt_Cosine_lr0.001_BitMnist_PerTensor_4bitsym_RMS_width64_64_64_bs128_epochs60.pth (torch, 205845 bytes, 8 tensors)

fc1.weight f4 [64, 256]
0	0xb88f81d9	-6.8429574e-05
1	0xbd9308cf	-0.071794145
2	0xbcf79936	-0.030224424
3	0xbd8a3667	-0.06748658
4	0x3d146325	0.036227364
5	0xb88ef742	-6.817143e-05
6	0xbd269f63	-0.040679347
7	0xb88cf2ea	-6.7209665e-05
8	0xb8133af9	-3.5102454e-05
9	0xbcf0f6df	-0.029414592
10	0xbd5911d1	-0.052995507
11	0x3cddaead	0.027060831
12	0xbcf0ad58	-0.029379532
13	0xb88f3a70	-6.829656e-05
14	0xbd1d9ea2	-0.038481362
15	0xbd8274b3	-0.06369915
16	0xb88f81d9	-6.8429574e-05
17	0xbd59a846	-0.053138994
18	0xbcdd61de	-0.027024206
19	0x3d3de0fe	0.046357147
20	0xbc9c090b	-0.01904728
21	0x3baa2a59	0.0051930365
22	0x3ddcc7d1	0.107802995
23	0x3e0f97d7	0.14022766
24	0xbd0c792b	-0.034295242
25	0x3d7bb8b8	0.06145546
26	0xbd86c662	-0.06580807
27	0xbdc56532	-0.09638442
28	0xbc52af82	-0.012859227
29	0xb8809754	-6.131703e-05
30	0x3d2286e4	0.039679423
31	0xbd121d36	-0.03567239
32	0xbd3b6efd	-0.045760144
33	0xbda001b8	-0.07812828
34	0xb8917887	-6.936589e-05
35	0x3d72579d	0.059165586
36	0x3d27b8b6	0.04094764
37	0xbc40e57f	-0.011773466
38	0x3ca9ecc6	0.020742785
39	0xbb252b48	-0.00252028
40	0x3e25d8ac	0.16195935
41	0x3d5848b5	0.052803714
42	0xbdc99de9	-0.09844572
43	0xbd376b25	-0.044779915
44	0xbcdcb6c4	-0.026942618
45	0xbe2a8e4f	-0.16655849
46	0xb8c923eb	-9.591117e-05
47	0xbcc2b751	-0.023769053
48	0xb88f1dee	-6.824346e-05
49	0x3ce0a7d1	0.027423771
50	0xbcbb35db	-0.022852829
51	0xba17ed59	-0.00057955604
52	0xbd938fb3	-0.07205143
53	0x3c817e36	0.015807252
54	0xba2abff6	-0.000651359
55	0x3d7ab9f6	0.061212502
56	0x3dd19b16	0.102346584
57	0x3dbfd0e8	0.093660176
58	0x3d169956	0.036767326
59	0x3db4789b	0.08812066
60	0xbcd2cdd4	-0.025732912
61	0x3ad22940	0.0016034022
62	0x3d0c1e9c	0.03420888
63	0xbcd8d00a	-0.026466388
64	0xbd2fcac6	-0.04291799
65	0xbd8a75aa	-0.06760724
66	0xbcfa1335	-0.030526737
67	0xbc061556	-0.008183798
68	0xbcb4777e	-0.022029635
69	0x3702c78b	7.7950635e-06
70	0x3daccde0	0.08437705
71	0xb99c4f8f	-0.00029813914
72	0x3e0d8c62	0.13823083
73	0xbaeb2506	-0.0017940111
74	0xb9f65750	-0.0004698583
75	0xbdbb5ea3	-0.0914891
76	0xbd1373c3	-0.03599907
77	0xbdefb732	-0.117048636
78	0x3d964c52	0.07338776
79	0xbd7127e2	-0.058875926
80	0xbcfb6e30	-0.03069219
81	0xbd751d6f	-0.059842523
82	0xb9d1b247	-0.00039996413
83	0xbaa58327	-0.0012627587
84	0xbdae2d6c	-0.08504757
85	0xb9d1c050	-0.0004000687
86	0xbddbca66	-0.10731964
87	0xbd93b3ef	-0.07212054
88	0x3aecf440	0.0018078163
89	0x3db919c5	0.09038118
90	0x39c8a6ae	0.0003827116
91	0x3dfefb35	0.12450258
92	0x3abfab9f	0.0014623291
93	0x3c0a0f57	0.008426509
94	0xbcc127b5	-0.023578504
95	0x387432b0	5.822134e-05
96	0xb8900304	-6.867017e-05
97	0xb884ae02	-6.326662e-05
98	0xba3a4f8f	-0.0007107192
99	0xbe1b32cd	-0.15156098
100	0xbdf5250d	-0.119699575
101	0xbe450c0e	-0.1924288
102	0xbeb3deb1	-0.35130838
103	0xbe7678ac	-0.2406947
104	0xbdb146ab	-0.08656057
105	0xbda39497	-0.07987326
106	0x3a6dcc3b	0.0009071265
107	0xba06d01f	-0.0005142707
108	0xbaf91de1	-0.0019006097
109	0x3d0c2c36	0.03422185
110	0x3d95e6c4	0.07319406
111	0xb88fe52f	-6.86146e-05
112	0xbc8513c5	-0.016244778
113	0xbd1c7103	-0.038193714
114	0xbce3a2df	-0.027787624
115	0xbdf730dc	-0.12069866
116	0xbdeedea1	-0.11663557
117	0xbe1c6640	-0.1527338
118	0xbe1e81e7	-0.15479241
119	0x3e1ad336	0.15119633
120	0x3d38c20a	0.045106925
121	0xbe1c4d45	-0.15263851
122	0xbe01db96	-0.12681422
123	0x3e032276	0.12806115
124	0xbd984e31	-0.07436789
125	0xbd88d151	-0.06680549
126	0x3dc4791b	0.095934115
127	0xb88bf254	-6.6731736e-05
128	0xbd26e994	-0.0407501
129	0xb9de1139	-0.00042355972
130	0x3dbb6293	0.09149661
131	0x3e0dfebb	0.13866703
132	0x3a982514	0.001160773
133	0x394e788d	0.000196906
134	0x3d91a7c4	0.07112077
135	0x3e4349a6	0.19071063
136	0x3dbe367d	0.092877366
137	0xbd45866a	-0.04822389
138	0x3a7adaa5	0.0009569324
139	0x3d83ea6a	0.06441195
140	0xbdc83869	-0.097763844
141	0x3d1f0f06	0.038832687
142	0xb98dceae	-0.00027047604
143	0xbd42cd95	-0.04755934
144	0xb9c0b226	-0.00036753825
145	0xbd427d8b	-0.04748301
146	0x3df32aa6	0.11873369
147	0x39a5a852	0.0003159666
148	0x3e117faa	0.14208856
149	0x3d0dbb97	0.034602728
150	0x3e34b788	0.17648137
151	0x3d79caae	0.060984306
152	0x3d733086	0.059372447
153	0x39f29a7d	0.0004627294
154	0x39a912da	0.00032248237
155	0xb98db22e	-0.0002702637
156	0x3e29246e	0.16517803
157	0x3df53c50	0.11974394
158	0xb97ca0d9	-0.00024092513
159	0xbd316fb8	-0.043319434
160	0x3d376dee	0.04478257
161	0xba0f2743	-0.00054608675
162	0x3e294c0a	0.16532913
163	0x3e2b8313	0.1674922
164	0xbd6690b2	-0.056290336
165	0x3ae4b502	0.0017448964
166	0xbb48e12a	-0.0030651786
167	0x3ad12ee9	0.0015959415
168	0xbe271a82	-0.16318706
169	0x3b38a9f6	0.0028177476
170	0x3d86fecf	0.0659157
171	0x3ddba98f	0.107257
172	0x3df221b6	0.11822836
173	0x3e017e9c	0.12645954
174	0xb9ccc46a	-0.00039056252
175	0x3d5ca8e5	0.053872008
176	0xbd6829c4	-0.056680456
177	0x3d610b51	0.054942433
178	0xbad4239c	-0.0016184929
179	0xba0741ea	-0.0005159663
180	0x3aff7b8d	0.0019491777
181	0xbc984938	-0.0185896
182	0x3a0a9222	0.0005286058
183	0xbd8b7a9b	-0.068104945
184	0xbd98d98f	-0.07463371
185	0x3cda01d8	0.026612207
186	0x3dcdc2ef	0.10046946
187	0x3d8b6713	0.06806769
188	0x3df9913d	0.12185905
189	0x3e1077ec	0.14108247
190	0xbbbc6fca	-0.005750631
191	0xbd08296d	-0.03324263
192	0x3cbe937a	0.023263682
193	0xb8a4c3ea	-7.856621e-05
194	0xbd0fb015	-0.035080034
195	0x3d2a981f	0.04164898
196	0x3dc202b8	0.09473175
197	0xbb64bfdb	-0.0034904394
198	0x3d1c6c42	0.03818918
199	0x3df99839	0.12187237
200	0xbaeaaf40	-0.0017905012
201	0x3a7d8c34	0.0009672076
202	0xbcccd90c	-0.02500584
203	0xbd202b2f	-0.039103683
204	0xba4df77e	-0.00078570086
205	0xbaabcce0	-0.0013107322
206	0x3d20f5b1	0.03929681
207	0xbd3d947f	-0.046284195
208	0xb88f8450	-6.8434165e-05
209	0x3d60c430	0.0548746
210	0x3d604a97	0.054758634
211	0xba526836	-0.0008026393
212	0x3dbb59de	0.09148
213	0x3dee5284	0.11636832
214	0xbad1f330	-0.001601791
215	0x3d79d976	0.060998403
216	0x3dbb4634	0.091442496
217	0x3b0edaf9	0.0021797998
218	0x3b23f7ce	0.002501953
219	0x3c250177	0.01007115
220	0xbd82f95c	-0.06395218
221	0x3db2745e	0.087136015
222	0xbd494333	-0.04913635
223	0x3d2fdb6b	0.042933863
224	0x3cca052b	0.024660667
225	0xb88fb1e6	-6.8519075e-05
226	0xb88b3f99	-6.6398825e-05
227	0xbc9f94de	-0.019480165
228	0xbcfb845d	-0.030702764
229	0x3e0424de	0.12904689
230	0x3cdf75d9	0.027277874
231	0xbca0bc29	-0.019620972
232	0xb850f0af	-4.981522e-05
233	0x3c46391c	0.012098577
234	0xbdeabe52	-0.11462082
235	0xbd7090da	-0.05873189
236	0xbda72646	-0.08161597
237	0x3d6dbdbb	0.05804227
238	0xbcb99735	-0.022655109
239	0xb88f869c	-6.843844e-05
240	0xbce89d98	-0.028395459
241	0xbd3b9d00	-0.045804024
242	0xbda4c670	-0.080456614
243	0xbcf9689e	-0.030445393
244	0x385ff4c7	5.339531e-05
245	0x3e040c19	0.1289524
246	0x3c424951	0.0118583
247	0xbcf35312	-0.029702697
248	0xbe1913fa	-0.14949027
249	0x3821407d	3.844545e-05
250	0xbd7a5a90	-0.061121523
251	0xbd5a3fe5	-0.05328359
252	0xbcfd32f7	-0.030908091
253	0x3d03201b	0.03201304
254	0xbc8a9754	-0.016917862
255	0xb88f8256	-6.843048e-05

fc1.mask f4 [64, 256]
0	0x00000000	0.0
1	0x3f800000	1.0
2	0x3f800000	1.0
3	0x3f800000	1.0
4	0x3f800000	1.0
5	0x00000000	0.0
6	0x3f800000	1.0
7	0x00000000	0.0
8	0x00000000	0.0
9	0x3f800000	1.0
10	0x3f800000	1.0
11	0x3f800000	1.0
12	0x3f800000	1.0
13	0x00000000	0.0
14	0x3f800000	1.0
15	0x3f800000	1.0
16	0x00000000	0.0
17	0x3f800000	1.0
18	0x3f800000	1.0
19	0x3f800000	1.0
20	0x3f800000	1.0
21	0x3f800000	1.0
22	0x3f800000	1.0
23	0x3f800000	1.0
24	0x3f800000	1.0
25	0x3f800000	1.0
26	0x3f800000	1.0
27	0x3f800000	1.0
28	0x3f800000	1.0
29	0x00000000	0.0
30	0x3f800000	1.0
31	0x3f800000	1.0
32	0x3f800000	1.0
33	0x3f800000	1.0
34	0x00000000	0.0
35	0x3f800000	1.0
36	0x3f800000	1.0
37	0x3f800000	1.0
38	0x3f800000	1.0
39	0x00000000	0.0
40	0x3f800000	1.0
41	0x3f800000	1.0
42	0x3f800000	1.0
43	0x3f800000	1.0
44	0x3f800000	1.0
45	0x3f800000	1.0
46	0x00000000	0.0
47	0x3f800000	1.0
48	0x00000000	0.0
49	0x3f800000	1.0
50	0x3f800000	1.0
51	0x00000000	0.0
52	0x3f800000	1.0
53	0x3f800000	1.0
54	0x00000000	0.0
55	0x3f800000	1.0
56	0x3f800000	1.0
57	0x3f800000	1.0
58	0x3f800000	1.0
59	0x3f800000	1.0
60	0x3f800000	1.0
61	0x00000000	0.0
62	0x3f800000	1.0
63	0x3f800000	1.0
64	0x3f800000	1.0
65	0x3f800000	1.0
66	0x3f800000	1.0
67	0x3f800000	1.0
68	0x3f800000	1.0
69	0x00000000	0.0
70	0x3f800000	1.0
71	0x00000000	0.0
72	0x3f800000	1.0
73	0x00000000	0.0
74	0x00000000	0.0
75	0x3f800000	1.0
76	0x3f800000	1.0
77	0x3f800000	1.0
78	0x3f800000	1.0
79	0x3f800000	1.0
80	0x3f800000	1.0
81	0x3f800000	1.0
82	0x00000000	0.0
83	0x00000000	0.0
84	0x3f800000	1.0
85	0x00000000	0.0
86	0x3f800000	1.0
87	0x3f800000	1.0
88	0x00000000	0.0
89	0x3f800000	1.0
90	0x00000000	0.0
91	0x3f800000	1.0
92	0x00000000	0.0
93	0x3f800000	1.0
94	0x3f800000	1.0
95	0x00000000	0.0
96	0x00000000	0.0
97	0x00000000	0.0
98	0x00000000	0.0
99	0x3f800000	1.0
100	0x3f800000	1.0
101	0x3f800000	1.0
102	0x3f800000	1.0
103	0x3f800000	1.0
104	0x3f800000	1.0
105	0x3f800000	1.0
106	0x00000000	0.0
107	0x00000000	0.0
108	0x00000000	0.0
109	0x3f800000	1.0
110	0x3f800000	1.0
111	0x00000000	0.0
112	0x3f800000	1.0
113	0x3f800000	1.0
114	0x3f800000	1.0
115	0x3f800000	1.0
116	0x3f800000	1.0
117	0x3f800000	1.0
118	0x3f800000	1.0
119	0x3f800000	1.0
120	0x3f800000	1.0
121	0x3f800000	1.0
122	0x3f800000	1.0
123	0x3f800000	1.0
124	0x3f800000	1.0
125	0x3f800000	1.0
126	0x3f800000	1.0
127	0x00000000	0.0
128	0x3f800000	1.0
129	0x00000000	0.0
130	0x3f800000	1.0
131	0x3f800000	1.0
132	0x00000000	0.0
133	0x00000000	0.0
134	0x3f800000	1.0
135	0x3f800000	1.0
136	0x3f800000	1.0
137	0x3f800000	1.0
138	0x00000000	0.0
139	0x3f800000	1.0
140	0x3f800000	1.0
141	0x3f800000	1.0
142	0x00000000	0.0
143	0x3f800000	1.0
144	0x00000000	0.0
145	0x3f800000	1.0
146	0x3f800000	1.0
147	0x00000000	0.0
148	0x3f800000	1.0
149	0x3f800000	1.0
150	0x3f800000	1.0
151	0x3f800000	1.0
152	0x3f800000	1.0
153	0x00000000	0.0
154	0x00000000	0.0
155	0x00000000	0.0
156	0x3f800000	1.0
157	0x3f800000	1.0
158	0x00000000	0.0
159	0x3f800000	1.0
160	0x3f800000	1.0
161	0x00000000	0.0
162	0x3f800000	1.0
163	0x3f800000	1.0
164	0x3f800000	1.0
165	0x00000000	0.0
166	0x3f800000	1.0
167	0x00000000	0.0
168	0x3f800000	1.0
169	0x3f800000	1.0
170	0x3f800000	1.0
171	0x3f800000	1.0
172	0x3f800000	1.0
173	0x3f800000	1.0
174	0x00000000	0.0
175	0x3f800000	1.0
176	0x3f800000	1.0
177	0x3f800000	1.0
178	0x00000000	0.0
179	0x00000000	0.0
180	0x00000000	0.0
181	0x3f800000	1.0
182	0x00000000	0.0
183	0x3f800000	1.0
184	0x3f800000	1.0
185	0x3f800000	1.0
186	0x3f800000	1.0
187	0x3f800000	1.0
188	0x3f800000	1.0
189	0x3f800000	1.0
190	0x3f800000	1.0
191	0x3f800000	1.0
192	0x3f800000	1.0
193	0x00000000	0.0
194	0x3f800000	1.0
195	0x3f800000	1.0
196	0x3f800000	1.0
197	0x3f800000	1.0
198	0x3f800000	1.0
199	0x3f800000	1.0
200	0x00000000	0.0
201	0x00000000	0.0
202	0x3f800000	1.0
203	0x3f800000	1.0
204	0x3f800000	1.0
205	0x00000000	0.0
206	0x3f800000	1.0
207	0x3f800000	1.0
208	0x00000000	0.0
209	0x3f800000	1.0
210	0x3f800000	1.0
211	0x00000000	0.0
212	0x3f800000	1.0
213	0x3f800000	1.0
214	0x3f800000	1.0
215	0x3f800000	1.0
216	0x3f800000	1.0
217	0x00000000	0.0
218	0x3f800000	1.0
219	0x3f800000	1.0
220	0x3f800000	1.0
221	0x3f800000	1.0
222	0x3f800000	1.0
223	0x3f800000	1.0
224	0x3f800000	1.0
225	0x00000000	0.0
226	0x00000000	0.0
227	0x3f800000	1.0
228	0x3f800000	1.0
229	0x3f800000	1.0
230	0x3f800000	1.0
231	0x3f800000	1.0
232	0x00000000	0.0
233	0x3f800000	1.0
234	0x3f800000	1.0
235	0x3f800000	1.0
236	0x3f800000	1.0
237	0x3f800000	1.0
238	0x3f800000	1.0
239	0x00000000	0.0
240	0x3f800000	1.0
241	0x3f800000	1.0
242	0x3f800000	1.0
243	0x3f800000	1.0
244	0x00000000	0.0
245	0x3f800000	1.0
246	0x3f800000	1.0
247	0x3f800000	1.0
248	0x3f800000	1.0
249	0x00000000	0.0
250	0x3f800000	1.0
251	0x3f800000	1.0
252	0x3f800000	1.0
253	0x3f800000	1.0
254	0x3f800000	1.0
255	0x00000000	0.0

fc2.weight f4 [64, 64]
0	0x3d87c29b	0.06628915
1	0xbe393007	-0.18084727
2	0xbc826533	-0.015917396
3	0x3d81fdd9	0.06347246
4	0x3e0d130c	0.13776797
5	0x3dc6b51f	0.09702515
6	0x3e222927	0.15836011
7	0xbdfffec5	-0.12499765
8	0x3ddada31	0.10686148
9	0x3d9d11fe	0.07669447
10	0x3d78c942	0.06073881
11	0xbe5b520f	-0.21418022
12	0x3e39c157	0.1814016
13	0xbea28e28	-0.31749082
14	0xbdce2206	-0.10065083
15	0xbe5012fb	-0.2031974
16	0x3e336e8f	0.17522644
17	0xbd629d57	-0.055325832
18	0xbb48910b	-0.003060403
19	0x3e51ba50	0.20481229
20	0x3dc34849	0.09535272
21	0xbec81062	-0.39075
22	0x3cee03cf	0.02905455
23	0x3df71d4b	0.12066134
24	0xbe84b0f5	-0.25916258
25	0xbcd860d6	-0.026413362
26	0xbd0e2734	-0.034705356
27	0xbe270b35	-0.16312869
28	0x3d04261c	0.032262906
29	0x3d185b33	0.03719635
30	0x3bb3a288	0.0054820217
31	0xb7545086	-1.2654933e-05
32	0xbec155a9	-0.37760666
33	0xbc988fc3	-0.018623238
34	0xbdff01ae	-0.12451492
35	0xbcc80cf6	-0.024420243
36	0xbe36c2c7	-0.17847739
37	0xbe98290c	-0.29718816
38	0xbd874d44	-0.06606534
39	0x3dcd5ff9	0.10028071
40	0xbda605e3	-0.081065916
41	0x3df735d6	0.12070815
42	0xbdf74742	-0.12074138
43	0x3e2ca159	0.16858424
44	0x39bd87d8	0.000361501
45	0xbd630c4e	-0.055431657
46	0xbebc180e	-0.36737102
47	0xbda82a91	-0.08211244
48	0x3ddfa546	0.10920195
49	0x3e7d610a	0.24744049
50	0xbd236320	-0.039889455
51	0x3d4616c6	0.048361562
52	0x3e27b6c3	0.16378312
53	0x3e0f1cef	0.13975881
54	0xbcded421	-0.02720076
55	0xbe39c523	-0.18141608
56	0x3e199932	0.14999846
57	0xbe091c6e	-0.13389751
58	0xbd39c9ea	-0.045358576
59	0x3d83a590	0.06428063
60	0xbe39c77f	-0.18142508
61	0xbe8cba2b	-0.27485785
62	0x3e14e5bb	0.1454076
63	0xbeef60b5	-0.4675347
64	0xbed701a3	-0.41993436
65	0xbd2f9068	-0.042862326
66	0x3df7a792	0.120925084
67	0xbdf60fb0	-0.12014711
68	0xbec32a93	-0.3811842
69	0xbc038661	-0.008027644
70	0xbe128b47	-0.14310943
71	0xbeabf77e	-0.3358726
72	0xbdc68856	-0.09693973
73	0x3e132af4	0.14371854
74	0x3bae5c60	0.0053210706
75	0x3eb41d3c	0.35178554
76	0x3e39bed6	0.18139204
77	0xbd9c5c9e	-0.07634853
78	0xbd4a7d81	-0.049436096
79	0x3df4cc8e	0.11953078
80	0x3db5bd5e	0.088740095
81	0xbd79d6b2	-0.060995765
82	0x3d132aa0	0.035929322
83	0x3e035086	0.12823686
84	0x3c9b5b68	0.018964484
85	0x3dbe5dc0	0.09295225
86	0x3d7810c4	0.060562864
87	0x3e22f7a6	0.15914783
88	0xbe8a36c4	-0.26994908
89	0x3d2b09ef	0.04175752
90	0xbd60b336	-0.05485841
91	0x3e193d00	0.14964676
92	0xbd7609f7	-0.060068097
93	0x3c662b58	0.01404842
94	0xbdf8cfdb	-0.1214902
95	0xbe0d9510	-0.13826394
96	0x3d76f60c	0.060293242
97	0xbeb695ca	-0.35661155
98	0x3e06a8ad	0.13150282
99	0x3d98215f	0.0742824
100	0xbe0a7ee3	-0.13524966
101	0x3e7311fb	0.23737328
102	0xbd17c3ae	-0.03705185
103	0x3deae916	0.11470239
104	0x3dc553e4	0.096351415
105	0x3df1935e	0.11795686
106	0xbdf3bb0f	-0.11900913
107	0xbcb0e5b0	-0.021593899
108	0x3e097779	0.13424481
109	0xbcd086b1	-0.02545485
110	0x3e9209b6	0.28523034
111	0xbaf4c268	-0.001867366
112	0xbe3eff5a	-0.18652096
113	0xbe6807dc	-0.22659248
114	0xbbda5c28	-0.006663818
115	0xbe69f54f	-0.22847484
116	0xba82dc7a	-0.000998392
117	0x3d9e790f	0.07737934
118	0x3d2c3a22	0.042047627
119	0x3d7873af	0.0606572
120	0xbdf7a708	-0.120924056
121	0x3de228b8	0.11042923
122	0xbdeeeaad	-0.116658546
123	0xbe02ae4f	-0.12761806
124	0x3d5c13c9	0.053729806
125	0x3d087e45	0.033323545
126	0x3e117d19	0.14207877
127	0xbdf7ad4b	-0.120936
128	0xbdf8cec6	-0.12148814
129	0xbecb0d0d	-0.39658394
130	0x3df7a8bc	0.120927304
131	0x3dd124b3	0.10212078
132	0x3e1810c3	0.14850144
133	0xbcd96c7c	-0.026540987
134	0xbe39e3ed	-0.18153353
135	0xbe724233	-0.23658065
136	0x3d2a8f32	0.041640468
137	0xbf0a3f48	-0.5400281
138	0xbc56a17f	-0.013100027
139	0x3df53d20	0.11974549
140	0xbdb35d83	-0.0875807
141	0x3e2a4482	0.16627696
142	0x3dc8ca85	0.098042525
143	0xbc569f86	-0.013099557
144	0xbb033e3c	-0.0020026108
145	0xbe8b4fb5	-0.2720925
146	0xbde72622	-0.1128657
147	0x3e4e982d	0.20175238
148	0x3d13006b	0.03588907
149	0x3df66b83	0.12032225
150	0x3e00aabf	0.12565134
151	0x3d28bb27	0.041194107
152	0xbe37d1dd	-0.1795115
153	0xbe096267	-0.13416444
154	0xbef63bb5	-0.48092428
155	0x3d5fd2b3	0.054644298
156	0xbd12997e	-0.035790913
157	0xbc400994	-0.011721034
158	0xbd7811da	-0.0605639
159	0x3bda3db8	0.0066601895
160	0xbca2293a	-0.019795049
161	0xbe01683b	-0.12637417
162	0x3d4e863c	0.050420985
163	0x3d3a04c8	0.045414716
164	0x3dce8a59	0.100849815
165	0xbdaf4221	-0.08557535
166	0xbc16fcb2	-0.009215521
167	0x3e043855	0.12912114
168	0x3d52c965	0.051461596
169	0x3e06a199	0.13147582
170	0xbde8601c	-0.113464564
171	0x3e2b5f04	0.16735464
172	0xbcb60465	-0.022218892
173	0xbda42b04	-0.08016017
174	0x3c1dfc55	0.00964268
175	0xbd34fb66	-0.044185065
176	0xbb43699d	-0.002981759
177	0xbe110163	-0.14160685
178	0x3e1905a5	0.1494356
179	0x3e3816be	0.17977425
180	0x3dc97579	0.09836859
181	0xbcf5979b	-0.029979518
182	0x3d6e67ed	0.05820458
183	0x3ddafff1	0.10693348
184	0x3e1d6da2	0.15373853
185	0xbd782440	-0.060581446
186	0x3e1afa52	0.15134552
187	0x3cd003a6	0.025392365
188	0x3ebc14a1	0.3673449
189	0xbec49ab6	-0.38399285
190	0xbea5d0ed	-0.3238596
191	0x3e4568be	0.19278237
192	0xba47795f	-0.0007609333
193	0x3d842757	0.06452816
194	0x3e7ff130	0.2499435
195	0xbd583ab2	-0.05279035
196	0xbe6e5912	-0.23276165
197	0xbd920b17	-0.071310215
198	0xbdeb3889	-0.114853926
199	0x3e222354	0.15833789
200	0xbd4fb069	-0.050705347
201	0xbe77f6f8	-0.24215305
202	0xbd7c229c	-0.061556444
203	0x3d99bbf7	0.075065546
204	0xbd1cde4b	-0.038297933
205	0x3d45b570	0.048268735
206	0x3ccc3d20	0.02493149
207	0xbd398490	-0.045292437
208	0xbd781b86	-0.060573123
209	0xbe8f8ae6	-0.2803566
210	0x3ea37778	0.31927085
211	0x3d8005aa	0.0625108
212	0xbd77ac71	-0.060467187
213	0xbeb3a12d	-0.35083905
214	0xbe9dd070	-0.30823088
215	0x3d77bec5	0.060484666
216	0x3e193ac4	0.14963824
217	0xbb184cb1	-0.002323907
218	0x3dfa4b73	0.12221422
219	0x3e9de890	0.30841494
220	0xbe0215ac	-0.1270358
221	0x3d2a0e64	0.04151763
222	0xbe4b7fa4	-0.1987291
223	0x3b739b1d	0.0037171312
224	0xbd831c6f	-0.06401908
225	0xbd1b306a	-0.037887968
226	0xbe671a5f	-0.22568654
227	0xbe61523a	-0.22004023
228	0xb84fc491	-4.9535713e-05
229	0xbd779d42	-0.060452707
230	0xbdc0514f	-0.093905084
231	0x3d81f5bc	0.06345698
232	0xbe02b6ac	-0.12764996
233	0x3dbb290c	0.091386884
234	0xbe0598e5	-0.13046606
235	0xbdd2131d	-0.10257552
236	0x3df6fd96	0.120600864
237	0x3d8accaf	0.067773215
238	0x3dd09656	0.10184924
239	0xbde31e1c	-0.11089727
240	0xbcb1e159	-0.0217139
241	0xbe394a60	-0.18094778
242	0x3d6f7b50	0.05846721
243	0xbe7a5d9d	-0.24449773
244	0xbe9b868b	-0.30376086
245	0x3deed1ec	0.11661133
246	0x3e76b99e	0.24094245
247	0xbd8b2930	-0.06794965
248	0x3df30eeb	0.1186808
249	0x3e3a83c9	0.18214335
250	0xbb1091b0	-0.0022059493
251	0xbd8ef245	-0.06979803
252	0xbda51a81	-0.08061696
253	0xbe1bf3ca	-0.15229717
254	0x3ea26c6d	0.31723347
255	0xbde60b1c	-0.11232588

fc2.mask f4 [64, 64]
0	0x3f800000	1.0
1	0x3f800000	1.0
2	0x3f800000	1.0
3	0x3f800000	1.0
4	0x3f800000	1.0
5	0x3f800000	1.0
6	0x3f800000	1.0
7	0x3f800000	1.0
8	0x3f800000	1.0
9	0x3f800000	1.0
10	0x3f800000	1.0
11	0x3f800000	1.0
12	0x3f800000	1.0
13	0x3f800000	1.0
14	0x3f800000	1.0
15	0x3f800000	1.0
16	0x3f800000	1.0
17	0x3f800000	1.0
18	0x3f800000	1.0
19	0x3f800000	1.0
20	0x3f800000	1.0
21	0x3f800000	1.0
22	0x3f800000	1.0
23	0x3f800000	1.0
24	0x3f800000	1.0
25	0x3f800000	1.0
26	0x3f800000	1.0
27	0x3f800000	1.0
28	0x3f800000	1.0
29	0x3f800000	1.0
30	0x3f800000	1.0
31	0x3f800000	1.0
32	0x3f800000	1.0
33	0x3f800000	1.0
34	0x3f800000	1.0
35	0x3f800000	1.0
36	0x3f800000	1.0
37	0x3f800000	1.0
38	0x3f800000	1.0
39	0x3f800000	1.0
40	0x3f800000	1.0
41	0x3f800000	1.0
42	0x3f800000	1.0
43	0x3f800000	1.0
44	0x3f800000	1.0
45	0x3f800000	1.0
46	0x3f800000	1.0
47	0x3f800000	1.0
48	0x3f800000	1.0
49	0x3f800000	1.0
50	0x3f800000	1.0
51	0x3f800000	1.0
52	0x3f800000	1.0
53	0x3f800000	1.0
54	0x3f800000	1.0
55	0x3f800000	1.0
56	0x3f800000	1.0
57	0x3f800000	1.0
58	0x3f800000	1.0
59	0x3f800000	1.0
60	0x3f800000	1.0
61	0x3f800000	1.0
62	0x3f800000	1.0
63	0x3f800000	1.0
64	0x3f800000	1.0
65	0x3f800000	1.0
66	0x3f800000	1.0
67	0x3f800000	1.0
68	0x3f800000	1.0
69	0x3f800000	1.0
70	0x3f800000	1.0
71	0x3f800000	1.0
72	0x3f800000	1.0
73	0x3f800000	1.0
74	0x3f800000	1.0
75	0x3f800000	1.0
76	0x3f800000	1.0
77	0x3f800000	1.0
78	0x3f800000	1.0
79	0x3f800000	1.0
80	0x3f800000	1.0
81	0x3f800000	1.0
82	0x3f800000	1.0
83	0x3f800000	1.0
84	0x3f800000	1.0
85	0x3f800000	1.0
86	0x3f800000	1.0
87	0x3f800000	1.0
88	0x3f800000	1.0
89	0x3f800000	1.0
90	0x3f800000	1.0
91	0x3f800000	1.0
92	0x3f800000	1.0
93	0x3f800000	1.0
94	0x3f800000	1.0
95	0x3f800000	1.0
96	0x3f800000	1.0
97	0x3f800000	1.0
98	0x3f800000	1.0
99	0x3f800000	1.0
100	0x3f800000	1.0
101	0x3f800000	1.0
102	0x3f800000	1.0
103	0x3f800000	1.0
104	0x3f800000	1.0
105	0x3f800000	1.0
106	0x3f800000	1.0
107	0x3f800000	1.0
108	0x3f800000	1.0
109	0x3f800000	1.0
110	0x3f800000	1.0
111	0x3f800000	1.0
112	0x3f800000	1.0
113	0x3f800000	1.0
114	0x3f800000	1.0
115	0x3f800000	1.0
116	0x3f800000	1.0
117	0x3f800000	1.0
118	0x3f800000	1.0
119	0x3f800000	1.0
120	0x3f800000	1.0
121	0x3f800000	1.0
122	0x3f800000	1.0
123	0x3f800000	1.0
124	0x3f800000	1.0
125	0x3f800000	1.0
126	0x3f800000	1.0
127	0x3f800000	1.0
128	0x3f800000	1.0
129	0x3f800000	1.0
130	0x3f800000	1.0
131	0x3f800000	1.0
132	0x3f800000	1.0
133	0x3f800000	1.0
134	0x3f800000	1.0
135	0x3f800000	1.0
136	0x3f800000	1.0
137	0x3f800000	1.0
138	0x3f800000	1.0
139	0x3f800000	1.0
140	0x3f800000	1.0
141	0x3f800000	1.0
142	0x3f800000	1.0
143	0x3f800000	1.0
144	0x3f800000	1.0
145	0x3f800000	1.0
146	0x3f800000	1.0
147	0x3f800000	1.0
148	0x3f800000	1.0
149	0x3f800000	1.0
150	0x3f800000	1.0
151	0x3f800000	1.0
152	0x3f800000	1.0
153	0x3f800000	1.0
154	0x3f800000	1.0
155	0x3f800000	1.0
156	0x3f800000	1.0
157	0x3f800000	1.0
158	0x3f800000	1.0
159	0x3f800000	1.0
160	0x3f800000	1.0
161	0x3f800000	1.0
162	0x3f800000	1.0
163	0x3f800000	1.0
164	0x3f800000	1.0
165	0x3f800000	1.0
166	0x3f800000	1.0
167	0x3f800000	1.0
168	0x3f800000	1.0
169	0x3f800000	1.0
170	0x3f800000	1.0
171	0x3f800000	1.0
172	0x3f800000	1.0
173	0x3f800000	1.0
174	0x3f800000	1.0
175	0x3f800000	1.0
176	0x3f800000	1.0
177	0x3f800000	1.0
178	0x3f800000	1.0
179	0x3f800000	1.0
180	0x3f800000	1.0
181	0x3f800000	1.0
182	0x3f800000	1.0
183	0x3f800000	1.0
184	0x3f800000	1.0
185	0x3f800000	1.0
186	0x3f800000	1.0
187	0x3f800000	1.0
188	0x3f800000	1.0
189	0x3f800000	1.0
190	0x3f800000	1.0
191	0x3f800000	1.0
192	0x3f800000	1.0
193	0x3f800000	1.0
194	0x3f800000	1.0
195	0x3f800000	1.0
196	0x3f800000	1.0
197	0x3f800000	1.0
198	0x3f800000	1.0
199	0x3f800000	1.0
200	0x3f800000	1.0
201	0x3f800000	1.0
202	0x3f800000	1.0
203	0x3f800000	1.0
204	0x3f800000	1.0
205	0x3f800000	1.0
206	0x3f800000	1.0
207	0x3f800000	1.0
208	0x3f800000	1.0
209	0x3f800000	1.0
210	0x3f800000	1.0
211	0x3f800000	1.0
212	0x3f800000	1.0
213	0x3f800000	1.0
214	0x3f800000	1.0
215	0x3f800000	1.0
216	0x3f800000	1.0
217	0x3f800000	1.0
218	0x3f800000	1.0
219	0x3f800000	1.0
220	0x3f800000	1.0
221	0x3f800000	1.0
222	0x3f800000	1.0
223	0x3f800000	1.0
224	0x3f800000	1.0
225	0x3f800000	1.0
226	0x3f800000	1.0
227	0x3f800000	1.0
228	0x3f800000	1.0
229	0x3f800000	1.0
230	0x3f800000	1.0
231	0x3f800000	1.0
232	0x3f800000	1.0
233	0x3f800000	1.0
234	0x3f800000	1.0
235	0x3f800000	1.0
236	0x3f800000	1.0
237	0x3f800000	1.0
238	0x3f800000	1.0
239	0x3f800000	1.0
240	0x3f800000	1.0
241	0x3f800000	1.0
242	0x3f800000	1.0
243	0x3f800000	1.0
244	0x3f800000	1.0
245	0x3f800000	1.0
246	0x3f800000	1.0
247	0x3f800000	1.0
248	0x3f800000	1.0
249	0x3f800000	1.0
250	0x3f800000	1.0
251	0x3f800000	1.0
252	0x3f800000	1.0
253	0x3f800000	1.0
254	0x3f800000	1.0
255	0x3f800000	1.0

fc3.weight f4 [64, 64]
0	0xbe20718a	-0.15668312
1	0x3dfd2605	0.12360767
2	0xbd4cbf6a	-0.049987234
3	0x3d96b93e	0.07359551
4	0xbdf1c857	-0.1180579
5	0x3da3e564	0.08002737
6	0xbd581047	-0.0527499
7	0x3e24208f	0.16028045
8	0x3e12a85a	0.14322034
9	0x3e423d65	0.18968733
10	0x3cb4624a	0.022019524
11	0xbd30146f	-0.042988237
12	0xbd70dc04	-0.058803573
13	0xbd442f2d	-0.047896553
14	0xbe8bc00d	-0.2729496
15	0xbe37b102	-0.17938617
16	0xbd63275c	-0.055457458
17	0xbd2a641a	-0.04159937
18	0xbde93a91	-0.11388124
19	0x3d9efdfb	0.07763287
20	0x3dd65802	0.10466005
21	0x3d6353fa	0.05550001
22	0x3dfb6ec9	0.1227699
23	0xbdfff6cf	-0.12498247
24	0xbddfdf55	-0.10931269
25	0x3d1ac42a	0.037784733
26	0xbe1c2f99	-0.15252532
27	0xbdd26949	-0.10273988
28	0x3c8eaa3f	0.017415164
29	0x3d64f161	0.05589426
30	0xbd595b47	-0.053065564
31	0x3e357b21	0.17722751
32	0xbda7a410	-0.08185589
33	0xbd9486d4	-0.07252279
34	0xbe44a536	-0.19203648
35	0xbe59b5be	-0.21260735
36	0xbd7cc337	-0.06170961
37	0x3db82bb1	0.089927085
38	0xbdb5f388	-0.088843405
39	0xbde78404	-0.11304477
40	0x3e62d8db	0.22153036
41	0x3e29db34	0.16587526
42	0x3d104fe7	0.03523245
43	0xbd78a3f6	-0.06070324
44	0x3d9b6e2d	0.07589374
45	0xbd109773	-0.035300683
46	0x3e87f64e	0.26555103
47	0x3d73f246	0.05955722
48	0xbe9f6b34	-0.31136477
49	0xbed7b29e	-0.42128462
50	0xbdb1f705	-0.08689693
51	0x3e81adf7	0.25328037
52	0x3c4b4b7b	0.012408133
53	0x3e072c38	0.13200462
54	0xbdcddfd5	-0.10052458
55	0xbcfa290d	-0.030537153
56	0xbd61f145	-0.055161733
57	0x3d598814	0.05310829
58	0x3e93ee5a	0.28892785
59	0xbe0e137d	-0.13874622
60	0xbc82ad79	-0.015951859
61	0xbd3c7395	-0.046008665
62	0xbdb4d52e	-0.08829723
63	0xbe36b8a3	-0.17843871
64	0xbec7c586	-0.39017886
65	0xbead826e	-0.33888572
66	0x3e03764a	0.12838092
67	0xbee1d7fd	-0.44110098
68	0xbdf660f5	-0.12030212
69	0x3e7ce973	0.24698429
70	0xbca0ecf6	-0.019644242
71	0xbe7208a6	-0.23636112
72	0xbebb146c	-0.36539018
73	0x3d4cc3d4	0.049991444
74	0xbcc1bdd2	-0.023650084
75	0x3bd30f7e	0.006441056
76	0x3d590d4d	0.0529912
77	0xbe74dfbb	-0.23913471
78	0x3daa0b79	0.083029695
79	0x3e2e8edb	0.17046683
80	0xbe0b1135	-0.13580783
81	0x3dbbaffe	0.09164427
82	0x3e0b93dc	0.13630623
83	0x3bf05671	0.0073345234
84	0xba940717	-0.0011293617
85	0xbde4ce59	-0.1117217
86	0xbdd56221	-0.10419107
87	0x3e0156d1	0.12630774
88	0xbe34393b	-0.17599957
89	0xbe43b387	-0.19111453
90	0x3dd0469c	0.10169718
91	0xbe16efc2	-0.14739898
92	0xbe8386e8	-0.25688863
93	0x3e32d888	0.17465413
94	0xbe897963	-0.26850423
95	0x3e663d2a	0.2248427
96	0xbd467ff3	-0.048461866
97	0x3d68c53f	0.056828734
98	0xbd0d9397	-0.03456458
99	0x3e3f37e5	0.18673666
100	0xbd454220	-0.048158765
101	0xbe9726bd	-0.29521742
102	0x3d6bbcf1	0.057553235
103	0xbeb53302	-0.35390478
104	0xbdfe31b9	-0.124118276
105	0xbde8f967	-0.11375695
106	0xbbca31b8	-0.0061704777
107	0xbe30373b	-0.17208569
108	0x3e93aa4d	0.28840867
109	0xbed52bea	-0.41635066
110	0xbe73228e	-0.2374365
111	0x3e180fc7	0.14849769
112	0xbe8595d6	-0.26090878
113	0xbdb8bffe	-0.090209946
114	0x3e72c8ce	0.23709413
115	0xbccfd7f4	-0.02537153
116	0x3e2ab7b7	0.16671644
117	0x3e417f48	0.1889621
118	0xbe1cfc55	-0.15330632
119	0x3e22517a	0.15851393
120	0x3e3cd880	0.18441963
121	0xbded75f7	-0.11594766
122	0xbd62e987	-0.05539849
123	0xbca60fc4	-0.02027119
124	0x3d54276c	0.051795408
125	0x3df2efae	0.118621215
126	0x3cc2c12e	0.023773756
127	0x3e3d53e9	0.1848904
128	0xbdee7997	-0.11644285
129	0xbdedeb9d	-0.11617205
130	0xbeac3516	-0.3363425
131	0x3e3615f3	0.1778181
132	0xbde7e886	-0.11323647
133	0xbe4e719e	-0.20160529
134	0xbe5dc004	-0.2165528
135	0xbc20c3b3	-0.009812283
136	0x3e790e43	0.24321847
137	0x3cc57007	0.02410127
138	0xbdd5a51c	-0.10431883
139	0xbcb52fc0	-0.022117496
140	0x3df2a97a	0.11848731
141	0xbdcd144d	-0.10013638
142	0x3e5cfc6b	0.21580665
143	0x3e35e597	0.17763363
144	0xbe2b1456	-0.16706976
145	0xbe47fee0	-0.19530821
146	0x3dde7aca	0.10863264
147	0xbb8bef9d	-0.0042705075
148	0xbd62cf44	-0.055373445
149	0xbe4074e5	-0.18794592
150	0xbdbb7769	-0.09153635
151	0x3a8f7f3a	0.0010947951
152	0x3e73a4a1	0.2379327
153	0xbcb5cd55	-0.022192637
154	0x3dc1d0c2	0.094636455
155	0xbe0d0091	-0.13769747
156	0xbeb2d948	-0.34931397
157	0x3e118118	0.14209402
158	0xbaa47eb7	-0.0012549971
159	0xbe183472	-0.14863756
160	0xbd6fb9b2	-0.058526702
161	0x3dd9266b	0.10603031
162	0xbd940ddf	-0.07229208
163	0xbdf71cdb	-0.120660506
164	0x3d986725	0.07441548
165	0xbe2e320e	-0.17011282
166	0xb8e7db52	-0.0001105579
167	0x3d828c63	0.06374433
168	0xbe20cf1f	-0.1570401
169	0xb9327030	-0.00017017196
170	0x3e2ff9bb	0.17185108
171	0xbe360e1a	-0.17778817
172	0x3e732049	0.23742785
173	0x3bb1ec24	0.0054297615
174	0x3d22acce	0.03971558
175	0x3d73539e	0.059405915
176	0x3cbb1f41	0.022842051
177	0x3db3f5a6	0.08787088
178	0xbe87b7b1	-0.26507333
179	0xbdf97bce	-0.12181817
180	0xbe4bf728	-0.19918501
181	0xbe9ae7cb	-0.3025497
182	0x3e36781b	0.17819254
183	0xbcb48b83	-0.02203918
184	0x3a703755	0.00091635186
185	0x3d5eabe5	0.05436315
186	0x3bcbfd35	0.006225253
187	0x3d82a669	0.063793965
188	0xbe7281ca	-0.23682323
189	0x3e44abe4	0.19206196
190	0x3d98d307	0.07462125
191	0xbe20f615	-0.15718873
192	0xbd4c72ff	-0.049914356
193	0x3dd01df3	0.10161962
194	0xbe67dadf	-0.22642086
195	0xbd32e529	-0.043675575
196	0x3de005fa	0.1093864
197	0xbdd73cfb	-0.10509678
198	0x3d6a140a	0.057148017
199	0x3d1d7b72	0.038447805
200	0x3e1d8481	0.15382577
201	0xbeb8a6d1	-0.3606477
202	0x3e856a08	0.26057458
203	0x3d73269d	0.059362996
204	0xbe100716	-0.14065203
205	0x3e026cd6	0.1273683
206	0xbdf3a456	-0.11896579
207	0x3e00e1d4	0.12586147
208	0x3c8d5849	0.017254012
209	0x3bcfd7d2	0.0063428665
210	0xbec6826f	-0.38771388
211	0xbe329e09	-0.17443098
212	0x3e2170d8	0.15765703
213	0xb9aaff9b	-0.00032615368
214	0xbde72e47	-0.112881236
215	0xbe3a1d23	-0.18175177
216	0x3e285f27	0.16442548
217	0x3e1b81d3	0.15186243
218	0x3e13afb8	0.144225
219	0x3e7bc261	0.24585868
220	0xbcb5fd86	-0.022215616
221	0xbcf3dbb3	-0.029767847
222	0x3d5dd4ba	0.05415795
223	0xbe313d98	-0.17308652
224	0xbccf73dd	-0.025323803
225	0xbd9fb44f	-0.07798063
226	0xbd344193	-0.04400785
227	0xbe4a843a	-0.19777003
228	0xbe363ca8	-0.17796576
229	0x3a361107	0.00069452863
230	0xbe3417c9	-0.17587198
231	0xbcb9b160	-0.022667587
232	0x3e424f9a	0.18975678
233	0x3b02dcfc	0.0019968143
234	0xbbacec14	-0.005277166
235	0xbde20b81	-0.110373504
236	0x3e588041	0.21142675
237	0x3e5ca7e9	0.21548428
238	0xbe821a02	-0.25410467
239	0xbd42f8d1	-0.04760057
240	0xbccd19d3	-0.025036728
241	0x3e26ea43	0.16300301
242	0x3e34a1a6	0.17639789
243	0xbe92cf21	-0.28673652
244	0xbeb8ef3c	-0.3612002
245	0x3cde7e94	0.027159967
246	0xbe43e95e	-0.19131991
247	0x3c2e32aa	0.010632196
248	0xbe35e92f	-0.17764734
249	0xbd40c6a4	-0.04706444
250	0x3df7c281	0.120976456
251	0x3df602ca	0.12012251
252	0xbe02b473	-0.12764148
253	0xbd68483b	-0.05670951
254	0xbd6f8f58	-0.058486313
255	0xbeb79379	-0.358547

fc3.mask f4 [64, 64]
0	0x3f800000	1.0
1	0x3f800000	1.0
2	0x3f800000	1.0
3	0x3f800000	1.0
4	0x3f800000	1.0
5	0x3f800000	1.0
6	0x3f800000	1.0
7	0x3f800000	1.0
8	0x3f800000	1.0
9	0x3f800000	1.0
10	0x3f800000	1.0
11	0x3f800000	1.0
12	0x3f800000	1.0
13	0x3f800000	1.0
14	0x3f800000	1.0
15	0x3f800000	1.0
16	0x3f800000	1.0
17	0x3f800000	1.0
18	0x3f800000	1.0
19	0x3f800000	1.0
20	0x3f800000	1.0
21	0x3f800000	1.0
22	0x3f800000	1.0
23	0x3f800000	1.0
24	0x3f800000	1.0
25	0x3f800000	1.0
26	0x3f800000	1.0
27	0x3f800000	1.0
28	0x3f800000	1.0
29	0x3f800000	1.0
30	0x3f800000	1.0
31	0x3f800000	1.0
32	0x3f800000	1.0
33	0x3f800000	1.0
34	0x3f800000	1.0
35	0x3f800000	1.0
36	0x3f800000	1.0
37	0x3f800000	1.0
38	0x3f800000	1.0
39	0x3f800000	1.0
40	0x3f800000	1.0
41	0x3f800000	1.0
42	0x3f800000	1.0
43	0x3f800000	1.0
44	0x3f800000	1.0
45	0x3f800000	1.0
46	0x3f800000	1.0
47	0x3f800000	1.0
48	0x3f800000	1.0
49	0x3f800000	1.0
50	0x3f800000	1.0
51	0x3f800000	1.0
52	0x3f800000	1.0
53	0x3f800000	1.0
54	0x3f800000	1.0
55	0x3f800000	1.0
56	0x3f800000	1.0
57	0x3f800000	1.0
58	0x3f800000	1.0
59	0x3f800000	1.0
60	0x3f800000	1.0
61	0x3f800000	1.0
62	0x3f800000	1.0
63	0x3f800000	1.0
64	0x3f800000	1.0
65	0x3f800000	1.0
66	0x3f800000	1.0
67	0x3f800000	1.0
68	0x3f800000	1.0
69	0x3f800000	1.0
70	0x3f800000	1.0
71	0x3f800000	1.0
72	0x3f800000	1.0
73	0x3f800000	1.0
74	0x3f800000	1.0
75	0x3f800000	1.0
76	0x3f800000	1.0
77	0x3f800000	1.0
78	0x3f800000	1.0
79	0x3f800000	1.0
80	0x3f800000	1.0
81	0x3f800000	1.0
82	0x3f800000	1.0
83	0x3f800000	1.0
84	0x3f800000	1.0
85	0x3f800000	1.0
86	0x3f800000	1.0
87	0x3f800000	1.0
88	0x3f800000	1.0
89	0x3f800000	1.0
90	0x3f800000	1.0
91	0x3f800000	1.0
92	0x3f800000	1.0
93	0x3f800000	1.0
94	0x3f800000	1.0
95	0x3f800000	1.0
96	0x3f800000	1.0
97	0x3f800000	1.0
98	0x3f800000	1.0
99	0x3f800000	1.0
100	0x3f800000	1.0
101	0x3f800000	1.0
102	0x3f800000	1.0
103	0x3f800000	1.0
104	0x3f800000	1.0
105	0x3f800000	1.0
106	0x3f800000	1.0
107	0x3f800000	1.0
108	0x3f800000	1.0
109	0x3f800000	1.0
110	0x3f800000	1.0
111	0x3f800000	1.0
112	0x3f800000	1.0
113	0x3f800000	1.0
114	0x3f800000	1.0
115	0x3f800000	1.0
116	0x3f800000	1.0
117	0x3f800000	1.0
118	0x3f800000	1.0
119	0x3f800000	1.0
120	0x3f800000	1.0
121	0x3f800000	1.0
122	0x3f800000	1.0
123	0x3f800000	1.0
124	0x3f800000	1.0
125	0x3f800000	1.0
126	0x3f800000	1.0
127	0x3f800000	1.0
128	0x3f800000	1.0
129	0x3f800000	1.0
130	0x3f800000	1.0
131	0x3f800000	1.0
132	0x3f800000	1.0
133	0x3f800000	1.0
134	0x3f800000	1.0
135	0x3f800000	1.0
136	0x3f800000	1.0
137	0x3f800000	1.0
138	0x3f800000	1.0
139	0x3f800000	1.0
140	0x3f800000	1.0
141	0x3f800000	1.0
142	0x3f800000	1.0
143	0x3f800000	1.0
144	0x3f800000	1.0
145	0x3f800000	1.0
146	0x3f800000	1.0
147	0x3f800000	1.0
148	0x3f800000	1.0
149	0x3f800000	1.0
150	0x3f800000	1.0
151	0x3f800000	1.0
152	0x3f800000	1.0
153	0x3f800000	1.0
154	0x3f800000	1.0
155	0x3f800000	1.0
156	0x3f800000	1.0
157	0x3f800000	1.0
158	0x3f800000	1.0
159	0x3f800000	1.0
160	0x3f800000	1.0
161	0x3f800000	1.0
162	0x3f800000	1.0
163	0x3f800000	1.0
164	0x3f800000	1.0
165	0x3f800000	1.0
166	0x3f800000	1.0
167	0x3f800000	1.0
168	0x3f800000	1.0
169	0x3f800000	1.0
170	0x3f800000	1.0
171	0x3f800000	1.0
172	0x3f800000	1.0
173	0x3f800000	1.0
174	0x3f800000	1.0
175	0x3f800000	1.0
176	0x3f800000	1.0
177	0x3f800000	1.0
178	0x3f800000	1.0
179	0x3f800000	1.0
180	0x3f800000	1.0
181	0x3f800000	1.0
182	0x3f800000	1.0
183	0x3f800000	1.0
184	0x3f800000	1.0
185	0x3f800000	1.0
186	0x3f800000	1.0
187	0x3f800000	1.0
188	0x3f800000	1.0
189	0x3f800000	1.0
190	0x3f800000	1.0
191	0x3f800000	1.0
192	0x3f800000	1.0
193	0x3f800000	1.0
194	0x3f800000	1.0
195	0x3f800000	1.0
196	0x3f800000	1.0
197	0x3f800000	1.0
198	0x3f800000	1.0
199	0x3f800000	1.0
200	0x3f800000	1.0
201	0x3f800000	1.0
202	0x3f800000	1.0
203	0x3f800000	1.0
204	0x3f800000	1.0
205	0x3f800000	1.0
206	0x3f800000	1.0
207	0x3f800000	1.0
208	0x3f800000	1.0
209	0x3f800000	1.0
210	0x3f800000	1.0
211	0x3f800000	1.0
212	0x3f800000	1.0
213	0x3f800000	1.0
214	0x3f800000	1.0
215	0x3f800000	1.0
216	0x3f800000	1.0
217	0x3f800000	1.0
218	0x3f800000	1.0
219	0x3f800000	1.0
220	0x3f800000	1.0
221	0x3f800000	1.0
222	0x3f800000	1.0
223	0x3f800000	1.0
224	0x3f800000	1.0
225	0x3f800000	1.0
226	0x3f800000	1.0
227	0x3f800000	1.0
228	0x3f800000	1.0
229	0x3f800000	1.0
230	0x3f800000	1.0
231	0x3f800000	1.0
232	0x3f800000	1.0
233	0x3f800000	1.0
234	0x3f800000	1.0
235	0x3f800000	1.0
236	0x3f800000	1.0
237	0x3f800000	1.0
238	0x3f800000	1.0
239	0x3f800000	1.0
240	0x3f800000	1.0
241	0x3f800000	1.0
242	0x3f800000	1.0
243	0x3f800000	1.0
244	0x3f800000	1.0
245	0x3f800000	1.0
246	0x3f800000	1.0
247	0x3f800000	1.0
248	0x3f800000	1.0
249	0x3f800000	1.0
250	0x3f800000	1.0
251	0x3f800000	1.0
252	0x3f800000	1.0
253	0x3f800000	1.0
254	0x3f800000	1.0
255	0x3f800000	1.0

fcl.weight f4 [10, 64]
0	0x3d375371	0.04475731
1	0xbf6c4754	-0.9229634
2	0xbe2bed76	-0.16789803
3	0x3dc286eb	0.0949839
4	0x3e23f8d9	0.16012897
5	0xbe8c0b8d	-0.27352563
6	0xbebd21a2	-0.36939722
7	0xbf03134f	-0.5120134
8	0x3ef6b5ac	0.4818548
9	0xbe97fcff	-0.29685208
10	0xbcc2deb9	-0.023787843
11	0xbea90a4d	-0.3301567
12	0x3e629cbf	0.22130106
13	0x3d9bbe54	0.076046616
14	0xbef9ce07	-0.4879
15	0x3f1c8ed5	0.61155444
16	0xbe8e4aca	-0.27791435
17	0x3e868caf	0.26279208
18	0xbea6ec8c	-0.32602346
19	0x3eddbd1c	0.43308342
20	0x3cdc5528	0.026896074
21	0xbe61b3d8	-0.22041261
22	0xbebb0f3d	-0.36535063
23	0x3de571ad	0.112033226
24	0x3dc7aa9c	0.09749338
25	0xbf019a26	-0.50625837
26	0xbf0b6da5	-0.5446418
27	0x3d92f9e1	0.07176567
28	0xbef4028b	-0.4765819
29	0x3f1d8873	0.6153633
30	0x3ed76d59	0.42075613
31	0xbecb698f	-0.39728972
32	0xbebcfdfa	-0.3691252
33	0xbee1fd3f	-0.44138524
34	0xbf2c24cd	-0.67243654
35	0xbee8c60f	-0.45463607
36	0xbf25186e	-0.644904
37	0xbecff7da	-0.40618783
38	0x3d95898f	0.07301628
39	0xbd9d3d01	-0.07677651
40	0xbdf91d14	-0.12163749
41	0x3efb39f7	0.4906766
42	0xbf04ecca	-0.5192381
43	0xbeb1ff26	-0.34764975
44	0x3c01bd47	0.007918662
45	0xbe8471c2	-0.2586804
46	0xbea44572	-0.32084233
47	0xbefb72e8	-0.49111104
48	0xbdb97e4d	-0.09057293
49	0xbea3ebc1	-0.32015803
50	0x3df3f1db	0.11911365
51	0xbe17a418	-0.1480869
52	0x3f2c1a73	0.6722786
53	0xbe2f8b74	-0.17143041
54	0xbe2419be	-0.16025445
55	0x3e8bb004	0.27282727
56	0xbe6de501	-0.2323189
57	0xbf033c00	-0.5126343
58	0xbe6913a9	-0.22761406
59	0xbee707bc	-0.45123088
60	0xbe997c7f	-0.29977795
61	0xbe96827f	-0.29396436
62	0x3de28bd3	0.110618256
63	0xbdeb4cd4	-0.11489263
64	0xbeb024df	-0.3440313
65	0xbf2385f9	-0.638763
66	0x3ea79af0	0.32735395
67	0xbf27e3e3	-0.655821
68	0xbf0e1a72	-0.555091
69	0xbec0ae53	-0.37633
70	0xbebe9cea	-0.3722909
71	0xbe927eba	-0.2861231
72	0xbe84941d	-0.2589425
73	0x3ed7b416	0.42129582
74	0x3eaf1096	0.34192342
75	0x3cb1ed1c	0.021719508
76	0xbefc72e7	-0.49306414
77	0x3ee1374c	0.439875
78	0x3efc68f3	0.4929882
79	0xbd91e547	-0.07123809
80	0xbeca76b4	-0.39543688
81	0xbeb7babb	-0.35884652
82	0xbf254404	-0.6455691
83	0xbe98b12f	-0.2982268
84	0x3f0846ce	0.5323304
85	0x3d92edfd	0.07174299
86	0xbdd9011a	-0.10595913
87	0xbefcf033	-0.49402007
88	0xbea51d1c	-0.3224877
89	0xbe8f9e41	-0.28050426
90	0xbcd289b0	-0.02570042
91	0xbdd89927	-0.105760865
92	0x3ebf5e89	0.37376812
93	0xbf5f89b7	-0.8731951
94	0xbec0fc6c	-0.37692583
95	0x3dbce7b2	0.0922388
96	0xbefd070e	-0.49419445
97	0xbec40f87	-0.38293096
98	0xbecfaf74	-0.40563548
99	0xbe44ac04	-0.19206244
100	0xbee839e8	-0.4535668
101	0xbf0bbf8d	-0.5458916
102	0x3ed6e41d	0.41970912
103	0xbe8e493d	-0.2779025
104	0x3e7dea3c	0.24796385
105	0xbf30d552	-0.690755
106	0x3ed0554e	0.40690082
107	0xbf005a94	-0.5013821
108	0xbe7afca3	-0.24510436
109	0xbeda281f	-0.42608735
110	0x3e92e64c	0.28691328
111	0xbe34b1a6	-0.17645893
112	0xbed84ae1	-0.42244628
113	0xbf13cbf5	-0.5773309
114	0x3e8c5cb0	0.27414465
115	0xbe52dab6	-0.20591244
116	0xbf21a614	-0.6314404
117	0xbef47433	-0.47744903
118	0xbe025976	-0.12729439
119	0x3d0e2b6a	0.03470937
120	0xbf1cb6e0	-0.61216545
121	0x3f21d807	0.63220257
122	0xbe8500d6	-0.259772
123	0xbdefcee2	-0.11709382
124	0xbd2ad1fc	-0.041704163
125	0x3eaa5a23	0.33271894
126	0xbef964f3	-0.4870983
127	0xbefb9d2f	-0.4914336
128	0x3eaa0377	0.33205768
129	0xbeb19392	-0.346829
130	0xbf055a81	-0.52091223
131	0x3f0e05a1	0.5547734
132	0xbed220f8	-0.41040778
133	0xbf06abd4	-0.5260594
134	0x3e4bfd98	0.19920957
135	0x3edee952	0.43537384
136	0x3d140551	0.036137883
137	0x3e88fa84	0.26753628
138	0xbf015e0f	-0.5053415
139	0xbeaf30bb	-0.34216866
140	0xbd6ce7fc	-0.057838425
141	0xbea78c9a	-0.32724458
142	0x3e240814	0.16018707
143	0xbd5bb792	-0.053641863
144	0xbf12e9ad	-0.5738781
145	0x3e56a0be	0.20959756
146	0x3e2abcef	0.16673635
147	0xbef179ef	-0.4716334
148	0xbcb9ea27	-0.02269466
149	0x3d2975d0	0.04137212
150	0xbef36883	-0.47540674
151	0xbf022ad2	-0.5084659
152	0x3e05634f	0.13026164
153	0xbf0ce9e8	-0.5504441
154	0xbebd7602	-0.37004095
155	0xbea82bc8	-0.32845902
156	0xbea4d6c2	-0.32195097
157	0xba15bacd	-0.00057117344
158	0x3c02cee4	0.007983897
159	0xbea65b75	-0.3249165
160	0xbe480f18	-0.19537008
161	0x3e162272	0.14661577
162	0x3e0008e6	0.12503394
163	0xbee447c1	-0.44585994
164	0x3e0e7f42	0.13915733
165	0x3eaeb665	0.3412353
166	0xbeeb5b9a	-0.45968324
167	0x3f23bc87	0.63959545
168	0x3f26a2a3	0.65091914
169	0xbecc6541	-0.39921
170	0xbed7fae6	-0.42183608
171	0xbe759d3d	-0.23985763
172	0xbe959c61	-0.2922087
173	0xbbeaa1ce	-0.007160402
174	0xbcdab07c	-0.026695482
175	0x3e9f1c11	0.310761
176	0xbd92a71f	-0.07160782
177	0xbec7e226	-0.39039725
178	0x3ea2862a	0.31742984
179	0x3dc880bf	0.09790181
180	0xbe66ba55	-0.22532018
181	0x3dba5251	0.09097732
182	0x3eff703a	0.4989031
183	0xbefb2bf0	-0.4905696
184	0x3ea875e3	0.3290244
185	0xbea7803c	-0.32715023
186	0xbebae2ea	-0.36501247
187	0x3d441e6e	0.047880583
188	0xbe89d930	-0.26923513
189	0xbf0a15dc	-0.53939605
190	0xbef935a1	-0.48673728
191	0xbef60677	-0.48051807
192	0xbe73f6df	-0.23824643
193	0xbe612d62	-0.21989968
194	0xbec31f82	-0.38109976
195	0xbed64519	-0.41849592
196	0xbea79b92	-0.32735878
197	0xbefdd783	-0.49578485
198	0xbe56d202	-0.20978549
199	0x3eb1ce4b	0.34727702
200	0xbe289852	-0.16464356
201	0xbd387c87	-0.045040634
202	0x3e5d1683	0.21590619
203	0x3ef648bd	0.4810237
204	0xbdd40a17	-0.10353487
205	0xbead81df	-0.33888146
206	0xbef3095d	-0.4746808
207	0xbf277069	-0.654059
208	0xbea22a02	-0.31672674
209	0x3e56caee	0.20975849
210	0xbddbbf30	-0.107298255
211	0xbe620d02	-0.22075275
212	0xbe83864b	-0.25688395
213	0x3e584e67	0.21123658
214	0x3f1435a9	0.5789438
215	0xbea06799	-0.3132904
216	0xbea44115	-0.32080904
217	0x3f146402	0.579651
218	0x3f0af14f	0.5427446
219	0xbf0844cf	-0.53229994
220	0xbf008d05	-0.5021518
221	0xbeb8ef60	-0.3612013
222	0xbbdff68b	-0.00683481
223	0xbc3a7625	-0.011380707
224	0x3d21256b	0.039342325
225	0x3ef39945	0.47577873
226	0x3e2724d7	0.16322647
227	0x3da46b62	0.08028294
228	0xbed19a0d	-0.40937844
229	0xbc49da27	-0.012320078
230	0xbd99fca7	-0.07518893
231	0xbeeb2150	-0.45923853
232	0xbefff2ef	-0.4999003
233	0xbeb40791	-0.35162023
234	0x3e41da3b	0.18930905
235	0xbf0fcd52	-0.5617267
236	0xbe332a2c	-0.17496556
237	0xbf340388	-0.7031789
238	0xbd50cc46	-0.05097606
239	0x3dbadfe1	0.09124733
240	0xbf1d0cc2	-0.6134759
241	0x3d97c701	0.07411004
242	0xbf30ba6d	-0.69034463
243	0x3d285fb8	0.04110691
244	0xbef15003	-0.47131357
245	0x3e9d3499	0.3070419
246	0x3e319dde	0.17345378
247	0x3d50ac54	0.050945595
248	0x3e3c3c86	0.18382463
249	0xbeff5b94	-0.49874556
250	0x3f1231f0	0.5710745
251	0x3ef6e78d	0.48223534
252	0x3edd0ea0	0.4317522
253	0xbeb9711e	-0.36219114
254	0xbebbcfd3	-0.36681995
255	0xbd590675	-0.052984674

fcl.mask f4 [10, 64]
0	0x3f800000	1.0
1	0x3f800000	1.0
2	0x3f800000	1.0
3	0x3f800000	1.0
4	0x3f800000	1.0
5	0x3f800000	1.0
6	0x3f800000	1.0
7	0x3f800000	1.0
8	0x3f800000	1.0
9	0x3f800000	1.0
10	0x3f800000	1.0
11	0x3f800000	1.0
12	0x3f800000	1.0
13	0x3f800000	1.0
14	0x3f800000	1.0
15	0x3f800000	1.0
16	0x3f800000	1.0
17	0x3f800000	1.0
18	0x3f800000	1.0
19	0x3f800000	1.0
20	0x3f800000	1.0
21	0x3f800000	1.0
22	0x3f800000	1.0
23	0x3f800000	1.0
24	0x3f800000	1.0
25	0x3f800000	1.0
26	0x3f800000	1.0
27	0x3f800000	1.0
28	0x3f800000	1.0
29	0x3f800000	1.0
30	0x3f800000	1.0
31	0x3f800000	1.0
32	0x3f800000	1.0
33	0x3f800000	1.0
34	0x3f800000	1.0
35	0x3f800000	1.0
36	0x3f800000	1.0
37	0x3f800000	1.0
38	0x3f800000	1.0
39	0x3f800000	1.0
40	0x3f800000	1.0
41	0x3f800000	1.0
42	0x3f800000	1.0
43	0x3f800000	1.0
44	0x3f800000	1.0
45	0x3f800000	1.0
46	0x3f800000	1.0
47	0x3f800000	1.0
48	0x3f800000	1.0
49	0x3f800000	1.0
50	0x3f800000	1.0
51	0x3f800000	1.0
52	0x3f800000	1.0
53	0x3f800000	1.0
54	0x3f800000	1.0
55	0x3f800000	1.0
56	0x3f800000	1.0
57	0x3f800000	1.0
58	0x3f800000	1.0
59	0x3f800000	1.0
60	0x3f800000	1.0
61	0x3f800000	1.0
62	0x3f800000	1.0
63	0x3f800000	1.0
64	0x3f800000	1.0
65	0x3f800000	1.0
66	0x3f800000	1.0
67	0x3f800000	1.0
68	0x3f800000	1.0
69	0x3f800000	1.0
70	0x3f800000	1.0
71	0x3f800000	1.0
72	0x3f800000	1.0
73	0x3f800000	1.0
74	0x3f800000	1.0
75	0x3f800000	1.0
76	0x3f800000	1.0
77	0x3f800000	1.0
78	0x3f800000	1.0
79	0x3f800000	1.0
80	0x3f800000	1.0
81	0x3f800000	1.0
82	0x3f800000	1.0
83	0x3f800000	1.0
84	0x3f800000	1.0
85	0x3f800000	1.0
86	0x3f800000	1.0
87	0x3f800000	1.0
88	0x3f800000	1.0
89	0x3f800000	1.0
90	0x3f800000	1.0
91	0x3f800000	1.0
92	0x3f800000	1.0
93	0x3f800000	1.0
94	0x3f800000	1.0
95	0x3f800000	1.0
96	0x3f800000	1.0
97	0x3f800000	1.0
98	0x3f800000	1.0
99	0x3f800000	1.0
100	0x3f800000	1.0
101	0x3f800000	1.0
102	0x3f800000	1.0
103	0x3f800000	1.0
104	0x3f800000	1.0
105	0x3f800000	1.0
106	0x3f800000	1.0
107	0x3f800000	1.0
108	0x3f800000	1.0
109	0x3f800000	1.0
110	0x3f800000	1.0
111	0x3f800000	1.0
112	0x3f800000	1.0
113	0x3f800000	1.0
114	0x3f800000	1.0
115	0x3f800000	1.0
116	0x3f800000	1.0
117	0x3f800000	1.0
118	0x3f800000	1.0
119	0x3f800000	1.0
120	0x3f800000	1.0
121	0x3f800000	1.0
122	0x3f800000	1.0
123	0x3f800000	1.0
124	0x3f800000	1.0
125	0x3f800000	1.0
126	0x3f800000	1.0
127	0x3f800000	1.0
128	0x3f800000	1.0
129	0x3f800000	1.0
130	0x3f800000	1.0
131	0x3f800000	1.0
132	0x3f800000	1.0
133	0x3f800000	1.0
134	0x3f800000	1.0
135	0x3f800000	1.0
136	0x3f800000	1.0
137	0x3f800000	1.0
138	0x3f800000	1.0
139	0x3f800000	1.0
140	0x3f800000	1.0
141	0x3f800000	1.0
142	0x3f800000	1.0
143	0x3f800000	1.0
144	0x3f800000	1.0
145	0x3f800000	1.0
146	0x3f800000	1.0
147	0x3f800000	1.0
148	0x3f800000	1.0
149	0x3f800000	1.0
150	0x3f800000	1.0
151	0x3f800000	1.0
152	0x3f800000	1.0
153	0x3f800000	1.0
154	0x3f800000	1.0
155	0x3f800000	1.0
156	0x3f800000	1.0
157	0x3f800000	1.0
158	0x3f800000	1.0
159	0x3f800000	1.0
160	0x3f800000	1.0
161	0x3f800000	1.0
162	0x3f800000	1.0
163	0x3f800000	1.0
164	0x3f800000	1.0
165	0x3f800000	1.0
166	0x3f800000	1.0
167	0x3f800000	1.0
168	0x3f800000	1.0
169	0x3f800000	1.0
170	0x3f800000	1.0
171	0x3f800000	1.0
172	0x3f800000	1.0
173	0x3f800000	1.0
174	0x3f800000	1.0
175	0x3f800000	1.0
176	0x3f800000	1.0
177	0x3f800000	1.0
178	0x3f800000	1.0
179	0x3f800000	1.0
180	0x3f800000	1.0
181	0x3f800000	1.0
182	0x3f800000	1.0
183	0x3f800000	1.0
184	0x3f800000	1.0
185	0x3f800000	1.0
186	0x3f800000	1.0
187	0x3f800000	1.0
188	0x3f800000	1.0
189	0x3f800000	1.0
190	0x3f800000	1.0
191	0x3f800000	1.0
192	0x3f800000	1.0
193	0x3f800000	1.0
194	0x3f800000	1.0
195	0x3f800000	1.0
196	0x3f800000	1.0
197	0x3f800000	1.0
198	0x3f800000	1.0
199	0x3f800000	1.0
200	0x3f800000	1.0
201	0x3f800000	1.0
202	0x3f800000	1.0
203	0x3f800000	1.0
204	0x3f800000	1.0
205	0x3f800000	1.0
206	0x3f800000	1.0
207	0x3f800000	1.0
208	0x3f800000	1.0
209	0x3f800000	1.0
210	0x3f800000	1.0
211	0x3f800000	1.0
212	0x3f800000	1.0
213	0x3f800000	1.0
214	0x3f800000	1.0
215	0x3f800000	1.0
216	0x3f800000	1.0
217	0x3f800000	1.0
218	0x3f800000	1.0
219	0x3f800000	1.0
220	0x3f800000	1.0
221	0x3f800000	1.0
222	0x3f800000	1.0
223	0x3f800000	1.0
224	0x3f800000	1.0
225	0x3f800000	1.0
226	0x3f800000	1.0
227	0x3f800000	1.0
228	0x3f800000	1.0
229	0x3f800000	1.0
230	0x3f800000	1.0
231	0x3f800000	1.0
232	0x3f800000	1.0
233	0x3f800000	1.0
234	0x3f800000	1.0
235	0x3f800000	1.0
236	0x3f800000	1.0
237	0x3f800000	1.0
238	0x3f800000	1.0
239	0x3f800000	1.0
240	0x3f800000	1.0
241	0x3f800000	1.0
242	0x3f800000	1.0
243	0x3f800000	1.0
244	0x3f800000	1.0
245	0x3f800000	1.0
246	0x3f800000	1.0
247	0x3f800000	1.0
248	0x3f800000	1.0
249	0x3f800000	1.0
250	0x3f800000	1.0
251	0x3f800000	1.0
252	0x3f800000	1.0
253	0x3f800000	1.0
254	0x3f800000	1.0
255	0x3f800000	1.0
