modeldata/pdk_Cosine_lr0.001_BitMnist_PerTensor_2bitsym_RMS_width16_16_16_bs128_epochs60.pth (torch, 9289 bytes, 4 tensors)

fc1.weight f4 [16, 64]
00000000: 9f3e 0e3e a43c 473e dc22 22be cbee dabe
00000010: 2867 91b8 b96c 5fbe b075 53bc b89d 0abd
00000020: 0052 1d3c 64ee 1abd 6689 73be 39d2 efbe
00000030: 46c7 a6bf d4c5 febe fe7e fcbd b0bd 3a3e
00000040: a526 243e 41e7 a233 d9b0 1736 9350 78bf
00000050: f481 a9bf 995e 983e 9e14 183f 0dcb 713e
00000060: 6ec8 0bbd 07c2 75be 6b7a 5f3b 55f6 173f
00000070: 7bcf 7435 0290 81be 6dd9 06bf 5d74 8d3e
00000080: 9edc 4e3e 0715 ab3f 4303 173f 4210 2a3e
00000090: 99b3 fd3e cd22 ea3e ea12 0c3e d240 2a3e
000000a0: d94a f13d 5d15 813f 1ef9 0ab6 77fe 15be
000000b0: ee6f 283d 2d73 08be b727 3ab7 2222 5e3e
000000c0: 5f85 483d 3c3f e1be 4931 7abf 9b35 0ebf
000000d0: 154c 12bf 1310 00be 4417 2abe ad2c 083e
000000e0: f633 17bc bf2c 2336 5e31 4dbf 444f aebf
000000f0: a1aa 33bf 424e 03bf 08c8 ce3d 7c60 1b3d
00000100: 7470 bf3c c6eb 41be d02c 213d d6cd 9839
00000110: 3e20 3d3e 2583 5b3e ec03 aa3d d4dc 073d
00000120: fd08 fbbd ce05 323c c521 0c3e 6075 1b3e
00000130: 4b78 0c3e ae37 bb3e ee1b 913e 142e 0c3e
00000140: 7a88 523d aeb8 cc35 bb70 fbbd 8410 83bd
00000150: 3235 a533 a477 b1b9 b4d9 0cbe e57a 7f3e
00000160: bd88 84bd 4ec4 a1bd a14a be35 3598 b03f
00000170: fbb1 173e 5979 0bbe 693e f4bf 59f4 8abe
00000180: 9a05 e53d 45df 0bbe 6b84 12c0 0c29 0cbe
00000190: 2deb 0bbe 234c 7c3f 8c7a ea3d 6991 86be
000001a0: dbcf 4e3e 7412 d53f bd1e 0cbe ab11 e8bf
000001b0: dfb6 1c3d d144 403f 5224 0c3e 9f05 6cbe
000001c0: a980 0e3e 57de 943e 4f64 203f 41f8 103f
000001d0: 49b9 cd3d 3e58 9ebd 725f 12be 11fa 50be
000001e0: 33fb cebd 4b1b 883d f560 273e 28dc a8bd
000001f0: 00f5 75be 8af2 12be c62d d8bd cf13 17be
00000200: ee59 c9bc 6a39 393e 8391 553e f284 e03e
00000210: 53de 0a3f 62ca 1f3f 30af a93e 4bc4 c5bc
00000220: 8dde 3fbd 7ded 073e 81c0 9a3e 2433 0cbe
00000230: fc1f 0cbe 56fd cfb7 cb7f 0cb5 e2d2 3d3d
00000240: 588d 003b da5e 1cbe b3bf 0abe 2020 51be
00000250: 7182 89bf e668 97bf a5b0 dbbf b1d3 0dbf
00000260: a6f2 83bd cc5a 9dbd 6fd5 543d 061d 043e
00000270: d323 0cbe 47ef 4936 90c6 ef3d 7e20 673c
00000280: af35 aebd bbf4 9b3e cad7 623f e4fe ad3e
00000290: b623 0c3e 9913 0b3e 5864 dd3e df39 123e
000002a0: 8bde f2b6 f52a 84be b293 8e3c 3df6 9b3e
000002b0: 3737 d93e 95f4 b13e f759 ffbc 9ce1 2d3e
000002c0: 8bec a33d f769 ddbd 49c4 0bbe 11eb 9fb4
000002d0: 1cf3 e0bd c62b 07be f11a 0cbe 2032 123e
000002e0: 0123 023e 938c a8bd 2b98 3abe 2870 60bf
000002f0: 002f e1be 4b51 9abe 8cef d4bc 9c6d 01bd
00000300: 5821 073e ea8c 9b3d 7030 00be 7903 62be
00000310: c840 bbbe b56c c5bd 442b 3bbd cf43 57bd
00000320: 3c95 823d 516f 1736 6c44 3abd 18b0 51be
00000330: 9ac3 37b5 dbbb 13bb 7cbb 753c 2349 1d3c
00000340: 0580 f83c a522 25bd 93db 0a3e 5c8c 2a3f
00000350: 5324 0c3e 60fc bfb4 55db 0cbe 36b1 91bd
00000360: 8ff2 f03d 7055 5531 b8e1 493f aba5 4635
00000370: 95aa f73c 93e3 ec3e 3ef1 543e 6772 74be
00000380: 9cb9 1f3e 4f82 b437 8834 3a3e 1dd5 efbd
00000390: 199a 023f ecd8 913e 3085 cd3a 9b58 29be
000003a0: df11 98bc 1504 81bf 4aa3 99bf b437 5bb2
000003b0: 7d23 0cbe 1739 b5bf 3fe8 7bbf eee8 89be
000003c0: 0097 fcbc 9987 67be a710 0cbe ec61 44be
000003d0: 53ef 54bf 4521 1abf 6864 30bd 3f9e 4e3d
000003e0: 3b3a 3abd c0fa e43e 7c8f 673f 4233 293f
000003f0: 1ae7 553f 246b 013f 5d68 753e 87c0 b43d
0.13891076 0.19456726 -0.1583361 -0.4276031 -6.933353e-05 -0.21818818 -0.012906477 -0.03384182
0.00960207 -0.037825003 -0.23782882 -0.46840075 -1.3029563 -0.49760306 -0.12328909 0.18236423
0.16030367 7.585778e-08 2.2603692e-06 -0.96997947 -1.3242784 0.29759672 0.5940646 0.23612614
-0.03412669 -0.23999797 0.0034100066 0.5936025 9.1199007e-07 -0.25305182 -0.52675515 0.2762784
0.20201346 1.3365792 0.5898935 0.16607764 0.49551085 0.45729676 0.1367909 0.1662629
0.11781854 1.0084645 -2.0708608e-06 -0.14647852 0.04112237 -0.13325186 -1.1095711e-05 0.21692708
0.048955318 -0.43993556 -0.97731453 -0.55550545 -0.5714734 -0.12506132 -0.16610438 0.13298292
-0.009228697 2.4314938e-06 -0.80153453 -1.361794 -0.70182234 -0.51291287 0.10096747 0.03793381
0.023369052 -0.18937597 0.039349377 0.0002914506 0.1846933 0.21436746 0.08301529 0.033169582
-0.12257574 0.010865642 0.13684757 0.15181494 0.13717763 0.36565918 0.2834162 0.13689452
0.051399685 1.5252933e-06 -0.12277361 -0.063996345 7.6930874e-08 -0.0003384921 -0.13754922 0.24949224
-0.06471393 -0.0789877 1.4177823e-06 1.379645 0.14813988 -0.13620509 -1.9081546 -0.27139547
0.11182709 -0.1365939 -2.2893322 -0.13687533 -0.13663931 0.98553675 0.11449155 -0.26282814
0.20196478 1.6646256 -0.136836 -1.8130392 0.038260337 0.75105006 0.1368573 -0.2304902
0.13916267 0.29075882 0.6265306 0.56628805 0.10045106 -0.077316746 -0.14294222 -0.20407893
-0.10106506 0.06645831 0.1634558 -0.082451165 -0.24019241 -0.14350334 -0.105556056 -0.1475365
-0.024579015 0.18088308 0.2085629 0.4385143 0.5424549 0.62418187 0.3314147 -0.024141451
-0.0468431 0.13274188 0.30224994 -0.13691384 -0.13684076 -2.4794292e-05 -5.234003e-07 0.04634369
0.0019615497 -0.15270558 -0.1354969 -0.20422411 -1.0742933 -1.1828887 -1.7163283 -0.5540114
-0.06442766 -0.07683334 0.05196136 0.12901697 -0.13685541 3.0090612e-06 0.11707795 0.014106868
-0.08506333 0.30460152 0.8861052 0.3398353 0.13685498 0.13581695 0.4324062 0.14279889
-7.2380694e-06 -0.25814024 0.017404411 0.30461302 0.42424938 0.34756914 -0.031170828 0.16980594
0.08004101 -0.10811227 -0.13649096 -2.978709e-07 -0.109838694 -0.13200292 -0.13682152 0.14276934
0.12708665 -0.082299374 -0.1822211 -0.87671137 -0.4398117 -0.30140147 -0.025993131 -0.031598672
0.13196313 0.075952366 -0.12518477 -0.22071637 -0.36572862 -0.09639875 -0.04569556 -0.0525549
0.063761204 2.2565548e-06 -0.04547541 -0.2047733 -6.845745e-07 -0.002254239 0.014998313 0.009599957
0.030334482 -0.040316243 0.13560323 0.6662042 0.13685732 -3.576015e-07 -0.13755544 -0.071138784
0.117650144 3.1044145e-09 0.78860044 7.4001827e-07 0.030232707 0.46267375 0.20795152 -0.23871766
0.15598148 2.1518352e-05 0.18184102 -0.1171057 0.51016384 0.2848581 0.0015679952 -0.16537707
-0.01856321 -1.0079371 -1.2002957 -1.2760143e-08 -0.13685413 -1.4158047 -0.98401254 -0.26935524
-0.030833721 -0.2261032 -0.13678227 -0.19177979 -0.8317768 -0.60207015 -0.043064505 0.050443884
-0.04546569 0.44722557 0.90453315 0.6609384 0.8355576 0.5055411 0.23965593 0.08825784

fc2.weight f4 [16, 16]
00000000: b73b 17bf 2f6a ff3e 40e8 a23f 89a2 fc3d
00000010: 61f2 a2bf a835 69b6 1afb 0bbe 86bb e4bd
00000020: fedd 6a3d ab6c e13d 3011 21b6 cd3b 6e3d
00000030: 3a45 d2bd e1c6 aabe 49ee 76be 05e1 18b5
00000040: 7d62 293f 2a30 51be 04f4 1435 a35c b63e
00000050: 13d7 55be 66ba b53f 5986 82b4 6b31 51be
00000060: 2b08 fb3e abed 4abf 4502 51be e14a f83e
00000070: befd cdbe 79cd 0a3f 2cc8 81b3 4b80 64be
00000080: 995d 85be fc2f 51be ceb5 3d3f be18 3cbe
00000090: 2272 12be 6ea9 acb4 627a a73f 8c81 fb3e
000000a0: dde0 7d3e 8461 243f 6c7e 94bf 472e 513e
000000b0: 4527 d4bd 0908 a6bf 9401 6f34 b7da 43be
000000c0: 71c7 323e ee4c 8bbe 7a57 223f b2a8 2ab4
000000d0: 686b 0e36 d813 e2be 3913 f6bf 02e4 75be
000000e0: 3135 a13d 0ad2 223f 6081 e2bf d8a0 1dbd
000000f0: 6d7e 7d3e f9fd ba3e 9b09 e1be 6d04 1d3f
00000100: ce4d f5bf 5cc2 89b4 1030 51be 28ac 51be
00000110: ab13 703e 154a 963d 5c30 51be adec 64bf
00000120: 2c18 af3e ca9a 0abe feb3 b73b 6e12 863e
00000130: 07fb 03be 37e8 7ab6 2d1e 503e 1830 513e
00000140: 5430 513e 684f 883f 7443 89b5 1b0a 51be
00000150: 0fb2 09b6 8667 f0be 8a1b ef34 8767 0840
00000160: d05d 9dbe a1ed 173f 1886 303f 7292 483f
00000170: 0edb 7db5 d559 8b3e c3e4 a2be c9ed 403e
00000180: 3d30 61b5 e471 86be 971f f1be fe32 db3e
00000190: 9a5d 8c3e 33dd 2e3f c679 893f 8839 733e
000001a0: 3cbd 66be 75f3 523e 58e9 603e 99c3 c2b5
000001b0: 46a0 f23e 66ea 50be c049 ad3e ace5 86be
000001c0: 8ad9 e9be 2af2 033f 8cff 4fbe b92d 9f3e
000001d0: 7fa5 fa34 111b 51be ccc1 5a3e 754f 4c3e
000001e0: 1fd3 3c3e 2424 85be f162 4b35 48d8 823f
000001f0: b527 ecbe 5830 51be fb6b a4be 21cb aa3e
00000200: 9f93 633f 2a27 51be eeb5 4b3f ee01 553e
00000210: d6bf c4bf 5db7 d7be 002e 513e 0d49 063f
00000220: 193f dcbb 88f6 e9b7 7ed9 1dc0 9620 fc33
00000230: 3acf 073f 99cf 80bf c4f4 45bf bb98 6fb5
00000240: ff3c 65be b7a1 4d3e 21bc 0a3f f627 4fb6
00000250: c124 4bbf 2975 1b3f 1a82 553c e2e6 a4be
00000260: 71e5 383d d888 30b5 eb9a c43e 4141 80be
00000270: 87e2 41bf 759b c73e da5a b1be d137 e9be
00000280: 21f3 b83e 9f9f 1b3c 7894 8336 a274 e835
00000290: ab62 bf3e 1955 d1bf 3662 9dbf 3b42 8a39
000002a0: fef1 2fbf 0012 35b5 6c97 483f ae12 303e
000002b0: 059a f5be c7e2 6e3e 801c 033f 532c 85b5
000002c0: c59e 64bf 9672 4ebf be30 51be d3a1 853f
000002d0: 1588 2f3d 7a42 083f 7adf 91bb 21c8 a5b5
000002e0: 02c1 84be f15b 47bf cef6 95be 0533 60b5
000002f0: 6a4b 49be a5b6 993e 31a2 4c3f 5066 bd3e
00000300: 49f2 5f3f d226 103c 5e55 2a3f 4bd8 903c
00000310: 32ac f53e 5393 9abf fca7 b3bd e578 71be
00000320: 3448 39be 4139 2ab9 affe 86b5 86ef 83bc
00000330: 00d4 66be f330 513e 59a1 663c 4dfb aebe
00000340: 6331 433f b952 5b3f d230 51be f242 52be
00000350: 0ebe efbd 91dc 7c34 04ef 0340 7e69 fdbf
00000360: d7b1 fb3e 2f30 39b5 e49b 3f3f a24e 84be
00000370: f615 43b7 7c30 51be b945 35b6 21b0 603e
00000380: 339e 7635 a2f6 88bf 2342 3bbc a1d9 2d36
00000390: 67e2 c23f f3c2 36bf fb57 51be 4e7e 5f3e
000003a0: c8c5 0a3f f054 223f e3a9 d0be c9f2 ff3b
000003b0: b84a b13e d91f 213d fb2b 8b3f 5630 51be
000003c0: cc38 f93e 71ad 46be 0b3f 373e 8c56 44bf
000003d0: 4c68 ab3f df25 4d3e d02f 88bf 9cce 283e
000003e0: 1fae 53b6 1488 c13e e242 673e e630 51be
000003f0: 5f82 95bf bc09 953f d40e 013e a691 34bf
-0.5907549 0.498857 1.2727127 0.123356886 -1.2730218 -3.4750938e-06 -0.13670006 -0.1116858
0.057340614 0.11007055 -2.4000874e-06 0.0581625 -0.1026711 -0.33354858 -0.24114336 -5.695186e-07
0.66165906 -0.2042853 5.5489386e-07 0.3561755 -0.20882826 1.4197509 -2.4312138e-07 -0.20429008
0.4902967 -0.792689 -0.20411022 0.48494628 -0.40232652 0.54219776 -6.043442e-08 -0.22314565
-0.26047972 -0.20428461 0.74105537 -0.18368813 -0.1430135 -3.2160773e-07 1.3084223 0.49122274
0.2479281 0.642113 -1.1601081 0.2042781 -0.103590526 -1.2971202 2.2259184e-07 -0.19126402
0.17458893 -0.2720713 0.6341473 -1.5893855e-07 2.1222168e-06 -0.44155765 -1.9224616 -0.2401276
0.078714736 0.63601744 -1.7695732 -0.03848347 0.24755259 0.3652189 -0.4395264 0.6133488
-1.9164369 -2.5659654e-07 -0.2042849 -0.20475829 0.23445003 0.07338349 -0.20428604 -0.8942364
0.3419813 -0.1353561 0.0056061735 0.26185936 -0.12888728 -3.738807e-06 0.20324011 0.20428503
0.20428592 1.0649233 -1.0226927e-06 -0.20414011 -2.0518235e-06 -0.46953982 4.4537256e-07 2.1313188
-0.30735636 0.5934697 0.6895461 0.7834846 -9.456861e-07 0.27216974 -0.31815156 0.18840708
-8.388923e-07 -0.26258767 -0.47094414 0.4281234 0.27415162 0.68306273 1.0740287 0.23752415
-0.22533125 0.20600684 0.21964014 -1.4511053e-06 0.47387904 -0.20401916 0.3384533 -0.263471
-0.45673782 0.5154139 -0.20312327 0.3108957 4.6686543e-07 -0.20420481 0.2136299 0.19952185
0.18439911 -0.26004136 7.576737e-07 1.0222254 -0.46124044 -0.20428598 -0.32113633 0.333581
0.88897127 -0.20425096 0.7957448 0.20801517 -1.5371044 -0.42132083 0.20427704 0.52455217
-0.006721389 -2.7890565e-05 -2.4663997 1.1740592e-07 0.5305058 -1.0063354 -0.7732661 -8.925669e-07
-0.2238655 0.2008122 0.5419331 -3.0868664e-06 -0.79352957 0.6072565 0.013031507 -0.322074
0.045140687 -6.5764243e-07 0.38399443 -0.25049785 -0.7573628 0.38985792 -0.34639627 -0.45550397
0.36122993 0.009498506 3.9213883e-06 1.7319292e-06 0.37379965 -1.6354095 -1.2295597 0.00026370757
-0.68728626 -6.745395e-07 0.7835605 0.17194626 -0.4796907 0.23328696 0.5121536 -9.922172e-07
-0.89304763 -0.80643594 -0.2042875 1.044001 0.042854387 0.53226435 -0.0044516893 -1.2351703e-06
-0.25928503 -0.77874666 -0.2928986 -8.3520746e-07 -0.19657674 0.3002216 0.79934984 0.3699212
0.8747907 0.008798318 0.6653651 0.017681262 0.47982937 -1.207621 -0.08772275 -0.23581274
-0.1809395 -0.00016233792 -1.0057901e-06 -0.016105425 -0.22541809 0.20428829 0.014076554 -0.34176102
0.76247233 0.856731 -0.2042878 -0.2053335 -0.11706172 2.354957e-07 2.0614634 -1.9797819
0.4915912 -6.8987987e-07 0.74847245 -0.25841242 -1.1628019e-05 -0.20428652 -2.7011686e-06 0.21942188
9.187235e-07 -1.0700266 -0.011429342 2.5905686e-06 1.5225343 -0.7139122 -0.20443718 0.21825525
0.5420804 0.63410854 -0.40754613 0.0078109247 0.34627318 0.039337013 1.0872797 -0.20428595
0.48676145 -0.194021 0.17895143 -0.7669456 1.3391204 0.20033978 -1.0639591 0.16485065
-3.1542802e-06 0.37799132 0.22584108 -0.2042881 -1.1680411 1.1643596 0.12603313 -0.7053474

fc3.weight f4 [16, 16]
00000000: 4746 5eb5 7000 933e d585 46be 33ca 42bf
00000010: ed80 e03d 0fae 153f e2f4 9bbe b00d 5cbb
00000020: 0045 09ba 1ae5 4b3f 5578 65bd 8a66 563d
00000030: c7cc 08bf 5f95 06bf bfcd 88bf 871e f03e
00000040: 032c e1b2 39a0 cd3e e07a b93f c1bc 1dbe
00000050: ae9e 873e f6f8 1a3f be53 3e3a 7ff4 b73e
00000060: 0a0f 06bc 1733 8dbf 1336 cbbd 24c2 bbbd
00000070: e36a f4be 98b8 22be 5bce a33f c3c1 b236
00000080: 1b30 e93d 1e7a 013f a265 2cbe 7869 493e
00000090: 8c05 58bd 3a18 3e3f 4994 e9be cd0a 3c3f
000000a0: 1a6e 0f3e 54f0 a8b9 c668 2c3e 9508 193e
000000b0: b98b 8ebf b063 7fbf 834c 87b5 fe7a f8bd
000000c0: e037 95bb 6b28 a03d a875 03be 9029 a93f
000000d0: bccf 22be 416d 2d3e b705 50bd 3b62 53bf
000000e0: e26c 273f 1865 2cbe 46dc 9d33 3517 07bf
000000f0: f616 9f3e ec4a b2bd 549f 633f 5d85 813f
00000100: ec3e 3b3f fb5c 8abe 9c19 4dbe 0202 f934
00000110: 3cff 363e 7c30 973f ba86 223e 694a 8f3f
00000120: 892d 82bf f4bf 0337 fd5e 5f3e d94b 00be
00000130: bcb3 8a38 177c a53f bbcd 1fb5 59d4 bfbd
00000140: abb5 d53e 410b 093e 1567 2c3e 2402 8c3e
00000150: 43d7 eb3d 6ec2 65bf 7919 5ebf c2ec 803c
00000160: 426d 0cbe 4fde 4a36 56a7 2cbe 3e21 1e3f
00000170: ddf3 073f 7d4e 6cbf bde4 3bb5 2782 cab5
00000180: b90b 5b3f ad62 353e a42f 913e 0aca 1f3e
00000190: c446 673e 7c18 2dbe 0514 26be 658c feb4
000001a0: 4952 353e 8088 eb3e e0a6 b5bc b94a b2be
000001b0: a7c6 033b 664e 243f da67 2cbe 06aa 88b9
000001c0: 0b26 e7bc c93f b9bb 4e48 e1bd e132 e2be
000001d0: c678 6c3d 3ee7 083f 1e5a 823f 70b6 36b4
000001e0: 4953 27bd 3598 d9be 69f4 703f 8104 433e
000001f0: ac41 f73e e0f3 55be 6e4b 68b4 6dc3 89bf
00000200: f5cd 13bf 0df0 313e 228c a2bf a28b 9a38
00000210: 19d7 2b3e a365 2cbe 26b3 213f 2b2e 3ebf
00000220: d870 edb3 0f96 553f 0197 633e 0f65 2c3e
00000230: 0cc3 533e 03bb c5bd a371 fc3e dcf9 663f
00000240: 4609 a93e 93a9 db34 9cd7 783e e042 0f3e
00000250: d74d bdbe 2a86 e03b 045a 2cbe 1857 e6bd
00000260: 4f32 62bd 50a5 d73b 7215 89be 639d 04bf
00000270: c7be 923d c109 5cbd 0dde b7be 2f15 db3d
00000280: 9942 8e3e ac53 013c 075e 80bf e6e8 933d
00000290: 5d77 45bf 6736 26be feb8 2c3e 2322 393e
000002a0: b4f3 1b3e a0b2 8cbe e120 813e 331f 833b
000002b0: fd2d 3ebe 405e 2cbe 91f6 013f 4e13 e7be
000002c0: 8646 43be 95e1 6a3f dd59 f335 3764 2dbf
000002d0: 3fa8 7734 9d32 103f c3de 0e3e 5390 2b39
000002e0: eb8a ea3d 2a61 363e 9046 8bbc 1b20 46be
000002f0: 114c 78b6 46f5 483f 0a85 81bf 36bd 8e38
00000300: 629f 1e37 8b5b 833e 5253 21be bef6 143d
00000310: 0eb3 273f f4ea 2c3e c558 8fbe 1093 aaba
00000320: 8190 2cbe 98ac 01bf 6a3b e93d e98b 8cbd
00000330: c08f 2e3e 37af 4bbf d3bd 3b3f 6ac0 533e
00000340: e220 ad3d 5a65 2c3e 5464 48b9 150b 2cbe
00000350: c35b 5bb5 eb65 2cbe 473c 203e 9812 613f
00000360: 8026 a33c 8ad5 24bf a7ac 2dbb 58d9 213f
00000370: 1c3f b535 b1a7 9d3f 4175 49be 5bbd 16be
00000380: b398 98be 5078 a3ba 509a b63d 4db0 523d
00000390: dac0 e9bf 6500 35b5 c556 383e 86d6 4a3e
000003a0: 3b25 3f3f cde2 19bf 31fb bebe 61c7 29bf
000003b0: af10 12bf 453e 2bbe 7bf0 e038 5675 7fbe
000003c0: 7d46 243f ee68 f0be 235c b83f 2ef7 26be
000003d0: bb8b 55be f40c 543e 5464 2c3e 77b3 fbbe
000003e0: 24af 513e 02b6 283f 6615 183d c96b 32bf
000003f0: 1b7d 933f bdf9 8337 0e6e 2c3e 7197 7d3e
-8.280371e-07 0.2871127 -0.1938699 -0.7608978 0.10962091 0.5846872 -0.30460268 -0.0033577494
-0.0005236417 0.79646456 -0.05602296 0.052343883 -0.53437465 -0.5257167 -1.0687789 0.4689829
-2.6213462e-08 0.40161303 1.4490623 -0.15404035 0.2648825 0.60536134 0.00072604034 0.35928723
-0.0081822965 -1.1031216 -0.09922423 -0.09167889 -0.47737798 -0.1589073 1.279735 5.32737e-06
0.113861285 0.5057696 -0.16835645 0.1966914 -0.052739665 0.74255717 -0.45620945 0.7345398
0.14006844 -0.00032222515 0.16836843 0.1494468 -1.113639 -0.99761486 -1.0080552e-06 -0.12132834
-0.00455378 0.07820209 -0.12837851 1.3215809 -0.15899557 0.16936208 -0.0507867 -0.8257176
0.65400517 -0.16835439 7.35095e-08 -0.52769786 0.31072205 -0.087056965 0.8891499 1.0118824
0.73142886 -0.27024063 -0.200293 4.6381325e-07 0.17870802 1.1811671 0.15871707 1.1194583
-1.0170146 7.852901e-06 0.21813579 -0.12528934 6.613831e-05 1.2928494 -5.9531493e-07 -0.09366674
0.41740164 0.133832 0.16836198 0.27345383 0.11515667 -0.897498 -0.8675762 0.015737895
-0.13713554 3.0229746e-06 -0.16860709 0.61769474 0.5310648 -0.92307264 -6.9995787e-07 -1.5088052e-06
0.8556476 0.17713423 0.2835666 0.15604416 0.22585589 -0.16903871 -0.16218574 -4.7413337e-07
0.1770717 0.4600258 -0.022174299 -0.34822634 0.002010742 0.64182127 -0.16836491 -0.0002606662
-0.028216382 -0.0056533557 -0.11000119 -0.44179443 0.057732366 0.5347785 1.0183752 -1.7016441e-07
-0.04085091 -0.42498937 0.9412294 0.19044687 0.4829229 -0.20893812 -2.1634125e-07 -1.0762764
-0.5773614 0.17376728 -1.2699015 7.369301e-05 0.16781272 -0.16835646 0.63163984 -0.74289197
-1.1056699e-07 0.83432096 0.22225572 0.16835426 0.20679873 -0.0965481 0.49305448 0.90225005
0.33014888 4.091531e-07 0.24300998 0.13990355 -0.3697345 0.006851931 -0.16831213 -0.112470806
-0.05522376 0.006580986 -0.26774174 -0.51802653 0.07165294 -0.05372024 -0.359116 0.106974
0.27785185 0.007893484 -1.0028695 0.07222156 -0.7713526 -0.1623169 0.16867444 0.18079428
0.15229684 -0.2748003 0.25220397 0.004001522 -0.1857223 -0.16832829 0.50766855 -0.45131916
-0.19069871 0.9175046 1.8131065e-06 -0.6773104 2.3064875e-07 0.5632723 0.13952164 0.00016361596
0.11452278 0.17810503 -0.01700142 -0.19348185 -3.6999156e-06 0.7849926 -1.0118725 6.806331e-05
9.454643e-06 0.2565578 -0.1575444 0.036368124 0.6550759 0.16886503 -0.27997413 -0.0013013799
-0.16851999 -0.5065398 0.113882855 -0.06862623 0.17047024 -0.7956423 0.73336524 0.20678869
0.084535375 0.16835538 -0.00019110861 -0.16801102 -8.171739e-07 -0.16835754 0.15647994 0.87918997
0.01991582 -0.64388335 -0.0026500614 0.63222265 1.3503918e-06 1.23168 -0.19673635 -0.14720671
-0.29804 -0.0012471769 0.089161515 0.051437665 -1.8261979 -6.742833e-07 0.1800185 0.19808397
0.74666184 -0.60111696 -0.3730102 -0.66319853 -0.5705671 -0.16722973 0.00010725945 -0.24947104
0.64170057 -0.46955055 1.4403118 -0.16305229 -0.20854084 0.20708066 0.16835147 -0.49160358
0.20476967 0.6590272 0.037129782 -0.6969572 1.1522554 1.573271e-05 0.16838858 0.24764802

fcl.weight f4 [10, 16]
00000000: 66eb 0040 c035 f9bf 0702 3dbd b988 03c0
00000010: a247 f0bf 5d04 9cb6 91d5 cc3e 9123 02c0
00000020: 7553 233f 1f3b b2ba ae1b 26bf c55b 8c3f
00000030: 4d21 24bf 3635 a2bf 95ef b9be ee23 52bf
00000040: f260 ce36 25cf 163f 02ce 52bf 91af d7be
00000050: 7916 36bf d9a7 a4bf 1ffc 01c0 6b60 c83e
00000060: a412 afbf ac50 1ebf 3cd9 b5bf e4a0 3abf
00000070: 5009 68bf 9e7b 3abf cb6b 833f b964 383f
00000080: 0b6d 5abf b342 b8bd b232 32bf 2f1a 0540
00000090: bfcd 9ab5 7e75 bebb 6fa6 7ebf 280e d8be
000000a0: 6f8a 3b3f 4fac 9cb6 15a3 b6bf 0f87 43bf
000000b0: 25f6 f13f 7602 d7bf d214 fdbc ee8a 1fbe
000000c0: 2b60 e3b2 79bc acbd 2856 513f 1821 d8be
000000d0: 9689 4e3f 3a0f d8be 5c5f fcbf b047 da3e
000000e0: 0f78 45bf 1715 da3d 2d76 9cbe 0eed 413e
000000f0: 888d 8c35 deca cdbe 91b7 49bf 2bc2 a2be
00000100: ca5e e4be 4b7b 2abf 58aa f93e 9677 be3f
00000110: 25b2 3fc0 bb2a 09be 39dc d03e 7b19 c8bf
00000120: 4dbe a5be 21a0 a53d 7c42 d73e efdf 00c0
00000130: 1afb 97bf 818c 85bf a7d8 5a3f 90ae 0abf
00000140: 313c b9bf 24fa 92bf f9e4 f9be 47be d0bd
00000150: 4c7c 6a3f c843 0dbf ee2d 833f 3b3f d6be
00000160: dc5e 96bf b07a df3c 1783 a1bf cd48 4e3f
00000170: b40e d8be 11e0 ba3f 3bb6 fab9 961b 33be
00000180: c622 2d36 de50 29c0 94c9 1cc0 e498 e4bb
00000190: 75d1 8abf c66c 913f 6c6b e43f 5e27 4ec0
000001a0: 68da 4abf ab01 023f 321e 13c0 9380 2ebf
000001b0: 5ae8 00c0 d768 19c0 b3ae 25c0 0a4c a83f
000001c0: aa0b fabf c593 80bf 176b 02bf 8d0e ffb4
000001d0: 409f a6bd 94de 8cbf 7c14 e0bf 0acd e93f
000001e0: 7efa d03f c70b 09bf 1d14 c03f 402a 1fbf
000001f0: f56f e4be 160e d83e 6683 1a34 b004 9fbf
00000200: 2149 d6be 4c64 ae3f 86db 8cbe 0f80 c9bf
00000210: eabd abbe dfad 123e c2c0 c835 dd29 0fb6
00000220: 6d44 aebf ec63 d1b8 8f67 d5be 54b7 07be
00000230: 620c d83e d4bc 6235 b30e d8be b28b 88bf
00000240: 256a 0e3e d3be 3fbf 5e3d 8b3f dd77 00c0
00000250: 0229 8ab5 16df d43e 41d5 c3bf 8814 d8be
00000260: 676e d4be cfd6 8dbe 2276 4d3f 4bbb 16bf
00000270: 74cf 71bf 547e 6e3f 540e d83e 47d4 bbbf
2.0143676 -1.9469528 -0.04614451 -2.05522 -1.8771861 -4.6496702e-06 0.40006688 -2.0334208
0.6379922 -0.0013597942 -0.64885986 1.0965506 -0.6411331 -1.2672489 -0.363156 -0.82086074
6.1505643e-06 0.5890983 -0.8234559 -0.42126134 -0.7112804 -1.2863723 -2.0310133 0.3913606
-1.3677564 -0.61841846 -1.420692 -0.7290175 -0.9063921 -0.72844875 1.0267271 0.7202869
-0.85322636 -0.08997097 -0.69608605 2.0797231 -1.1533774e-06 -0.005812346 -0.9947271 -0.421983
0.7325811 -4.6692217e-06 -1.4268519 -0.7637796 1.8903242 -1.6797626 -0.030893717 -0.15580341
-2.647001e-08 -0.08434386 0.8177209 -0.4221275 0.8067869 -0.42199117 -1.9716601 0.42632818
-0.7713632 0.10648554 -0.3055891 0.18938085 1.0472004e-06 -0.40193838 -0.78795725 -0.31788763
-0.44603568 -0.6659438 0.48762774 1.4880245 -2.995248 -0.13395207 0.40793017 -1.5632776
-0.3237175 0.08087183 0.4204291 -2.0136678 -1.1873505 -1.0433503 0.85486835 -0.5417261
-1.4471494 -1.1482587 -0.48807505 -0.101925425 0.9159591 -0.5518155 1.0248392 -0.41845116
-1.1747699 0.027280182 -1.261813 0.80579835 -0.42198718 1.459963 -0.00047819488 -0.17490992
2.579925e-06 -2.6455607 -2.4498034 -0.006976234 -1.0845171 1.136132 1.7845283 -3.2211528
-0.7923951 0.50783795 -2.298718 -0.6816494 -2.0141816 -2.397024 -2.5887878 1.3148205
-1.953481 -1.0045096 -0.50944656 -4.7508038e-07 -0.08135843 -1.1005425 -1.7506251 1.8265698
1.6326444 -0.53533596 1.5006138 -0.62173843 -0.44616666 0.42198247 1.439017e-07 -1.2423306
-0.41852668 1.3624358 -0.27511233 -1.5742205 -0.3354333 0.14324139 1.4957261e-06 -2.1333028e-06
-1.3614632 -9.9845085e-05 -0.4168057 -0.13253528 0.42196947 8.446634e-07 -0.42198715 -1.0667632
0.13907678 -0.7490055 1.0878103 -2.0073159 -1.0293736e-06 0.4157645 -1.5299455 -0.42203164
-0.4149048 -0.27702948 0.8025838 -0.58879536 -0.94457173 0.9316151 0.42198431 -1.4674157
