modeldata/pdk_Cosine_lr0.001_BitMnist_PerTensor_2bitsym_RMS_width16_16_16_bs128_epochs60.pth (torch, 9289 bytes, 4 tensors)

fc1.weight f4 [16, 64]
000000 8e 3f 0c 3e 69 03 89 3c 26 83 5c bc 20 2d c8 3d
       0.13696119 0.016725259 -0.013459003 0.09774232
000010 02 22 79 3e 37 7f 9d 3e 8f c1 80 3e 41 83 1b 3e
       0.24329379 0.3076112 0.25147673 0.15186788
000020 d5 8b c2 bd 63 44 b3 3d a5 26 16 be 19 a3 81 be
       -0.09499327 0.08753278 -0.14663179 -0.25319746
000030 b9 66 ad bc 10 94 26 3d f0 9f 81 3e ed e1 63 3d
       -0.021167146 0.040668547 0.25317335 0.05563538
000040 2c 6b 10 be 9c 13 7c bc a2 ae de ba e8 36 24 bf
       -0.14103383 -0.015385535 -0.00169893 -0.6414628
000050 0d c6 38 bf 95 92 7d be 9d 56 84 b8 63 a9 81 3e
       -0.721772 -0.24762948 -6.3103835e-05 0.25324544
000060 fd ed 20 b7 a3 f3 ea 3e e1 0e b3 3e fd 69 c4 3e
       -9.592154e-06 0.45889005 0.3497229 0.38362113
000070 7e 9f 81 3e e5 67 92 b5 18 a3 81 3e 79 66 66 3e
       0.25316995 -1.0908085e-06 0.25319743 0.22500028
000080 73 55 b8 bc 5b 20 49 3e b9 9f 81 be 42 73 2c 3e
       -0.022501683 0.19641249 -0.2531717 0.16840842
000090 48 b1 6d 3e 80 b0 9c bd 0e 24 13 3c 71 67 1d be
       0.23212159 -0.07650852 0.008980764 -0.15371491
0000a0 ee d8 9b bb 76 da 64 be 8a 36 6c 3e f4 66 61 3f
       -0.0047560846 -0.22348961 0.2306768 0.8804772
0000b0 d1 af de 3d 83 5b 1f 3e 9c 9f 81 be 85 75 b5 bd
       0.10873378 0.15562253 -0.25317085 -0.08860306
0000c0 d4 59 21 bd 3d bc 8b be 54 23 09 be 4d e9 52 3e
       -0.039392307 -0.27292052 -0.13392383 0.2059681
0000d0 dc 16 02 3f ba 52 06 3f 23 dd 1b bd c7 53 b8 b9
       0.5081613 0.5246998 -0.03805269 -0.00035157634
0000e0 96 01 0f bc 8b 8c e0 bd c5 dc ba be c0 73 9f bf
       -0.008728405 -0.109643064 -0.3649656 -1.2457199
0000f0 a7 c7 3f bf 9a b1 86 be 9c 8d 7c bb 5d ef 80 bd
       -0.7491402 -0.26307374 -0.0038536554 -0.06295655
000100 c8 19 53 be 0a 1e 6b bd ef 52 88 be b7 ba a1 be
       -0.20615304 -0.057401694 -0.26625773 -0.31587765
000110 66 fc df bd 43 e9 6c bd 13 9f 00 bd 3c 86 2b be
       -0.10936813 -0.057839643 -0.031401705 -0.16750425
000120 29 45 11 be 8b d1 a8 bd 55 f1 85 3e 80 a5 81 be
       -0.14186539 -0.08243092 0.26160684 -0.2532158
000130 8a df 8e be 51 ab 8f 3d 64 fc 58 3e ae 65 d1 3c
       -0.27904922 0.07015098 0.2119003 0.02556118
000140 fa 71 38 bd 39 09 8c 3f de 61 bf 3f 16 d6 87 3f
       -0.04503057 1.0940315 1.4951742 1.0612209
000150 54 2e 7a 3e 5c 70 8e 3e eb a1 81 3e 4f d0 0c 3e
       0.24431735 0.27820098 0.25318846 0.13751338
000160 05 90 0f be 89 9f 81 be b8 9f 81 be 32 ae 5e bf
       -0.14019783 -0.25317028 -0.25317168 -0.8698455
000170 71 48 26 bf a4 71 af be b3 5e 0e c0 e7 fc 66 be
       -0.64954287 -0.34266388 -2.22453 -0.22557412
000180 1b 13 56 be 3c 09 8a bf d0 9f 81 be e3 88 3f b4
       -0.20905726 -1.0784068 -0.2531724 -1.783806e-07
000190 c3 b8 04 be d3 9f 81 be 68 f1 26 be 65 72 22 3c
       -0.12961106 -0.2531725 -0.16303027 0.009914969
0001a0 11 3e 66 ba 4d a0 c3 3d cb 9d 81 be ea b7 80 3c
       -0.00087830523 0.09552059 -0.253157 0.015712697
0001b0 57 f0 30 37 bb 9f 81 3e f6 0c 94 3f 9b 99 92 3e
       1.0546376e-05 0.25317177 1.1566455 0.28632817
0001c0 4e f1 40 be 7c 67 dd 3e a7 65 db 3e 96 9f 81 3e
       -0.1884205 0.43243015 0.42850992 0.25317067
0001d0 3c 54 8f 3e 77 18 12 3f dc 9b bb 3e e6 13 b0 3d
       0.27993953 0.5706858 0.3664235 0.08597545
0001e0 a7 87 1f be b5 2e dd bd 2a 4a 28 3d 0d 41 bc 3e
       -0.15579091 -0.10799924 0.041086353 0.3676838
0001f0 a1 84 1e 3f c4 44 ea bd 60 2c 76 be d5 79 18 be
       0.61921126 -0.11438897 -0.24040365 -0.14890225
000200 12 23 0c 3e c2 8a 39 3c cc e5 7a bd 00 ad e2 bd
       0.13685253 0.011324586 -0.061254308 -0.110681534
000210 59 2b 9b be 33 7f 7e be be c2 af 3c 50 0f f3 3c
       -0.3030651 -0.2485321 0.021455165 0.029670388
000220 54 be bd 3d 28 11 aa be c8 f8 c2 bd 1b d6 36 3e
       0.09264818 -0.33216214 -0.095201075 0.17855112
000230 73 a1 aa 3e 3b d0 87 b7 c9 df c1 3c e1 5e ae 3e
       0.333263 -1.6190219e-05 0.02366628 0.34056762
000240 59 9d 35 be 80 c3 1a bf a8 8a 81 3e 10 b7 7f 3e
       -0.17735805 -0.6045456 0.253011 0.24972177
000250 88 96 81 be 40 e8 92 37 b2 86 13 3e 7f f5 0a 3f
       -0.2531016 1.7512706e-05 0.14406851 0.5428085
000260 98 d3 17 be c6 ff 80 3e 17 b4 0e 3f a7 9f 81 3e
       -0.1482681 0.2519514 0.55743545 0.25317118
000270 bd 9f 81 be 10 d6 f3 3d a7 17 f5 3a 01 21 2a 3e
       -0.25317183 0.119060636 0.0018699066 0.16614152
000280 24 1f ef b7 c1 94 71 be df bb 18 be d7 1f e3 3e
       -2.8505521e-05 -0.23591901 -0.14915417 0.4436023
000290 8b 9f 81 3e 78 9f 81 be 51 c1 57 bf a5 46 f1 bd
       0.25317034 -0.25316978 -0.8427935 -0.117810525
0002a0 92 64 47 be 17 e3 14 be 8f e7 be 3e fe 8d 88 3e
       -0.19471958 -0.14539753 0.3728604 0.2667083
0002b0 7b 9f 81 be 10 19 86 be fd d4 42 be 32 a7 3a bc
       -0.25316986 -0.26190996 -0.19026561 -0.0113924015
0002c0 a7 e5 11 3a 57 4e 94 be a1 ea 81 be e7 39 c9 33
       0.0005565532 -0.2896602 -0.2537432 9.370324e-08
0002d0 6d 0e 9a 35 c6 2b c4 3e 32 e1 1c 3f fb ff 6f 3d
       1.1478093e-06 0.38314646 0.6128112 0.05859373
0002e0 bc 48 54 bd 77 a7 cd bd 75 13 80 be 4b cc 8d b7
       -0.051827177 -0.10041707 -0.25014845 -1.6903641e-05
0002f0 84 a0 81 3e 0b 72 50 3e 7a e5 87 3e f5 c5 18 bb
       0.25317776 0.20356004 0.26542264 -0.002331135
000300 83 65 a5 bd 90 74 8e bd 40 cd 28 3d de 5a a9 bd
       -0.080760024 -0.06955826 0.041211367 -0.08269285
000310 eb f9 60 3d a5 c5 5e be 71 05 fb 3c 23 9e 94 bd
       0.05492584 -0.21755083 0.030642243 -0.07256725
000320 13 73 74 3d f8 4a 57 bd 11 d2 ba be a4 9f ac bd
       0.059680056 -0.05256173 -0.36488393 -0.084288865
000330 6e a6 81 3e c2 18 1d 3f f2 9b 81 3e a6 83 91 bc
       0.25322288 0.613659 0.2531429 -0.01776297
000340 b6 67 31 3d 38 e9 2b be 6c 9c 81 3e dd 94 8e 3d
       0.043311797 -0.16788185 0.25314653 0.06961987
000350 90 9f 81 be 66 ff 06 3f db bf 4b 3a da b4 81 be
       -0.2531705 0.5273346 0.0007772424 -0.2533329
000360 2d 1f d0 bd 2c ca 53 3e 45 41 15 be ed 2c 14 bf
       -0.10162196 0.20682591 -0.1457568 -0.5788105
000370 a5 1c 17 3e db a1 0c 3f d7 d4 9e 3e 4d 41 71 be
       0.14757021 0.5493447 0.3102176 -0.23560067
000380 43 7d 32 3e a8 8f 7d b6 3c ab 33 be 71 0d cf 3e
       0.17430596 -3.7783557e-06 -0.1754579 0.40439942
000390 cf 9f 81 3e 0d ef 68 be 7e 73 eb be af 60 a2 3d
       0.25317237 -0.2274744 -0.4598655 0.07928597
0003a0 55 29 76 bd cf 98 96 be 9c b5 ce 3e 1b bb 7f 3e
       -0.06009801 -0.2941346 0.40372932 0.24973719
0003b0 e9 69 36 bf c7 ac 98 be 67 74 18 38 cf b1 92 3d
       -0.71255356 -0.2981932 3.6348032e-05 0.071628205
0003c0 52 2c d7 bc a5 2a 86 3e 37 9f 81 3e 0b bf 92 bd
       -0.02626625 0.2620441 0.25316784 -0.07165345
0003d0 b0 bf ae b5 96 ac 9e 3d 1b 08 00 3e eb 12 e5 bc
       -1.3019799e-06 0.07747762 0.12503092 -0.027963122
0003e0 49 63 2e bb 99 86 ae bc c8 f3 8e 3c 84 a0 81 3e
       -0.0026609472 -0.021304416 0.017450228 0.25317776
0003f0 8c 9e 81 3e 3c 3c 81 3e 51 a2 4f 3c 8d 38 23 3e
       0.25316274 0.25241268 0.012672977 0.15939541

fc2.weight f4 [16, 16]
000000 71 f0 86 3f 80 91 c9 be 71 bd 8a 34 47 30 ed b4
       1.0542127 -0.3936882 2.584234e-07 -4.4179816e-07
000010 7b 89 5d bf c9 e8 ed bc 39 b1 60 3f 5b 83 55 be
       -0.86537904 -0.029041665 0.8777042 -0.2085089
000020 16 e7 a9 be 77 5b dc be 91 c6 74 3f 88 5b dc be
       -0.33184117 -0.43038532 0.9561549 -0.43038583
000030 99 75 24 bd 0d be 73 3d 63 94 75 be 8c 55 dd be
       -0.040151212 0.05950742 -0.23982386 -0.4322933
000040 16 18 17 3d 7e 8a 43 3f d2 5b dc 3e e9 c5 c9 bf
       0.036888205 0.763832 0.43038803 -1.5763522
000050 d8 6e 8c 3f 96 9d d5 bf da 9d 7c be 53 6e a6 34
       1.0971327 -1.6688716 -0.2466959 3.100018e-07
000060 23 da 9a be f2 9f ab 3d 29 5b dc 3e f2 2d a9 bf
       -0.3024455 0.083801165 0.430383 -1.3217146
000070 1d 48 d9 3e d7 ef 31 bf 40 6e 57 3f ea 59 ed be
       0.4243783 -0.6950659 0.84152603 -0.4635766
000080 78 da 92 36 f9 0b 02 bf 04 c9 db 3e c9 0d b8 3e
       4.376572e-06 -0.5079952 0.429268 0.35948017
000090 20 9e 9d b2 ca 0e 7c b7 65 10 9c be 14 8f e0 be
       -1.8349112e-08 -1.5023814e-05 -0.30481258 -0.4385916
0000a0 61 1d 0d 3f 1b 75 40 3f e2 a5 94 b6 20 f3 85 bc
       0.55122954 0.7517869 -4.430055e-06 -0.016351283
0000b0 54 62 bd bf 2e 17 6e b5 e8 d8 a6 be 2a 5e 21 3f
       -1.4795632 -8.869564e-07 -0.3258736 0.6303431
0000c0 20 a5 db be 00 a0 79 3e ae 5b dc be 82 99 10 bd
       -0.42899418 0.24377441 -0.43038696 -0.035302646
0000d0 2d cf 7d 3f eb a2 f9 3e b4 91 9a b5 e7 26 3b 3e
       0.9914425 0.4875711 -1.1516299e-06 0.18276559
0000e0 80 00 56 3e 28 aa 07 3f b9 6e dc be bd a4 9f b5
       0.20898628 0.5299401 -0.43053225 -1.1894368e-06
0000f0 3b f4 e7 bd 68 3e 9c be 29 23 15 bf cc 54 10 bc
       -0.1132588 -0.30516362 -0.58256775 -0.00880928
000100 b8 2e cf 3d c0 c3 b0 be df 1a d9 3e 08 f0 cf 3e
       0.10116333 -0.34524345 0.42403314 0.40612817
000110 a7 14 9b be 0b 23 00 3e a4 1d fa be 5f 37 de 3e
       -0.30289194 0.12513368 -0.4885074 0.4340162
000120 32 26 02 3f 71 b5 ba 3d 7e c8 dc be 1a 9b 21 be
       0.5083953 0.091166385 -0.43121713 -0.15781823
000130 f0 5b dc be 6f 5b dc 3e 44 4e e1 3e 68 5b dc be
       -0.43038893 0.43038508 0.44005024 -0.43038487
000140 49 22 2d 3c b2 f8 74 3f 51 de d5 3e 85 57 dc 3e
       0.010567256 0.9569198 0.41771176 0.43035522
000150 35 90 8b bf cf 5b dc be 56 fe b2 bf ba 7c 13 38
       -1.0903383 -0.43038794 -1.3983867 3.516369e-05
000160 f8 30 0d 3e 80 7e 58 b8 2b cb 39 3e 22 10 6b 3c
       0.13788211 -5.1616225e-05 0.18143909 0.014347108
000170 8c 1d c8 bc 43 3a dc 3e f0 52 7e 3a e0 be 2d 3b
       -0.024428152 0.430132 0.00097016897 0.0026511475
000180 38 42 9e 3d b0 b2 a7 bf 0d 79 3e be c4 54 dc 3e
       0.07727474 -1.3101406 -0.18600865 0.4303342
000190 9d da 8a 3f 7c bd 4a be 2c 5c dc be 8b 2f bc be
       1.0847965 -0.19798845 -0.43039072 -0.36755022
0001a0 6c 5b dc be 63 45 86 be 85 be 48 be ac 00 9b 3f
       -0.430385 -0.26224813 -0.19603927 1.210958
0001b0 90 5b dc 3e 8e 7c 09 3f f0 29 d4 3e ac be 07 be
       0.43038607 0.5370568 0.41438246 -0.1325633
0001c0 8f 97 9e bc a2 5b dc 3e 03 4e c3 3d f7 de b6 b5
       -0.019359378 0.4303866 0.09536364 -1.3624948e-06
0001d0 e3 78 d5 bf 08 5a dc 3e b7 45 ed 3e a4 5b dc be
       -1.6677517 0.43037438 0.4634225 -0.43038666
0001e0 b4 95 08 37 74 ef db 3e 76 e4 43 3f 57 5b dc 3e
       8.141087e-06 0.42956126 0.7652048 0.43038437
0001f0 d0 1c ba 3f 05 e5 0a bf 9b 5b dc be 0e 49 6b 3f
       1.4540043 -0.54255706 -0.4303864 0.9190835
000200 ac 5e 37 b5 f7 01 b1 3e 97 c5 7e bf bb 75 85 be
       -6.831058e-07 0.34571812 -0.9952025 -0.26066384
000210 95 52 93 3e 8c 5b dc be 2d 31 5a 3e fd 2f 50 3e
       0.28773943 -0.43038595 0.21307822 0.20330806
000220 b9 5b dc 3e 49 a5 f5 be 81 d6 0d b6 f1 e6 2a bf
       0.4303873 -0.47977665 -2.1135495e-06 -0.6675864
000230 12 a2 c5 be e3 d6 50 3f 9a dd 16 3f cd 61 e4 3e
       -0.38600212 0.8157789 0.5893189 0.44605866
000240 1f 5a 52 bf 93 5b dc 3e 85 8c d2 be 91 5b dc 3e
       -0.82168764 0.43038616 -0.41122833 0.4303861
000250 79 55 f0 be b5 63 30 3e 84 5b dc 3e db 1f 00 ba
       -0.4694021 0.17225535 0.4303857 -0.00048875593
000260 87 72 99 3e 28 66 84 bf 26 28 ff 34 a8 9c 9c 3f
       0.2997019 -1.0343676 4.7526663e-07 1.2235308
000270 2d 0d eb 3f 2c 09 ab 3e bf cb 7e b5 61 c6 52 3f
       1.8363396 0.33405435 -9.4918863e-07 0.8233395
000280 0b 13 c7 3e 95 8a 6d 3e 2a 0d df 36 51 44 db bf
       0.38881716 0.23197396 6.6474504e-06 -1.7130224
000290 f0 2b 80 3f d3 19 5f bf aa 15 80 3c d9 c7 0a 34
       1.0013409 -0.8714878 0.01563533 1.2924956e-07
0002a0 66 22 c2 bb 2e 89 e6 3e ac 56 1e bd 08 74 8c bf
       -0.005924511 0.45026535 -0.038656875 -1.097291
0002b0 51 56 73 3e c5 58 d2 be e3 c2 fa 3e 80 5b dc 3e
       0.23763396 -0.4108335 0.48976812 0.4303856
0002c0 51 4c b1 be 71 49 9d bf 51 95 7b 3e 6b 98 4b 3d
       -0.34628537 -1.2288038 0.24568678 0.049705904
0002d0 f9 70 b5 35 eb 49 08 3f a5 38 c0 3e cf 9a b1 3e
       1.351843e-06 0.5323779 0.37543216 0.34688422
0002e0 c5 a3 09 be c2 c2 92 35 cf 80 df be 95 05 79 b7
       -0.1344138 1.093453e-06 -0.4365296 -1.4842856e-05
0002f0 a8 5b dc be bc 9f 0e 3e 34 fb a0 3e b2 2c 33 3f
       -0.43038678 0.13928121 0.31441653 0.69990075
000300 9d 20 19 3f f9 b6 3e 3e 3d 4d 98 be e8 54 25 bf
       0.5981539 0.18624486 -0.29746428 -0.6458268
000310 8a 59 dc 3e 89 5b dc 3e 31 30 aa 3e 90 5b dc be
       0.43037063 0.43038586 0.33239892 -0.43038607
000320 1e c1 ab bc fd 2c 69 3f 17 7f 80 3f 05 ae e5 3e
       -0.020966109 0.9108427 1.0038785 0.4485933
000330 0d 37 46 bf cf f4 20 bf 0a 0f 9c bd bf 34 ab b6
       -0.7742775 -0.6287355 -0.07620056 -5.1023376e-06
000340 35 90 45 3f af cf 4d 3e 5f 5b dc 3e 5a 9b 70 3f
       0.7717317 0.20098756 0.4303846 0.9398705
000350 19 f3 09 3d 6f a3 a5 3e 93 83 af bf 85 5b dc be
       0.0336791 0.32351252 -1.3712028 -0.43038574
000360 5d 03 c1 3e bb ed 60 bb 66 60 da be 0a 5e dc 3e
       0.37697878 -0.0034321386 -0.4265167 0.43040496
000370 96 b7 e4 bd db ae 24 bc 42 21 9d be 0d 51 8c bf
       -0.11167829 -0.010051454 -0.30689436 -1.0962235
000380 90 5b dc 3e 76 e9 94 bf 6d 90 d6 3e 79 0b 92 33
       0.43038607 -1.1633747 0.41907063 6.800742e-08
000390 e6 4a c1 be 17 73 d4 bd f4 33 17 3f 75 51 1b 3f
       -0.37752455 -0.10373514 0.5906365 0.6067117
0003a0 88 10 c4 be 15 ac ec bd 78 15 74 bf fc 59 65 bb
       -0.38293862 -0.115562595 -0.9534526 -0.0034996262
0003b0 e1 24 82 be e4 60 b4 3e 6b 26 db be 19 0f dc 3e
       -0.2541876 0.35230172 -0.42802748 0.4298027
0003c0 6b ed a5 be e7 2e 9f 3d 1f 7d dc be dd d2 a2 bc
       -0.32407698 0.07772618 -0.4306421 -0.019875938
0003d0 29 96 71 b7 d2 7b d8 be d8 26 e9 3e 46 06 0f bf
       -1.4399681e-05 -0.42281967 0.45537448 -0.5586895
0003e0 e1 c0 aa b5 7c cb b0 3f 4a 4f bc be 30 ea 8b 3e
       -1.2722122e-06 1.3812099 -0.36779243 0.27327108
0003f0 6e 07 ca 3e ec f6 aa bf 66 8d a5 ba d7 6b a7 3e
       0.39458793 -1.3356605 -0.0012630641 0.32699463

fc3.weight f4 [16, 16]
000000 61 81 3c bf 9a d7 82 be 3c 4e 90 bc ad 14 b8 3e
       -0.73634917 -0.25555116 -0.01761543 0.35953274
000010 0d e6 fe bd 5f cd c3 3d 6f e7 a5 3e 76 93 ff 3e
       -0.124462225 0.09560656 0.32403132 0.4991719
000020 25 c5 9a be 98 e6 bd 3f 2e 33 3a bf 6b d5 95 bd
       -0.30228534 1.4835997 -0.72734344 -0.07316097
000030 75 24 c6 b7 02 8f b6 3e 82 3f ab be 60 83 3a b9
       -2.3620416e-05 0.3565598 -0.3344689 -0.00017787283
000040 df 76 98 38 67 21 19 bf 6d ec b5 3e 80 8e b6 be
       7.270066e-05 -0.5981659 0.3553194 -0.35655594
000050 2c 8f b6 3e 43 7d b5 3e 8b 92 b6 be f6 49 0f 3e
       0.35656106 0.3544713 -0.35658678 0.13993058
000060 f1 01 5a 3f 24 8e 1f 3f 12 f6 0b 3e 88 d9 ba be
       0.8515921 0.62326264 0.13668087 -0.36494088
000070 5e 3b cc be ea ad 61 3c d1 bc 8b bd 62 7a 25 be
       -0.39889044 0.0137743745 -0.06823123 -0.16159967
000080 2e a3 de bf b5 d6 95 be 1e 70 05 bd 6c 2d 32 3e
       -1.7393548 -0.2926537 -0.032577626 0.1740014
000090 5a 1b 1e 3f 29 fc 38 be 52 0c 2e be 85 82 f3 34
       0.61760485 -0.18064941 -0.16996887 4.5357243e-07
0000a0 49 d4 81 b8 27 8f b6 3e 66 8f b6 be 25 90 b6 3e
       -6.1907405e-05 0.35656092 -0.3565628 0.3565685
0000b0 b5 8f b6 be 80 f7 8f bd fa ce f4 bc 00 36 bb be
       -0.35656515 -0.07029629 -0.02988385 -0.36564636
0000c0 96 22 77 39 da e7 7c 3f 7c 50 dc be e6 c9 91 3c
       0.0002356864 0.9879128 -0.43030155 0.017796468
0000d0 32 ca cc 3d e7 d0 b5 3e c7 17 be b3 21 65 12 bf
       0.09999503 0.35510942 -8.8518895e-08 -0.5718556
0000e0 48 87 b6 3e 5a 3f 33 3b ad 06 5b 3f 2f 96 03 bf
       0.35650086 0.0027350993 0.8555706 -0.51401037
0000f0 75 f6 0d bd ba a4 f3 bc 74 2a dd bd b7 0a eb bf
       -0.034658868 -0.029741634 -0.10799113 -1.8362645
000100 e7 b3 cb 3e 0c 93 b6 be 14 35 dd 3e 07 d2 53 bd
       0.39785692 -0.35659063 0.43204558 -0.05171397
000110 e8 2b 12 be 97 25 32 b7 a9 b1 b5 3d 69 d7 28 3e
       -0.14274561 -1.0618379e-05 0.088717766 0.16488422
000120 c8 70 d3 3e 24 fb e4 be 9f 52 c7 3d 8b d8 f2 38
       0.41296983 -0.44722855 0.097325556 0.000115797935
000130 1b f3 d9 3e 08 79 a3 b9 23 ae df be 6e b5 f5 3d
       0.42568287 -0.00031179958 -0.43687543 0.119974956
000140 97 d4 e4 bd cf 36 01 bf 12 b4 63 3a 14 56 dc be
       -0.11173361 -0.50474256 0.00086861954 -0.43034422
000150 81 39 df bb 0a fb 85 3d 1c 5b a3 3e 4a ec b6 be
       -0.006812275 0.065420225 0.31905448 -0.3572715
000160 eb 3b 8b 3f 70 40 06 3f ff b1 37 3e 57 c4 b5 be
       1.087766 0.52442074 0.17938994 -0.35501358
000170 8c fa e0 3e c9 a4 19 be 11 8f b6 3e 91 75 05 bd
       0.43941152 -0.15004267 0.35656026 -0.032582823
000180 31 d9 57 b9 d7 be 82 3f 70 6d c6 3e ba 57 02 35
       -0.00020584908 1.021449 0.3875537 4.855643e-07
000190 37 f9 be 3e 6b 0f b6 3e c7 d0 3e be 3d 88 2b 3d
       0.3729951 0.35558638 -0.1863433 0.041877974
0001a0 27 1c 7f 39 0f d2 bb be 80 1d 29 3f 3d c1 82 be
       0.00024329183 -0.366837 0.6606064 -0.25538054
0001b0 25 88 bb 3c 3f b6 3b 3f 25 02 a4 3e 8b 7c 54 bc
       0.022892067 0.7332496 0.32032886 -0.0129691465
0001c0 56 1e a1 3e ad 6c 21 3f 39 43 3e 3e 7a 55 80 be
       0.31468457 0.6305645 0.18580331 -0.25065213
0001d0 08 8f b6 be 08 e5 b5 3e 1d 65 95 3f fe 33 bb 3e
       -0.35656 0.355263 1.1671482 0.36563104
0001e0 40 51 c7 35 3d e2 18 3c f3 8e b6 3e 2b b1 b6 be
       1.4850302e-06 0.009331283 0.35655937 -0.35682043
0001f0 d7 6c 13 3f de 5c 3d be 75 e6 df be 2e 89 00 3e
       0.5758795 -0.18492457 -0.43730512 0.1255233
000200 fc ad 5b 3f ab e4 a7 3c c1 42 5e be 07 78 7c bf
       0.85812354 0.02049478 -0.21705152 -0.9862065
000210 fd 64 d1 be ff 22 36 3d 1d 19 d5 bd 9d bc 2d 3f
       -0.4089736 0.04446697 -0.104051806 0.67865926
000220 16 e8 3d 3e ed 4b e4 3e e9 38 25 3e 64 c8 f8 34
       0.18545565 0.44589177 0.16134991 4.6339403e-07
000230 c2 54 8f be d8 6f 4d be 64 ec c4 3e 3f 6a 16 3e
       -0.27994353 -0.20062196 0.38461602 0.14688967
000240 9a 16 14 bf 28 37 1c be ff 91 b6 3e c4 6d 67 b9
       -0.5784699 -0.15255415 0.3565826 -0.00022070768
000250 94 56 8f be e9 36 66 3e 8c 8c 8b be 3b 69 bf 3e
       -0.2799574 0.22481884 -0.27255666 0.37384972
000260 1c 47 20 bf 4e 99 00 3e 72 35 4e bd 4e 8f b6 3e
       -0.62608504 0.12558481 -0.05034394 0.35656208
000270 88 e7 cc 3d d8 22 28 be 45 63 ae 3e 9e 04 4d 3f
       0.100050986 -0.16419542 0.34060112 0.8008517
000280 2d 30 97 ba 25 65 b7 be 66 e7 50 be 27 8f b6 3e
       -0.0011534743 -0.35819355 -0.20400771 0.35656092
000290 0e f1 a9 3d b8 32 2d 3d 5e db 54 3f 31 e4 ab be
       0.08297931 0.042284697 0.8314723 -0.33572534
0002a0 55 9a 88 3f ef 4e 60 3f e7 aa 9c 3d d3 22 4e 3e
       1.0672098 0.87620443 0.076497845 0.20130472
0002b0 35 9b f9 3e 4b ea 89 39 95 07 be be 63 ae 48 bf
       0.48751226 0.00026305238 -0.3711516 -0.78391093
0002c0 0b 58 09 40 a3 83 21 35 64 61 b6 be 71 c5 0f 3f
       2.1459987 6.016873e-07 -0.35621178 0.56160647
0002d0 80 39 b2 34 a1 5b 48 bf 47 0d 27 bf 6a 7b 65 3e
       3.319692e-07 -0.78264815 -0.65254635 0.2241036
0002e0 34 4a 65 be 39 ea f1 3d 79 b1 a7 3d 97 10 b3 3e
       -0.22391587 0.118122526 0.08188147 0.34973595
0002f0 72 61 8e 3f 52 98 b6 3e 9d 84 0e 3d 96 5b 6b bf
       1.1123488 0.35663086 0.03479444 -0.91936624
000300 bb 8b b6 be 03 53 05 bf a3 98 44 bf 5d a8 a4 bd
       -0.3565348 -0.5207979 -0.76795405 -0.08039925
000310 f8 cc 04 3e b2 de 4a bf f5 ca 8a 3f f6 c4 93 bf
       0.12968814 -0.79246056 1.0843188 -1.1544483
000320 67 7a 93 bc 43 6d 80 bd bf 69 10 bf 4b db a0 3e
       -0.018002702 -0.0627084 -0.56411356 0.31417307
000330 1b 8b 37 35 e6 ee b6 3e da e7 09 3f ff 57 c7 be
       6.837524e-07 0.3572914 0.538694 -0.38934323
000340 2a 0d 58 35 73 cb b5 3e d0 c7 81 be 0c 8f b6 be
       8.0485427e-07 0.35506782 -0.25347757 -0.3565601
000350 46 15 b8 3e f4 61 4d be e6 8e b6 3e b6 7e aa 3e
       0.3595373 -0.20056897 0.35655898 0.33299798
000360 15 4e b8 3e db 20 78 bd ac 8e b6 3e 11 e8 0d 3f
       0.35997072 -0.06057821 0.35655725 0.5543223
000370 b0 b3 dc be 6f 59 38 bf 48 2b 8f 3f d8 26 cb be
       -0.4310584 -0.72011465 1.1185083 -0.39678073
000380 5d 8f b6 be 64 5a c1 be 5d 09 44 3f 45 fc 87 3f
       -0.35656253 -0.37764275 0.7657679 1.0623862
000390 1b 01 7a bb e8 33 a2 be c8 4a 38 be 6e 55 d0 3d
       -0.0038147632 -0.31680226 -0.17997277 0.101725444
0003a0 9b 95 a6 be e1 a0 b3 3e a5 9d c8 3e 07 e1 a8 3e
       -0.32536015 0.35083678 0.39182773 0.32984182
0003b0 40 39 4d 3f ec b8 4a bb 53 b7 af 3e 05 bd d7 3f
       0.8016548 -0.0030932976 0.34319553 1.6854559
0003c0 ce 2b 3f 3f 93 9b 31 be 67 18 b8 3e f2 2c 18 bf
       0.74676216 -0.17344503 0.35956118 -0.5944358
0003d0 39 78 2f 3f 64 c0 ea 3d c1 8e b6 3e 36 07 89 be
       0.6854282 0.11462477 0.35655788 -0.26763314
0003e0 a7 ba 28 be 3c ed b5 be 54 9c b6 be 6a 77 bf bd
       -0.16477452 -0.35532558 -0.35666144 -0.09348948
0003f0 e2 be 71 3c b7 c0 74 3f 27 ca 8f bd fd 3e 8c 3e
       0.014754983 0.9560656 -0.070209794 0.27391806

fcl.weight f4 [10, 16]
000000 b8 d2 3b bf 4d 7a ea be d4 01 32 bf e5 98 a3 bf
       -0.73368406 -0.45796433 -0.6953404 -1.2781035
000010 4f 19 41 3f cd 2d 47 bf 6f 9b 9f 3e 0c ff 1d 3f
       0.7542924 -0.7780426 0.31173274 0.61717296
000020 48 df e9 bf 02 8a 3f 3f f6 3a 3b bf 56 e5 c7 bf
       -1.8271265 0.7481996 -0.7313684 -1.5616863
000030 69 07 17 bf 9b 23 94 bf dc d0 c0 3f 44 8a 2a bf
       -0.5899568 -1.1573366 1.5063739 -0.66617227
000040 12 e5 5a 3f 5f 3d 3b bf 20 16 8c bf 53 5d 38 bf
       0.85505784 -0.7314052 -1.0944252 -0.720174
000050 21 36 3b bf e8 50 3a 3f a1 5d 23 bf 77 d0 a7 3e
       -0.7312947 0.72779703 -0.6381474 0.32776234
000060 da 8d 35 bf 1c 18 56 bf 28 4e 39 3f 60 d9 de bf
       -0.70919573 -0.8363054 0.7238488 -1.7410088
000070 7c b7 3b 3f 3b 4f 23 bf dd 80 ae bf c7 2e 2c 3e
       0.7332685 -0.6379277 -1.3633076 0.16814719
000080 69 f2 43 3f 9a 36 3b 3f 4f 9e 5f bf 84 57 9a bf
       0.76541764 0.7313019 -0.87350935 -1.2057958
000090 77 ec 8b be 5d 39 cd 3a 7c 02 ba be 60 a8 1c bf
       -0.27328846 0.0015657354 -0.3633002 -0.6119442
0000a0 84 36 3b 3f 3e 37 3c 3f 0e 5e ea be 22 e9 0f be
       0.7313006 0.7352179 -0.45774883 -0.14053777
0000b0 6b 45 a0 bf de 82 0a bf bc 33 60 be 06 f4 3a bf
       -1.2521185 -0.5410594 -0.21894735 -0.730286
0000c0 53 a6 12 bf ff 74 6e 3f e9 4c 5f 3c 0e 36 3b 3f
       -0.5728504 0.9314727 0.013629177 0.73129356
0000d0 b7 3c 3b 3f 9c 36 3b 3f 0a a2 ae be 8a 36 3b bf
       0.7313952 0.731302 -0.34108 -0.73130095
0000e0 5c 11 40 bf 62 25 31 bf 7f 28 25 3f 57 36 3b bf
       -0.7502649 -0.69197667 0.6451492 -0.7312979
0000f0 1b 65 07 c0 67 ed fe 3d 68 1d 1c bf f6 9b 39 bf
       -2.115546 0.12447625 -0.6098237 -0.725036
000100 c0 36 3b bf cf 30 3b bf 2e a3 4a bf 10 41 f0 bf
       -0.73130417 -0.7312135 -0.7915524 -1.8769855
000110 04 22 3b bf de 6e c1 be 05 fc dc be 78 61 87 bf
       -0.7309878 -0.37779897 -0.43161026 -1.057662
000120 ca 6a 5d 3f 0d 70 ce 35 7e 36 3b bf ad 55 d6 3b
       0.8649107 1.5380807e-06 -0.73130023 0.006540975
000130 ac 1e fc 3e 9d 43 46 3f c3 0e c7 be 30 0d 88 b4
       0.4924215 0.7744692 -0.3887845 -2.534157e-07
000140 8d 36 3b bf ec ca f4 be 23 d1 30 bf 40 ab c4 3f
       -0.7313011 -0.47811067 -0.6906912 1.5364761
000150 39 14 bc bd 95 e4 10 bf a6 bb 6c 3f 62 79 fb 3e
       -0.09183545 -0.5659879 0.9247383 0.49116045
000160 c3 92 9c bd aa b4 44 bf 5f 1b 0a bd ad 7e bf bd
       -0.0764518 -0.7683817 -0.03371751 -0.09350333
000170 8b d9 a1 bf 26 d2 8b 3e eb 7e 1c bf 43 10 06 c0
       -1.2644514 0.27308768 -0.6113116 -2.0947425
000180 e5 ba 84 bf 2d a8 b0 bf 0a 28 14 c0 fa 10 3b bf
       -1.0369536 -1.3801323 -2.3149438 -0.7307278
000190 49 a6 a8 3f 36 09 4b bf 5e ab 78 be 60 b2 62 3f
       1.3175746 -0.7931093 -0.24284121 0.8855343
0001a0 95 34 3b 3f dc 87 47 be c6 42 30 c0 3b 41 34 3f
       0.7312711 -0.1948542 -2.7540755 0.70412034
0001b0 b5 22 92 bf 44 d5 bb bf 36 af 18 c0 a4 43 ea 3d
       -1.1416842 -1.4674459 -2.385694 0.11438683
0001c0 15 43 16 3f a5 db 8a b8 87 36 3b 3f 5f 38 82 bf
       0.5869611 -6.621265e-05 0.7313008 -1.0173453
0001d0 7b 86 c6 bf 7f af e3 34 c4 2e a8 be 7d 46 e5 bf
       -1.550979 4.2409735e-07 -0.3284818 -1.7912136
0001e0 00 2b e7 be c6 fb 25 bf bc 35 3b 3f ef 12 a0 3f
       -0.45149994 -0.648373 0.7312887 1.2505778
0001f0 8c 39 4b bf 93 91 31 bf 88 36 3b 3f 22 86 b6 bf
       -0.79384685 -0.69362754 0.73130083 -1.4259684
000200 14 c8 c1 b5 cf 65 ca 3e e2 61 b6 be 9c 1b 77 be
       -1.4437851e-06 0.395308 -0.35621554 -0.24131626
000210 a8 30 76 be ad e7 ad b5 d7 d8 47 3f 0e 98 46 bf
       -0.24041998 -1.2956931e-06 0.78065246 -0.7757577
000220 1f 4c b7 be ba 35 3b bf 87 fd 23 bf e7 f7 42 be
       -0.35800263 -0.73128855 -0.6405873 -0.1903988
000230 c1 36 3b bf 7e 36 3b bf 84 36 3b bf 28 bb e1 3f
       -0.7313042 -0.73130023 -0.7313006 1.763524
000240 47 ec 88 bf 4f 36 3b bf 5a 9a 5e 3f be 82 45 bf
       -1.0697106 -0.73129743 0.8695427 -0.7715262
000250 b9 27 ae be 93 d5 7a be ee e9 f2 3a 55 d5 6c bf
       -0.3401468 -0.24495535 0.0018532851 -0.9251302
000260 8a 36 3b bf 7d 36 3b 3f ab 4b 06 bf 51 4c a0 be
       -0.73130095 0.7313002 -0.5245921 -0.31308225
000270 a6 18 78 3c b3 a8 5d 3f e8 bc 0a 3f 2d 9d 68 bd
       0.015142595 0.8658554 0.541945 -0.05679052
