modeldata/pdk_Cosine_lr0.001_BitMnist_PerTensor_2bitsym_RMS_width16_16_16_bs128_epochs60.pth (torch, 9289 bytes, 4 tensors)

fc1.weight f4 [16, 64]
00000000: 642e 4e3c a89e b83d 4713 423e e16b 123e
00000010: ea43 9d3e 3f06 313e 6f97 d63d d264 d83d
00000020: 0ecb b23d 349c a537 89b2 a6b7 8f17 5bbe
00000030: a0b4 5eba 3067 97bb 2893 5036 426a cebd
00000040: 9a0c bcbd f4f4 3cbe eb0c e5be 0ac0 e4be
00000050: 61c0 a4be af48 e4bd a4ba 04bf e297 b2be
00000060: c83d 17be fb17 1abd 072c 893d b6ed 333d
00000070: fa5b 54be ab3f 94b5 6f8e b0b5 927f 13be
00000080: 1fae 9bbd 379e 373f bdf0 ce3f 4d6f ee3e
00000090: 1fb8 e73d b21e 523e 2dc1 a53e b05f ce3d
000000a0: 9475 233d 9726 323b 1d78 6c3e 93dc 1a3e
000000b0: 4be9 dc3e d94c 0f3f 5168 7436 c0a2 e73d
000000c0: 7fee d53d ba75 e7bd b797 51be 8842 09bd
000000d0: e8dc 80be 2a7d a8b7 2651 4237 63d4 46bb
000000e0: 2237 8c3c eea2 9dbd 3a12 01be 198e 3ebf
000000f0: 3933 f9be a93b 51be 1a44 85bd 75c0 bbbd
00000100: 3668 ca3c 1a76 573c 5673 5ab5 39e4 38bc
00000110: 7e04 ca3d 6aa7 3bbe 5791 72be c725 34bd
00000120: 379d d0bd 3146 953e 267e 733f 4618 453f
00000130: c9ed a7b3 8a8e 5fbf 3409 c5bf c400 7bbe
00000140: d28c 9f3d f44e 553f c992 2bbd df80 02bf
00000150: cb06 4f3f 8c6a bf3e 9b3c cbbf 9927 e8be
00000160: 7cd5 b7bd be62 63bf fb0a d1bf 8817 88bc
00000170: f53b a43f 4d65 55be 5ed1 7ebf f645 cfbd
00000180: a912 f83d b6e1 39bc 878f a834 73af 3b3e
00000190: 9a47 723d a2ac c637 398e 513f 8aae ac3e
000001a0: e3e8 2d3e 0320 333f 3671 dbb7 145b 1cbf
000001b0: 4eb9 e7bd 6a15 d03e b39d 8e3f 7d74 da3e
000001c0: 7124 363a 574a c13e ee0f 8734 6750 81b5
000001d0: c1fd acbd 9945 dcbd 03fd 1dbe 0165 2bbc
000001e0: 9bb9 b23d fac6 833d 22f0 9d3c 5633 3e3d
000001f0: f911 dbbd 5f39 b8be e6ec b1bd e4ba e9bd
00000200: 4ac6 153e 1fe5 9c3d 99cd 9bbd 26ce 863d
00000210: ccc7 003e 0abf 943e cabf 293e 5b25 1c3d
00000220: 2825 22bd 319a 6bbe d1dd 06bf 8f09 8bbd
00000230: f956 613e 83b8 e73d 2647 873f 66aa 723e
00000240: 1f3e 43bd 259e 32bf 37c5 2ebf 1734 1e3f
00000250: 62b9 e7bd d711 86bf 9e09 11bd cc85 f03d
00000260: c436 25bc eb71 33bf fd81 c8ba a5c7 b63f
00000270: 17c7 003f ec99 d7bd 971e a7be a9ee 24be
00000280: 9245 ffbc ac06 26bd 47d9 5cbf 9431 c7bd
00000290: f94a 5235 cf5f 0535 f7c0 3c3e 713e 56be
000002a0: 0c33 033e 5a71 163f dc28 93b4 f5ec 00be
000002b0: 8175 013e cb55 cab5 d732 b3bd a2e8 09be
000002c0: 2d1e 6b3d 17bf bb36 168e e73d efc4 e73d
000002d0: 71cd 643e d80e 0e37 5178 04be 50a4 acbd
000002e0: b8ce 2a3e 18e2 7e3d 479f 083f 9373 e8bd
000002f0: 3a33 1ebf 5b66 69bd 7ddd 8cbd 023e f53d
00000300: 8fca 24bd 6214 dc3d d756 b93d 9459 babd
00000310: 31f6 48be 1221 883d 48f5 8dbc 9b6b fc3d
00000320: aea4 1e3e 6439 cb3b 9967 2ebe 5c5e 5fbf
00000330: c187 dabd 84af 9fbe b2a3 273c 4111 b8b7
00000340: 8152 92bd 221f 9a3c b995 ffbe 3984 01be
00000350: 818d 283f aad3 0d3e cb1b 5d35 4a09 063e
00000360: d64e 30bd 2af3 3bbe 867d 6ebe 31cd c03d
00000370: 0911 093f 2c7a e3bd 5060 533d 808e 8a3e
00000380: dfc1 163d 7218 9fbd c2a3 34bf a278 8339
00000390: 6ef9 da3d adaf 26bf a664 b9be 5749 17bd
000003a0: b12d 333d 102d 3cbe f981 dbbd fb92 0a3f
000003b0: 7fc6 e1bd a426 b5bf 6e82 81be 0429 8e3d
000003c0: a408 573d f2eb 0c3e 8806 d63d 5cd7 e7bd
000003d0: 814e 08bf 0ed7 5fbf fb06 a0bd 3666 073e
000003e0: f448 dd3d 5a41 213e 05d5 3c3a 5d1a adbd
000003f0: e7cc c6bc bd9f d6ba 51eb 143e 1433 1d3e
0.012584303 0.09014636 0.18952666 0.14298965 0.30715877 0.17287539 0.104781024 0.10566105
0.08730136 1.974227e-05 -1.9871879e-05 -0.21395706 -0.0008495543 -0.004620455 3.1080071e-06 -0.10078861
-0.09182091 -0.18452817 -0.44736418 -0.44677764 -0.32178023 -0.11146676 -0.5184729 -0.34881502
-0.14769661 -0.037620526 0.06697851 0.04392787 -0.20738211 -1.1045389e-06 -1.3154475e-06 -0.14404133
-0.0760157 0.7172579 1.6167217 0.4656929 0.11314415 0.20519522 0.32373944 0.10076845
0.039907053 0.0027183646 0.23092695 0.15123205 0.43146738 0.55976635 3.6419553e-06 0.11310339
0.1044588 -0.113017514 -0.20468031 -0.033510715 -0.25168538 -2.0085445e-05 1.1582195e-05 -0.0030338995
0.017116133 -0.07697092 -0.12604609 -0.74435574 -0.48671892 -0.20432915 -0.0650713 -0.09167568
0.024707895 0.013150716 -8.1379164e-07 -0.011284881 0.09864138 -0.18325582 -0.23688255 -0.04398134
-0.10186236 0.29155114 0.9511436 0.76990163 -7.8197964e-08 -0.8732687 -1.5393434 -0.24512011
0.07790531 0.833236 -0.041888032 -0.5097789 0.8086974 0.37385976 -1.587787 -0.4534271
-0.08976266 -0.88822544 -1.6331476 -0.016612783 1.2830797 -0.20839424 -0.9953822 -0.10120766
0.12112934 -0.011345318 3.1396868e-07 0.18328647 0.059150316 2.3683828e-05 0.8185764 0.33726913
0.1698337 0.6997072 -2.6159552e-05 -0.61076474 -0.11314641 0.40641338 1.1141876 0.42666999
0.0006948179 0.3775203 2.51573e-07 -9.634649e-07 -0.08446837 -0.10755462 -0.15428548 -0.010461093
0.08726808 0.06434436 0.019279543 0.046435677 -0.106967874 -0.3598127 -0.08687763 -0.114126
0.14626423 0.07660889 -0.07607574 0.065822884 0.12576216 0.29052 0.16577068 0.038121562
-0.039586216 -0.23008038 -0.52682215 -0.067889325 0.22005834 0.1131449 1.0568588 0.23697814
-0.047666665 -0.6977256 -0.68269676 0.6179823 -0.11314656 -1.0474194 -0.035409562 0.1174427
-0.010083858 -0.700957 -0.0015297529 1.4279677 0.50303787 -0.10527405 -0.32640526 -0.16106667
-0.031161103 -0.040533707 -0.8626904 -0.09726253 7.8340196e-07 4.968578e-07 0.18432985 -0.20922257
0.12812442 0.5876671 -2.7410613e-07 -0.12590392 0.1264248 -1.5075142e-06 -0.08749931 -0.13467649
0.057401825 5.59528e-06 0.113063976 0.11316859 0.22343995 8.467316e-06 -0.12936522 -0.084297776
0.1668042 0.06222734 0.5336804 -0.11350169 -0.61796916 -0.05698238 -0.06878183 0.11974718
-0.040232237 0.10746075 0.090497665 -0.09099117 -0.19625165 0.06646933 -0.017328873 0.123252116
0.15492508 0.00620191 -0.17031707 -0.87253356 -0.10670424 -0.31188595 0.010231899 -2.1942544e-05
-0.071446426 0.018813673 -0.49918917 -0.12648095 0.6584092 0.13850275 8.236936e-07 0.13089481
-0.043043934 -0.18354478 -0.23290071 0.09414137 0.5354162 -0.11107287 0.051605523 0.27061844
0.036805984 -0.077683344 -0.70562375 0.00025076146 0.10692106 -0.6511181 -0.362096 -0.036935177
0.043744747 -0.18376565 -0.1071815 0.54130524 -0.11024188 -1.4152417 -0.25294822 0.06941417
0.052498475 0.13761881 0.104504645 -0.113203734 -0.5324479 -0.8743752 -0.078138314 0.13222584
0.1080493 0.15747586 0.0007203373 -0.08452294 -0.024267627 -0.001637451 0.14542891 0.15351516

fc2.weight f4 [16, 16]
00000000: 2769 343e 7d64 e7b3 3a58 b43e a720 3f3f
00000010: 1c5d 363e 40bc 673f 1133 ecbd 0ac9 45bf
00000020: 2f3b 373f 2412 9abe fb42 84be 79f8 13be
00000030: 85b3 39ba af24 4abf a6cd fab5 0c10 703e
00000040: 915b 36be 4eda a83e 1e01 0dbf 8d6b 4d3f
00000050: 5c55 8cbe 818d 3c3e cd58 5d3c 5715 0fbf
00000060: 7435 dabd ed4c 57be 118d 6ebf 789c 2f3e
00000070: 93bb 60bf 2080 363e 83bb 4b3e 7fb3 6bbe
00000080: 60a2 0b39 415b 36be 5c25 b03e 3a9e 3a3e
00000090: 07c6 9fbd fdb5 9c3d 5105 61bf 1775 ab3f
000000a0: 17f6 373e f649 203f 36b3 9d3e 8595 01be
000000b0: b4c8 223e 816c 92be 4238 e8bd e50b 33bc
000000c0: 20a5 28bf 3afd 3c3b 0fcd f93d ce02 3f3e
000000d0: 31e2 603f c589 23bc 3872 753f a9e4 e6bc
000000e0: b4cd 96be 7a0b 31bc 7a88 1fbe 5c11 16be
000000f0: c983 37bf 9b07 f53d de61 90b5 9635 0433
00000100: 8c32 933f 8bc0 ba3d 3481 e0bd 47b4 d4bf
00000110: a3a6 393f 1a37 36be 7178 413f bbc6 65b5
00000120: 45ff ccbe bfa4 1838 eb73 f13e 13e5 553e
00000130: 3e02 52be f5e8 273f a79a 9e3e eb22 adbb
00000140: 9f21 1db6 325d 36be c6d7 eabe 5503 4bbe
00000150: 1516 6c3e 0d3f 94bf 8135 99bf d157 5335
00000160: 3d7d b1bd 4a7d 5f3e 968b 683f dd37 863f
00000170: 7a5c 363e e62c 8ebe 418e 09be 094a 14bf
00000180: 7813 743f 25e2 733f f625 1cb5 1628 58b4
00000190: a078 febb 4fb4 6dbc 2469 34bf 9036 703c
000001a0: 7248 7fb5 6616 8b3f 532b 2c3f 29b0 f5be
000001b0: e20d b7be d5fb 333e 11cb 4bbf 7e70 3b3f
000001c0: f5bd 0abd bd4a 313f 47ce 3d3e 7e13 20bb
000001d0: 6ff3 bbbd a05b abbe badd 923e 799d d7bb
000001e0: 4758 f53d e526 6fbe c5f8 fe3e 0f84 c3bb
000001f0: dd53 e83d 5c18 a836 c988 81bd 5e75 35bc
00000200: 256a 04be 4544 b63f 90de 6c3e ff74 833e
00000210: 16d9 b0bd 0978 a1b5 3c62 3eb7 abc3 8b3f
00000220: 4e5e 36be 3dca 75bf f016 cc3e 80b2 a6bf
00000230: 2364 d83e 78ab 7ab5 d301 1dbe c6d4 54b5
00000240: 105d 363e 5cee 19bf f5da 123f c206 2a3b
00000250: 1b58 793b 788b 09be 8438 4dbf 7530 b53e
00000260: 2204 9ebc 0457 3bbe 1f50 e9b6 2e84 49be
00000270: 1dcc 1e3e f7fe 20bf 3344 cb3b d749 2ebf
00000280: 50b2 ec3e 3894 edbe edfd 083f 144f f53d
00000290: 19e6 343f f5a9 d3bf 385a 86be 1865 3c3e
000002a0: e348 1fbc 56bb a3b4 0f8d 3bbd 431c 3b38
000002b0: 953c f6b5 cccd 23c0 2fad f93e 39fe fdbd
000002c0: 6b2b 6bbf 85cb 7d3d a8c4 26bf b15c 363e
000002d0: 54d8 643f 3fa8 753e e7b2 913f 2365 84be
000002e0: 6991 c3bd 9381 be3e 425d 36be 685d 36be
000002f0: 2d2e 0d3f 2b46 203b 373a 02be 4024 34be
00000300: 00bb d2bc 2b5d 363e d1d6 783d fb96 ccbd
00000310: a08b 9c35 6cb0 31b7 45c6 36be 1b82 f5be
00000320: a082 8d3f b0aa b63d 0eae 2fbf b7bc 5234
00000330: 90c7 3a3f 3671 c63e 67a8 523f 2563 013d
00000340: 9453 40be ef23 3a3f 7eb9 e4bd 05fb 08bf
00000350: c2a4 353f 5fd6 0d3e 69d8 2235 4f7d 9a3e
00000360: 1e78 85be 9ca5 6ebf f3bf 4a3e 61e7 12bd
00000370: d9a9 f631 ccc9 ba3f 72c5 323e 35c4 893d
00000380: 8229 1dbe 34f7 95bf 7774 91b4 10d6 143f
00000390: c97c 893f 125d 363e 5498 04be b13e 273e
000003a0: ef3a c1be c318 77b5 9b42 133e f45d d03f
000003b0: 3db9 803e ce6a 36be 4494 a9bc f0d3 c63e
000003c0: be5e 36be 59a1 d9be f14e 7b3f 1d66 dd3e
000003d0: ac52 aebd c5d2 67be 1f73 cd37 4e31 b53e
000003e0: 2bd8 af34 f7bb 573f 2b5c 36be 9dc3 463e
000003f0: 43d1 9cb9 3bfa a136 67e9 e23e a205 533f
0.17618237 -1.07750544e-07 0.35223562 0.746592 0.17808956 0.9052162 -0.11533178 -0.77259886
0.7157468 -0.30091965 -0.25832352 -0.14450254 -0.00070839404 -0.78962225 -1.8686303e-06 0.23443621
-0.17808367 0.32979053 -0.5507983 0.80242234 -0.27408874 0.18413354 0.013509941 -0.55891937
-0.106547266 -0.21025439 -0.93184 0.17149532 -0.87786216 0.17822313 0.19895749 -0.23017691
0.00013316562 -0.17808248 0.34403503 0.18224421 -0.078014426 0.07651899 -0.8789874 1.3395108
0.1796497 0.62612855 0.3080079 -0.12654693 0.15896875 -0.28598407 -0.11338855 -0.010928129
-0.6587696 0.0028837458 0.12197315 0.18653414 0.8784514 -0.009981577 0.9587741 -0.028185206
-0.29453814 -0.010805959 -0.15579405 -0.1465506 -0.71685463 0.11964341 -1.0757319e-06 3.078238e-08
1.1499801 0.09118756 -0.109621435 -1.6617516 0.7251989 -0.17794457 0.75574404 -8.559834e-07
-0.40038505 3.6393056e-05 0.4715875 0.20888166 -0.20508668 0.6558984 0.30977365 -0.0052837036
-2.3414393e-06 -0.17808989 -0.45867747 -0.1982549 0.23055299 -1.1581742 -1.1969453 7.8731415e-07
-0.086664654 0.21825138 0.9083799 1.0485798 0.17808715 -0.2776863 -0.13433172 -0.5792547
0.95342207 0.95266944 -5.816977e-07 -2.0131151e-07 -0.0077658445 -0.014508321 -0.7047293 0.014661446
-9.5100324e-07 1.086621 0.6725361 -0.47985962 -0.3575278 0.17576535 -0.7960673 0.73218524
-0.033872563 0.69254667 0.1853572 -0.002442568 -0.09177291 -0.33468342 0.2868479 -0.0065800515
0.11979728 -0.23354681 0.4979917 -0.0059666703 0.11344121 5.009626e-06 -0.06324918 -0.011075346
-0.12931116 1.4239584 0.23131776 0.25675198 -0.08635156 -1.203037e-06 -1.13477545e-05 1.0919088
-0.17809412 -0.96011716 0.3986125 -1.3023224 0.42263898 -9.338178e-07 -0.15332727 -7.928578e-07
0.17808938 -0.6012933 0.5736535 0.002594397 0.00380469 -0.1343211 -0.8016436 0.35388532
-0.01928908 -0.18294913 -6.9532684e-06 -0.19679329 0.1550755 -0.62889045 0.0062031983 -0.6808142
0.46229792 -0.46402144 0.5351246 0.119779736 0.706636 -1.6536242 -0.26240706 0.18397939
-0.009721967 -3.049742e-07 -0.04578882 4.4610595e-05 -1.834606e-06 -2.5594358 0.4876494 -0.12402005
-0.91863126 0.06196167 -0.65143824 0.17808796 0.8939259 0.23989962 1.1382722 -0.2585841
-0.09549219 0.37208232 -0.17809013 -0.17809069 0.55148584 0.0024455886 -0.1271752 -0.17591953
-0.025723934 0.17808978 0.06075174 -0.09989735 1.1663542e-06 -1.05910985e-05 -0.17849071 -0.47950825
1.1055489 0.08919275 -0.6862496 1.9626428e-07 0.7296076 0.38758248 0.8228821 0.031588692
-0.18781883 0.7271108 -0.11168192 -0.53508025 0.70954525 0.13851307 6.066462e-07 0.30173728
-0.26068205 -0.9322145 0.19799785 -0.03586519 7.1788517e-09 1.4592834 0.17458132 0.06726877
-0.15347865 -1.1716065 -2.7093094e-07 0.58139133 1.0741206 0.17808941 -0.12948734 0.16332509
-0.37740275 -9.2050703e-07 0.14380877 1.6278672 0.25141326 -0.1781418 -0.020700581 0.3883357
-0.17809579 -0.4250591 0.9816733 0.4324197 -0.08511862 -0.22638996 2.4491512e-05 0.3538918
3.2753573e-07 0.84271187 -0.17808597 0.19410558 -0.0002991055 4.8273046e-06 0.44318697 0.8243047

fc3.weight f4 [16, 16]
00000000: acb3 923d 606d 9b3f 4abb 0ebe fbc4 9b3e
00000010: 8a07 a7bc 44ed 09bd e47d 9ab5 568e 9f3e
00000020: d04c 243e 228f fabc 4c34 cd3d 12c2 e13e
00000030: 5d16 0fbe bc89 52bf caee cebd 3448 113e
00000040: 626d ec3e 6f06 e03a 3bfb 1c3f dbc6 13bc
00000050: 6899 403f 36e2 15b8 e0fc aa3e d21f 2ebe
00000060: 4614 49b8 db3a 4bb5 fa85 093e 36fe 4337
00000070: f6ea 0e3e 188b cdbe 173a a8bf 4274 10be
00000080: 8e0d 98bd cb8d b73e 1d39 fbbd 0884 3ab6
00000090: 17c7 ec3e 7f1e 0d3e 249f aa3e 700b 963e
000000a0: 4312 4f3f 6bcd 82bb 25b2 05be 3fb6 25be
000000b0: a4e4 9435 63eb dd3e 9001 e3bd ff15 7abe
000000c0: a169 643d 7193 853d 1dc7 6fbf d609 e9b7
000000d0: 3f23 473f bd76 47b9 dbec f63d 9ee9 783d
000000e0: 2e2c 25bf a260 88b6 0feb c3bc c8f8 183d
000000f0: a2df fbbd bd5c 883e bdc3 53be fa53 9f3e
00000100: b209 0fbe 0d77 adbd adb9 483d 5830 9ebd
00000110: 9c72 1bbf 0093 26bf 39c1 9f3e 1c0f 91b9
00000120: 97a3 f9bc 5779 b13c 70b8 abbd 5a47 7b3e
00000130: 90ec 0ebe 7036 8ebe 8309 333e 8db0 423e
00000140: 5a72 1dbf 8d26 0cbf 6071 903e 96bb 79be
00000150: 5d09 3fbf 1ac3 49bf ca90 303e 7dac 1db7
00000160: 2d18 823f 37b0 d43e 2082 e4bc e7ef 80bf
00000170: 04f7 03be 4d3f 223f eb45 1935 8f95 173e
00000180: a4e2 e13d 3681 b835 b389 50bd 09a4 043e
00000190: 0ae3 0eb7 1a47 0cbe 00c5 1cbe 31d3 74be
000001a0: 6373 f435 d58e f23d f82e 09be 4612 cf3f
000001b0: 9e7f 42b4 a23b a2b5 c9fe eb3e 81d7 9bbe
000001c0: f0c2 5abe b8a8 0e3e 8299 f8be f8db 0e3e
000001d0: 30d5 93bd a512 98be e0a2 debe cc0c 00b6
000001e0: 8536 3935 2cda 16be 260c 9a38 c299 a2be
000001f0: 55e7 843e 9ef5 0ebe 76ad b1bb 7a92 2a3f
00000200: d41b 0e3f 02e5 f63d 16eb 0ebe 5e2e 0e3e
00000210: e9bf fabe a229 2fbe ff3e 8fbe c425 673e
00000220: 6634 073f 0ecf 52be 51e0 42bf 1bce 743e
00000230: 93f6 573f 133e 2b3e 466c a035 c901 443e
00000240: cb9a 3534 243f 51bf 43dd cab7 a1b4 8fbd
00000250: 6b11 a3bb 8919 0fbc 77c5 c0b5 b93e 1bbe
00000260: 8343 75be 2791 043e 546c e93e 9d52 b53b
00000270: 296b 033e dc97 2fbe 6d7c babe 9fb6 0a3e
00000280: 8cbc 123f 54ba d9bd 9c51 853e 3d92 c036
00000290: b377 d93e 776a 1a3f 6532 313f 47fc 0dba
000002a0: 534f 043e 1e6e 9dbd 15ad 793f 30b2 45be
000002b0: e08a df3e 89b8 ac34 7b32 623f 56e1 303f
000002c0: 0fd5 b73e ed1d 5bbf 8294 2f36 5ce6 aa3c
000002d0: b47d d93e 4a77 8fb3 f9fa 43be e2dc 273e
000002e0: 8d62 a83d 08e9 c93e 5b4c 4e3f c25c 40be
000002f0: 3d00 00be cb45 8bbe 9496 ffbe bb51 4b3b
00000300: 1cef 0ebe 5ae1 003f 5307 223e 7979 ad3d
00000310: 2655 21bd 6d53 353e 534a 823e 0842 2a3d
00000320: 2429 97ba b1b8 94b9 318f 283e 12d0 8939
00000330: 2219 62be 31dc d3bb f10a e4bc 20eb 0e3e
00000340: 1eb6 44bc 8bde 1dbe f731 603f c408 ad3f
00000350: 025f 2f3f d730 04bf 9cf5 523f 656a 153f
00000360: 1fc7 4b3f 9319 bc3d 62ee 0e3e 6b31 633f
00000370: 5a80 963f 7a9a e73f ecc4 7f3e 32e1 5f3f
00000380: 557b 38bd f75b f63e aae9 2a3e bc84 583e
00000390: 97e6 683e 2eab 303e 2bb1 06be 6143 c3bd
000003a0: a2b7 72be 6d0e 23be 5bb4 08be 3877 423f
000003b0: 5db5 e5bd 998c fc3c 24e6 9a33 3af7 73bc
000003c0: 7f8a 06be 2d71 8dbf 3e1c 93be 9d8c 83bd
000003d0: 40c0 fe3d 2fa8 8d3f c5a2 45bd 0c02 bdbc
000003e0: 484a 8ebc 5641 c834 d6bf e13e 9cb3 80bf
000003f0: f42f dd3e 3097 19bd 389e 0ab5 56a7 653d
0.07163176 1.2142754 -0.13938633 0.30423722 -0.020389337 -0.03367354 -1.1510533e-06 0.3116328
0.16044927 -0.03058583 0.100197405 0.44093376 -0.13973375 -0.82241416 -0.10104139 0.141877
0.46177202 0.0017091761 0.6132085 -0.009019579 0.7523408 -3.5735044e-05 0.33396053 -0.17004326
-4.7941016e-05 -7.570904e-07 0.13430014 1.1682094e-05 0.13956818 -0.40145183 -1.3142728 -0.14106849
-0.0742446 0.35850367 -0.12266753 -2.7793012e-06 0.46245643 0.13781165 0.3332454 0.293056
0.8088724 -0.003991773 -0.13056238 -0.16182803 1.1093402e-06 0.43343648 -0.110842824 -0.24422453
0.055764798 0.06522263 -0.936632 -2.7780345e-05 0.77788156 -0.00019022352 0.12056895 0.06076967
-0.6452054 -4.0643654e-06 -0.023915796 0.03734663 -0.12298514 0.26633254 -0.20680137 0.31118757
-0.13968542 -0.08469973 0.0490052 -0.077240646 -0.60721755 -0.65068054 0.31202105 -0.00027667813
-0.030473514 0.021664305 -0.08384788 0.24538937 -0.13957429 -0.27775908 0.17484097 0.19012661
-0.6150261 -0.54746324 0.28211498 -0.24387965 -0.7462366 -0.78813326 0.17242733 -9.39809e-06
1.0163628 0.4154069 -0.02789408 -1.0073212 -0.12887198 0.6337784 5.7098686e-07 0.14803146
0.110295564 1.3746674e-06 -0.05091257 0.129532 -8.516721e-06 -0.13698998 -0.15309525 -0.23908688
1.8212999e-06 0.11843649 -0.13396823 1.6177452 -1.8114085e-07 -1.2087296e-06 0.46092823 -0.30437854
-0.21363425 0.13931549 -0.48554617 0.13951099 -0.07218397 -0.29701725 -0.4348364 -1.9080935e-06
6.8997207e-07 -0.14731663 7.345555e-05 -0.31757933 0.25957742 -0.13960883 -0.0054222895 0.66629755
0.5551121 0.120553985 -0.13956866 0.13884875 -0.4897454 -0.17105725 -0.2797775 0.22573
0.5281433 -0.20586798 -0.7612353 0.23906748 0.8436062 0.16722898 1.1952441e-06 0.19141306
1.6913252e-07 -0.8173697 -2.418331e-05 -0.07016874 -0.0049764416 -0.008734115 -1.4362585e-06 -0.15160646
-0.23951535 0.12945996 0.4559046 0.00553353 0.12833847 -0.17147774 -0.36423054 0.13546227
0.5731895 -0.106312424 0.26038826 5.7390703e-06 0.42474136 0.603187 0.6921752 -0.00054163154
0.12920885 -0.07687019 0.9752973 -0.19306254 0.4366064 3.2171764e-07 0.8835828 0.69093835
0.35904738 -0.8559254 2.6163475e-06 0.020861797 0.42478716 -6.680655e-08 -0.19138707 0.16392854
0.08221922 0.394356 0.8058526 -0.18785384 -0.12500091 -0.27201685 -0.4991957 0.0031024057
-0.139584 0.5034386 0.15823106 0.08470435 -0.039387845 0.17707606 0.2544733 0.04156688
-0.0011532647 -0.00028366366 0.16460873 0.000262857 -0.220799 -0.006465458 -0.027837249 0.1395688
-0.012006311 -0.15416925 0.8757624 1.35183 0.68504345 -0.51637024 0.8240602 0.5836547
0.7960071 0.091845654 0.13958123 0.8874728 1.175792 1.8094018 0.24977463 0.87452996
-0.045039494 0.4811704 0.16690698 0.21144384 0.22744213 0.172528 -0.13153522 -0.09534336
-0.23702863 -0.15923472 -0.1335005 0.75963163 -0.11216233 0.030828761 7.213046e-08 -0.014890486
-0.1313877 -1.1050164 -0.28732485 -0.06423304 0.124390125 1.106695 -0.048250932 -0.023072265
-0.017369404 3.730044e-07 0.44091672 -1.0054812 0.43200648 -0.0374977 -5.1639245e-07 0.056067787

fcl.weight f4 [10, 16]
00000000: be9d d5bd 5532 68bd 408b b6b8 e3ea aabe
00000010: 8754 27bd b703 0dbd 1054 d9bc 5420 07ba
00000020: e5b3 bbb7 e8b3 9dbd 784e b63d 0856 6cbd
00000030: 73a4 5d3d d681 2ebd 8285 6d3d fd45 a33e
00000040: 5595 123f 9ce6 e1b5 7324 683d b91e af36
00000050: d92e d1b8 0d93 b2bd 2d0d 52b8 3f3e 033e
00000060: 0839 1f3e ecb5 b0be d3c6 9dbe 4998 463d
00000070: aaaa 963d 949a 75b4 e58e 3dbb a323 f5bd
00000080: 94ff ecbc 9747 9e3e 98ce 123e 30f7 173f
00000090: 41c5 f9be f1aa 00bd afb1 3d3d 1640 9cb6
000000a0: 4d48 81b7 d7f3 68bd 1631 68bd 844c bbbd
000000b0: 11f0 6cbc 9513 583d 262b 683d 4255 8637
000000c0: 7256 b1be cb68 66b6 359d 3a3e 7084 91be
000000d0: a091 6cbd 1205 663d 98a6 3eb6 dc4a 68bd
000000e0: a82c 273e 0056 01bf af31 68bd 321c 27bd
000000f0: 9a4e 8bb6 a188 eb3d 26a1 4db4 ff59 8e35
00000100: 784f 2fb7 31bb e83e f631 8f3b c460 68bd
00000110: 6b0d 1bbd 51af bfbd 25eb adb5 f045 8a36
00000120: a225 0e3e 9e46 8fb6 1e31 683d bcb6 09bd
00000130: b06b c3ba 7902 4bbe db61 a1bc ef30 68bd
00000140: 1e00 98b3 1862 5fbd 5825 68bd ed87 98bd
00000150: b3bf 653e 6e48 343f ef19 cfbe f74d 68bd
00000160: 8f24 b2bc a81c 2836 3741 92b4 a2ce 0cb9
00000170: 0331 683d a4c8 913e 1062 6dbd 3a78 5ebc
00000180: be5c c9b5 4688 703d 02b9 d9bd 99e4 86bd
00000190: a75f 983a 8f10 6abd 6e93 bcbe 646d 4337
000001a0: 4891 d2bd d8ff 5a3d edc4 a3bc c968 c63e
000001b0: 35b5 9c3d 18d7 49b7 2833 07bd dbb8 af3e
000001c0: 8df1 04bf 1fe3 643d 5beb 32b7 5f5e 1dbd
000001d0: cd2c 673d bc52 57bf 611d cb3e 4466 f6bc
000001e0: a51f c33d e0a6 a3ba 9a68 95be 7462 b5bc
000001f0: 418f ebbc 65f1 863d fcfa 833e edad 96be
00000200: d141 aebd 6c90 90b4 4c85 48b4 224b 3db7
00000210: ab97 c5b3 e59c 7d32 b6ff 68bd 1573 c33d
00000220: 58cc c13d bbd0 cab5 8c1d 19be 3631 68bd
00000230: 4623 1db6 faaf 423e 607d 83bd c863 013e
00000240: 8391 babc f0ab 34bf 569d e4bc 879c 01bf
00000250: 3d31 68bd 919d b7b5 866d 0c3e 5332 68bd
00000260: 8153 1f3e 82fd d6bd b163 323e 84dc 5bbe
00000270: 5ffc 2bbe bedd 8bbc 353a 1d38 0c6a 6ebc
-0.104304776 -0.056688625 -8.7043736e-05 -0.3338233 -0.040852096 -0.03442737 -0.026529342 -0.00051546586
-2.2375907e-05 -0.0770033 0.089016855 -0.057699233 0.05411191 -0.04260429 0.05798865 0.31889334
0.5725911 -1.6830923e-06 0.056675386 5.218983e-06 -9.974623e-05 -0.08719454 -5.0080173e-05 0.12816714
0.155491 -0.34513795 -0.30815753 0.048485074 0.0735677 -2.2873638e-07 -0.0028924283 -0.11969688
-0.028930463 0.30913994 0.14336622 0.59361553 -0.48783305 -0.031413022 0.04631203 -4.656623e-06
-1.5411666e-05 -0.05687317 -0.056687437 -0.091454536 -0.014461533 0.05275305 0.056681775 1.6013746e-05
-0.34636265 -3.4333668e-06 0.18224032 -0.28421354 -0.057756066 0.05615718 -2.8409177e-06 -0.056712016
0.16325629 -0.5052185 -0.056688007 -0.040798374 -4.1516732e-06 0.11500669 -1.9150738e-07 1.0606017e-06
-1.0449316e-05 0.45455316 0.0043699695 -0.056732908 -0.037854593 -0.09359611 -1.295794e-06 4.1208623e-06
0.13881543 -4.269953e-06 0.056687467 -0.033621535 -0.0014909413 -0.19825162 -0.019699981 -0.05668729
-7.078073e-08 -0.05453691 -0.05667624 -0.07447801 0.22436409 0.7042302 -0.40449473 -0.056714978
-0.021745948 2.505063e-06 -2.724207e-07 -0.00013428417 0.056687366 0.2847339 -0.057954848 -0.013578469
-1.5002659e-06 0.05872371 -0.106309906 -0.0658657 0.0011625186 -0.057144698 -0.3683123 1.1648375e-05
-0.102816164 0.053466648 -0.019991362 0.3875182 0.0765175 -1.2030614e-05 -0.03300777 0.3432072
-0.5193108 0.055880662 -1.0664425e-05 -0.038420077 0.05643921 -0.8411062 0.39670852 -0.03007806
0.0952752 -0.0012485646 -0.29181367 -0.022141673 -0.028754832 0.06589011 0.25777423 -0.2942957
-0.08508647 -2.692717e-07 -1.8674945e-07 -1.1282771e-05 -9.2011156e-08 1.4762212e-08 -0.05688449 0.095434345
0.094628036 -1.5110921e-06 -0.14952677 -0.056687556 -2.3415355e-06 0.19012442 -0.06420398 0.1263572
-0.022774464 -0.70574856 -0.027907055 -0.50629467 -0.056687582 -1.368042e-06 0.13713655 -0.056688618
0.15559198 -0.104975715 0.17420842 -0.21470839 -0.1679549 -0.017073508 3.7485926e-05 -0.014551651
