modeldata/pdk_Cosine_lr0.001_BitMnist_PerTensor_Ternary_RMS_width16_16_16_bs128_epochs60.pth (torch, 9289 bytes, 4 tensors)

fc1.weight f4 [16, 64]
000000 fa 40 88 be 39 39 3d be a9 6c c9 bd 1b b2 2e be
       -0.26612073 -0.1847886 -0.098351784 -0.1706013
000010 44 f9 ca bd d3 3e 3e be 86 02 42 be 51 24 7f be
       -0.09910825 -0.18578653 -0.18946275 -0.24916197
000020 30 fb 2f bd fc b9 c0 bd a5 ca 7a 3e b6 44 d4 3f
       -0.04296416 -0.09410474 0.24491365 1.6583469
000030 33 60 9e 3f 90 c8 8a 3f 7f 9b d3 3d 9a 82 07 bc
       1.2373108 1.0842457 0.10332393 -0.008270884
000040 c2 28 2f be 92 66 2a 3e 70 79 b2 3e df 84 2e 3e
       -0.17105392 0.1664069 0.34858274 0.17042874
000050 eb 18 fb bd 45 84 2e 3e ba ac 09 3f 17 b5 e4 3d
       -0.12260612 0.17042644 0.53779185 0.11167353
000060 9c 5b 43 be af 83 2e 3e 84 86 f5 bd 08 84 2e 3e
       -0.19077915 0.17042421 -0.119885474 0.17042553
000070 f8 4b 26 3e 4c a1 a9 be 68 2c 64 bf 84 50 25 be
       0.16239917 -0.33130872 -0.8913026 -0.16143996
000080 d8 48 69 be 7f 79 db be d3 6f 0d bf 4c 84 2e 3e
       -0.22781694 -0.42866132 -0.55248755 0.17042655
000090 5a 84 2e be 12 94 2e be b3 c0 75 bd 89 ca e2 bc
       -0.17042676 -0.17048672 -0.059998225 -0.027684467
0000a0 55 c1 cb 3d b6 5a 70 3f 56 8d 0d bf a0 db f2 bf
       0.099489845 0.93888414 -0.55293787 -1.8973274
0000b0 28 84 2e be a8 50 38 3f b0 ff 6a 3f 28 7c e9 3c
       -0.17042601 0.7199807 0.917964 0.028501585
0000c0 6f 58 e9 bd 99 53 59 3f f1 38 ba 3f 5b 27 1b 3f
       -0.113938205 0.84893185 1.4548627 0.60606927
0000d0 23 0f cf 3e 22 04 6c 3f ae d3 a1 3e a5 91 ff bd
       0.40441236 0.92193806 0.3160681 -0.12478951
0000e0 63 83 21 be 0a e7 e0 bc 92 19 6d 3e 89 26 82 3f
       -0.15772776 -0.027453918 0.23154286 1.016801
0000f0 6b c2 af 3e e3 83 2e 3e 3e f9 8e bb b0 9c 90 bd
       0.34328017 0.17042498 -0.004363208 -0.07061136
000100 03 de af 3c 11 ae 30 bc 04 8d 73 bd f2 75 29 3e
       0.021468168 -0.010783688 -0.059460655 0.16548899
000110 17 42 fd 3d 67 bf 89 be 84 85 db bd e4 b7 f4 3d
       0.12366121 -0.2690384 -0.107188255 0.11949137
000120 c6 9e 9e 3d 47 7d 2e 3e 0c b8 2c 3e b0 be 60 3f
       0.077451274 0.17039977 0.16867083 0.87790966
000130 23 75 6b 3f 13 84 2e 3e 8c 3f 67 bf 5f 15 7f be
       0.9197561 0.1704257 -0.9033134 -0.24910496
000140 90 5c 10 3d 9a b2 c0 b9 32 ad 81 bf 99 f3 8c bf
       0.035244524 -0.00036754162 -1.013098 -1.101184
000150 2c c1 3a 3f bb 4f ef 3f f4 83 2e 3e 9a b6 07 bf
       0.72951007 1.8696207 0.17042524 -0.53013
000160 5b bf f5 3c 29 e0 ef be 9f d7 c5 bf 6d 9d e2 bf
       0.029998472 -0.46850708 -1.5456427 -1.7704293
000170 7f 38 9f bf d6 5b f5 3e 2d 42 1f 3f 60 86 42 bd
       -1.2439116 0.47921628 0.6221035 -0.04749143
000180 e4 eb 28 3e ec 81 51 3f 1b 3e 65 3f 3f f0 c1 bd
       0.16496235 0.8183887 0.8954789 -0.094696514
000190 be 88 05 bf 0b 45 85 3e f3 94 2e be ac 20 1f 3e
       -0.52161777 0.26029238 -0.17049007 0.15539807
0001a0 16 cf fe 3d b7 96 d9 3e d1 c9 2d 3e 02 7c 3d 3d
       0.12441842 0.424978 0.16971518 0.04626084
0001b0 e1 83 2e 3e 4e 84 2e 3e a8 84 2e be d0 65 1d 3e
       0.17042495 0.17042658 -0.17042792 0.1537087
0001c0 bf 77 e7 3d de eb 6d 3e 48 83 2e 3e a4 83 2e 3e
       0.11302137 0.23234507 0.17042267 0.17042404
0001d0 c7 26 24 3e ca 83 2e 3e e2 40 94 3e 72 1d 42 3e
       0.16030417 0.17042461 0.28955752 0.18956545
0001e0 bf df 35 3c 5f 51 e3 3c 91 83 2e be c1 83 2e be
       0.0111007085 0.027748762 -0.17042376 -0.17042448
0001f0 3e a2 ce bd 8b 2e 96 3d 00 4d 45 3c f3 bf de 3d
       -0.10089539 0.07333096 0.012042284 0.10876455
000200 72 77 93 3e 5c c3 2e 3e eb 71 7a 3e 3f e1 c8 bd
       0.28802067 0.17066711 0.24457519 -0.09808587
000210 52 2c d2 bd 48 f7 bf 3d 57 0f b2 3e a0 b8 b6 3d
       -0.1026236 0.09373337 0.34777328 0.08921933
000220 f7 58 16 3e d3 ff 1b 3d 96 65 51 be ca 28 8a bf
       0.14682375 0.03808577 -0.20448908 -1.0793698
000230 42 84 2e be fd 1e 22 3e 02 96 04 3f 73 62 a6 3d
       -0.1704264 0.15832134 0.51791394 0.081242464
000240 ee 97 fd 3d b8 dd 0a 3e 5d e2 57 be 2d 52 51 c0
       0.12382494 0.13561141 -0.21082444 -3.2706406
000250 46 0d 94 3e ab 83 2e 3e 50 84 1d bf f1 8c 0b be
       0.28916377 0.17042415 -0.6153002 -0.13627984
000260 73 83 2e 3e c4 9d 26 3e 9d ca af be e4 44 56 bf
       0.17042331 0.1627112 -0.3433427 -0.8369887
000270 88 79 96 3f 80 84 2e be fb 9b c5 be b8 2e 1f 3e
       1.1755838 -0.17042732 -0.38595566 0.15545166
000280 c6 10 8a 3e d0 99 3c bd 11 5f a4 be e2 a5 22 3f
       0.26965922 -0.046045125 -0.3210378 0.6353437
000290 87 76 a2 3d e2 04 87 bf ea 99 2e bd 0e dc 0f 3e
       0.079327635 -1.0548365 -0.042627253 0.14048788
0002a0 62 ff d3 3d 67 49 41 bf e7 4e 1c be a3 ea 4d 3f
       0.10351445 -0.7550263 -0.15264474 0.8043615
0002b0 3c d5 dc bf 10 b4 77 bf 25 a5 a4 3d 81 39 c1 3d
       -1.7252574 -0.9675913 0.08039311 0.09434796
0002c0 db 57 33 3e fe 9b 6b 3e 47 47 23 be d5 9e 1f be
       0.17513983 0.23008725 -0.15945159 -0.15587933
0002d0 00 44 04 bf a7 8c 32 be d4 67 22 3e 6b d0 37 3e
       -0.5166626 -0.17436467 0.1585992 0.17950599
0002e0 c3 4e e6 3d 8a 3c 2e 3e e6 6e 2e be 26 87 82 be
       0.11245491 0.17015281 -0.17034492 -0.25493735
0002f0 85 d4 2f 3e 41 b0 1c 3e a8 55 87 3e c6 56 63 3e
       0.17170914 0.1530161 0.26432538 0.2220107
000300 9c 94 fd 3d 36 6b 20 3e a3 2d 92 3d 0f 71 44 3e
       0.123818606 0.15665898 0.07137611 0.19183753
000310 3a b4 5a 3e a8 c7 f4 bd 30 95 56 bd 3c e3 8c 3d
       0.21357813 -0.11952144 -0.05238837 0.06879279
000320 f9 96 e3 bc 3e 4e 20 be b5 83 2e be e8 0d 08 3e
       -0.02778195 -0.15654847 -0.1704243 0.13286555
000330 cd 82 2e 3e 46 13 49 be c8 b1 f0 be 8f 57 eb 3d
       0.17042084 -0.19636258 -0.47010636 0.1149131
000340 07 6b 94 bc f2 83 2e 3e fa 4c 93 3d 59 13 9b 3e
       -0.01811744 0.1704252 0.071924165 0.302882
000350 91 cd 9e 3e f1 fc 3d bf 92 fb 29 bf cd 52 2c 39
       0.3101621 -0.7421408 -0.6639949 0.00016434044
000360 09 a7 ea 3d fb d5 d7 3b c5 47 4d bf 3f 47 c1 bf
       0.11457641 0.0065867878 -0.80187637 -1.5099868
000370 8b 93 c9 3d cd 1b 17 bf 2b 23 93 be 9e af 3e 3e
       0.09842595 -0.59026796 -0.2873777 0.1862168
000380 c5 59 26 3e 2d dc 39 be ad 3a 80 bf 02 84 2e be
       0.16245182 -0.18150397 -1.0017906 -0.17042544
000390 aa e6 2c be d8 7c 2c c0 e5 75 cd be ba 9b bb 3e
       -0.16884866 -2.6951199 -0.4012901 0.36642247
0003a0 dd 4b 40 3e d9 f4 84 be 08 b1 48 be 47 c1 c2 3f
       0.1877894 -0.25968054 -0.19598782 1.5215234
0003b0 a0 59 94 3e 92 c8 08 bf 48 84 df 3e 0a ba c9 3e
       0.28974628 -0.53431046 0.4365561 0.3939975
0003c0 66 cf 6b 3e e4 7e 16 3e 51 86 2e 3e 71 7c 2e be
       0.23028335 0.14696842 0.17043425 -0.17039658
0003d0 85 b5 5c 3e 9b 71 d6 3f 0a 86 f9 3e 9a fd 00 3e
       0.21553619 1.675342 0.48735076 0.12596741
0003e0 98 b4 3d 3e 51 fa a0 3c 07 14 9f be 40 a9 8b bf
       0.18525922 0.01965061 -0.31069967 -1.0911026
0003f0 e9 dd 4b bf e2 ee f9 3d a4 4e 78 3c 4c 30 2e 3e
       -0.79635483 0.122037664 0.015155468 0.17010611

fc2.weight f4 [16, 16]
000000 27 f8 82 be f5 cc 7f 3e 44 7c 8a be d0 49 83 be
       -0.2557995 0.24980529 -0.27047932 -0.25642252
000010 e4 27 bf bb c0 9a df be 65 d7 14 3f 56 25 86 bf
       -0.0058336128 -0.43672752 0.58141166 -1.0480144
000020 43 48 52 3e b0 3e 89 3e 19 cd 7f be 0f cd 7f be
       0.20535378 0.2680564 -0.24980582 -0.24980567
000030 8f 95 f0 3e 63 9b 80 be b6 32 8d 3f ad c2 82 3e
       0.46989104 -0.2511855 1.1031101 0.2553915
000040 c1 cc 7f be 08 70 d6 bd c9 b9 7f be 0e cc 5b bd
       -0.24980451 -0.10470587 -0.24973215 -0.0536614
000050 e8 03 9e 3e 21 22 ae 3d 17 40 b9 bf e4 10 81 3e
       0.30862355 0.08502603 -1.4472684 0.252082
000060 61 9e 7e be 8f 12 04 bf c4 c6 65 3e 26 5e a0 3e
       -0.24865104 -0.5159082 0.22439104 0.3132183
000070 10 9a a5 be 0a 51 b0 3f 5e 03 df bd 8d bd 22 3f
       -0.32344103 1.3774731 -0.10889314 0.6357048
000080 28 46 80 3e 76 57 7f be 57 08 f5 bd 59 ae c5 bf
       0.25053525 -0.24935707 -0.11964481 -1.5443832
000090 1c cd 7f be 51 cf 88 3f da d5 7f 3e 7b 73 20 3f
       -0.24980587 1.0688268 0.24983922 0.6267621
0000a0 c7 28 c0 bd e1 f8 9f 3f 55 a7 a6 be a2 c5 1f 3e
       -0.09382778 1.2497827 -0.3254954 0.15602735
0000b0 ab 4b 7c 3f fc 5a 75 3e 3c fb b7 3e e5 be 37 3e
       0.9855296 0.23960489 0.35933864 0.17943914
0000c0 e5 ca 7f 3e 3c b5 8e 3f e6 25 35 bf e7 cf 59 3f
       0.24979742 1.1149058 -0.70760953 0.8508286
0000d0 16 c7 72 be 3b 17 5c 3e 90 a0 b9 3f 25 f3 7e 3e
       -0.23708758 0.21493237 1.4502125 0.2489744
0000e0 a1 25 a8 3c f7 de 85 be dc cb 7f be 95 9e 99 3e
       0.020525755 -0.2614667 -0.2498011 0.300038
0000f0 c2 16 98 bd 92 f6 2c 3f 0f 48 65 bf 3c cd 7f be
       -0.07426216 0.67563736 -0.8956308 -0.24980634
000100 87 8e 23 3e 41 2e 24 be 0a 78 95 bf 29 cd 7f be
       0.15972339 -0.1603327 -1.1677258 -0.24980606
000110 35 3d e9 3e 96 ed 33 be cb e6 7f 3e 27 cd 7f 3e
       0.4555451 -0.175711 0.24990384 0.24980603
000120 80 d6 5c be b5 00 40 bf 27 f0 4b 3f dc f9 fd be
       -0.215662 -0.7500108 0.7966332 -0.4960469
000130 14 6c 80 be 08 cd 7f be 9f 71 77 be 38 15 5e 3e
       -0.25082457 -0.24980557 -0.24164437 0.21687782
000140 50 7c 00 3e c9 db c3 be 3e ae be 3e cf a4 83 3e
       0.12547421 -0.3825362 0.3724231 0.25711676
000150 ea cd 7f be 00 cd 7f 3e 96 cc 7f be 0f 40 a8 be
       -0.24980894 0.24980545 -0.24980387 -0.32861373
000160 cc a8 8c 3f da 21 8a 3e 1f b1 b7 be 92 8b e2 3f
       1.0989013 0.26978952 -0.3587732 1.7698843
000170 6f 6f 32 bf 1d 88 69 3e 45 15 37 be fb b5 18 3f
       -0.69701284 0.2280583 -0.17879207 0.5965268
000180 6a 14 9e bc 71 51 db bf d1 4d 23 40 e0 a2 71 3f
       -0.019296844 -1.7134229 2.5516245 0.9438915
000190 60 74 14 3f b4 e1 b2 bd 73 3e e0 be 91 a1 a1 3c
       0.57990074 -0.08734456 -0.43797645 0.019730361
0001a0 6e 46 43 3e 3a cd 7f be 36 d0 7f be 4a cd 7f be
       0.19069836 -0.24980631 -0.2498177 -0.24980655
0001b0 23 90 1b be 8b 9c ea bf bd 37 52 3f c1 c7 69 be
       -0.15191703 -1.8329023 0.821163 -0.22830106
0001c0 7b d4 7f be 02 ce 7f be 10 cd 7f be 92 6c 52 3e
       -0.24983399 -0.2498093 -0.24980569 0.20549229
0001d0 b9 21 e8 bd d4 cc 7f 3e 8b 08 1b 3f 2d 1a 83 3e
       -0.11334557 0.2498048 0.6055991 0.25605908
0001e0 5f cd 7f be c7 c1 18 3f 0f 19 b2 3f 6b 7c 04 bf
       -0.24980687 0.5967068 1.3913897 -0.51752347
0001f0 2f cd 7f 3e 5f 45 bc bd fd c5 0b bf 2a 9a fe bf
       0.24980615 -0.09192919 -0.5459898 -1.9890797
000200 f5 1f 47 be cd 75 65 be 50 0c 17 40 b9 12 34 3f
       -0.19445784 -0.22408219 2.3601265 0.7034107
000210 2a 10 fb 3d a5 cc 7f 3e cd d0 7f 3e de 83 22 3e
       0.122589424 0.2498041 0.24981995 0.15870616
000220 4a 17 b1 3e 8c 61 dc 3e 5d 4a 11 3f 2a 29 87 bd
       0.3458808 0.43043172 0.56754094 -0.06599648
000230 4b ae 7f 3e 04 73 d0 bf e8 cd 7f be 4c 18 9d be
       0.24968831 -1.62851 -0.24980891 -0.306826
000240 81 cf aa be 6a cf 7f 3e 7b 04 59 be 55 7d 64 3d
       -0.33361438 0.24981466 -0.21193115 0.05578359
000250 09 d6 5f 3e 29 cd 7f be 9d 98 7f be 94 4c 07 3f
       0.21858992 -0.24980606 -0.24960561 0.52851224
000260 e4 80 84 be dc 82 55 be 73 a5 5f 3f 5a f3 81 be
       -0.25879586 -0.208507 0.8736183 -0.25380975
000270 b9 86 80 3e d3 cc 7f 3e f3 5c 80 3f fe cc 7f 3e
       0.25102785 0.24980478 1.0028366 0.24980542
000280 0f 46 e5 3e 6d 06 c9 bf f0 79 fb be 7a c8 82 bf
       0.44780013 -1.5705086 -0.49116468 -1.021743
000290 5a 8c 1b 3f 71 dc 4a 3f 9a cf 7f be 32 6e ad 3d
       0.60761034 0.79242617 -0.24981537 0.08468284
0002a0 24 cd 7f 3e 07 cd 7f 3e d4 da 08 bf c1 74 01 3e
       0.24980599 0.24980555 -0.53458905 0.12642194
0002b0 b5 cc 7f 3e 98 6d 7d bf 4b d8 9e be 94 7c 11 3f
       0.24980433 -0.9899535 -0.31024393 0.56830716
0002c0 05 07 35 3f 3c e0 7f be 9a d9 7f be b8 d1 7f be
       0.70713836 -0.24987882 -0.24985352 -0.24982345
0002d0 22 cd 7f be 3b 5c 01 be 6c 63 94 be d6 44 7f 3e
       -0.24980596 -0.1263284 -0.28982103 0.24928603
0002e0 75 40 3b 3f e7 b7 c8 be 9d 79 7e 3f 16 cd 7f 3e
       0.7314523 -0.39202806 0.9940432 0.24980578
0002f0 6e 02 4d 3f 7b 5a 41 bf d6 8e 8d be d0 b6 47 bf
       0.8008183 -0.7552869 -0.27648038 -0.78013325
000300 72 25 e9 3e f8 02 d8 3e 99 cd 7f be 5b cd 7f be
       0.4553638 0.42189765 -0.24980773 -0.2498068
000310 26 fc 82 3d d8 e5 67 3e 68 a5 66 bf 3b 50 aa 3e
       0.0639575 0.22646272 -0.9009614 0.33264336
000320 cb 53 c3 3f a4 b5 3a be 9f 46 70 be 62 9c 34 bf
       1.5259947 -0.18233353 -0.2346444 -0.7055112
000330 ad ea ac be 7b 3b c2 bf 88 ca 7f 3e 6d 67 46 bf
       -0.33772793 -1.5174402 0.24979603 -0.77501565
000340 eb d4 7f be 28 cd 7f 3e fd c8 7f be 63 7c 38 be
       -0.24983566 0.24980605 -0.24979015 -0.180162
000350 6f cd 7f be e1 02 87 bf f1 70 90 3f 0e f9 36 bf
       -0.2498071 -1.0547754 1.1284467 -0.7147378
000360 36 ae 71 3f e3 0c 96 3e 21 e5 1f 3f ef c0 55 3f
       0.9440645 0.29306707 0.62459 0.8349752
000370 c3 4f 62 3e ae 65 7d be f3 bc 3f 3f 04 cd 7f 3e
       0.22100739 -0.24745819 0.7489769 0.24980551
000380 8f 23 0b be 69 82 54 3f b1 4c 5a be ef 8c 28 bf
       -0.13587783 0.8301149 -0.21318318 -0.6584005
000390 a0 c1 30 3d 99 87 cf 3e 3a 85 50 bf 26 cd 7f 3e
       0.043153405 0.4053314 -0.8145329 0.24980602
0003a0 38 57 ac bf b1 d1 7f 3e cf 18 30 bf bb cc 7f 3e
       -1.3464117 0.24982335 -0.68787855 0.24980442
0003b0 33 cc 7f 3e d1 7e b3 3f f8 cc 7f be e8 ee 3c be
       0.2498024 1.4023076 -0.24980533 -0.1845051
0003c0 74 d1 7f 3e f7 3d 85 3f 92 a6 28 bf 69 70 45 3f
       0.24982244 1.0409535 -0.65879166 0.7712465
0003d0 da e9 bc 3f bf cd 7f be eb 72 28 40 ad cd 7f be
       1.4758866 -0.2498083 2.632014 -0.24980803
0003e0 1a 78 b2 3e 97 60 58 bf b9 cc 7f 3e 0f 66 b6 bf
       0.34857255 -0.84522384 0.24980439 -1.4249896
0003f0 7f 34 cc bf 70 b8 97 bf 31 85 09 bf a7 cc 7f 3e
       -1.595352 -1.1853161 -0.5371886 0.24980412

fc3.weight f4 [16, 16]
000000 46 76 53 be 17 68 4d 3e 24 e1 6b 3e 13 02 29 be
       -0.20650586 0.20059238 0.23035103 -0.16504698
000010 ac 86 5a 3e ea 7d 29 be e6 c9 6b bd b5 3b c2 be
       0.21340436 -0.16551939 -0.057565592 -0.37936178
000020 ca 99 ef 3c ee 54 a1 bd df 47 ca 3f d5 2d 01 3f
       0.029248137 -0.07877527 1.5803183 0.5046056
000030 9f a1 8c 3f 74 63 87 bf df 8f 44 3e 68 c8 24 3e
       1.0986823 -1.0577226 0.19195507 0.16092074
000040 25 95 6f be 9d c3 50 3e 38 86 5a 3e 58 72 5a 3e
       -0.23396738 0.2038712 0.21340263 0.21332681
000050 18 06 a6 3f 49 a5 db be 10 88 5a be 8a 66 f4 3f
       1.297061 -0.4289954 -0.21340966 1.9093792
000060 73 c3 20 3f a3 32 7b 3e 32 95 6b be b9 e8 66 3f
       0.6279823 0.24531035 -0.23006132 0.90198857
000070 b8 df 20 3f c6 b0 66 3f b6 20 20 bf 27 2e 84 3f
       0.6284137 0.90113485 -0.6254991 1.0326585
000080 33 91 5a 3e 5c 76 5a 3e 08 17 f6 bc 7d df 6b be
       0.21344452 0.21334213 -0.030040279 -0.23034473
000090 0d 85 5a 3e a2 08 72 3f cd 85 5a be 14 61 4c 3f
       0.21339817 0.9454442 -0.21340103 0.7983563
0000a0 57 47 57 be dc b1 e6 be 06 8a 5a be 24 b9 1e 3f
       -0.21023308 -0.4505757 -0.21341714 0.6200125
0000b0 19 0d e0 3e d3 54 25 3f 95 aa 65 be 74 d9 22 3e
       0.43759993 0.64582556 -0.22428353 0.15903264
0000c0 c4 87 5a 3e ed e1 fe bd 52 a6 82 3f 71 b4 f2 be
       0.21340853 -0.12445436 1.0207007 -0.4740329
0000d0 7e d5 24 bd 29 9b 29 3e 68 86 5a be 4b 22 52 3f
       -0.040242665 0.16563095 -0.21340334 0.82083577
0000e0 2b b2 58 3e 4a 3a 59 3e 11 44 00 3f 2d 54 5a 3e
       0.21161716 0.21213642 0.5010386 0.21321173
0000f0 6b f7 a3 be ea fa 88 bc fc 40 3e be ed 7c 5a be
       -0.32024702 -0.016721208 -0.18579477 -0.21336718
000100 1f 91 c1 3d 37 5a 6a 3e ec 78 aa bd 11 ad ba 3e
       0.09451508 0.22885977 -0.08323845 0.36460164
000110 21 86 5a 3e 31 81 ce 3e eb 87 5a be d6 f4 1c be
       0.21340229 0.4033294 -0.21340911 -0.15327772
000120 51 f5 5a be 4a 87 5a be 54 c8 ac 3f 6f 88 5a be
       -0.21382643 -0.21340671 1.3498635 -0.21341108
000130 32 fc 61 bf 7e f2 44 3f ce 86 5a 3e af 13 7d 3f
       -0.88275445 0.76932514 0.21340486 0.9885816
000140 e1 12 3d 3e 11 86 5a 3e d6 ec 49 3e 53 85 2b bf
       0.18464233 0.21340205 0.19719252 -0.6700031
000150 64 1c 73 3e cf 0c 08 bf 88 b8 02 3f 8e 0a 8d bf
       0.23741299 -0.53144544 0.5106282 -1.1018846
000160 71 e2 07 bf 66 e3 22 3f c5 61 5b be f3 d4 5b be
       -0.530799 0.6362823 -0.21424015 -0.21467952
000170 96 26 c3 3d 8d 86 5a be ab cc 18 bf bd 20 9c bf
       0.09528844 -0.2134039 -0.596873 -1.2197491
000180 42 ae 27 be 64 73 71 3f 19 af 80 be f9 19 10 be
       -0.16375068 0.943167 -0.2513359 -0.14072408
000190 71 87 5a be 3f b5 bc 3f 44 ca 5a be 14 05 03 be
       -0.2134073 1.4742812 -0.2136622 -0.12794906
0001a0 1e 5e 3d bf c8 d9 b5 3e f5 67 b8 bd 7a 53 89 be
       -0.73971736 0.35517716 -0.09004203 -0.268215
0001b0 1d 82 3e bf fe 86 5a 3e 68 d1 59 be a7 04 64 be
       -0.7441729 0.21340558 -0.21271288 -0.222674
0001c0 ab 93 5b be d1 1c 87 3e 5b eb ce be 94 8b 5a be
       -0.2144305 0.26389173 -0.40413937 -0.21342307
0001d0 99 2c 6b 3e cf 86 5a be 72 12 b8 3f c9 6f 06 bf
       0.22966231 -0.21340488 1.4380629 -0.5251432
0001e0 f6 60 c7 3e 9e b7 39 3e 0c 30 15 3f 55 05 95 be
       0.38941163 0.1813645 0.5827644 -0.2910563
0001f0 0f 2e 24 3d a5 78 a8 be 86 7c 34 be 02 87 5a 3e
       0.040082987 -0.32904544 -0.17625627 0.21340564
000200 d0 c7 11 bf 66 98 52 be a9 b9 68 3f f3 85 5a 3e
       -0.56945515 -0.20565948 0.90908295 0.2134016
000210 00 55 e5 3b 73 6d 58 be dc 6a 63 bf 90 64 89 3f
       0.006998658 -0.21135502 -0.8883493 1.0733814
000220 05 63 59 3e 98 7e 5a 3e 00 61 da 3d 04 87 5a 3e
       0.21229179 0.21337354 0.106630325 0.21340567
000230 d0 6f b8 be d3 05 a1 be f2 f4 c8 3e 7e 3e b2 be
       -0.36022806 -0.31449756 0.39249378 -0.34813303
000240 ef fa 44 bf 81 b9 3a 3f d6 27 c9 3d ea 22 52 3e
       -0.76945394 0.72939306 0.09822051 0.20521131
000250 67 13 70 3f fb 9a 90 bf 41 b1 0a be 4c 0e 86 3f
       0.93779606 -1.1297296 -0.1354418 1.0473113
000260 0d 86 5a 3e 22 bd cd 3e d5 fc 9d be f6 bf 4f 3e
       0.21340199 0.4018336 -0.30856958 0.20288071
000270 8b 86 5a be 1f 8e 5a be ae fb 68 3f 97 aa 32 3d
       -0.21340387 -0.21343277 0.9100903 0.04361972
000280 ad 87 5a be 5f af 53 be ad 97 5a 3f 6f 48 5a 3e
       -0.21340819 -0.20672368 0.8538769 0.21316694
000290 37 2c 7c be 5e d0 29 3f c0 91 5a be 23 75 31 3e
       -0.24626242 0.6633357 -0.21344662 0.1732984
0002a0 18 44 58 3f cd d4 04 bf 3c cf 28 3f 68 d6 97 3f
       0.844789 -0.5188721 0.65941215 1.1862307
0002b0 d0 a2 9f 3f 7c b2 fd 3c 33 88 5a be 10 ec 2b bd
       1.2471561 0.030968897 -0.21341018 -0.041973174
0002c0 7c af 84 be 6c ba 61 3f 1f 1d 88 3e 80 ba 81 3e
       -0.25915134 0.8817508 0.26584718 0.253376
0002d0 65 84 7c bf e6 03 33 3f ef 2d 39 3f d4 c1 58 be
       -0.9863952 0.69927824 0.72335714 -0.2116769
0002e0 86 3d a7 3e 90 bb 63 be 03 87 5a be b1 1b 58 be
       0.32664126 -0.22239518 -0.21340565 -0.21104313
0002f0 a1 66 94 be 76 73 5a be f2 b4 18 3f 93 b8 5a be
       -0.2898455 -0.21333107 0.596511 -0.21359472
000300 7a 83 9d 3f f3 c6 0f bf fc 1b 5c 3e b7 e5 06 3f
       1.2305748 -0.5616295 0.2149505 0.5269427
000310 33 89 30 bb bd 96 d4 bd 1a 22 66 3f c9 96 ea 3e
       -0.0026937246 -0.103803135 0.89895785 0.45818165
000320 34 b2 0a 3f d3 01 5a 3e e0 7d 01 bf 6e 86 5a 3e
       0.54178166 0.21289758 -0.50582695 0.21340343
000330 95 f3 0a bf e5 48 4b 3f c6 38 84 be 8b 29 34 3f
       -0.54277927 0.79408103 -0.25824565 0.7037589
000340 6c 0d 70 3f ab d0 0d 3f 93 43 04 3f 57 be 65 3e
       0.9377048 0.5539653 0.5166561 0.2243589
000350 a0 21 44 3e 78 cb 9e bf 3d 88 2e 3f e5 32 13 bf
       0.19153452 -1.2405844 0.68176633 -0.57499534
000360 5c 86 5a be 79 bd 3d 3f cb 10 8f bd 67 2a 5b be
       -0.21340317 0.7411724 -0.06985625 -0.21402894
000370 fb 66 80 3f 74 70 33 3f 04 97 d4 3e f5 9d 5b be
       1.0031427 0.70093465 0.41521466 -0.21446975
000380 a1 bb 5a 3e 6a f2 25 3e e6 b8 b4 3d e7 5f 8e 3f
       0.21360637 0.16205755 0.08824329 1.1123017
000390 d1 86 5a 3e d0 87 5a be 16 87 5a be 3d 9d 93 be
       0.21340491 -0.21340871 -0.21340594 -0.288309
0003a0 9f 21 3b be 3d 88 5a be 7c 4e 35 bf 30 8a 5a be
       -0.18274544 -0.21341033 -0.7082288 -0.21341777
0003b0 b3 6c 29 3f af 36 9c bd 92 9b c0 3f 10 6a fd 3e
       0.66181487 -0.076276176 1.5047476 0.49494982
0003c0 3b be 97 be eb 7e 06 3e ca 00 5a 3e d7 cd 5a be
       -0.29637322 0.13134353 0.21289364 -0.21367584
0003d0 8c 39 f1 3d 2b 4a 68 3e 12 1e ac 3f 27 b7 66 be
       0.11778554 0.22684543 1.3446677 -0.22530805
0003e0 e8 85 5a 3e a6 a8 8c bd 02 87 5a be 81 6e 5a 3e
       0.21340144 -0.06868105 -0.21340564 0.21331216
0003f0 3d 2c 4f 3f 42 ea b9 be 7d 9a 24 bf 0b 86 5a 3e
       0.8092688 -0.36311537 -0.6429823 0.21340196

fcl.weight f4 [10, 16]
000000 31 50 d5 be 30 07 05 c0 4b 33 b6 bf bb c8 f7 bf
       -0.41662744 -2.0785637 -1.4234403 -1.9358133
000010 16 73 a8 be 11 23 5b c0 e9 71 e1 be da 24 54 bf
       -0.32900304 -3.4240153 -0.4403222 -0.8286873
000020 db 67 f4 3f 79 a7 df 3e db 1d 8c bf 5d b2 c0 3f
       1.9094194 0.4368246 -1.0946611 1.5054432
000030 04 ca 70 c0 92 e9 af 3e 22 c3 de 3f 36 42 3d c0
       -3.76233 0.34357888 1.74033 -2.9571662
000040 3a 14 a1 bf 12 ee 5b bf f2 81 22 bf 9e 88 e0 be
       -1.2584298 -0.8591014 -0.6347953 -0.4385423
000050 39 d3 df be 83 d9 1f bf b9 df cd bf 4c 53 f9 3e
       -0.43715838 -0.6244127 -1.60839 0.48696363
000060 a4 5d fc bf c1 43 d9 bf 73 cd 98 be 8c 81 87 3f
       -1.9716077 -1.6973802 -0.29844245 1.058641
000070 34 15 c9 3f 5f 3f cc bf ff 19 06 c0 ab 68 94 3f
       1.5709596 -1.5956839 -2.0953367 1.1594442
000080 01 d3 df be e7 88 7b 3e 0c ea f3 3d 43 bb e9 be
       -0.4371567 0.24563943 0.11909875 -0.45650682
000090 e8 54 21 3f 04 48 4d bf a5 99 65 bf c9 d2 df be
       0.6302018 -0.8018801 -0.8968757 -0.43715504
0000a0 df 31 93 be f9 cc e6 be 0c d3 df be af f6 b1 bf
       -0.28748986 -0.45078257 -0.43715703 -1.3903407
0000b0 e1 7a c8 3f 54 64 e2 be 6b 21 83 3f 32 40 19 bf
       1.56625 -0.4421717 1.0244573 -0.5986358
0000c0 6f 4d 1e 3f cf 5c da 3e e0 d2 df 3e c5 d6 08 bf
       0.61836904 0.42648932 0.43715572 -0.5345271
0000d0 fa d2 df be af d2 df be 9b 4e e0 be c9 42 99 be
       -0.4371565 -0.43715426 -0.4380997 -0.29933766
0000e0 8f d3 df be 76 d2 df be e6 9d 2c 3f 16 d3 df be
       -0.43716094 -0.43715256 0.67428434 -0.43715733
0000f0 26 e6 ed be 00 ba f5 be a4 5f e0 3e c9 d2 df 3e
       -0.46464652 -0.4799347 0.43822968 0.43715504
000100 8c ee 33 bf 19 04 43 bf 13 af d9 be 13 d1 df 3e
       -0.7028587 -0.7617813 -0.42516384 0.43714198
000110 ef d2 df be 43 3c 12 3f 06 ee 7d 3e 46 d2 df be
       -0.43715617 0.571232 0.2479783 -0.43715113
000120 00 ee 08 c0 33 de 02 c0 5e 1b b9 bf 2d 40 e1 be
       -2.1395264 -2.044812 -1.4461477 -0.43994275
000130 ad 68 d9 3e 24 a0 b9 3f 97 e5 df be 0f d3 df be
       0.42462674 1.4501996 -0.4372985 -0.43715712
000140 98 8a 3f 3f c1 df 13 bf 75 db 06 bf ec d1 3d 3f
       0.7482085 -0.57763296 -0.52678615 0.7414844
000150 09 d1 38 3e f0 89 b6 3e 6b d3 df be ee d6 50 bf
       0.1804849 0.35652113 -0.43715987 -0.81577957
000160 05 d3 df 3e ee a2 40 bf 6c f4 96 3f 6a 77 a4 3e
       0.43715683 -0.7524861 1.1793342 0.32122356
000170 3a 33 de be 29 ae 09 bf b6 c9 9a bf 2b 77 d2 bf
       -0.43398458 -0.5378137 -1.2092807 -1.6442617
000180 42 c9 19 bf bd 81 25 c0 fe e3 91 3f a7 9e 6a be
       -0.6007272 -2.5860436 1.1397703 -0.22912084
000190 ff 0d 5a 3f b8 06 c0 bf 28 e9 bf 3f 9d 4b af bf
       0.85177606 -1.500205 1.4993029 -1.369495
0001a0 e2 d2 df be f5 d1 21 c0 c4 bc c1 be 05 d3 df 3e
       -0.43715578 -2.5284398 -0.3783933 0.43715683
0001b0 c5 fc ad bf 21 2f 72 bf 3a 1b ea bf 44 93 9b bf
       -1.3592764 -0.94603163 -1.8289559 -1.2154317
0001c0 47 96 62 bf 32 3d 9b 3f 0b d2 df 3e 25 d4 df 3e
       -0.88510555 1.212805 0.43714938 0.4371654
0001d0 e4 f7 72 bf 68 05 4d bf 2e cd 93 bf ab 24 86 be
       -0.949095 -0.80086374 -1.1546991 -0.2619985
0001e0 73 f7 df 3e 98 8a 53 3f 0a 29 b3 bf 2f 79 32 c0
       0.43743476 0.8263335 -1.3996899 -2.7886465
0001f0 d2 d2 df 3e 73 8c 51 bf 90 65 01 c0 ff 22 dc 3e
       0.4371553 -0.81854934 -2.021824 0.4299545
000200 7e 41 3f 3f 7e d4 df be 57 35 04 c0 da 22 b2 be
       0.7470931 -0.43716806 -2.0657556 -0.34792215
000210 c4 d2 f6 3e 45 d3 df be 32 a6 05 bf de 1a 98 3f
       0.48207676 -0.43715873 -0.5220672 1.1883199
000220 7a 91 52 bf 88 c2 dd be 2d de 98 bd 0e d3 df be
       -0.8225323 -0.43312478 -0.07464252 -0.4371571
000230 87 ef 45 bf e6 af 11 bf d0 d2 df be e6 94 df be
       -0.77318615 -0.56909025 -0.43715525 -0.43668288
000240 b1 90 d5 be 8e 7b 40 bd dd a1 e2 bf 02 5b 44 3e
       -0.41711953 -0.04699283 -1.7705647 0.19175342
000250 51 78 94 bf c9 ba 74 3f d7 d2 df 3e 9f dc 76 3e
       -1.1599218 0.9559751 0.43715546 0.24107598
000260 f5 d2 df be 42 20 84 3f b2 f5 de be f9 2e ce bf
       -0.43715635 1.0322344 -0.43546826 -1.6108085
000270 7d d9 ea bf 17 79 06 be 7f 3c 04 bf 2e b9 df 3e
       -1.8347622 -0.1313213 -0.5165481 0.43695968
