modeldata/prune12_Cosine_lr0.001_Aug_BitMnist_PerTensor_4bit_RMS_width64_64_64_bs128_epochs60.pth (torch, 205895 bytes, 8 tensors)

fc1.weight f4 [64, 256]
0	0x3de5cb9d	0.11220477
1	0x3adc40d0	0.0016803984
2	0x3dfd4072	0.123658076
3	0x3e2ae9c3	0.16690736
4	0x3e0794a3	0.13240294
5	0x3e00a309	0.12562193
6	0x3dd47f11	0.103757985
7	0x3e1e1320	0.15436983
8	0x3e73206b	0.23742835
9	0x3e56dd6c	0.20982903
10	0x3e5eeff7	0.21771227
11	0x3e40f060	0.18841696
12	0x3e2c3e34	0.16820604
13	0x3adade38	0.0016698306
14	0x3e159b38	0.14609993
15	0x3e0a3de9	0.1350018
16	0x3e0ea0bc	0.13928503
17	0x3dcb53c1	0.09928084
18	0x3dec1cb3	0.115289114
19	0x3dd59259	0.10428304
20	0x3d9cb707	0.07652097
21	0x3da247af	0.07923829
22	0x3e064a63	0.13114314
23	0x3e95e966	0.2927963
24	0x3e802a3f	0.2503223
25	0x3e5356f2	0.20638636
26	0x3dcb1932	0.09916915
27	0x3e2627fb	0.16226189
28	0x3e0e56d2	0.13900307
29	0x3dfad948	0.12248474
30	0x3df55ab8	0.11980194
31	0x3adcfc46	0.0016859851
32	0x3adc77ae	0.0016820335
33	0x3adb87b3	0.0016748816
34	0x3dfaf10b	0.122530065
35	0x3b011eba	0.0019702152
36	0x3ad848a4	0.0016501141
37	0x3d82f5dc	0.0639455
38	0x3b1496ec	0.0022672964
39	0x3ab29dc7	0.0013627344
40	0x3d2b6845	0.041847486
41	0x36cc1a7b	6.0827565e-06
42	0xba9e5e4f	-0.001208255
43	0xbaac064b	-0.0013124434
44	0x3a0cabe9	0.0005366193
45	0x3b0530b7	0.0020323226
46	0x3af2eaf4	0.0018533156
47	0x3ae09513	0.0017134271
48	0x3dee19f2	0.116260424
49	0x3e260193	0.16211538
50	0x3ad8de97	0.0016545829
51	0xbd6396c2	-0.055563696
52	0x39c79cc1	0.0003807303
53	0xb9c15a2b	-0.0003687901
54	0xba1ae81e	-0.0005909222
55	0xba95c34e	-0.0011426003
56	0x3bc45e27	0.005992669
57	0xbafd8204	-0.0019341116
58	0xbb61dc7a	-0.003446369
59	0xbb3233eb	-0.002719159
60	0xb8a04b37	-7.6434044e-05
61	0x3b4051f3	0.002934572
62	0xbc2a213c	-0.0103839
63	0x3ade1d46	0.001694598
64	0x3df5534b	0.119787775
65	0x3d475cc3	0.04867245
66	0x3d6c8a03	0.057748806
67	0xba3b4a3f	-0.00071445474
68	0xbaef20da	-0.0018244043
69	0xbb1b730c	-0.0023719696
70	0xbaeb85cd	-0.0017968953
71	0xbc8abe5a	-0.01693647
72	0xba620d5c	-0.00086232065
73	0xbb68b73f	-0.0035509614
74	0xbb44731b	-0.0029975835
75	0xbb02df5a	-0.0019969554
76	0xb90ce535	-0.00013436827
77	0xbdb61f99	-0.088927455
78	0x3b1ec14e	0.0024224105
79	0x3ae4068f	0.0017396974
80	0x3ade1c15	0.0016945625
81	0x3d85e1c0	0.06537199
82	0x3a4cdab7	0.00078145735
83	0xbb6b8518	-0.0035937484
84	0xbb73e3ec	-0.003721471
85	0xbb4911b7	-0.0030680725
86	0xbb0de029	-0.0021648502
87	0xbb047511	-0.0020211379
88	0x3dadff0a	0.084959105
89	0xbb61d746	-0.0034460588
90	0xbb39c2a3	-0.0028344772
91	0xbb466883	-0.0030274696
92	0xb9777bb1	-0.00023601834
93	0xbd3b34fa	-0.04570482
94	0xbdabf702	-0.083967224
95	0x3b0d18eb	0.0021529745
96	0x3ddb51cf	0.10708963
97	0x3b0a2351	0.002107818
98	0x3a9a143c	0.0011755298
99	0xbb62a948	-0.0034585763
100	0xbb8e4e90	-0.0043428615
101	0xbb2081dc	-0.0024491465
102	0x3c991006	0.018684398
103	0xb9bd4bbe	-0.00036105321
104	0xbace599d	-0.001574326
105	0xbb055fd0	-0.0020351298
106	0xbab267d8	-0.001361127
107	0xbc76f25a	-0.01507243
108	0xba1bd89a	-0.0005945057
109	0xbc96a6aa	-0.018390018
110	0xbdaf819b	-0.08569642
111	0xbcd5fb23	-0.026120728
112	0x3e060b7c	0.13090318
113	0x3b3e5841	0.0029044303
114	0x3916a38f	0.00014366045
115	0x3d5e8881	0.0543294
116	0x3db9f285	0.0907946
117	0xbad6aa20	-0.0016377605
118	0x3d616a62	0.055033095
119	0x3a435e84	0.00074527436
120	0x3da3e56d	0.08002744
121	0xbadb9999	-0.001675415
122	0xbb169695	-0.0022977937
123	0xbb437825	-0.002982625
124	0xbac8b0c3	-0.0015311468
125	0xbd8386d1	-0.064221986
126	0xbd42ebd6	-0.047588192
127	0x3ab966b2	0.0014144985
128	0x3e285f5f	0.16442631
129	0x3af02557	0.0018321675
130	0xbdab3f3e	-0.08361672
131	0xbb2331ac	-0.0024901433
132	0xbb34aca5	-0.0027568724
133	0xba9ac9d7	-0.001180942
134	0xbaa942cd	-0.0012913585
135	0x3a3da279	0.0007233988
136	0x391f249e	0.00015177063
137	0xbb1a50be	-0.0023546661
138	0xbd98e49e	-0.0746548
139	0xbb3c5bb6	-0.0028741187
140	0xbb363be7	-0.00278067
141	0x3e1b194d	0.1514637
142	0x3a9c889f	0.0011942572
143	0x3ade3ed5	0.0016955981
144	0x3e3d3b3d	0.18479629
145	0x3aa7ab25	0.0012792094
146	0x3a907288	0.0011020461
147	0x38e9942f	0.00011137907
148	0xbd9f07f6	-0.0776519
149	0xbb0a74c8	-0.0021126736
150	0xbaab8efc	-0.0013088877
151	0xba880719	-0.0010378092
152	0xbda388da	-0.07985087
153	0xbb135ed3	-0.002248694
154	0xbb5150fa	-0.0031939135
155	0x3c60e822	0.01372722
156	0x3dabda94	0.083913
157	0x3e34744a	0.17622486
158	0x3dfaa710	0.12238896
159	0x3e09bc6c	0.13450783
160	0x3e509ceb	0.2037236
161	0x3dfa221d	0.12213538
162	0x3dc2013d	0.094728924
163	0xbaac933c	-0.0013166438
164	0xbb48212e	-0.0030537355
165	0xba75b50b	-0.0009372986
166	0xb9f939c9	-0.00047536034
167	0xbd87b1ad	-0.06625686
168	0x3d5e687e	0.05429887
169	0x3d4c66a9	0.04990259
170	0x3c99df76	0.018783312
171	0x3cbab9ee	0.022793736
172	0x3d2805b1	0.041021053
173	0x3a297fa7	0.000646586
174	0x3d18ca7c	0.03730248
175	0x3dffe091	0.124940045
176	0x3e0b928f	0.13630126
177	0x3dfeaa86	0.124348685
178	0x3e559557	0.2085775
179	0xbb5740e0	-0.0032845065
180	0xbb4a87c3	-0.0030903674
181	0x3d9cb0f7	0.07650941
182	0xb547133e	-7.416128e-07
183	0x3e0758d5	0.1321748
184	0x3e5107a5	0.20413072
185	0x3e778fce	0.24175951
186	0x3e7e4736	0.24831852
187	0x3ddb8623	0.10718944
188	0x3e1ef625	0.15523584
189	0x39f4106c	0.00046551542
190	0x3ad791f6	0.0016446698
191	0x3d9ebb08	0.07750517
192	0x3adc4b08	0.0016807029
193	0x3adb79b5	0.0016744646
194	0x3d2e70f0	0.042588174
195	0x3da6afc2	0.08138992
196	0x3d8ccf60	0.06875491
197	0x3de757c4	0.11296037
198	0x3d655db0	0.05599755
199	0x3da29032	0.07937659
200	0x3dbdd5c9	0.09269292
201	0xbdac7395	-0.08420483
202	0xbdbed3ec	-0.09317765
203	0xbb46aefb	-0.0030316699
204	0xbd5b1c3c	-0.053493723
205	0xbe1802d3	-0.14844827
206	0xbe060687	-0.13088427
207	0x3cae82d9	0.021302627
208	0x3ada308c	0.0016646548
209	0x3ad7c6b2	0.0016462414
210	0xbe5c1efd	-0.21496196
211	0xbda945d7	-0.08265274
212	0xbdbe81ff	-0.093021385
213	0xbd83a737	-0.06428378
214	0xbe1f4dd6	-0.15557036
215	0xbf2c09a3	-0.67202204
216	0xbfa75216	-1.3071926
217	0xbfe8f88e	-1.8200853
218	0xbf9d2238	-1.2276068
219	0xbf4406ce	-0.76572883
220	0xbed72284	-0.4201852
221	0xbe912e53	-0.28355655
222	0xbe4c4f66	-0.19952163
223	0x3ad9f35e	0.0016628315
224	0x3adca2d9	0.00168332
225	0xbdae8e27	-0.08523207
226	0xbe1c8476	-0.15284905
227	0xbe6c31d9	-0.2306589
228	0xbed53449	-0.41641453
229	0xbf26b1fe	-0.65115345
230	0xbf542da5	-0.8288215
231	0xbf95bf9f	-1.1699103
232	0xbfa1359c	-1.2594485
233	0xbf8e2ae5	-1.110684
234	0xbf40a489	-0.7525106
235	0xbf1b085b	-0.60559624
236	0xbe8ba409	-0.27273586
237	0xbe27c2b3	-0.16382866
238	0xbdf58c27	-0.119896226
239	0x3ada5ee6	0.0016660362
240	0x3de733bf	0.11289167
241	0x3adc4001	0.0016803743
242	0x3adc3834	0.0016801418
243	0xbdcc13f6	-0.09964745
244	0xbe1c3c98	-0.1525749
245	0xbe8b2fe3	-0.27184972
246	0xbe924a9f	-0.28572556
247	0xbe8cd30a	-0.2750476
248	0xbe885ac1	-0.2663174
249	0xbe6975b4	-0.22798806
250	0xbe642776	-0.22280678
251	0xbdc5f625	-0.09666089
252	0xbdd14d25	-0.10219792
253	0xbd5f4b30	-0.054515064
254	0x3dc9c98f	0.098528974
255	0x3adadaa0	0.0016697235

fc1.mask f4 [64, 256]
0	0x3f800000	1.0
1	0x00000000	0.0
2	0x3f800000	1.0
3	0x3f800000	1.0
4	0x3f800000	1.0
5	0x3f800000	1.0
6	0x3f800000	1.0
7	0x3f800000	1.0
8	0x3f800000	1.0
9	0x3f800000	1.0
10	0x3f800000	1.0
11	0x3f800000	1.0
12	0x3f800000	1.0
13	0x00000000	0.0
14	0x3f800000	1.0
15	0x3f800000	1.0
16	0x3f800000	1.0
17	0x3f800000	1.0
18	0x3f800000	1.0
19	0x3f800000	1.0
20	0x3f800000	1.0
21	0x3f800000	1.0
22	0x3f800000	1.0
23	0x3f800000	1.0
24	0x3f800000	1.0
25	0x3f800000	1.0
26	0x3f800000	1.0
27	0x3f800000	1.0
28	0x3f800000	1.0
29	0x3f800000	1.0
30	0x3f800000	1.0
31	0x00000000	0.0
32	0x00000000	0.0
33	0x00000000	0.0
34	0x3f800000	1.0
35	0x00000000	0.0
36	0x00000000	0.0
37	0x3f800000	1.0
38	0x00000000	0.0
39	0x00000000	0.0
40	0x3f800000	1.0
41	0x00000000	0.0
42	0x00000000	0.0
43	0x00000000	0.0
44	0x00000000	0.0
45	0x00000000	0.0
46	0x00000000	0.0
47	0x00000000	0.0
48	0x3f800000	1.0
49	0x3f800000	1.0
50	0x00000000	0.0
51	0x3f800000	1.0
52	0x00000000	0.0
53	0x00000000	0.0
54	0x00000000	0.0
55	0x00000000	0.0
56	0x3f800000	1.0
57	0x00000000	0.0
58	0x00000000	0.0
59	0x00000000	0.0
60	0x00000000	0.0
61	0x00000000	0.0
62	0x3f800000	1.0
63	0x00000000	0.0
64	0x3f800000	1.0
65	0x3f800000	1.0
66	0x3f800000	1.0
67	0x00000000	0.0
68	0x00000000	0.0
69	0x00000000	0.0
70	0x00000000	0.0
71	0x3f800000	1.0
72	0x00000000	0.0
73	0x00000000	0.0
74	0x00000000	0.0
75	0x00000000	0.0
76	0x00000000	0.0
77	0x3f800000	1.0
78	0x00000000	0.0
79	0x00000000	0.0
80	0x00000000	0.0
81	0x3f800000	1.0
82	0x00000000	0.0
83	0x00000000	0.0
84	0x00000000	0.0
85	0x00000000	0.0
86	0x00000000	0.0
87	0x00000000	0.0
88	0x3f800000	1.0
89	0x00000000	0.0
90	0x00000000	0.0
91	0x00000000	0.0
92	0x00000000	0.0
93	0x3f800000	1.0
94	0x3f800000	1.0
95	0x00000000	0.0
96	0x3f800000	1.0
97	0x00000000	0.0
98	0x00000000	0.0
99	0x00000000	0.0
100	0x00000000	0.0
101	0x00000000	0.0
102	0x3f800000	1.0
103	0x00000000	0.0
104	0x00000000	0.0
105	0x00000000	0.0
106	0x00000000	0.0
107	0x3f800000	1.0
108	0x00000000	0.0
109	0x3f800000	1.0
110	0x3f800000	1.0
111	0x3f800000	1.0
112	0x3f800000	1.0
113	0x00000000	0.0
114	0x00000000	0.0
115	0x3f800000	1.0
116	0x3f800000	1.0
117	0x00000000	0.0
118	0x3f800000	1.0
119	0x00000000	0.0
120	0x3f800000	1.0
121	0x00000000	0.0
122	0x00000000	0.0
123	0x00000000	0.0
124	0x00000000	0.0
125	0x3f800000	1.0
126	0x3f800000	1.0
127	0x00000000	0.0
128	0x3f800000	1.0
129	0x00000000	0.0
130	0x3f800000	1.0
131	0x00000000	0.0
132	0x00000000	0.0
133	0x00000000	0.0
134	0x00000000	0.0
135	0x00000000	0.0
136	0x00000000	0.0
137	0x00000000	0.0
138	0x3f800000	1.0
139	0x00000000	0.0
140	0x00000000	0.0
141	0x3f800000	1.0
142	0x00000000	0.0
143	0x00000000	0.0
144	0x3f800000	1.0
145	0x00000000	0.0
146	0x00000000	0.0
147	0x00000000	0.0
148	0x3f800000	1.0
149	0x00000000	0.0
150	0x00000000	0.0
151	0x00000000	0.0
152	0x3f800000	1.0
153	0x00000000	0.0
154	0x00000000	0.0
155	0x3f800000	1.0
156	0x3f800000	1.0
157	0x3f800000	1.0
158	0x3f800000	1.0
159	0x3f800000	1.0
160	0x3f800000	1.0
161	0x3f800000	1.0
162	0x3f800000	1.0
163	0x00000000	0.0
164	0x00000000	0.0
165	0x00000000	0.0
166	0x00000000	0.0
167	0x3f800000	1.0
168	0x3f800000	1.0
169	0x3f800000	1.0
170	0x3f800000	1.0
171	0x3f800000	1.0
172	0x3f800000	1.0
173	0x00000000	0.0
174	0x3f800000	1.0
175	0x3f800000	1.0
176	0x3f800000	1.0
177	0x3f800000	1.0
178	0x3f800000	1.0
179	0x00000000	0.0
180	0x00000000	0.0
181	0x3f800000	1.0
182	0x00000000	0.0
183	0x3f800000	1.0
184	0x3f800000	1.0
185	0x3f800000	1.0
186	0x3f800000	1.0
187	0x3f800000	1.0
188	0x3f800000	1.0
189	0x00000000	0.0
190	0x00000000	0.0
191	0x3f800000	1.0
192	0x00000000	0.0
193	0x00000000	0.0
194	0x3f800000	1.0
195	0x3f800000	1.0
196	0x3f800000	1.0
197	0x3f800000	1.0
198	0x3f800000	1.0
199	0x3f800000	1.0
200	0x3f800000	1.0
201	0x3f800000	1.0
202	0x3f800000	1.0
203	0x00000000	0.0
204	0x3f800000	1.0
205	0x3f800000	1.0
206	0x3f800000	1.0
207	0x3f800000	1.0
208	0x00000000	0.0
209	0x00000000	0.0
210	0x3f800000	1.0
211	0x3f800000	1.0
212	0x3f800000	1.0
213	0x3f800000	1.0
214	0x3f800000	1.0
215	0x3f800000	1.0
216	0x3f800000	1.0
217	0x3f800000	1.0
218	0x3f800000	1.0
219	0x3f800000	1.0
220	0x3f800000	1.0
221	0x3f800000	1.0
222	0x3f800000	1.0
223	0x00000000	0.0
224	0x00000000	0.0
225	0x3f800000	1.0
226	0x3f800000	1.0
227	0x3f800000	1.0
228	0x3f800000	1.0
229	0x3f800000	1.0
230	0x3f800000	1.0
231	0x3f800000	1.0
232	0x3f800000	1.0
233	0x3f800000	1.0
234	0x3f800000	1.0
235	0x3f800000	1.0
236	0x3f800000	1.0
237	0x3f800000	1.0
238	0x3f800000	1.0
239	0x00000000	0.0
240	0x3f800000	1.0
241	0x00000000	0.0
242	0x00000000	0.0
243	0x3f800000	1.0
244	0x3f800000	1.0
245	0x3f800000	1.0
246	0x3f800000	1.0
247	0x3f800000	1.0
248	0x3f800000	1.0
249	0x3f800000	1.0
250	0x3f800000	1.0
251	0x3f800000	1.0
252	0x3f800000	1.0
253	0x3f800000	1.0
254	0x3f800000	1.0
255	0x00000000	0.0

fc2.weight f4 [64, 64]
0	0x3b335ae3	0.0027367405
1	0xbea5d460	-0.32388592
2	0xbdb6356e	-0.0889691
3	0xb17bc466	-3.6636947e-09
4	0x3e17e894	0.14834815
5	0x3b8dac8b	0.0043235472
6	0x3e88cc1e	0.2671823
7	0xbeea3355	-0.45742288
8	0xb94ce7b3	-0.00019541271
9	0x3e5acd7b	0.21367447
10	0x39c53b77	0.00037619073
11	0x3afb2ef0	0.0019163769
12	0x3e59e998	0.21280515
13	0x3a78ab96	0.00094860175
14	0x38964fff	7.167458e-05
15	0x3ea68c1d	0.32528773
16	0x3bc08ee7	0.0058764103
17	0xb8204d74	-3.8219107e-05
18	0xbe4db0bf	-0.20086955
19	0x3e7515ed	0.23934145
20	0xb83ecba3	-4.548918e-05
21	0xbe54d7ee	-0.20785496
22	0xbea590d6	-0.32337064
23	0x3912c96d	0.00013998682
24	0xbdb6859a	-0.08912201
25	0x3e20e9ff	0.15714262
26	0x3a9d3e78	0.0011996767
27	0x39c45389	0.00037446272
28	0x3a484259	0.0007639281
29	0x3a34d026	0.00068974716
30	0xbe0e9046	-0.13922223
31	0xbe179cfb	-0.14805977
32	0x3b1ebcdd	0.0024221458
33	0x3b25e7d4	0.0025315182
34	0x3e23a14d	0.159795
35	0xba86ddcf	-0.0010289493
36	0xbe062422	-0.13099721
37	0x39d429df	0.00040466987
38	0x3e3c2bb0	0.1837604
39	0xbde014c4	-0.10941461
40	0x3e89d672	0.2692142
41	0x3ea73874	0.32660258
42	0x3e53579a	0.20638886
43	0x3b19d074	0.0023470195
44	0xbe24460b	-0.16042344
45	0x3afd9dd1	0.0019349401
46	0xbdb2cc41	-0.087303646
47	0x39a9cfb5	0.00032388946
48	0x3a0b71d4	0.0005319391
49	0xbabbd300	-0.0014329851
50	0x3af60891	0.0018770864
51	0x3b4374c7	0.0029824243
52	0xb9108e9b	-0.00013786035
53	0x3e50a872	0.20376757
54	0x3eaa39e5	0.33247295
55	0xbaceb55e	-0.0015770604
56	0x3ebd5371	0.36977723
57	0x3e8bc346	0.2729742
58	0x3e62ecdf	0.22160672
59	0xba909539	-0.00110308
60	0xbe24afdd	-0.16082712
61	0xbe2c015f	-0.16797398
62	0xbedc6c1d	-0.43051234
63	0x3a4abacc	0.00077335234
64	0xbb24cddc	-0.0025147116
65	0x3e23855d	0.15968843
66	0xbb01f600	-0.0019830465
67	0x2f551897	1.9380973e-10
68	0xbe803841	-0.25042918
69	0xba80c4f7	-0.0009824325
70	0xbe181bdb	-0.14854376
71	0x3e21a93c	0.15787214
72	0xbe171725	-0.14754923
73	0x38de7278	0.000106071064
74	0xbec5fcd6	-0.3866946
75	0xbe3acb85	-0.18241699
76	0xbab07ea1	-0.0013465473
77	0x3ea70b70	0.32625914
78	0x3eb3198c	0.34980428
79	0xbaa2f714	-0.0012433254
80	0xbad67ca2	-0.0016364048
81	0xbd73a339	-0.059481833
82	0xbe659587	-0.22420321
83	0xbec4c769	-0.38433388
84	0x3e1101c0	0.14160824
85	0x3db673f8	0.08908838
86	0xbe466637	-0.1937493
87	0xbb0a96c6	-0.0021146997
88	0xbe7cd256	-0.24689612
89	0xbe7b749f	-0.24556206
90	0xba6dae39	-0.0009066794
91	0xb9061c86	-0.00012789862
92	0x3d46ef34	0.048567966
93	0x3dd63f08	0.10461241
94	0x3e63b7b3	0.22238044
95	0x39681111	0.00022131602
96	0xba9d01d6	-0.0011978697
97	0xbe55ec2b	-0.20890872
98	0x3e7d4464	0.2473312
99	0xba5a2977	-0.0008322219
100	0x3edaed8c	0.4275936
101	0xbaa8753d	-0.0012852323
102	0x3b400eac	0.002930562
103	0xbe3bfe15	-0.18358643
104	0x3d9d11d1	0.07669414
105	0xbb303453	-0.0026886656
106	0xbd83a573	-0.06428041
107	0x3ea7c2fc	0.3276595
108	0x37bf65f1	2.2816444e-05
109	0xba92dd19	-0.0011204808
110	0xba82d7d8	-0.0009982539
111	0xbe2f6f85	-0.17132385
112	0x39d88959	0.00041301062
113	0xbe54cd1b	-0.20781367
114	0xb89584ac	-7.129586e-05
115	0xbdb93dc8	-0.09044987
116	0xba6290c5	-0.0008642788
117	0xbea494f4	-0.32144892
118	0xba06d1d6	-0.00051429623
119	0x3e808081	0.2509804
120	0xbee1c823	-0.44098005
121	0xbe9b002b	-0.30273566
122	0x3ea171d5	0.3153216
123	0x39a07558	0.00030605006
124	0xbb88eb9a	-0.0041784765
125	0xb8b60d75	-8.680943e-05
126	0xb80cd932	-3.358088e-05
127	0x3e10df9d	0.14147802
128	0xbe600ec7	-0.21880637
129	0xb955f7f0	-0.00020405627
130	0x3e54ddf5	0.20787795
131	0xb0f7fc03	-1.8043241e-09
132	0x3e96ca09	0.29451016
133	0xb9dcf801	-0.00042146447
134	0x3e377853	0.17916994
135	0xbe20977d	-0.15682788
136	0xbe88f86d	-0.26752034
137	0x2f2ba27e	1.5610088e-10
138	0xb9fba639	-0.00047998296
139	0x3e31637f	0.17323111
140	0x3e92e0e0	0.2868719
141	0x3b0dabe1	0.002161734
142	0xbe81dc39	-0.2536333
143	0xbd1bbcd9	-0.038021896
144	0x3aed09da	0.0018084601
145	0x3b2851f8	0.0025683623
146	0xbdf65ee8	-0.12029821
147	0xbe4f4638	-0.2024163
148	0xbd024e87	-0.03181317
149	0xbe9b921a	-0.30384904
150	0xba955cc0	-0.001139544
151	0xb9cecca4	-0.0003944385
152	0x3a820895	0.000992077
153	0x3e183942	0.14865592
154	0xbe6d6339	-0.23182382
155	0x3e55118a	0.20807472
156	0xbb19456c	-0.0023387326
157	0xbe71e99e	-0.23624274
158	0x3aa6fe45	0.0012740573
159	0xbe89e58b	-0.2693294
160	0xbf2336de	-0.63755596
161	0xbea77832	-0.3270889
162	0xbdcdcc2d	-0.10048709
163	0x3ad41736	0.0016181234
164	0xbac08bb3	-0.0014690071
165	0xb90b7c17	-0.000133023
166	0x3f401f54	0.750478
167	0x3e5bcf3f	0.21465777
168	0x3b2dcfcb	0.002652156
169	0x3e314fd7	0.17315613
170	0x3b1cf62d	0.0023950443
171	0xbe1e05ea	-0.15431944
172	0xbe19953e	-0.14998338
173	0x3845450d	4.703277e-05
174	0xbe2f6262	-0.17127374
175	0x3de4bb4b	0.11168536
176	0xbec220dc	-0.37915695
177	0xbe3f1247	-0.18659316
178	0xb9a452e8	-0.00031342288
179	0x3e01ef04	0.12688833
180	0xba4b04bd	-0.00077445415
181	0x3e3f3c70	0.18675399
182	0xbe4e2981	-0.2013302
183	0x3944c6ad	0.00018766029
184	0x3e87f070	0.26550627
185	0x3e892003	0.26782236
186	0x3e89cbbc	0.2691325
187	0xbabbbffc	-0.0014324184
188	0x3db67470	0.089089274
189	0xbe41c9a0	-0.1892457
190	0xbd3627cf	-0.04447156
191	0x39d84fc8	0.00041258172
192	0x392c3c4b	0.00016425659
193	0x393faceb	0.00018279596
194	0x390b9d5c	0.00013314694
195	0x309c6a8f	1.138078e-09
196	0xbdaf8a99	-0.08571357
197	0x3a99c65c	0.0011732089
198	0x3e487211	0.19574763
199	0xbe841842	-0.25799757
200	0x3e09623c	0.1341638
201	0x3a409e98	0.0007347851
202	0xbe605082	-0.21905711
203	0x3e55189e	0.20810172
204	0x3db61024	0.08889797
205	0xbe584d93	-0.21123342
206	0xb9ff0ecb	-0.00048648412
207	0xbe1155db	-0.14192908
208	0xb9f0258d	-0.00045804345
209	0xbde89be4	-0.11357859
210	0xb8c228f1	-9.258267e-05
211	0x3abf6094	0.0014600926
212	0x3b8908dd	0.004181965
213	0xba84c251	-0.0010128712
214	0x3b2df21f	0.002654202
215	0xbf0863f1	-0.532775
216	0x3974c095	0.00023341396
217	0x3ab0fc60	0.0013502948
218	0x3db4f00b	0.08834847
219	0xbf4843fa	-0.78228724
220	0x3b252f61	0.0025205242
221	0x3a380924	0.0007020405
222	0xbdfc7475	-0.123269
223	0xbabe94c9	-0.0014540191
224	0xbe7ba151	-0.24573256
225	0x39df9c67	0.00042650403
226	0x3af28aa2	0.001850445
227	0x3aa168ab	0.0012314519
228	0x3a3013f3	0.000671684
229	0xbe64e018	-0.2235111
230	0xbe11095f	-0.14163731
231	0xbec1681e	-0.37774748
232	0x3e81d975	0.2536122
233	0x3e4f17b4	0.20223886
234	0x3ecc94f4	0.39957392
235	0x3a5c34e6	0.00084002165
236	0x389d0252	7.4867756e-05
237	0x3ea7437b	0.3266867
238	0x3aefebe4	0.0018304554
239	0x3bbb6698	0.0057190172
240	0xbe0fdf04	-0.14049917
241	0x3e4ee615	0.20204957
242	0x3e1b9ff5	0.15197738
243	0xb8495ddb	-4.8009544e-05
244	0x3afa61c3	0.0019102622
245	0x3ad1b134	0.0015998245
246	0xba4ebc69	-0.00078863517
247	0x39dc0273	0.00041963495
248	0xba4a81b7	-0.00077250175
249	0x3e96bdd4	0.29441702
250	0xbe4a39fb	-0.1974868
251	0xb9d01054	-0.00039685017
252	0x3b255b80	0.002523154
253	0x39b53a39	0.0003456639
254	0x3a4cb5ac	0.00078090536
255	0x3e8752f1	0.26430467

fc2.mask f4 [64, 64]
0	0x00000000	0.0
1	0x3f800000	1.0
2	0x3f800000	1.0
3	0x00000000	0.0
4	0x3f800000	1.0
5	0x00000000	0.0
6	0x3f800000	1.0
7	0x3f800000	1.0
8	0x00000000	0.0
9	0x3f800000	1.0
10	0x00000000	0.0
11	0x00000000	0.0
12	0x3f800000	1.0
13	0x00000000	0.0
14	0x00000000	0.0
15	0x3f800000	1.0
16	0x00000000	0.0
17	0x00000000	0.0
18	0x3f800000	1.0
19	0x3f800000	1.0
20	0x00000000	0.0
21	0x3f800000	1.0
22	0x3f800000	1.0
23	0x00000000	0.0
24	0x3f800000	1.0
25	0x3f800000	1.0
26	0x00000000	0.0
27	0x00000000	0.0
28	0x00000000	0.0
29	0x00000000	0.0
30	0x3f800000	1.0
31	0x3f800000	1.0
32	0x00000000	0.0
33	0x00000000	0.0
34	0x3f800000	1.0
35	0x00000000	0.0
36	0x3f800000	1.0
37	0x00000000	0.0
38	0x3f800000	1.0
39	0x3f800000	1.0
40	0x3f800000	1.0
41	0x3f800000	1.0
42	0x3f800000	1.0
43	0x00000000	0.0
44	0x3f800000	1.0
45	0x00000000	0.0
46	0x3f800000	1.0
47	0x00000000	0.0
48	0x00000000	0.0
49	0x00000000	0.0
50	0x00000000	0.0
51	0x00000000	0.0
52	0x00000000	0.0
53	0x3f800000	1.0
54	0x3f800000	1.0
55	0x00000000	0.0
56	0x3f800000	1.0
57	0x3f800000	1.0
58	0x3f800000	1.0
59	0x00000000	0.0
60	0x3f800000	1.0
61	0x3f800000	1.0
62	0x3f800000	1.0
63	0x00000000	0.0
64	0x00000000	0.0
65	0x3f800000	1.0
66	0x00000000	0.0
67	0x00000000	0.0
68	0x3f800000	1.0
69	0x00000000	0.0
70	0x3f800000	1.0
71	0x3f800000	1.0
72	0x3f800000	1.0
73	0x00000000	0.0
74	0x3f800000	1.0
75	0x3f800000	1.0
76	0x00000000	0.0
77	0x3f800000	1.0
78	0x3f800000	1.0
79	0x00000000	0.0
80	0x00000000	0.0
81	0x3f800000	1.0
82	0x3f800000	1.0
83	0x3f800000	1.0
84	0x3f800000	1.0
85	0x3f800000	1.0
86	0x3f800000	1.0
87	0x00000000	0.0
88	0x3f800000	1.0
89	0x3f800000	1.0
90	0x00000000	0.0
91	0x00000000	0.0
92	0x3f800000	1.0
93	0x3f800000	1.0
94	0x3f800000	1.0
95	0x00000000	0.0
96	0x00000000	0.0
97	0x3f800000	1.0
98	0x3f800000	1.0
99	0x00000000	0.0
100	0x3f800000	1.0
101	0x00000000	0.0
102	0x00000000	0.0
103	0x3f800000	1.0
104	0x3f800000	1.0
105	0x00000000	0.0
106	0x3f800000	1.0
107	0x3f800000	1.0
108	0x00000000	0.0
109	0x00000000	0.0
110	0x00000000	0.0
111	0x3f800000	1.0
112	0x00000000	0.0
113	0x3f800000	1.0
114	0x00000000	0.0
115	0x3f800000	1.0
116	0x00000000	0.0
117	0x3f800000	1.0
118	0x00000000	0.0
119	0x3f800000	1.0
120	0x3f800000	1.0
121	0x3f800000	1.0
122	0x3f800000	1.0
123	0x00000000	0.0
124	0x00000000	0.0
125	0x00000000	0.0
126	0x00000000	0.0
127	0x3f800000	1.0
128	0x3f800000	1.0
129	0x00000000	0.0
130	0x3f800000	1.0
131	0x00000000	0.0
132	0x3f800000	1.0
133	0x00000000	0.0
134	0x3f800000	1.0
135	0x3f800000	1.0
136	0x3f800000	1.0
137	0x00000000	0.0
138	0x00000000	0.0
139	0x3f800000	1.0
140	0x3f800000	1.0
141	0x00000000	0.0
142	0x3f800000	1.0
143	0x3f800000	1.0
144	0x00000000	0.0
145	0x00000000	0.0
146	0x3f800000	1.0
147	0x3f800000	1.0
148	0x3f800000	1.0
149	0x3f800000	1.0
150	0x00000000	0.0
151	0x00000000	0.0
152	0x00000000	0.0
153	0x3f800000	1.0
154	0x3f800000	1.0
155	0x3f800000	1.0
156	0x00000000	0.0
157	0x3f800000	1.0
158	0x00000000	0.0
159	0x3f800000	1.0
160	0x3f800000	1.0
161	0x3f800000	1.0
162	0x3f800000	1.0
163	0x00000000	0.0
164	0x00000000	0.0
165	0x00000000	0.0
166	0x3f800000	1.0
167	0x3f800000	1.0
168	0x00000000	0.0
169	0x3f800000	1.0
170	0x00000000	0.0
171	0x3f800000	1.0
172	0x3f800000	1.0
173	0x00000000	0.0
174	0x3f800000	1.0
175	0x3f800000	1.0
176	0x3f800000	1.0
177	0x3f800000	1.0
178	0x00000000	0.0
179	0x3f800000	1.0
180	0x00000000	0.0
181	0x3f800000	1.0
182	0x3f800000	1.0
183	0x00000000	0.0
184	0x3f800000	1.0
185	0x3f800000	1.0
186	0x3f800000	1.0
187	0x00000000	0.0
188	0x3f800000	1.0
189	0x3f800000	1.0
190	0x3f800000	1.0
191	0x00000000	0.0
192	0x00000000	0.0
193	0x00000000	0.0
194	0x00000000	0.0
195	0x00000000	0.0
196	0x3f800000	1.0
197	0x00000000	0.0
198	0x3f800000	1.0
199	0x3f800000	1.0
200	0x3f800000	1.0
201	0x00000000	0.0
202	0x3f800000	1.0
203	0x3f800000	1.0
204	0x3f800000	1.0
205	0x3f800000	1.0
206	0x00000000	0.0
207	0x3f800000	1.0
208	0x00000000	0.0
209	0x3f800000	1.0
210	0x00000000	0.0
211	0x00000000	0.0
212	0x00000000	0.0
213	0x00000000	0.0
214	0x00000000	0.0
215	0x3f800000	1.0
216	0x00000000	0.0
217	0x00000000	0.0
218	0x3f800000	1.0
219	0x3f800000	1.0
220	0x00000000	0.0
221	0x00000000	0.0
222	0x3f800000	1.0
223	0x00000000	0.0
224	0x3f800000	1.0
225	0x00000000	0.0
226	0x00000000	0.0
227	0x00000000	0.0
228	0x00000000	0.0
229	0x3f800000	1.0
230	0x3f800000	1.0
231	0x3f800000	1.0
232	0x3f800000	1.0
233	0x3f800000	1.0
234	0x3f800000	1.0
235	0x00000000	0.0
236	0x00000000	0.0
237	0x3f800000	1.0
238	0x00000000	0.0
239	0x00000000	0.0
240	0x3f800000	1.0
241	0x3f800000	1.0
242	0x3f800000	1.0
243	0x00000000	0.0
244	0x00000000	0.0
245	0x00000000	0.0
246	0x00000000	0.0
247	0x00000000	0.0
248	0x00000000	0.0
249	0x3f800000	1.0
250	0x3f800000	1.0
251	0x00000000	0.0
252	0x00000000	0.0
253	0x00000000	0.0
254	0x00000000	0.0
255	0x3f800000	1.0

fc3.weight f4 [64, 64]
0	0xbed7a324	-0.42116654
1	0x3e1b7f97	0.1518539
2	0xbe5e8d2f	-0.21733545
3	0x3dfe1c8a	0.12407787
4	0xbda16d0b	-0.078821264
5	0x3c8d59dc	0.017254762
6	0x3e35a260	0.17737722
7	0x3d09baba	0.033625342
8	0xbdee5e0b	-0.11639031
9	0x3e8bb046	0.27282923
10	0xbdf138f1	-0.11778439
11	0xbe34cf2e	-0.17657158
12	0x3d6bddbc	0.05758451
13	0xbe8ff812	-0.2811895
14	0xbd7b1459	-0.061298702
15	0xbcdecebf	-0.027198194
16	0xbe02c65c	-0.1277098
17	0x3c7c1d1b	0.015387799
18	0xbe75f84a	-0.24020496
19	0x3d86fcbb	0.06591173
20	0xbf06d077	-0.5266184
21	0xbe382412	-0.1798251
22	0x3d12dfb5	0.035857875
23	0xbdef9b12	-0.11699499
24	0x3eddb9d2	0.43305832
25	0xbe0a0478	-0.13478267
26	0x3e4000d6	0.18750319
27	0x39d1b63d	0.00039999365
28	0x3e80628b	0.25075182
29	0x3e0b9c44	0.1363383
30	0xbb8d8d52	-0.004319825
31	0xbe06e127	-0.13171826
32	0xbe48c2ee	-0.1960561
33	0xbe78977a	-0.24276534
34	0xbe1b3b4f	-0.15159343
35	0xbdf41478	-0.119179666
36	0x3da956ea	0.08268531
37	0xbe916a25	-0.28401294
38	0xbd86d79e	-0.065840945
39	0xbe33b679	-0.17550077
40	0xbe2b16ef	-0.16707967
41	0x3e15bae3	0.14622073
42	0xbe8789e6	-0.26472396
43	0x3d8078b3	0.062730215
44	0xbdcd3a43	-0.10020878
45	0x3cbe53c2	0.023233298
46	0x3dfa795b	0.12230178
47	0xbeddc4f1	-0.43314317
48	0x3df2e9f3	0.118610285
49	0x3e3b6bff	0.18302916
50	0x3df55b7d	0.11980341
51	0xbd93350c	-0.07187852
52	0x3e550137	0.20801245
53	0x3e03d44f	0.12873958
54	0x3d1a4349	0.037661824
55	0xbe9fd08d	-0.312138
56	0x3e53b6fe	0.20675275
57	0x3d20fcbf	0.039303537
58	0xbd221e82	-0.039579876
59	0x3e9d0ea4	0.30675232
60	0xbe28e66e	-0.16494152
61	0xbeb83736	-0.35979623
62	0x3e29307c	0.16522402
63	0xbecdee5a	-0.4022091
64	0xbebef0b0	-0.37293005
65	0xbe919193	-0.28431377
66	0xbd0e06ea	-0.034674563
67	0x3d4968f0	0.04917234
68	0x3e7b9c23	0.2457128
69	0x3de731c9	0.11288793
70	0xbce6bf84	-0.028167494
71	0x3d7a9fea	0.061187662
72	0x3ef5127e	0.4786567
73	0x3e2df5b0	0.16988254
74	0x3d330024	0.043701306
75	0x3e86f9b1	0.26362374
76	0xbdd723a7	-0.10504847
77	0x3e638b65	0.22221144
78	0xbe10d2fc	-0.14142984
79	0xbe4af76d	-0.19820948
80	0xbd3d082e	-0.04615038
81	0xbeaae77a	-0.33379728
82	0xbe0be28c	-0.1366064
83	0xbe108cf9	-0.14116277
84	0x3d3d7793	0.046256613
85	0x3d8b6f85	0.0680838
86	0xbefaba61	-0.4897032
87	0x3c423480	0.011853337
88	0xbe987e70	-0.29783964
89	0x3e4a1c6b	0.19737403
90	0xbd4a9d8b	-0.04946665
91	0xbe912409	-0.28347805
92	0x3d633a1d	0.055475343
93	0x3d31cc88	0.043407947
94	0xbdd2f638	-0.10300869
95	0x3e55931b	0.20856898
96	0xbd904a7e	-0.07045458
97	0xbd0c361c	-0.03423129
98	0x3bbedd1c	0.005824698
99	0x3e93341f	0.28750703
100	0xbd41f69d	-0.04735433
101	0xbd3d9e3b	-0.04629348
102	0x3ed9da91	0.42549565
103	0x3e7a412c	0.24438924
104	0xbea48259	-0.32130697
105	0x3de322a0	0.110905886
106	0xbd826903	-0.06367686
107	0xbc953f78	-0.01821874
108	0xbdbb63c3	-0.091498874
109	0x3e12820e	0.14307424
110	0xbe909a17	-0.2824256
111	0x3f07b6bd	0.5301321
112	0xbe00f152	-0.12592056
113	0xbe5c6079	-0.21521176
114	0x3dedd7c0	0.11613417
115	0x3de7d9b0	0.113208175
116	0x3e2d4b30	0.16923213
117	0xbe08f8c2	-0.13376144
118	0x3df80a21	0.12111307
119	0x3dc95e6d	0.098324634
120	0xbe4aac68	-0.1979233
121	0xbd862ead	-0.065518714
122	0xbbd66e9f	-0.006543949
123	0x3e401b10	0.18760324
124	0x3e48b7a6	0.19601306
125	0x3d21ec16	0.03953179
126	0x3d918102	0.071046844
127	0xbe563088	-0.2091695
128	0xbe14602f	-0.14489816
129	0xbde7e819	-0.11323566
130	0xbe679702	-0.22616199
131	0xbc580677	-0.013185135
132	0x3d1d4e8b	0.038404983
133	0x3bfb713b	0.0076734102
134	0x3ef13f08	0.47118402
135	0x3b9f4e46	0.004861626
136	0xbeaff4a1	-0.34366325
137	0xbbfa7374	-0.0076431576
138	0xbe1897c4	-0.14901644
139	0x3e93f491	0.28897527
140	0xbe5697be	-0.20956323
141	0xbe573f70	-0.21020293
142	0xbdf2d211	-0.11856473
143	0xbc8334c1	-0.016016366
144	0x3ea9893a	0.33112508
145	0x3c44e053	0.012016374
146	0xbe5555a8	-0.20833457
147	0xbd554ddc	-0.052076206
148	0xbec01210	-0.3751378
149	0x3d235f96	0.03988608
150	0x3c098ce7	0.00839541
151	0xbcd97d15	-0.026548902
152	0x3e890150	0.26758814
153	0xbe0af987	-0.1357175
154	0x3d7f53ab	0.06233565
155	0x3e7b884d	0.24563713
156	0xbe1ff20e	-0.1561968
157	0xbe6bd016	-0.23028597
158	0x3ed1eddb	0.41001782
159	0x3e8d31f2	0.27577168
160	0xbeb8a447	-0.36062834
161	0xbe33fea4	-0.17577606
162	0xbcf94940	-0.030430436
163	0xbe342844	-0.17593485
164	0x3e4b978f	0.19882034
165	0xbdf59cb3	-0.11992779
166	0xbe35b9f1	-0.17746712
167	0xbe0ef388	-0.13960087
168	0x3e4b2f17	0.19842182
169	0xbe2baddd	-0.16765542
170	0x3e857d81	0.26072314
171	0x3d240f30	0.040053546
172	0x3e5f776f	0.21822904
173	0xbb661805	-0.0035109532
174	0xbe16a7a0	-0.14712381
175	0xbe7ed112	-0.24884441
176	0x3dd19fc8	0.10235554
177	0x3e49ba89	0.19700064
178	0xbdf759e9	-0.12077696
179	0xbd1276a7	-0.035757687
180	0xbdef0c97	-0.11672323
181	0xbe176577	-0.147848
182	0xbdea49a7	-0.11439829
183	0x3bb3dbb3	0.0054888367
184	0x3d8d6455	0.069039024
185	0x3d52bac8	0.05144766
186	0xbe61c7ef	-0.22048925
187	0xbdc276d8	-0.09495324
188	0xbd53feb1	-0.051756565
189	0xbd09853e	-0.033574335
190	0xbd3f4c5d	-0.046703685
191	0xbd3b548d	-0.04573493
192	0xbd81f368	-0.06345254
193	0x3e44b3e7	0.19209252
194	0xbe89f633	-0.26945648
195	0xbc3fbc58	-0.0117026195
196	0xbe76d1f6	-0.24103531
197	0x3e3e5992	0.18588856
198	0xbe2baecc	-0.16765898
199	0xbee63e84	-0.4496957
200	0xbda22c45	-0.079186
201	0xbed5b389	-0.41738537
202	0x3d873d2b	0.06603464
203	0x3e0e8a16	0.13919863
204	0x3e276036	0.16345295
205	0x3dadf902	0.0849476
206	0x3e86e95a	0.26349908
207	0x3e092b8c	0.13395518
208	0x3d7adb36	0.061244212
209	0xbe5eab62	-0.21745065
210	0x3eb0fed3	0.34569415
211	0xbd416fba	-0.04722569
212	0x3d18708a	0.0372167
213	0x3e8182e5	0.25295177
214	0xbe617ba4	-0.22019821
215	0xbe84b2df	-0.25917718
216	0xbe99af16	-0.30016392
217	0xbd4c3a23	-0.04986013
218	0x3d9977b7	0.07493537
219	0xbd21ff2a	-0.039549984
220	0xbd9a4ec7	-0.07534557
221	0xbd92c5b2	-0.07166614
222	0xbe9bce9b	-0.30431065
223	0x3e367c84	0.17820936
224	0x3e3ae78b	0.18252389
225	0x3df35af2	0.11882581
226	0x3e1af650	0.15133023
227	0x3e2667ba	0.16250506
228	0xbde06423	-0.109565996
229	0xbed52262	-0.41627795
230	0xbe91121e	-0.28334135
231	0xbd9720c3	-0.07379296
232	0x3e4f0a60	0.20218801
233	0x3e8c1204	0.27357495
234	0x3e8c9670	0.27458525
235	0xbcb527e0	-0.02211374
236	0x3e49ff09	0.19726194
237	0x3d3b1fdd	0.045684684
238	0xbc908424	-0.017641135
239	0xbd00f4ed	-0.03148358
240	0x3e502f48	0.20330536
241	0x3e09a0ba	0.13440219
242	0xbe666c15	-0.22502168
243	0x3d8b33d7	0.06796997
244	0xbe1abaa6	-0.15110263
245	0x3df3d68f	0.11906158
246	0xbe3c0390	-0.18360734
247	0xbec38348	-0.38186097
248	0xbe617e52	-0.22020844
249	0x3e11a00b	0.14221208
250	0x3d839139	0.064241834
251	0xbe00d1a9	-0.12579979
252	0xb98679d4	-0.0002564924
253	0xbd8e25dc	-0.06940815
254	0xbec7015d	-0.38868228
255	0xbd208eff	-0.03919887

fc3.mask f4 [64, 64]
0	0x3f800000	1.0
1	0x3f800000	1.0
2	0x3f800000	1.0
3	0x3f800000	1.0
4	0x3f800000	1.0
5	0x3f800000	1.0
6	0x3f800000	1.0
7	0x3f800000	1.0
8	0x3f800000	1.0
9	0x3f800000	1.0
10	0x3f800000	1.0
11	0x3f800000	1.0
12	0x3f800000	1.0
13	0x3f800000	1.0
14	0x3f800000	1.0
15	0x3f800000	1.0
16	0x3f800000	1.0
17	0x3f800000	1.0
18	0x3f800000	1.0
19	0x3f800000	1.0
20	0x3f800000	1.0
21	0x3f800000	1.0
22	0x3f800000	1.0
23	0x3f800000	1.0
24	0x3f800000	1.0
25	0x3f800000	1.0
26	0x3f800000	1.0
27	0x3f800000	1.0
28	0x3f800000	1.0
29	0x3f800000	1.0
30	0x3f800000	1.0
31	0x3f800000	1.0
32	0x3f800000	1.0
33	0x3f800000	1.0
34	0x3f800000	1.0
35	0x3f800000	1.0
36	0x3f800000	1.0
37	0x3f800000	1.0
38	0x3f800000	1.0
39	0x3f800000	1.0
40	0x3f800000	1.0
41	0x3f800000	1.0
42	0x3f800000	1.0
43	0x3f800000	1.0
44	0x3f800000	1.0
45	0x3f800000	1.0
46	0x3f800000	1.0
47	0x3f800000	1.0
48	0x3f800000	1.0
49	0x3f800000	1.0
50	0x3f800000	1.0
51	0x3f800000	1.0
52	0x3f800000	1.0
53	0x3f800000	1.0
54	0x3f800000	1.0
55	0x3f800000	1.0
56	0x3f800000	1.0
57	0x3f800000	1.0
58	0x3f800000	1.0
59	0x3f800000	1.0
60	0x3f800000	1.0
61	0x3f800000	1.0
62	0x3f800000	1.0
63	0x3f800000	1.0
64	0x3f800000	1.0
65	0x3f800000	1.0
66	0x3f800000	1.0
67	0x3f800000	1.0
68	0x3f800000	1.0
69	0x3f800000	1.0
70	0x3f800000	1.0
71	0x3f800000	1.0
72	0x3f800000	1.0
73	0x3f800000	1.0
74	0x3f800000	1.0
75	0x3f800000	1.0
76	0x3f800000	1.0
77	0x3f800000	1.0
78	0x3f800000	1.0
79	0x3f800000	1.0
80	0x3f800000	1.0
81	0x3f800000	1.0
82	0x3f800000	1.0
83	0x3f800000	1.0
84	0x3f800000	1.0
85	0x3f800000	1.0
86	0x3f800000	1.0
87	0x3f800000	1.0
88	0x3f800000	1.0
89	0x3f800000	1.0
90	0x3f800000	1.0
91	0x3f800000	1.0
92	0x3f800000	1.0
93	0x3f800000	1.0
94	0x3f800000	1.0
95	0x3f800000	1.0
96	0x3f800000	1.0
97	0x3f800000	1.0
98	0x3f800000	1.0
99	0x3f800000	1.0
100	0x3f800000	1.0
101	0x3f800000	1.0
102	0x3f800000	1.0
103	0x3f800000	1.0
104	0x3f800000	1.0
105	0x3f800000	1.0
106	0x3f800000	1.0
107	0x3f800000	1.0
108	0x3f800000	1.0
109	0x3f800000	1.0
110	0x3f800000	1.0
111	0x3f800000	1.0
112	0x3f800000	1.0
113	0x3f800000	1.0
114	0x3f800000	1.0
115	0x3f800000	1.0
116	0x3f800000	1.0
117	0x3f800000	1.0
118	0x3f800000	1.0
119	0x3f800000	1.0
120	0x3f800000	1.0
121	0x3f800000	1.0
122	0x3f800000	1.0
123	0x3f800000	1.0
124	0x3f800000	1.0
125	0x3f800000	1.0
126	0x3f800000	1.0
127	0x3f800000	1.0
128	0x3f800000	1.0
129	0x3f800000	1.0
130	0x3f800000	1.0
131	0x3f800000	1.0
132	0x3f800000	1.0
133	0x3f800000	1.0
134	0x3f800000	1.0
135	0x3f800000	1.0
136	0x3f800000	1.0
137	0x3f800000	1.0
138	0x3f800000	1.0
139	0x3f800000	1.0
140	0x3f800000	1.0
141	0x3f800000	1.0
142	0x3f800000	1.0
143	0x3f800000	1.0
144	0x3f800000	1.0
145	0x3f800000	1.0
146	0x3f800000	1.0
147	0x3f800000	1.0
148	0x3f800000	1.0
149	0x3f800000	1.0
150	0x3f800000	1.0
151	0x3f800000	1.0
152	0x3f800000	1.0
153	0x3f800000	1.0
154	0x3f800000	1.0
155	0x3f800000	1.0
156	0x3f800000	1.0
157	0x3f800000	1.0
158	0x3f800000	1.0
159	0x3f800000	1.0
160	0x3f800000	1.0
161	0x3f800000	1.0
162	0x3f800000	1.0
163	0x3f800000	1.0
164	0x3f800000	1.0
165	0x3f800000	1.0
166	0x3f800000	1.0
167	0x3f800000	1.0
168	0x3f800000	1.0
169	0x3f800000	1.0
170	0x3f800000	1.0
171	0x3f800000	1.0
172	0x3f800000	1.0
173	0x3f800000	1.0
174	0x3f800000	1.0
175	0x3f800000	1.0
176	0x3f800000	1.0
177	0x3f800000	1.0
178	0x3f800000	1.0
179	0x3f800000	1.0
180	0x3f800000	1.0
181	0x3f800000	1.0
182	0x3f800000	1.0
183	0x3f800000	1.0
184	0x3f800000	1.0
185	0x3f800000	1.0
186	0x3f800000	1.0
187	0x3f800000	1.0
188	0x3f800000	1.0
189	0x3f800000	1.0
190	0x3f800000	1.0
191	0x3f800000	1.0
192	0x3f800000	1.0
193	0x3f800000	1.0
194	0x3f800000	1.0
195	0x3f800000	1.0
196	0x3f800000	1.0
197	0x3f800000	1.0
198	0x3f800000	1.0
199	0x3f800000	1.0
200	0x3f800000	1.0
201	0x3f800000	1.0
202	0x3f800000	1.0
203	0x3f800000	1.0
204	0x3f800000	1.0
205	0x3f800000	1.0
206	0x3f800000	1.0
207	0x3f800000	1.0
208	0x3f800000	1.0
209	0x3f800000	1.0
210	0x3f800000	1.0
211	0x3f800000	1.0
212	0x3f800000	1.0
213	0x3f800000	1.0
214	0x3f800000	1.0
215	0x3f800000	1.0
216	0x3f800000	1.0
217	0x3f800000	1.0
218	0x3f800000	1.0
219	0x3f800000	1.0
220	0x3f800000	1.0
221	0x3f800000	1.0
222	0x3f800000	1.0
223	0x3f800000	1.0
224	0x3f800000	1.0
225	0x3f800000	1.0
226	0x3f800000	1.0
227	0x3f800000	1.0
228	0x3f800000	1.0
229	0x3f800000	1.0
230	0x3f800000	1.0
231	0x3f800000	1.0
232	0x3f800000	1.0
233	0x3f800000	1.0
234	0x3f800000	1.0
235	0x3f800000	1.0
236	0x3f800000	1.0
237	0x3f800000	1.0
238	0x3f800000	1.0
239	0x3f800000	1.0
240	0x3f800000	1.0
241	0x3f800000	1.0
242	0x3f800000	1.0
243	0x3f800000	1.0
244	0x3f800000	1.0
245	0x3f800000	1.0
246	0x3f800000	1.0
247	0x3f800000	1.0
248	0x3f800000	1.0
249	0x3f800000	1.0
250	0x3f800000	1.0
251	0x3f800000	1.0
252	0x3f800000	1.0
253	0x3f800000	1.0
254	0x3f800000	1.0
255	0x3f800000	1.0

fcl.weight f4 [10, 64]
0	0xbe6ed514	-0.2332347
1	0xbd9c35cc	-0.076274484
2	0xbeca361c	-0.39494407
3	0x3e80567b	0.2506598
4	0xbd9e0aed	-0.07716928
5	0x3f0cfd22	0.5507375
6	0xbf2fdad5	-0.68693286
7	0xbd467d5a	-0.04845939
8	0x3e9e2f48	0.30895448
9	0xbcc3f5f2	-0.023920987
10	0xbf5cab95	-0.86199313
11	0x3ed431d5	0.4144427
12	0xbe560a8b	-0.2090246
13	0xbe939d43	-0.2883092
14	0xbe6f1c8f	-0.23350738
15	0x3f0b690d	0.5445717
16	0xbf5a64de	-0.8531016
17	0xbebb0a1e	-0.36531156
18	0xbd70ffed	-0.05883782
19	0x3dfcddab	0.12346967
20	0xbb4d54f0	-0.0031331144
21	0xbef671c2	-0.48133665
22	0x3ec7b390	0.39004183
23	0xbe16a5aa	-0.14711633
24	0xbec70c07	-0.38876364
25	0x3d5e15d8	0.05422005
26	0x3ec39a9a	0.3820389
27	0xbe6ba0a1	-0.23010494
28	0xbe8760b9	-0.2644098
29	0xbed6dd05	-0.419655
30	0xbec7fdd6	-0.3906085
31	0xbd54f44f	-0.051990803
32	0x3f0ba748	0.54552126
33	0xbedbfcf7	-0.42966434
34	0xbcf69f83	-0.030105358
35	0xbe83e5a5	-0.25761142
36	0xbf0cf1da	-0.55056536
37	0xbf45a9a9	-0.77212006
38	0xbeca93d2	-0.39565903
39	0x3ef10866	0.4707672
40	0xbe0a07ce	-0.1347954
41	0xbd2861b8	-0.041108817
42	0xbed361f9	-0.41285685
43	0xbee6eba8	-0.45101666
44	0xbe7f4c3b	-0.24931423
45	0xbeb827f6	-0.35967988
46	0xbf0ccfc7	-0.55004543
47	0x3d7990cd	0.06092911
48	0xbf33a59c	-0.70174575
49	0x3d76de4b	0.06027059
50	0x3f014a1a	0.50503695
51	0xbf009a0b	-0.5023505
52	0xbed43627	-0.41447565
53	0xbec5bc50	-0.38620234
54	0xbec6617a	-0.38746244
55	0x3e6f03b8	0.23341262
56	0xbe6623d1	-0.224746
57	0xbec71a4f	-0.3888726
58	0xbea52b58	-0.3225963
59	0xbc8a81be	-0.016907569
60	0xbe8a3164	-0.26990807
61	0xbf333a73	-0.7001106
62	0xbd961b9a	-0.07329483
63	0x3ef04418	0.4692695
64	0xbee04266	-0.43800658
65	0x3ef69092	0.48157173
66	0xbec09e26	-0.37620658
67	0xbf2717d3	-0.6527073
68	0x3f2386b3	0.6387741
69	0xbf0f57a6	-0.55993116
70	0xbe90a734	-0.28252566
71	0x3efc4b5c	0.49276245
72	0x3cf4216b	0.029801091
73	0xbef86a37	-0.48518535
74	0xbde7fabf	-0.11327123
75	0xbf35a363	-0.70952433
76	0xbe6154b1	-0.22004963
77	0xbed8e632	-0.42363125
78	0xbf13f87e	-0.57801044
79	0x3c8dbeee	0.017302956
80	0xbe6e817e	-0.23291585
81	0x3ea57af5	0.3232037
82	0x3decccfc	0.11562535
83	0x3edc872f	0.43071887
84	0xbdd743ca	-0.105109766
85	0x3d18ce5e	0.037306182
86	0x3ed1aea5	0.40953556
87	0xbec35526	-0.381509
88	0x3ded1c45	0.115776576
89	0xbebe3119	-0.37146834
90	0x3d9ddf37	0.077085905
91	0x3ec72646	0.38896388
92	0x3de31c52	0.11089386
93	0x3e269205	0.1626664
94	0x3ec723b5	0.3889443
95	0x3e9e3c7c	0.3090552
96	0xbe3dcbfb	-0.18534844
97	0xbf8fb2b5	-1.1226412
98	0xbee17b49	-0.44039372
99	0xbf317e76	-0.6933359
100	0x3f0eabeb	0.55731076
101	0xbd9e3cc5	-0.077264346
102	0x3ec2a29c	0.38014686
103	0xbf42cac1	-0.7609063
104	0xbec54940	-0.38532448
105	0xbec72682	-0.38896567
106	0xbf02b85f	-0.5106258
107	0xbec4be26	-0.38426322
108	0x3e24e7dd	0.16104074
109	0xbc1acc62	-0.009448143
110	0xbef2b9d5	-0.47407404
111	0xbdb53071	-0.0884713
112	0x3d9ee1ba	0.07757898
113	0xbf035ba1	-0.5131169
114	0xbf011b9f	-0.5043277
115	0xbe1460d1	-0.14490058
116	0xbdda7525	-0.10666875
117	0xbec1bbef	-0.37838694
118	0x3da052a4	0.078282624
119	0xbf3c6ec1	-0.736065
120	0x3e5a498c	0.21317118
121	0xbf334580	-0.70027924
122	0xbdca76a5	-0.09885911
123	0xbdab95a5	-0.08378152
124	0x3e59739a	0.21235505
125	0xbe972ff4	-0.29528773
126	0x3f495965	0.7865203
127	0xbe6dcacd	-0.23221894
128	0xbeb042b5	-0.34425893
129	0x3e36963b	0.17830746
130	0xbdc39d70	-0.09551513
131	0xbd97a038	-0.07403606
132	0xbe706064	-0.2347427
133	0x3e9dc61f	0.30815217
134	0xbe864875	-0.26227155
135	0x3db21731	0.0869583
136	0xbd84edb6	-0.06490652
137	0xbe675a95	-0.22593148
138	0xbe48342a	-0.19551149
139	0x3da0669c	0.07832071
140	0x3ef99ef9	0.487541
141	0x3ec7245c	0.38894928
142	0xbeee70b0	-0.4657035
143	0xbe49a45a	-0.19691601
144	0x3e1eda26	0.15512905
145	0xbf33720a	-0.70095885
146	0xbda7117e	-0.08157633
147	0xbe6ef895	-0.23337014
148	0x3bd92710	0.006626971
149	0xbe86c706	-0.26323718
150	0xbf3308fd	-0.6993559
151	0xbf165cda	-0.5873543
152	0x3eef7c55	0.46774545
153	0x3dfc7187	0.12326341
154	0x3e084d0f	0.13310646
155	0x3ec72786	0.3889734
156	0xbe735d5d	-0.23766084
157	0x3e9f6891	0.31134465
158	0xbefbcee7	-0.4918129
159	0x3ea60de5	0.32432476
160	0xbd917f1b	-0.071043216
161	0xbeda69e8	-0.42658925
162	0x3ec3b715	0.38225618
163	0xbe62a1ae	-0.22131988
164	0xbef08485	-0.46976104
165	0xbee23011	-0.44177297
166	0x3ef6d69f	0.48210618
167	0xbe6ea0b3	-0.2330349
168	0xbe91e451	-0.28494504
169	0xbe0bfda6	-0.13670978
170	0x3e4c31fb	0.19940941
171	0xbec73c5e	-0.38913244
172	0x3ec3b323	0.38222608
173	0x3edaa563	0.42704305
174	0xbf249774	-0.642936
175	0xbec71d2d	-0.38889447
176	0xbf0bcfbf	-0.5461387
177	0x3d9f2c9b	0.0777218
178	0xbf086412	-0.53277695
179	0xbe33389c	-0.17502064
180	0xbe71a9b9	-0.235999
181	0x3f2c5a8d	0.6732567
182	0xbe8f4736	-0.27984017
183	0xbcfa63dd	-0.030565197
184	0xbeb8edca	-0.3611892
185	0x3edeaf2b	0.43493018
186	0xbee0c85a	-0.43902856
187	0x3e1b6451	0.15174986
188	0x3e6ec472	0.23317125
189	0xbe0ec323	-0.13941626
190	0xbf347157	-0.7048544
191	0xbe6edda1	-0.23326732
192	0xbec56d20	-0.38559818
193	0xbec72fe5	-0.38903728
194	0xbe8f8ffb	-0.28039536
195	0x3e7385cb	0.23781507
196	0xbd9f4b07	-0.07777982
197	0xbe73f588	-0.23824131
198	0x3f0b6553	0.54451483
199	0x3ee2e3ce	0.44314426
200	0xbeba75b2	-0.3641792
201	0xbec6bf20	-0.38817692
202	0xbe94dd46	-0.29075068
203	0xbebb48d2	-0.36578995
204	0x3dada6e3	0.08479097
205	0xbd67d611	-0.056600634
206	0xbec6eb36	-0.38851327
207	0xbe980cd3	-0.29697284
208	0xbe8fdca7	-0.28098032
209	0xbe6f08de	-0.23343226
210	0xbe8feb92	-0.28109413
211	0xbec75fb4	-0.38940203
212	0xbd2da7b3	-0.04239626
213	0xbe1f8b70	-0.15580535
214	0xbe6ef564	-0.23335797
215	0xbf0cbdb0	-0.5497694
216	0xbd9f45d1	-0.07776988
217	0x3f1156c8	0.5677304
218	0xbd8fbf4f	-0.07018911
219	0xbe2db311	-0.1696284
220	0x3ecd4216	0.40089482
221	0xbd9f52eb	-0.07779487
222	0x3f11843c	0.568424
223	0xbed99ca2	-0.42502314
224	0xbe8317c5	-0.25604072
225	0xbe9762cf	-0.29567572
226	0xbef0de42	-0.4704457
227	0xbec89ccd	-0.3918213
228	0x3d9e50fb	0.077302895
229	0x3ef77d81	0.4833794
230	0xbe79622d	-0.24353857
231	0xbecdb57f	-0.40177533
232	0x3e7423d2	0.2384179
233	0x3de2db94	0.110770375
234	0xbec5fbbf	-0.3866863
235	0x3edc6230	0.4304366
236	0x3e6ef473	0.23335437
237	0xbe6ef792	-0.23336628
238	0xbeb0e2de	-0.34548086
239	0xbe8dfff4	-0.2773434
240	0xbd99d937	-0.075121336
241	0x3db1f1f2	0.086887255
242	0xbeeac0f4	-0.45850337
243	0x3f0b6740	0.5445442
244	0x3dba9a6d	0.09111486
245	0xbeaad5da	-0.3336628
246	0xbdac121e	-0.08401893
247	0xbed46601	-0.41484073
248	0xbef1d4d2	-0.47232682
249	0x3ec29fb5	0.38012472
250	0xbca44ffe	-0.020057674
251	0x3e615a13	0.22007017
252	0x3d8f1717	0.06986826
253	0xbe6f22ad	-0.23353072
254	0xbeb45bfc	-0.35226429
255	0xbe5c4e7e	-0.21514317

fcl.mask f4 [10, 64]
0	0x3f800000	1.0
1	0x3f800000	1.0
2	0x3f800000	1.0
3	0x3f800000	1.0
4	0x3f800000	1.0
5	0x3f800000	1.0
6	0x3f800000	1.0
7	0x3f800000	1.0
8	0x3f800000	1.0
9	0x3f800000	1.0
10	0x3f800000	1.0
11	0x3f800000	1.0
12	0x3f800000	1.0
13	0x3f800000	1.0
14	0x3f800000	1.0
15	0x3f800000	1.0
16	0x3f800000	1.0
17	0x3f800000	1.0
18	0x3f800000	1.0
19	0x3f800000	1.0
20	0x3f800000	1.0
21	0x3f800000	1.0
22	0x3f800000	1.0
23	0x3f800000	1.0
24	0x3f800000	1.0
25	0x3f800000	1.0
26	0x3f800000	1.0
27	0x3f800000	1.0
28	0x3f800000	1.0
29	0x3f800000	1.0
30	0x3f800000	1.0
31	0x3f800000	1.0
32	0x3f800000	1.0
33	0x3f800000	1.0
34	0x3f800000	1.0
35	0x3f800000	1.0
36	0x3f800000	1.0
37	0x3f800000	1.0
38	0x3f800000	1.0
39	0x3f800000	1.0
40	0x3f800000	1.0
41	0x3f800000	1.0
42	0x3f800000	1.0
43	0x3f800000	1.0
44	0x3f800000	1.0
45	0x3f800000	1.0
46	0x3f800000	1.0
47	0x3f800000	1.0
48	0x3f800000	1.0
49	0x3f800000	1.0
50	0x3f800000	1.0
51	0x3f800000	1.0
52	0x3f800000	1.0
53	0x3f800000	1.0
54	0x3f800000	1.0
55	0x3f800000	1.0
56	0x3f800000	1.0
57	0x3f800000	1.0
58	0x3f800000	1.0
59	0x3f800000	1.0
60	0x3f800000	1.0
61	0x3f800000	1.0
62	0x3f800000	1.0
63	0x3f800000	1.0
64	0x3f800000	1.0
65	0x3f800000	1.0
66	0x3f800000	1.0
67	0x3f800000	1.0
68	0x3f800000	1.0
69	0x3f800000	1.0
70	0x3f800000	1.0
71	0x3f800000	1.0
72	0x3f800000	1.0
73	0x3f800000	1.0
74	0x3f800000	1.0
75	0x3f800000	1.0
76	0x3f800000	1.0
77	0x3f800000	1.0
78	0x3f800000	1.0
79	0x3f800000	1.0
80	0x3f800000	1.0
81	0x3f800000	1.0
82	0x3f800000	1.0
83	0x3f800000	1.0
84	0x3f800000	1.0
85	0x3f800000	1.0
86	0x3f800000	1.0
87	0x3f800000	1.0
88	0x3f800000	1.0
89	0x3f800000	1.0
90	0x3f800000	1.0
91	0x3f800000	1.0
92	0x3f800000	1.0
93	0x3f800000	1.0
94	0x3f800000	1.0
95	0x3f800000	1.0
96	0x3f800000	1.0
97	0x3f800000	1.0
98	0x3f800000	1.0
99	0x3f800000	1.0
100	0x3f800000	1.0
101	0x3f800000	1.0
102	0x3f800000	1.0
103	0x3f800000	1.0
104	0x3f800000	1.0
105	0x3f800000	1.0
106	0x3f800000	1.0
107	0x3f800000	1.0
108	0x3f800000	1.0
109	0x3f800000	1.0
110	0x3f800000	1.0
111	0x3f800000	1.0
112	0x3f800000	1.0
113	0x3f800000	1.0
114	0x3f800000	1.0
115	0x3f800000	1.0
116	0x3f800000	1.0
117	0x3f800000	1.0
118	0x3f800000	1.0
119	0x3f800000	1.0
120	0x3f800000	1.0
121	0x3f800000	1.0
122	0x3f800000	1.0
123	0x3f800000	1.0
124	0x3f800000	1.0
125	0x3f800000	1.0
126	0x3f800000	1.0
127	0x3f800000	1.0
128	0x3f800000	1.0
129	0x3f800000	1.0
130	0x3f800000	1.0
131	0x3f800000	1.0
132	0x3f800000	1.0
133	0x3f800000	1.0
134	0x3f800000	1.0
135	0x3f800000	1.0
136	0x3f800000	1.0
137	0x3f800000	1.0
138	0x3f800000	1.0
139	0x3f800000	1.0
140	0x3f800000	1.0
141	0x3f800000	1.0
142	0x3f800000	1.0
143	0x3f800000	1.0
144	0x3f800000	1.0
145	0x3f800000	1.0
146	0x3f800000	1.0
147	0x3f800000	1.0
148	0x3f800000	1.0
149	0x3f800000	1.0
150	0x3f800000	1.0
151	0x3f800000	1.0
152	0x3f800000	1.0
153	0x3f800000	1.0
154	0x3f800000	1.0
155	0x3f800000	1.0
156	0x3f800000	1.0
157	0x3f800000	1.0
158	0x3f800000	1.0
159	0x3f800000	1.0
160	0x3f800000	1.0
161	0x3f800000	1.0
162	0x3f800000	1.0
163	0x3f800000	1.0
164	0x3f800000	1.0
165	0x3f800000	1.0
166	0x3f800000	1.0
167	0x3f800000	1.0
168	0x3f800000	1.0
169	0x3f800000	1.0
170	0x3f800000	1.0
171	0x3f800000	1.0
172	0x3f800000	1.0
173	0x3f800000	1.0
174	0x3f800000	1.0
175	0x3f800000	1.0
176	0x3f800000	1.0
177	0x3f800000	1.0
178	0x3f800000	1.0
179	0x3f800000	1.0
180	0x3f800000	1.0
181	0x3f800000	1.0
182	0x3f800000	1.0
183	0x3f800000	1.0
184	0x3f800000	1.0
185	0x3f800000	1.0
186	0x3f800000	1.0
187	0x3f800000	1.0
188	0x3f800000	1.0
189	0x3f800000	1.0
190	0x3f800000	1.0
191	0x3f800000	1.0
192	0x3f800000	1.0
193	0x3f800000	1.0
194	0x3f800000	1.0
195	0x3f800000	1.0
196	0x3f800000	1.0
197	0x3f800000	1.0
198	0x3f800000	1.0
199	0x3f800000	1.0
200	0x3f800000	1.0
201	0x3f800000	1.0
202	0x3f800000	1.0
203	0x3f800000	1.0
204	0x3f800000	1.0
205	0x3f800000	1.0
206	0x3f800000	1.0
207	0x3f800000	1.0
208	0x3f800000	1.0
209	0x3f800000	1.0
210	0x3f800000	1.0
211	0x3f800000	1.0
212	0x3f800000	1.0
213	0x3f800000	1.0
214	0x3f800000	1.0
215	0x3f800000	1.0
216	0x3f800000	1.0
217	0x3f800000	1.0
218	0x3f800000	1.0
219	0x3f800000	1.0
220	0x3f800000	1.0
221	0x3f800000	1.0
222	0x3f800000	1.0
223	0x3f800000	1.0
224	0x3f800000	1.0
225	0x3f800000	1.0
226	0x3f800000	1.0
227	0x3f800000	1.0
228	0x3f800000	1.0
229	0x3f800000	1.0
230	0x3f800000	1.0
231	0x3f800000	1.0
232	0x3f800000	1.0
233	0x3f800000	1.0
234	0x3f800000	1.0
235	0x3f800000	1.0
236	0x3f800000	1.0
237	0x3f800000	1.0
238	0x3f800000	1.0
239	0x3f800000	1.0
240	0x3f800000	1.0
241	0x3f800000	1.0
242	0x3f800000	1.0
243	0x3f800000	1.0
244	0x3f800000	1.0
245	0x3f800000	1.0
246	0x3f800000	1.0
247	0x3f800000	1.0
248	0x3f800000	1.0
249	0x3f800000	1.0
250	0x3f800000	1.0
251	0x3f800000	1.0
252	0x3f800000	1.0
253	0x3f800000	1.0
254	0x3f800000	1.0
255	0x3f800000	1.0
